experiments/CartPole-v1_REINFORCE/dqn.pth (torch, 6183 bytes, 8 tensors)

fc1.weight f4 [32, 4]
000000 54 4d 79 bf af f3 8e 3f 8f 75 cb 3e 42 38 40 3f
       -0.9738362 1.1168116 0.39738128 0.7508584
000010 90 a8 bc 3e 7a 20 99 bf 49 06 c3 be 23 b0 48 bf
       0.36847353 -1.1963036 -0.38090733 -0.78393763
000020 7c 30 b2 3e 1d 32 49 3f c7 0c 13 3f 87 51 92 bf
       0.34802616 0.7859209 0.5744137 -1.143113
000030 ed a5 6d bf 35 df 92 3f 87 71 21 3f 96 c7 19 3f
       -0.9283131 1.1474367 0.63063854 0.6007017
000040 ea 74 4a bf 65 80 8f 3f 88 76 71 3f 5b 39 8d bf
       -0.79084647 1.1211058 0.9432149 -1.1033128
000050 36 5d 34 be 09 ae b8 3e 53 52 a5 3f 13 b0 9f 3f
       -0.17613682 0.36070278 1.2915748 1.2475609
000060 bc 92 fb 3d 47 a8 3e 3f 62 98 ff be c7 48 e2 3e
       0.12283847 0.7447552 -0.49920946 0.4419615
000070 38 d8 34 3e 02 c5 01 3f e2 73 98 be bf b1 d8 bd
       0.17660606 0.50691235 -0.29775912 -0.105807774
000080 28 8e 31 be ce 1e 07 3e a9 11 cf 3e 61 9f 1c 3f
       -0.17339385 0.13195345 0.4044316 0.6118069
000090 78 2e 72 3e 5c 91 5e bf e5 b2 b0 be 74 49 2d 3f
       0.23650539 -0.8694055 -0.34511486 0.67690206
0000a0 59 9c 01 bf 8e 11 35 bf 24 77 7e bd 75 8e 81 3e
       -0.5062919 -0.7072991 -0.06212534 0.25304
0000b0 41 d2 f7 be e3 b2 d4 be af 81 c9 3e c3 c8 1b 3d
       -0.48402599 -0.4154273 0.39356753 0.03803326
0000c0 f8 8e 6e 3f 0e 01 74 bf 75 65 9f 3e a9 e3 90 3f
       0.93186903 -0.9531411 0.31132093 1.1319476
0000d0 ad 46 5f bf 98 0f 88 3e cf 67 4b 3f 13 b6 4b be
       -0.8721722 0.26574397 0.79455274 -0.19893675
0000e0 7e 5f 11 3f 72 b4 9c 3d aa 56 8d bf 90 f0 92 bf
       0.56786335 0.07651605 -1.1042073 -1.1479664
0000f0 fa 25 13 3f 6f 7c 9b 3f 01 6e 38 3f 29 18 73 3d
       0.5747982 1.2147349 0.7204285 0.059349213
000100 92 91 2c 3f dd 12 2d 3f f4 5e ec 3c 5e ee e5 be
       0.6740962 0.6760691 0.02885387 -0.44908422
000110 93 c7 68 bf 8b da 04 3f e6 08 01 3f 05 bc 2a be
       -0.90929526 0.5189597 0.504042 -0.16673286
000120 43 03 9a 3e e8 bc f2 be ef 28 69 3f d3 63 36 bf
       0.30080613 -0.4740975 0.91078085 -0.7124607
000130 9b 1d a0 be 70 3b 83 be 06 8e ce be 09 1f 7b 3e
       -0.31272587 -0.25631285 -0.4034273 0.24523558
000140 7f 1e f4 3d 09 1b 68 bf ac 41 78 3c fc e1 7b 3f
       0.11919879 -0.9066625 0.015152376 0.983917
000150 36 09 26 bf 58 68 d5 bd 5b 8f ae be 0f ab e9 be
       -0.64857805 -0.104202926 -0.34093747 -0.4563832
000160 71 61 92 3f 1c 0a cc be c6 d5 37 be c4 a3 82 bf
       1.1435987 -0.39851463 -0.17952642 -1.0206227
000170 e1 8e 74 bf 35 5e 29 3e 06 4d 57 3f a0 d3 16 3f
       -0.95530516 0.16539843 0.84101903 0.58916664
000180 40 70 d1 be cd 38 34 bf e7 41 3f bf e6 7e a8 3c
       -0.40905952 -0.7039917 -0.74709934 0.020568322
000190 8b 6b 91 3f c0 55 0e bf 77 89 2f be 95 93 8d 3f
       1.1360945 -0.55599594 -0.17142282 1.1060663
0001a0 c9 bd 34 3f 87 78 94 3d f1 82 c3 3d 12 50 ae be
       0.7060209 0.07249551 0.095464595 -0.34045464
0001b0 c6 38 f9 bd a0 40 47 3f 4f 37 ce be 8f 0c 41 3f
       -0.12169032 0.77832985 -0.40276572 0.7540979
0001c0 35 86 13 3e 7b 98 30 bf 68 b1 4b bf 15 04 90 bf
       0.14406665 -0.68982667 -0.79567575 -1.1251246
0001d0 73 a5 8c be df 1a 5d 3f 6a b2 2e 3f c5 aa cc bb
       -0.27469978 0.8636913 0.6824099 -0.0062459433
0001e0 f0 56 95 3e 1c 28 99 bf 69 4f 4e bf 26 84 1c 3f
       0.2916789 -1.1965365 -0.8058992 0.6113914
0001f0 21 bf 46 bf 8d 75 4c bf ad 63 2d 3f 5f 6c 0c 3f
       -0.7763539 -0.7986687 0.6773022 0.5485286

fc1.bias f4 [32]
000000 42 64 df be 15 e0 22 be 75 b0 a1 be 03 01 07 3e
       -0.43631178 -0.15905793 -0.3157994 0.1318398
000010 2f 3a 1f 3e 0c 5c 41 3e 95 24 f3 be 9a d0 e7 be
       0.15549539 0.1888277 -0.47488847 -0.45276338
000020 9c 56 f0 3d 76 cb bf be 8b 4e db be 7e d7 1e be
       0.117352694 -0.37459916 -0.4283336 -0.15511891
000030 f8 5d c7 be f4 cc 66 be f1 3e 9b 3c f5 ec 0e be
       -0.3893888 -0.22539121 0.018950911 -0.1395758
000040 ac ef 34 be 39 49 e8 3e c8 7d 23 3e aa 02 ed 3e
       -0.17669553 0.45368364 0.1596595 0.46291095
000050 e9 86 06 bf 24 bf 44 be f5 13 0a 3e 87 9b b0 3e
       -0.52549607 -0.1921354 0.13484176 0.34493658
000060 7d da d8 be 43 7e 2b be 3e b1 56 3e 9a 73 bb be
       -0.42354193 -0.16747384 0.2096605 -0.36611634
000070 b8 22 d3 3e 78 87 02 3f 69 a7 a6 be f3 da 5c 3e
       0.41237426 0.5098796 -0.325496 0.21567897

fc2.weight f4 [16, 32]
000000 cd be 34 3e 49 b0 25 3e 6b e9 59 3d 3a 7e d8 3e
       0.1765091 0.16180529 0.05320112 0.42283803
000010 73 c2 21 be 03 df 23 3e ef 5e 8f 3e 48 c0 40 bd
       -0.15796833 0.16003041 0.28002116 -0.047058374
000020 07 ac ce be 38 73 f7 be f6 be 4d 3e 53 89 a8 3c
       -0.4036562 -0.48330092 0.20092377 0.020573294
000030 2c 49 25 be 38 a0 3d be 51 f5 8d 3e 1d ad 46 bc
       -0.16141194 -0.1851815 0.27726224 -0.012126234
000040 28 2a d8 be 12 fa fb 3d ad 86 05 be 27 c9 2c be
       -0.42219663 0.123035565 -0.13039656 -0.16873609
000050 ec 47 dc be db b6 5e bb f5 b2 33 bd e3 78 93 be
       -0.43023622 -0.0033983502 -0.04387184 -0.28803167
000060 9c 13 6b 3e 7b 60 b9 be 91 d5 11 be 59 bb 09 3d
       0.22956699 -0.3620642 -0.14241625 0.033625934
000070 1d 9b 34 3d 7f c2 e1 be a1 e2 8e be e4 84 94 3e
       0.04409324 -0.440937 -0.2790728 0.29007638
000080 a8 51 c5 bd 80 8a 20 bc 1d 1d 77 3d 27 8a 2e be
       -0.09634715 -0.009798646 0.0603305 -0.17044888
000090 4e bf d9 3d 47 8f a6 3e d6 85 c9 3e 16 12 7a 3e
       0.106321916 0.32531187 0.3935992 0.24420962
0000a0 9c ff f5 3e 0e 0b a0 3d 16 ae a2 3e a4 58 a6 bc
       0.48046577 0.078146085 0.31773442 -0.020305939
0000b0 20 b4 56 3d 40 96 fd bd 4c c3 48 3e d1 37 dc 3e
       0.052417874 -0.123821735 0.1960575 0.43011335
0000c0 aa 76 27 be e0 d1 89 be 26 d0 e5 3c 1e a0 76 3e
       -0.1635386 -0.26917934 0.028053354 0.24084517
0000d0 de f2 10 3e e4 de 8d be d3 4e 33 3c c5 75 e3 3e
       0.14155146 -0.27709115 0.010944086 0.4442579
0000e0 e5 18 f9 3d 6d f8 4f bd 05 0b 7a 3e df ca 8e be
       0.121629514 -0.050774027 0.24418266 -0.27889153
0000f0 3b 94 31 3e 84 5a b1 bd b8 6c 83 be c4 2a ab 3e
       0.17341702 -0.086598426 -0.25668883 0.33431065
000100 3a 7f 02 bd 10 8a 1a be 6d 47 23 bd dd a5 f6 be
       -0.031859614 -0.15091729 -0.03986304 -0.4817342
000110 89 01 bd 3d b1 b8 d9 bc e5 cb 9a bd d7 20 dc be
       0.092288084 -0.026577326 -0.07558421 -0.42993805
000120 ba 6a fa be f0 36 0c 3e e6 cb bc 3c c3 f1 28 3e
       -0.4890955 0.13692832 0.023046445 0.16498475
000130 d7 e0 b7 3d eb aa 60 3e 36 d9 d8 bd 37 19 05 3e
       0.08978432 0.219402 -0.10588305 0.129979
000140 7c 99 9b 3e ac 63 8e be 16 16 ba be 41 ea a0 3e
       0.30390537 -0.2781042 -0.36344975 0.31428722
000150 48 2d b9 3e ea 24 21 be f9 b0 33 3e 6a fd 14 3e
       0.3616736 -0.15736738 0.17547978 0.14549795
000160 27 a6 a5 3e 26 27 a3 3e 08 4c 78 3d 58 61 c0 3d
       0.32353327 0.31865805 0.060619384 0.09393567
000170 a9 e0 b6 be 72 9f 8e 3e c0 1f 0f 3e 87 83 b7 3b
       -0.35718277 0.27856022 0.13976955 0.005600396
000180 fe f0 fa bd 77 b5 ab be d7 8e 1f be 8e a9 86 be
       -0.12252997 -0.33536884 -0.15581833 -0.26301235
000190 d6 83 40 be c6 29 fb 3e 88 f8 15 3e a1 37 cb 3d
       -0.18800291 0.49055308 0.14645588 0.0992272
0001a0 93 fa 85 be ee 9d 5f be d3 aa 3b be 5e 36 d5 be
       -0.26167735 -0.21837589 -0.18326883 -0.4164304
0001b0 ea b2 4b 3c 00 7f a3 be 32 f0 14 3d 1d ea 9e 3e
       0.012432793 -0.3193283 0.03636188 0.3103799
0001c0 68 d6 f1 3e 91 b2 80 3d 32 06 8b be 8f 39 a6 3e
       0.4723389 0.06284059 -0.27153164 0.3246579
0001d0 41 52 67 3d 3a f9 8c be 99 d8 16 be f2 23 0c 3f
       0.056474928 -0.27533895 -0.14731063 0.5474235
0001e0 c7 b7 15 be 18 04 b6 3e 61 ba 8f be 78 9b 3c 3e
       -0.14620887 0.35549998 -0.28071883 0.18418682
0001f0 fe e7 e3 be 69 85 24 3d 5b 01 93 3e 86 3f 4b 3e
       -0.44512933 0.040166292 0.28711972 0.19848451
000200 fa ae 09 be 6f d6 23 3b e7 33 18 bd 6e a3 b2 3e
       -0.13445655 0.0024999639 -0.037158873 0.34890312
000210 ff cd a6 bd 01 f0 5b 3c 27 5f c8 be 06 b6 0e be
       -0.081447594 0.013423921 -0.39135095 -0.13936624
000220 e8 2b dd 3e 1d d2 42 3e 17 d7 8b 3e fb ae 38 be
       0.4319756 0.19025464 0.27312538 -0.180355
000230 3b d7 c5 bc 3c 94 8a be 65 1c 90 3e 91 23 38 be
       -0.024150481 -0.2706622 0.28146663 -0.17982318
000240 93 6f be 3e ce 82 ab 3e c1 53 96 bc 3d af b7 3e
       0.371945 0.33498234 -0.018350484 0.35875884
000250 73 a9 c7 be 50 7a 61 3e 15 9a d5 3d 3b 4c aa 3e
       -0.38996467 0.22019315 0.104297794 0.33261284
000260 b4 1d a2 3e cc ea 2c be 07 e2 11 bd 2f 15 60 bd
       0.31663287 -0.16886443 -0.035615947 -0.054707702
000270 83 40 68 3e fc da c3 3e a0 e7 a6 3e c6 ec 04 3c
       0.2268086 0.3825301 0.3259859 0.008113092
000280 42 26 f9 3d e2 44 13 3d de 47 a0 3e 4e f6 4c 3e
       0.121655 0.035954364 0.3130483 0.20015833
000290 ec d2 aa be 3e 80 2f 3e 7d 7f 98 be a5 51 50 be
       -0.33364046 0.17138764 -0.29784766 -0.20343645
0002a0 af 97 d8 bd 8e c6 bf be 09 71 3e 3c d2 e0 99 3e
       -0.10575806 -0.37456173 0.011623629 0.30054337
0002b0 3d e4 08 3d 94 5b 74 be b1 71 46 bd a9 0e ca 3e
       0.03342079 -0.2386306 -0.04844827 0.3946431
0002c0 b6 9e 2e be bc 8a e5 3e f8 03 d8 be 2b ab b5 3e
       -0.17052731 0.44832408 -0.42190528 0.35482153
0002d0 ad cb ec bc 03 5f 1b 3d 33 cd de be 94 a0 08 3e
       -0.028905714 0.037932407 -0.4351593 0.13342506
0002e0 f3 84 7c be 23 fd 4e 3d d5 02 de bc 0d 47 c9 3e
       -0.24660091 0.05053438 -0.02710096 0.3931202
0002f0 77 8b 26 be d8 57 83 3e a1 6f 77 3e c6 c1 72 bd
       -0.16264139 0.25652957 0.24163677 -0.059266828
000300 e4 ca ab 3e 19 45 5c 3e c8 8c a9 3b 65 e7 b3 be
       0.3355323 0.21510734 0.005174253 -0.35137478
000310 21 dc 55 3e 77 b8 a6 be ec 39 73 be d6 9b 43 3e
       0.20884754 -0.3256261 -0.23752564 0.19102415
000320 eb 49 88 be 9d be 98 be c9 e9 5b bc 3c f8 1d 3d
       -0.26618895 -0.29832926 -0.013422438 0.038566813
000330 06 aa a9 3d 11 a2 ab bd a9 e4 a1 be 31 de c0 bd
       0.082843825 -0.08380521 -0.31619766 -0.0941738
000340 30 98 69 bb 1c 42 95 be ec 0e e9 3e 30 1d ea 3e
       -0.003564369 -0.29152 0.45519197 0.45725393
000350 df d2 da 3d 26 f1 37 3e c7 89 ed 3d 76 92 2e bc
       0.10684752 0.17963085 0.115985446 -0.010655036
000360 fd 37 3a 3e da e8 6d 3d 59 f2 b2 3e c3 61 7e be
       0.1818542 0.058083393 0.34950522 -0.2484198
000370 e2 56 73 bc 83 5c d7 3d 80 bc 98 3e 57 bb db 3d
       -0.014852257 0.10515692 0.29831314 0.107290916
000380 b7 32 18 3e 8a 70 1f be ad 3f c6 be 6e 48 0f be
       0.14863096 -0.15570274 -0.38720456 -0.13992473
000390 1d 69 ca be d8 e8 8d be 29 ee e6 3e 21 64 c7 bd
       -0.3953332 -0.27716708 0.45103577 -0.09735895
0003a0 1e 5d bf bd c2 d8 66 be 8b f2 9e 3e cf 91 da 3c
       -0.093439326 -0.22543624 0.3104442 0.026680855
0003b0 00 c0 41 3e 68 77 76 3e 85 e1 40 3e 6e c3 c3 3e
       0.18920898 0.24068987 0.18836029 0.3823504
0003c0 ea c2 89 3e d8 bb b3 3e 42 5c 77 be 25 6b e0 be
       0.2690652 0.3510425 -0.24156287 -0.43831745
0003d0 84 df 49 3d 95 e7 1f be 5f ea 6c be 59 e5 95 3e
       0.049285427 -0.15615685 -0.2313628 0.2927654
0003e0 57 9c 88 3d b7 98 a1 be 60 d9 8d be 6c 27 67 be
       0.066704445 -0.31561825 -0.27704906 -0.22573632
0003f0 5f 18 1c 3e dc 27 c7 3e d1 f6 3c 3e 78 e9 c8 3e
       0.15243672 0.38897598 0.18453528 0.39240623

fc2.bias f4 [16]
000000 80 75 87 3d 87 64 4f bd b3 96 e2 bd ea 0a 84 3e
       0.06614208 -0.05063298 -0.110639 0.25789577
000010 91 58 72 bc f0 80 3c 3d 1d 56 ed 3d 88 b1 83 3d
       -0.014791624 0.046021402 0.115886904 0.06430346
000020 89 17 10 3e ed 5b fc bd 9e b2 56 3e 5c 55 3f 3d
       0.14071478 -0.12322221 0.20966575 0.046712264
000030 12 c5 64 bd c0 90 49 3c ec be 81 be 19 c9 16 bd
       -0.055852003 0.0123025775 -0.25340974 -0.036812875

fc3.weight f4 [16, 16]
000000 64 80 0b bf 93 23 1b bf 90 e8 85 bd 60 08 f3 3c
       -0.54492784 -0.60601157 -0.065384984 0.02966708
000010 da ee 5e be 1a 36 63 be dc 11 54 3e 90 87 0c 3e
       -0.21770802 -0.22188607 0.20709938 0.13723588
000020 54 7a c3 be 06 00 cc 3e f7 6c 16 bf 26 24 ef be
       -0.38179266 0.39843768 -0.5876002 -0.46707267
000030 d0 85 06 3d a8 fb bc be 2e 91 f6 3e 50 3a 34 bd
       0.032842457 -0.36910748 0.48157638 -0.044000924
000040 f9 1c b3 bd d5 c2 ee be ab d5 99 be 28 8b bc 3e
       -0.087457605 -0.4663302 -0.30045828 0.36824918
000050 f1 dd 3c 3e c8 57 d8 3e 42 6b 0c 3d 26 49 a1 bc
       0.18444039 0.42254472 0.034281977 -0.0196882
000060 12 b0 24 3e 64 ad 0a 3e 80 93 79 be 76 28 08 3f
       0.1608279 0.13542706 -0.24372673 0.5318674
000070 b6 9c 08 bf fa b2 4d be 2b ae c9 3c 28 29 38 bd
       -0.5336412 -0.20087805 0.024619183 -0.044961125
000080 99 b2 20 bf a2 6a 6a 3e 00 f1 c2 be 01 7b 31 be
       -0.6277252 0.2289224 -0.38074493 -0.17332079
000090 08 7c d0 3e f5 16 34 3d 7c 45 06 bf 4b 51 84 be
       0.40719628 0.043967206 -0.52449775 -0.25843272
0000a0 18 3d 12 3e e2 4e a2 be f5 ef 03 be 7e 74 12 3f
       0.14281118 -0.31700808 -0.12884505 0.57209
0000b0 8b 20 85 be 88 7f 55 3e c6 c9 5e 3e 34 00 f1 3e
       -0.2600139 0.2084943 0.21756658 0.47070467
0000c0 ac 28 82 3e b8 c7 41 be cc b2 de be 21 c0 12 bf
       0.25421655 -0.18923843 -0.43495786 -0.57324415
0000d0 d4 a2 2c 3e dc 9b 24 3e ba f7 ca bd d1 4b f4 bd
       0.16858989 0.1607508 -0.09910531 -0.11928523
0000e0 b5 ea 02 3f c1 78 0f bf 97 c3 98 be f5 ef 0a bf
       0.51139385 -0.5604363 -0.29836723 -0.54272395
0000f0 09 8e 7a 3e 5c c1 5b 3e 20 02 85 3e 83 b6 fc be
       0.24468245 0.2146048 0.25978184 -0.49357995
000100 33 6b 6c be 24 dc 69 be 9f f9 c0 3e d4 36 bf be
       -0.23087768 -0.22837883 0.37690446 -0.37346518
000110 dc 74 7d bb 6f 54 fb be 09 70 0d 3e 9b 29 3c be
       -0.003867439 -0.49087855 0.1381227 -0.18375246
000120 45 0e e0 be 07 55 5c 3e a2 e2 fe 3e 09 2c 09 3f
       -0.43760887 0.2151681 0.49782282 0.5358282
000130 3c b1 7e 3d 90 63 7d 3d 75 5e cd 3d 84 e3 1c 3f
       0.062180743 0.06186253 0.10027782 0.6128466
000140 11 7b 93 be 39 7c 07 bf 70 b6 e4 3e 3e 7d a5 be
       -0.2880483 -0.52923924 0.4467044 -0.32322115
000150 e6 f7 03 3f f8 19 e6 3e e1 9c 8f 3e bc df a8 be
       0.5155014 0.44941688 0.28049377 -0.32983196
000160 4d 4a f1 be b6 7a 94 3e 6f ac fe be 0f 5c 37 be
       -0.47127 0.2899987 -0.4974093 -0.17906211
000170 e7 8c e8 3c b6 45 9e be e9 24 dc 3e 49 81 13 3f
       0.0283875 -0.3091256 0.4299691 0.5761915
000180 01 2c 94 be f9 d8 07 3f 6a 0b d0 3e 8a 21 41 3f
       -0.28939822 0.5306545 0.40633708 0.754418
000190 06 c9 4d bc 31 fd 10 3f 34 f3 2c bf 0f 0b 40 be
       -0.012560135 0.5663634 -0.675586 -0.18754219
0001a0 df b5 ac bc 53 5f 16 bf d6 77 49 3d 4e 6a aa 3e
       -0.021082817 -0.58739203 0.04918655 0.3328423
0001b0 d4 0a 43 be a0 d9 d2 bc bf 0e f9 be d0 5f 01 bf
       -0.190471 -0.025738537 -0.48644063 -0.50536823
0001c0 40 c8 f3 3e 52 cf 12 3f f4 40 c8 be dd a8 d4 bc
       0.47613716 0.57347596 -0.39112055 -0.025959427
0001d0 3b ba 9f 3e 72 67 88 be 5e fa 35 bf 36 b8 33 3e
       0.3119677 -0.26641423 -0.71085155 0.1755074
0001e0 ea ef 03 bf 65 26 07 be 2c 97 56 3d 5b af a4 3e
       -0.51537955 -0.1319824 0.052390262 0.32165036
0001f0 e7 9f 63 be 40 3c e5 bd a8 b0 6a be 39 a5 03 3f
       -0.22228967 -0.111931324 -0.22918952 0.51423985
000200 0a 74 76 be ff b7 08 3f 07 ad 49 bc 1a 1b 1b 3f
       -0.24067703 0.53405756 -0.012309319 0.6058823
000210 e6 d7 95 3d 24 49 97 3e 46 04 95 bd a5 7f 01 bf
       0.0731657 0.2954799 -0.07276206 -0.50585395
000220 d7 79 de be e8 b5 4b be 09 6a 0c bf 84 fc 0e be
       -0.4345233 -0.1989361 -0.54849297 -0.13963515
000230 26 f6 01 be cd 31 1b 3f bb ac 60 be 8c 58 e7 be
       -0.12691554 0.60622865 -0.21940891 -0.45184743
000240 8a 61 2d 3e eb 59 a7 3c ba 68 bb 3e 59 1a e2 3e
       0.1693174 0.020428618 0.36603338 0.44160727
000250 a9 1d 12 3e 89 35 eb 3e 1a 43 38 3d 7b 54 88 3e
       0.14269127 0.45939282 0.044985868 0.26626953
000260 3a c6 e3 bb 0d 2d c3 3e 08 a5 e7 bb 88 ba dc bd
       -0.0069511207 0.3812031 -0.007069234 -0.107777655
000270 89 b3 d0 3d 38 59 cb be 50 da ba be 79 af 08 3d
       0.101904936 -0.39716506 -0.36494684 0.03337047
000280 82 48 f0 be 80 28 ab bd ea 24 31 be aa 1f 86 3e
       -0.4693032 -0.08357334 -0.17299238 0.26196033
000290 1d 65 9c be 45 ef b2 be 20 ee d7 bd 5a 32 82 3e
       -0.30545893 -0.34948173 -0.105434656 0.2542904
0002a0 40 34 a6 bc e8 af 48 be 3b 4b 1b bf d8 51 49 be
       -0.020288587 -0.19598353 -0.6066167 -0.19660127
0002b0 54 cb f4 be fe da dc be e4 4c 68 3e 50 13 a8 3d
       -0.47811377 -0.43135828 0.22685581 0.082068086
0002c0 1e c3 f8 3e 81 1a c9 be b3 3c 94 3e 78 35 26 be
       0.48586363 -0.39278033 0.2895256 -0.16231334
0002d0 1a 80 25 3f 93 66 32 be d4 75 0f 3e 5a 58 0d bf
       0.6464859 -0.17421941 0.14009792 -0.5521294
0002e0 8c fb 27 3f dc 2d fc 3d 80 f7 9b 3e 32 a7 0b 3f
       0.65618205 0.123134345 0.30462265 0.54551995
0002f0 0c 29 df be 00 66 d9 bc c3 13 99 3d c7 03 fe be
       -0.43586004 -0.026537895 0.074744724 -0.49612257
000300 ba 08 2b be f4 a0 eb 3e 02 0f cc 3e 66 a4 25 bd
       -0.16702548 0.46021235 0.398552 -0.040439986
000310 93 45 60 3d bf 8b d0 3e 76 8f 2b 3f 0f f7 51 bc
       0.05475385 0.40731618 0.6701578 -0.012815251
000320 0d 26 03 3f 88 13 ed bd 5d 5e 2d 3f a1 e8 c5 be
       0.51229936 -0.11575991 0.6772211 -0.38654044
000330 13 5c 26 3e 5a 26 d1 3e 73 3e 52 3e f4 8a 92 bc
       0.16246061 0.40849572 0.20531635 -0.017888524
000340 40 18 2f bc c0 7b d2 bd cc c7 25 3e 7b 39 b6 be
       -0.010686934 -0.1027751 0.16189498 -0.3559073
000350 56 5d f3 be 8c 46 55 3e 35 90 12 3f da a9 5e be
       -0.47532147 0.20827693 0.5725129 -0.2174448
000360 00 9d 61 3e f8 ee f8 be ce 08 f9 be 1e 72 dc 3e
       0.22032547 -0.4861982 -0.4863953 0.43055815
000370 80 77 4d 3c b0 70 df 3d 7a 28 d2 3e f2 cb ff 3e
       0.012540698 0.10910165 0.41046506 0.49960285
000380 8e 2c c4 3e 85 c5 93 3e c3 a3 e8 bd e9 29 e5 3e
       0.38315243 0.28861633 -0.1135936 0.44758537
000390 fa b9 a5 3e 8a fc 1d bd 73 c2 fa be da 57 fa 3d
       0.3236845 -0.03857092 -0.48976478 0.122237876
0003a0 bd 05 5b be a9 32 d3 be 2c c2 d1 3d 3b bf 9e bd
       -0.21388908 -0.41249588 0.102421135 -0.07751318
0003b0 7e 3c 6b be 7c 1a 8f 3e a5 1b 75 3e dd dd 0a bf
       -0.22972295 0.27949893 0.23936327 -0.54244787
0003c0 7e 04 33 bd b0 93 af 3e 10 e0 d3 be 10 91 36 3e
       -0.043705456 0.34292364 -0.41381884 0.17828774
0003d0 93 76 c8 be fa ca 9a be ee 3f b7 be 37 46 5b bc
       -0.39152965 -0.30232984 -0.35790962 -0.01338344
0003e0 f0 8a c6 3c 65 7d 48 be 85 7b 44 3e 71 9f 1b bf
       0.024236172 -0.19579084 0.19187744 -0.60790163
0003f0 ac 6b 84 3e e8 2b a4 be 80 04 3c 3d af c2 88 3e
       0.25863397 -0.32064748 0.04590273 0.26711032

fc3.bias f4 [16]
000000 e0 e2 73 3e 86 f8 07 3e 77 e7 85 bd e2 bf e3 39
       0.23817015 0.13278398 -0.06538289 0.00043439778
000010 61 0d 46 bd 4c 9a a9 bd 6f b8 86 3d df 86 72 bd
       -0.048352603 -0.08281383 0.06578147 -0.059210654
000020 03 6c 4b 3e 80 7c 7e be 44 0d a9 3d 77 f6 98 3c
       0.19865422 -0.2485218 0.08254483 0.018672211
000030 71 c8 bd bc f4 15 14 be 2d 88 2f be 15 4f 38 be
       -0.023166867 -0.144615 -0.1714179 -0.17998917

fc4.weight f4 [2, 16]
000000 b8 60 f3 bd a7 b5 20 be ed 03 60 be 17 17 52 3e
       -0.11883682 -0.15694295 -0.21876498 0.2051662
000010 3b 34 95 bd 44 9b 7d 3c 5b a4 ac be d9 f1 24 be
       -0.07285353 0.015478913 -0.33719143 -0.16107883
000020 7e a3 69 be 29 fe 27 be 7c 6a 85 3d e5 ac 91 3e
       -0.22816274 -0.16405548 0.06514451 0.2845222
000030 f4 8c 6f 3e 74 8f b6 bd 02 de c5 3b ef 8b 7d be
       0.23393613 -0.0891408 0.0060384283 -0.24760412
000040 80 b0 58 3e 2a 90 93 3d 0f a8 f7 bd 33 c1 55 3d
       0.2116108 0.072052315 -0.120926015 0.052186202
000050 a4 f0 45 be 94 ba ee 3d de 87 5f 3e 45 1a 22 3e
       -0.19330078 0.11656681 0.21829173 0.15830334
000060 d4 67 21 bd 98 29 72 3e 54 b0 1d 3e cc 53 d5 bd
       -0.03940566 0.2364868 0.15399295 -0.104163736
000070 bb 9d 73 be 28 a1 08 bd e0 73 6c 3e ed 44 1c 3e
       -0.23790638 -0.033356816 0.23091078 0.15260668

fc4.bias f4 [2]
000000 56 a2 f1 bd 0f 4b 19 3d
       -0.11798541 0.037425097
