experiments/CartPole-v1_REINFORCE/dqn.pth (torch, 37287 bytes, 8 tensors)

fc1.weight f4 [64, 4]
0.2871307 -0.103608936 0.5831342 0.46615076 -0.41950607 0.3564942 1.152312 0.11495764
0.37928528 1.2326976 0.9934945 0.21291685 0.62554824 0.6433019 -0.19870949 -0.18877603
-0.53638005 0.6458018 0.7773902 0.13015738 1.0394692 0.09657319 -0.71337193 0.9428156
0.31631815 -0.084021755 0.6661065 -1.2033203 0.8879463 1.1042587 -0.48862398 0.24991603
0.2865364 0.8209033 0.8009975 -0.86950386 -1.1621844 0.90696883 -0.17680363 -1.0028816
0.8460849 0.6315024 -0.45984265 0.64789945 -0.24193805 -0.6394786 1.125754 0.88633096
0.48735836 -0.9989017 -0.06971486 1.1232992 -0.44639295 0.82638246 -1.080146 -0.35992748
-0.41249764 1.2074106 0.31708965 -0.07750486 0.23552427 0.77259773 1.2094223 -0.30386034
-0.026640205 -0.5955837 1.0908682 -0.65001845 -0.27085635 0.34720016 -0.38580197 -1.03276
-0.745522 -0.7110033 -1.145861 0.79473174 0.8229561 0.9064674 0.103305824 -0.37324628
1.1554444 -1.263189 -0.19567864 0.12532388 1.012616 0.42930093 0.10535065 -0.19396365
0.46278077 -1.219282 0.99022317 -1.009008 -0.3960658 1.1289635 -1.1308028 1.0262264
-0.03554622 -0.27243888 -0.29751834 0.47658637 -1.134263 0.073529124 -1.0693821 0.21042459
-0.3757695 1.1825155 0.188308 0.614891 0.62414974 -1.1913443 0.5702833 -0.07316833
-0.8918045 -0.7005201 1.0644975 -1.1280938 -0.8735315 0.8170427 -0.23171991 -0.79495835
0.2516865 0.5164224 -0.2698125 -0.07324919 -0.123689994 -1.135765 -1.2591681 -0.6855168
-0.9538278 -0.4961046 -0.99370176 0.6676741 0.8408464 0.4035069 0.839866 -0.31541055
0.5893441 1.1523143 -0.09363002 -0.84676105 -0.7555252 1.0537952 0.08912286 -1.1138653
0.27863246 0.88338935 -0.88235855 -0.8663685 0.6824008 -0.94920164 0.72798824 -0.875444
0.030451437 0.83842593 0.2680825 -1.1865774 1.1530205 0.13061664 -0.73942167 -0.6290845
0.38799715 -0.6714484 0.9957026 -0.6847442 0.24728364 0.88917327 -1.2273519 -0.61847264
-0.24618368 0.034403015 -1.2287413 0.05153748 -0.35208833 -0.07661388 1.024007 -0.6184059
0.1097289 -0.19843717 -0.6982208 -1.1511842 1.0558693 -1.1936407 -0.071189456 -1.1163822
-0.2086592 -0.57345736 -0.51354635 -0.112008795 -0.3751852 -0.82078946 0.5361651 -0.5544612
-0.0083601605 0.33359665 1.1282961 0.8327156 -0.94264686 -0.71530074 -0.36597192 0.44728562
-0.08874439 0.2853376 -1.0482957 0.17919075 1.0723532 -0.10217408 -0.5336463 -0.6221948
0.6866669 -0.7562483 -0.8771967 -0.11522651 -1.175646 0.21075872 0.2846449 0.80303675
0.041345086 1.2277576 1.0204262 0.44774547 0.67851126 -0.9337829 -1.0403832 1.1871979
-0.73168033 -0.002659826 -0.5783291 0.95503616 1.1099414 0.278867 -0.5469146 0.6934351
1.2132012 0.12591293 0.5271397 -0.56838334 -0.2545778 -0.46969524 -0.6520259 1.1069337
-1.1425302 -0.52034634 -0.34271464 -0.1563161 0.5376311 -0.97666746 -0.33731154 0.6383981
-1.0447158 -0.11147073 -0.34905776 -0.19468626 1.1687274 0.005871146 0.95941174 -0.38312593
00000000: cc02 933e ec30 d4bd 4848 153f 50ab ee3e
00000010: 80c9 d6be 6886 b63e f67e 933f e96e eb3d
00000020: ae31 c23e 09c9 9d3f a855 7e3f e006 5a3e
00000030: ee23 203f 6faf 243f 807a 4bbe 814e 41be
00000040: 3450 09bf 4453 253f 0b03 473f fa47 053e
00000050: 540d 853f 2ac8 c53d 8b9f 36bf 5d5c 713f
00000060: 74f4 a13e 9913 acbd f585 2a3f 6606 9abf
00000070: 7350 633f 5958 8d3f ec2c fabe fde9 7f3e
00000080: e6b4 923e b826 523f 2c0e 4d3f ce97 5ebf
00000090: 75c2 94bf 1c2f 683f 030c 35be 6d5e 80bf
000000a0: 0599 583f 24aa 213f 7f70 ebbe bddc 253f
000000b0: 9cbe 77be dfb4 23bf b518 903f 96e6 623f
000000c0: 0987 f93e 06b8 7fbf aac6 8ebd 45c8 8f3f
000000d0: 9e8d e4be cd8d 533f 3942 8abf 6a48 b8be
000000e0: e432 d3be 6e8c 9a3f 9359 a23e deba 9ebd
000000f0: 462d 713e f7c8 453f 5ace 9a3f 9593 9bbe
00000100: 8f3c dabc 2c78 18bf 92a1 8b3f 9c67 26bf
00000110: afad 8abe 38c4 b13e d687 c5be 7b31 84bf
00000120: 88da 3ebf 5004 36bf 93ab 92bf 8a73 4b3f
00000130: 40ad 523f 3f0e 683f 0192 d33d 231a bfbe
00000140: 9ae5 933f 2db0 a1bf fb5f 48be e754 003e
00000150: 679d 813f 55cd db3e 15c2 d73d 689e 46be
00000160: 9af1 ec3e 6f11 9cbf 447f 7d3f 2d27 81bf
00000170: 23c9 cabe e081 903f 25be 90bf 635b 833f
00000180: ea98 11bd 1c7d 8bbe 5354 98be 2103 f43e
00000190: 882f 91bf 7096 963d 83e1 88bf 8b79 573e
000001a0: dc64 c0be ab5c 973f d0d3 403e 7f69 1d3f
000001b0: 47c8 1f3f f87d 98bf 16fe 113f 47d9 95bd
000001c0: 4d4d 64bf 4955 33bf 7441 883f 6165 90bf
000001d0: c39f 5fbf b629 513f fc47 6dbe 6482 4bbf
000001e0: 0edd 803e 4234 043f dd24 8abe ac03 96bd
000001f0: 2e51 fdbd bf60 91bf 6c2c a1bf 077e 2fbf
00000200: 0f2e 74bf 6c01 febe 3d63 7ebf b1ec 2a3f
00000210: b641 573f 7598 ce3e 7501 573f 7e7d a1be
00000220: 41df 163f 097f 933f 19c1 bfbd 55c5 58bf
00000230: 196a 41bf c3e2 863f 0c86 b63d 2393 8ebf
00000240: eaa8 8e3e ce25 623f 40e2 61bf 53ca 5dbf
00000250: d2b1 2e3f e1fe 72bf 705d 3a3f 191d 60bf
00000260: 4b75 f93c 15a3 563f 1c42 893e c5e1 97bf
00000270: 2d96 933f 5ec0 053e bd4a 3dbf af0b 21bf
00000280: 90a7 c63e 0be4 2bbf 5ee6 7e3f 654b 2fbf
00000290: ec37 7d3e dca0 633f de19 9dbf 3954 1ebf
000002a0: 9317 7cbe 2dea 0c3d 6547 9dbf f718 533d
000002b0: ec44 b4be bde7 9cbd a912 833f d94f 1ebf
000002c0: 8cb9 e03d 1d33 4bbe 99be 32bf 015a 93bf
000002d0: ba26 873f 38c9 98bf c7cb 91bd 9de5 8ebf
000002e0: c2aa 55be 1ace 12bf c677 03bf de64 e5bd
000002f0: 4618 c0be 421f 52bf 1e42 093f 2bf1 0dbf
00000300: 0ef9 08bc 2ecd aa3e 026c 903f d92c 553f
00000310: 4e51 71bf f31d 37bf ac60 bbbe 9f02 e53e
00000320: 9ebf b5bd c517 923e 8e2e 86bf c87d 373e
00000330: df42 893f a540 d1bd 0b9d 08bf 2948 1fbf
00000340: 67c9 2f3f 7d99 41bf f78f 60bf e0fb ebbd
00000350: 917b 96bf 22d1 573e fabc 913e d193 4d3f
00000360: 7759 293d 2927 9d3f 539d 823f e53e e53e
00000370: eab2 2d3f 650c 6fbf 472b 85bf 1af6 973f
00000380: 674f 3bbf 7a50 2ebb 600d 14bf 407d 743f
00000390: 8f12 8e3f a8c7 8e3e 9802 0cbf f684 313f
000003a0: 2d4a 9b3f 52ef 003e a1f2 063f 9281 11bf
000003b0: 0558 82be e57b f0be 2beb 26bf 01b0 8d3f
000003c0: 6e3e 92bf 6b35 05bf 4b78 afbe 5411 20be
000003d0: 31a2 093f e106 7abf 19b4 acbe 0f6e 233f
000003e0: 3fb9 85bf c44a e4bd b3b7 b2be d65b 47be
000003f0: dc98 953f be62 c03b 029c 753f 1529 c4be

fc1.bias f4 [64]
-0.41794875 0.26831117 -0.27415112 0.056370243 0.48581463 0.18057196 0.28670174 -0.20516247
-0.4952407 -0.38155273 -0.117863424 0.4875153 0.4390186 0.026902491 -0.49232242 0.14034192
-0.20961803 0.031014146 0.11189396 0.48331815 0.14658238 -0.36244664 -0.29588878 -0.45391768
-0.024738917 0.33190972 0.0515676 0.3030762 -0.079432845 0.1819982 0.54739994 0.20672646
-0.2540223 -0.31318238 -0.40309125 0.17704618 0.13640377 0.4236718 -0.34170976 -0.45306075
-0.28733766 -0.28675815 0.4599276 -0.17989 0.022211112 -0.02510914 -0.19244777 -0.19235311
0.08368536 -0.22071618 0.24462992 0.08694985 -0.1565437 0.26374123 0.47884467 0.08959285
-0.18375771 -0.41132787 -0.41717055 0.3489742 -0.4707189 -0.010854361 -0.2045751 0.43577144
00000000: 61fd d5be 1560 893e 895d 8cbe 7ce4 663d
00000010: b2bc f83e dbe7 383e 92ca 923e 1c16 52be
00000020: 3090 fdbe e15a c3be 6162 f1bd 9b9b f93e
00000030: 0cc7 e03e 9d62 dc3c af11 fcbe cbb5 0f3e
00000040: 1ca6 56be 6111 fe3c a928 e53d 7a75 f73e
00000050: b119 163e 9b92 b9be bc7e 97be e667 e8be
00000060: 45a9 cabc 12f0 a93e 8c38 533d ce2c 9b3e
00000070: b0ad a2bd bc5d 3a3e 6722 0c3f 1ab0 533e
00000080: 360f 82be 7159 a0be fa61 cebe 984b 353e
00000090: 6ead 0b3e 83eb d83e 95f4 aebe 94f7 e7be
000000a0: ec1d 93be f7d1 92be a17b eb3e 1635 38be
000000b0: 14f4 b53c afb1 cdbc 0711 45be 37f8 44be
000000c0: 3b63 ab3d 6c03 62be 4480 7a3e c312 b23d
000000d0: fe4c 20be 1709 873e 212b f53e 757c b73d
000000e0: fb2a 3cbe 9199 d2be 6197 d5be bfac b23e
000000f0: 1102 f1be 7dd6 31bc 237c 51be 6f1d df3e

fc2.weight f4 [64, 64]
0.23772065 0.22722073 0.14539674 -0.11182205 -0.15224342 0.23804337 0.0035033054 0.12347973
0.181796 -0.26092917 0.17553148 -0.26409408 -0.0816052 -0.030816881 -0.23406184 -0.12358565
0.304934 -0.12691957 -0.20742269 -0.14770834 0.123768196 0.19068721 -0.25985608 -0.18149552
-0.27255493 0.0645845 -0.22772172 -0.06061214 0.016300002 -0.24326396 0.14971289 -0.14470057
-0.090030625 -0.26592824 -0.098721564 -0.050994582 -0.04313265 0.074104175 0.058414374 -0.13480118
0.29214364 -0.14662482 -0.0045309644 -0.09840167 -0.30609137 -0.122037165 0.102206305 -0.28615525
-0.030300008 0.07638052 -0.27875218 0.18267117 0.07095973 -0.16308914 -0.07306166 -0.27440825
-0.04517355 0.1019289 0.2845488 -0.15155213 -0.27621144 0.050637823 -0.19076997 -0.016099399
-0.13513945 0.032000706 0.024995215 -0.27655414 -0.21584341 0.14465058 -0.12174654 -0.13397181
0.2308198 0.13679889 -0.12372077 -0.18133664 0.052812368 -0.17123477 -0.19820596 0.20052429
-0.12267599 -0.29795548 -0.09907647 -0.15424465 0.2712175 0.12788637 0.17892934 0.16998237
0.012183478 0.12809053 0.27599123 0.21442696 -0.24446496 -0.21606702 -0.29902115 0.055053364
0.0076423893 0.13679926 0.045766756 0.12797165 -0.06839795 -0.064017355 0.1838843 -0.18435197
0.23965478 -0.28161716 -0.28052315 -0.14897028 0.12236296 -0.30411327 -0.056990143 0.23107548
0.12785795 0.22084321 -0.19894074 -0.30568516 -0.07933431 -0.24954666 0.27045158 -0.27830854
-0.18584105 0.025359254 -0.19900045 -0.11705842 0.20486005 -0.24397713 0.109222844 0.079121895
0.17576048 -0.29876074 -0.08704687 -0.15368235 -0.07755368 -0.0779965 0.009582209 0.007025711
-0.24541257 0.027450487 -0.02316226 0.08811504 0.20833512 0.10029796 -0.067119546 0.1394554
-0.30163082 -0.25651616 0.061875105 0.03582543 -0.14091769 -0.057612788 0.08915382 -0.20671883
-0.05775306 -0.059785575 0.31374574 -0.017498244 0.045521293 0.11196231 0.22617991 -0.045635253
-0.06421069 -0.15552387 -0.12491371 0.15649804 -0.19304852 0.22605179 0.12861678 -0.20661679
-0.13182586 -0.231227 0.26615417 -0.29645318 -0.30000785 -0.25865114 0.05699175 0.10407033
0.10979437 0.02754788 -0.17501111 -0.15214203 -0.08230156 -0.20577939 -0.16765022 -0.008770045
0.07787154 -0.09315855 -0.07064621 -0.30192843 -0.2882036 0.056755308 0.12186224 0.21493664
-0.1101284 -0.26006293 0.15222839 0.20995273 -0.22241004 0.14864285 0.24813041 0.020226179
-0.20572023 0.034854185 0.07727089 0.11602823 0.112903565 -0.288321 -0.0067292717 0.22751755
-0.0705797 -0.042499457 0.2576334 0.07734974 -0.09659388 0.18715376 0.2799268 0.08468542
-0.289693 0.20461252 -0.06688923 -0.097043596 -0.1850352 -0.21047373 -0.2015204 0.22537872
0.26135328 -0.24752046 0.13514072 0.10688055 0.30027434 -0.26618576 0.17299934 0.051089775
0.08772516 0.19919953 0.14150757 -0.05798172 -0.2502664 -0.19520321 0.051131178 0.083258204
-0.06217413 0.113199174 0.090696275 -0.25125694 -0.23794267 -0.20410307 -0.19445269 0.19918026
0.22309148 0.15833078 -0.13875313 0.127264 0.21401168 0.27892274 0.2532942 -0.005179936
00000000: 0b6d 733e 8dac 683e e2e2 143e f502 e5bd
00000010: b3e5 1bbe a4c1 733e b697 653b f1e2 fc3d
00000020: bb28 3a3e 8298 85be 86be 333e 5737 87be
00000030: a120 a7bd af73 fcbc e8ad 6fbe 791a fdbd
00000040: 4f20 9c3e 34f7 01be 9d66 54be db40 17be
00000050: 2e7a fd3d 8243 433e db0b 85be f6d9 39be
00000060: 528c 8bbe e144 843d e22f 69be 6f44 78bd
00000070: 9587 853c 301a 79be 564e 193e 632c 14be
00000080: fa61 b8bd bf27 88be 882e cabd b2df 50bd
00000090: ddab 30bd eec3 973d e943 6f3d 5209 0abe
000000a0: da93 953e d124 16be 7c78 94bb d186 c9bd
000000b0: 02b8 9cbe 9fee f9bd 8a51 d13d f182 92be
000000c0: b937 f8bc 646d 9c3d 9bb8 8ebe 270e 3b3e
000000d0: 5653 913d d700 27be 5aa1 95bd 3d7f 8cbe
000000e0: e607 39bd 19c0 d03d 61b0 913e 7b30 1bbe
000000f0: 966b 8dbe 9b69 4f3d 3459 43be e3e2 83bc
00000100: ff61 0abe 2c13 033d c4c2 cc3c 8198 8dbe
00000110: 0e06 5dbe 481f 143e 4056 f9bd e82f 09be
00000120: 075c 6c3e 0215 0c3e 5161 fdbd 50b0 39be
00000130: c851 583d 2b58 2fbe 81f6 4abe 3d56 4d3e
00000140: 8d3d fbbd 9f8d 98be 9be8 cabd 4ff2 1dbe
00000150: 05dd 8a3e a5f4 023e 4139 373e dc0f 2e3e
00000160: 369d 473c 2a2a 033e b94e 8d3e be92 5b3e
00000170: 0655 7abe ac40 5dbe 4d19 99be a37f 613d
00000180: 026d fa3b 1b15 0c3e ec75 3b3d 000b 033e
00000190: 3914 8cbd 881b 83bd 2a4c 3c3e c3c6 3cbe
000001a0: 1068 753e 2030 90be bba0 8fbe aa8b 18be
000001b0: 6e99 fa3d bcb4 9bbe 7f6e 69bd 0d9f 6c3e
000001c0: 32ed 023e b924 623e 1fb7 4bbe c482 9cbe
000001d0: 077a a2bd 2989 7fbe a178 8a3e 757e 8ebe
000001e0: 1e4d 3ebe 36be cf3c c6c6 4bbe 53bc efbd
000001f0: d5c6 513e 24d5 79be 3ab0 df3d a90a a23d
00000200: 8efa 333e 2bf7 98be a145 b2bd e85e 1dbe
00000210: 77d4 9ebd a1bc 9fbd b3fe 1c3c ef37 e63b
00000220: 6f4d 7bbe d8df e03c c8be bdbc a875 b43d
00000230: cd55 553e 0469 cd3d f975 89bd 65cd 0e3e
00000240: 5b6f 9abe 1656 83be c070 7d3d b0bd 123d
00000250: ba4c 10be 63fb 6bbd 4796 b63d 1aae 53be
00000260: 798e 6cbd b8e1 74bd 48a3 a03e 7a58 8fbc
00000270: 8974 3a3d 7f4c e53d b59b 673e 08ec 3abd
00000280: e580 83bd a641 1fbe c2d2 ffbd 0641 203e
00000290: 83ae 45be 1f7a 673e 1eb4 033e 5a93 53be
000002a0: 5cfd 06be c5c6 6cbe 5c45 883e b6c8 97be
000002b0: a19a 99be ec6d 84be 2e70 693d d322 d53d
000002c0: dfdb e03d 17ac e13c 1d36 33be 1fcb 1bbe
000002d0: b88d a8bd d5b7 52be 80ac 2bbe 3cb0 0fbc
000002e0: 1d7b 9f3d e9c9 bebd f6ae 90bd 5d96 9abe
000002f0: 6c8f 93be 4178 683d e992 f93d 5a18 5c3e
00000300: 008b e1bd f826 85be c2e1 1b3e d9fd 563e
00000310: 75bf 63be d535 183e e615 7e3e 5fb1 a53c
00000320: 53a8 52be 43c3 0e3d 3340 9e3d 35a0 ed3d
00000330: fc39 e73d cf9e 93be 3981 dcbb 5cfa 683e
00000340: 178c 90bd e913 2ebd 86e8 833e 8a69 9e3d
00000350: 03d3 c5bd 3ca5 3f3e 9152 8f3e 8d6f ad3d
00000360: a452 94be f285 513e 38fd 88bd cbbe c6bd
00000370: de79 3dbe 6d86 57be 5d5b 4ebe aec9 663e
00000380: 19d0 853e 0176 7dbe 5462 0a3e 31e4 da3d
00000390: 8fbd 993e 8049 88be bd26 313e 8343 513d
000003a0: 40a9 b33d f6fa 4b3e 5ce7 103e 3d7e 6dbd
000003b0: eb22 80be 5ae3 47be ed6e 513d 4783 aa3d
000003c0: 4daa 7ebd f8d4 e73d f8be b93d c0a4 80be
000003d0: 3ea7 73be 6500 51be 9b1e 47be e9f5 4b3e
000003e0: 1872 643e 7721 223e 4d15 0ebe 7e51 023e
000003f0: e125 5b3e f6ce 8e3e c7af 813e 74bc a9bb

fc2.bias f4 [64]
0.074390665 -0.027241856 -0.051444605 -0.07214226 0.108238205 -0.012190289 0.048896316 0.069792606
0.083132416 -0.10805224 0.16485047 0.12259236 -0.048069004 0.029732175 -0.012534026 -0.08601092
-0.09145963 -0.06435472 -0.004698134 -0.069015756 -0.09647129 0.12899786 -0.09594619 -0.05813846
-0.11243644 -0.058997244 -0.10644043 -0.061537877 0.043084715 0.0060730814 0.11400636 -0.030293405
-0.009438546 -0.031543545 0.07026393 -0.03401827 0.10111749 -0.011547621 -0.112549864 -0.06831218
-7.5923526e-07 -0.045297846 0.12637846 0.1022256 0.025761575 -0.01517653 0.055119917 0.060621303
-0.095726 0.00833014 -0.10608854 0.07900099 0.09514124 0.05970363 -0.09915767 0.0033068757
-0.056386106 0.027738202 0.11646198 0.09185301 -0.08717401 0.11996988 -0.11590263 0.09085209
00000000: 225a 983d 502a dfbc 94b7 52bd 52bf 93bd
00000010: feab dd3d c7b9 47bc 8147 483d 6def 8e3d
00000020: 5441 aa3d 7e4a ddbd 90ce 283e b411 fb3d
00000030: 01e4 44bd e490 f33c 845b 4dbc 7e26 b0bd
00000040: 304f bbbd 68cc 83bd cef2 99bb 2258 8dbd
00000050: bd92 c5bd 0418 043e 707f c4bd 9822 6ebd
00000060: 1445 e6bd 18a7 71bd 71fd d9bd 240f 7cbd
00000070: 9979 303d b300 c73b 2b7c e93d e029 f8bc
00000080: 22a4 1abc ce33 01bd 89e6 8f3d be56 0bbd
00000090: b016 cf3d 3c32 3dbc 8b80 e6bd 42e7 8bbd
000000a0: 40ce 4bb5 3c8a 39bd 5b69 013e a85b d13d
000000b0: f009 d33c fba6 78bc 6cc5 613d 0b4e 783d
000000c0: fe0b c4bd 247b 083c f344 d9bd 45cb a13d
000000d0: 69d9 c23d cb8b 743d 2d13 cbbd 2bb8 583b
000000e0: 1ef5 66bd 3a3b e33c 9e83 ee3d 6e1d bc3d
000000f0: 4a88 b2bd c5b2 f53d 5c5e edbd a910 ba3d

fc3.weight f4 [64, 64]
-0.21206024 -0.21077116 0.09967706 0.06716137 -0.059179347 -0.27038145 -0.16482548 0.12541762
-0.046573434 -0.018824462 0.21275744 -0.0072037517 -0.12288023 -0.13931909 0.25811473 0.19285755
-0.30477557 -0.25719666 -0.30487415 0.073361345 0.2929601 -0.05882921 -0.1439251 -0.11137194
-0.095841 0.2528222 0.056832038 0.14357357 -0.05047922 -0.19463675 0.21872224 -0.33568996
0.2433269 -0.18358782 -0.17815123 -0.15621628 -0.083046705 0.31594905 -0.16407806 0.054437697
-0.29399863 -0.066441715 -0.01692755 0.051106382 -0.050363034 0.10572149 -0.020265223 -0.1735124
-0.19036657 0.007854748 -0.13189386 -0.31325185 -0.18889765 0.15333812 0.04053841 0.101441465
0.21990857 -0.27760446 0.29115692 0.08954618 0.016477602 0.14919849 0.22522853 0.16352923
0.11338839 -0.21006668 -0.2636872 0.17102197 0.09182759 -0.24695164 0.15017733 0.1352633
-0.25748372 -0.1221392 0.019702008 -0.12908576 -0.08485553 -0.20314187 0.10774858 0.040707517
-0.19378851 0.18293081 0.014703584 0.068375096 -0.0098014595 0.08166519 0.079996675 -0.020001981
0.013825348 0.24724035 -0.2895145 -0.025239555 -0.2877889 0.20709784 -0.16581687 -0.2629818
0.09914152 0.18969466 -0.28840196 -0.07427359 0.12734124 0.018417764 -0.12623847 -0.2164456
0.010859473 -0.15140015 -0.26135257 -0.0779732 0.07272065 -0.07892467 0.20267515 0.28813317
0.0056948937 -0.0116338795 -0.019229796 -0.20095997 -0.0027245227 0.18807891 0.26726276 -0.24599499
0.15142354 -0.06874371 0.1603994 0.0923138 -0.11297845 0.100516744 -0.049043424 0.316365
-0.30269697 0.27537084 -0.23943558 0.0444594 0.14457235 0.076027505 -0.20994432 0.23044486
-0.2762991 -0.31146675 -0.08156296 -0.1481703 -0.017014883 -0.22163348 0.12415666 -0.022414485
0.027924633 0.28796792 0.1592135 0.08856913 -0.017300718 0.20147645 -0.0817469 0.11721118
-0.014957421 0.04395514 -0.18299006 -0.011241205 0.1182314 0.054982655 -0.05908961 0.18635222
-0.2887463 0.1549671 0.1366414 0.14205168 -0.27568108 -0.13467461 0.1709213 0.18139294
-0.11645799 -0.02256603 0.19114278 -0.106118366 -0.1576956 -0.0912451 0.2894247 -0.26033613
-0.255526 0.19399609 -0.036110297 0.13555028 0.081284635 0.022038972 -0.0066914847 -0.11758437
-0.04120354 -0.14033756 -0.2505599 0.093264304 0.089714736 0.007278391 0.015711484 -0.31940305
-0.21486674 -0.2549542 0.029278612 -0.23991631 0.31298295 -0.19733806 0.029343061 0.1181428
-0.065985344 0.051162925 -0.25318432 0.285102 -0.07295164 -0.05510037 -0.06634526 0.048038512
0.10249612 0.14926958 0.038456406 -0.09726984 0.31531307 -0.1667838 -0.015677055 0.25110707
-0.16429932 0.31584853 -0.031702843 -0.20944054 0.20311485 -0.2968564 -0.12596755 -0.18124874
0.3280417 -0.22419724 -0.27639508 -0.32223582 0.14286444 0.34160206 0.07303625 0.08290633
0.17666744 0.10962824 0.060993314 -0.07853684 -0.2759737 0.2822506 0.23802258 0.042283595
0.22729696 0.204713 -0.096109 0.041913558 0.18365858 -0.26648337 0.026685067 -0.28300497
0.19300108 0.26545876 -0.29707813 0.20516455 0.04332536 0.27987584 -0.16759174 -0.023845214
00000000: 5226 59be 65d4 57be 7d23 cc3d e68b 893d
00000010: 0b66 72bd 706f 8abe 03c8 28be 7a6d 003e
00000020: c9c3 3ebd c235 9abc 16dd 593e 730d ecbb
00000030: a1a8 fbbd aaa9 0ebe 9d27 843e 737c 453e
00000040: 8b0b 9cbe 48af 83be 7718 9cbe 793e 963d
00000050: defe 953e e6f6 70bd 1a61 13be f916 e4bd
00000060: 4948 c4bd e971 813e b6c8 683d f304 133e
00000070: 4cc3 4ebd db4e 47be b9f8 5f3e 8edf abbe
00000080: b02a 793e 72fe 3bbe 476d 36be 29f7 1fbe
00000090: 6414 aabd 13c4 a13e 1404 28be 10fa 5e3d
000000a0: fd86 96be 9812 88bd a5ab 8abc ed54 513d
000000b0: 7849 4ebd 8284 d83d 4103 a6bc 3cad 31be
000000c0: 74ef 42be 33b1 003c 2f0f 07be 8c62 a0be
000000d0: 636e 41be ab04 1d3e 9b0b 263d 8bc0 cf3d
000000e0: b62f 613e 2c22 8ebe 8512 953e fd63 b73d
000000f0: 09fc 863c 7dc7 183e 4fa2 663e 3574 273e
00000100: 2c38 e83d b81b 57be 0202 87be 6220 2f3e
00000110: 1a10 bc3d e4e0 7cbe 16c8 193e 7682 0a3e
00000120: e8d4 83be 1e24 fabd 1b66 a13c 0f2f 04be
00000130: bcc8 adbd 6c04 50be 4aab dc3d edbc 263d
00000140: 7f70 46be 3752 3b3e 4de7 703c 3e08 8c3d
00000150: 4d96 20bc 1440 a73d 4cd5 a33d 32db a3bc
00000160: b683 623c 932c 7d3e 3f3b 94be 2fc3 cebc
00000170: 1159 93be 7511 543e e6cb 29be 8da5 86be
00000180: b60a cb3d 513f 423e 6ca9 93be c11c 98bd
00000190: be65 023e dae0 963c a844 01be eaa3 5dbe
000001a0: eeeb 313c a408 1bbe 01d0 85be 6ab0 9fbd
000001b0: 90ee 943d 42a3 a1bd 138a 4f3e 3186 933e
000001c0: 3b9c ba3b 079c 3ebc ce87 9dbc 73c8 4dbe
000001d0: e88d 32bb c297 403e aad6 883e 1ce6 7bbe
000001e0: c60e 1b3e 81c9 8cbd be3f 243e 040f bd3d
000001f0: 3f61 e7bd b9db cd3d c2e1 48bd 98fa a13e
00000200: 19fb 9abe 68fd 8c3e 9a2e 75be 0f1b 363d
00000210: c60a 143e 4fb4 9b3d a5fb 56be bdf9 6b3e
00000220: 1377 8dbe 9278 9fbe 7b0a a7bd f5b9 17be
00000230: cc62 8bbc e3f3 62be d945 fe3d 959e b7bc
00000240: 33c2 e43c 8870 933e dd08 233e bb63 b53d
00000250: 3cba 8dbc d84f 4e3e eb6a a7bd 6a0c f03d
00000260: f90f 75bc 4e0a 343d bf61 3bbe 082d 38bc
00000270: 4e23 f23d 7e35 613d f207 72bd 1ed3 3e3e
00000280: 8ed6 93be b2af 1e3e b9eb 0b3e ff75 113e
00000290: 1226 8dbe 24e8 09be fe05 2f3e 12bf 393e
000002a0: 8781 eebd 65dc b8bc efba 433e 9654 d9bd
000002b0: f57a 21be b6de babd 792f 943e c74a 85be
000002c0: 4ed4 82be e9a6 463e 64e8 13bd b1cd 0a3e
000002d0: 8f78 a63d 138b b43c 3e44 dbbb 13d0 f0bd
000002e0: 0bc5 28bd a6b4 0fbe 6349 80be 5b01 bf3d
000002f0: 5cbc b73d 927f ee3b 5fb5 803c cc88 a3be
00000300: 0706 5cbe 5b89 82be b3d9 ef3c 9fac 75be
00000310: 4d3f a03e fd12 4abe dc60 f03c daf4 f13d
00000320: 5323 87bd 3790 513d 60a1 81be e4f8 913e
00000330: ab67 95bd edb0 61bd 06e0 87bd 08c4 443d
00000340: 7ce9 d13d 20da 183e 7784 1d3d 6935 c7bd
00000350: b770 a13e 5fc9 2abe 2b6d 80bc 1b91 803e
00000360: 153e 28be e6b6 a13e d7da 01bd 9577 56be
00000370: 57fd 4f3e 90fd 97be a3fd 00be 4599 39be
00000380: 15f5 a73e f693 65be a883 8dbe 18fc a4be
00000390: 0e4b 123e 77e6 ae3e 0894 953d cbca a93d
000003a0: 4fe8 343e c584 e03d 20d4 793d ecd7 a0bd
000003b0: 6d4c 8dbe 2783 903e 31bc 733e 9031 2d3d
000003c0: 89c0 683e 49a0 513e ccd4 c4bd 8dad 2b3d
000003d0: ff10 3c3e 8270 88be a49a da3c 07e6 90be
000003e0: 13a2 453e 36ea 873e a01a 98be a816 523e
000003f0: ef75 313d e34b 8f3e 2b9d 2bbe 0a57 c3bc

fc3.bias f4 [64]
-0.00724793 0.10461235 -0.03861563 0.042568225 -0.1082956 0.034467842 -0.015092708 0.08539312
-0.07492868 0.07279813 -0.12915729 0.09398916 0.08641491 0.040664345 -0.06710329 -0.0056760013
0.08787221 0.032082763 0.06700206 0.022683162 0.072470926 -0.079408444 -0.06154653 -0.056177527
-0.016950393 0.042357 -0.08093812 0.1344126 -0.012055605 -0.003020689 0.028519586 -0.0809769
-0.024108091 0.09609505 -0.028603118 -0.08981175 -0.039475698 0.09770239 -0.030159581 -0.06382232
0.04033926 -0.017605247 -0.042672917 -0.020306896 0.075392745 0.009103856 0.024134602 -0.058904782
-0.034294546 0.09234477 0.03146193 0.025830606 -0.11497368 0.00868255 -0.029273294 -0.13363896
-0.11862284 0.10190309 0.14674976 -0.013540288 -0.024334742 -0.06429071 0.10669343 -0.08480117
00000000: 0b80 edbb 003f d63d 6c2b 1ebd 055c 2e3d
00000010: 15ca ddbd 272e 0d3d 6847 77bc 97e2 ae3d
00000020: 3574 99bd 3017 953d cf41 04be 647d c03d
00000030: 4dfa b03d a88f 263d 736d 89bd c0fd b9bb
00000040: 58f6 b33d 3769 033d 6038 893d 0ad2 b93c
00000050: a36b 943d e5a0 a2bd 3718 7cbd 681a 66bd
00000060: 8ddb 8abc 897e 2d3d e3c2 a5bd 75a3 093e
00000070: df84 45bc c0f6 45bb e8a1 e93c 38d7 a5bd
00000080: 557e c5bc 7bcd c43d 1651 eabc 39ef b7bd
00000090: 45b1 21bd 3118 c83d 3a11 f7bc 47b5 82bd
000000a0: c83a 253d e138 90bc ccc9 2ebd a65a a6bc
000000b0: 8367 9a3d 5728 153c eeb5 c53c 2446 71bd
000000c0: 7078 0cbd 411f bd3d 3ade 003d b59a d33c
000000d0: 5277 ebbd 4141 0e3c 8cce efbc a7d8 08be
000000e0: 88f0 f2bd 91b2 d03d 9245 163e 16d8 5dbc
000000f0: a759 c7bc d9aa 83bd 1682 da3d 3cac adbd

fc4.weight f4 [2, 64]
-0.063481554 -0.1100833 0.12183433 -0.11356016 0.06379176 -0.069231294 0.018857772 0.037496947
-0.12021949 -0.018453848 0.04682516 0.06904843 0.028295062 -0.15413006 0.08782547 0.10585293
0.07657727 -0.07151156 -0.1542019 -0.055211473 -0.07984983 0.08916696 -0.10662511 0.028631713
0.09230168 -0.0020232063 -0.02041338 0.11477687 0.08587657 -0.096638225 0.021375464 0.09423775
0.094929494 -0.09465243 -0.06654142 -0.008123632 -0.073429406 0.04330633 0.05837218 0.065814145
0.0064941156 0.019226331 -0.023458986 -0.032808002 0.102547266 -0.022523673 -0.08775526 0.062734514
0.09242796 -0.12330875 0.04571225 -0.12163682 -0.13516039 0.11511933 0.015692579 0.014392971
-0.10657481 -0.0883439 0.16624852 -0.15153538 -0.06762716 -0.12574181 -0.09551187 -0.049551994
0.053580493 0.08241166 -0.05730855 0.065344125 0.06913975 -0.12877971 0.028194312 -0.09057726
-0.113961235 -0.010870429 0.0037472467 -0.08333605 0.0455531 -0.019974774 0.0673703 0.0493725
-0.0824895 0.15629959 -0.04622496 -0.101682134 0.10921067 0.121466815 -0.09118748 -0.09884769
-0.025442006 -0.06805875 -0.097981565 -0.15670821 0.06697804 0.08645276 0.010877915 -0.13145956
-0.11476174 0.058598816 0.07650233 -0.039164737 -0.1007064 0.00742254 -0.16098718 -0.017244691
-0.13070035 -0.088021144 0.16780417 0.0474295 -0.013346909 0.08748465 0.007926326 0.114964075
-0.054593332 -0.010275829 -0.096447945 0.012144792 0.033670772 0.02669602 -0.033474907 0.09988423
0.08858659 0.061553866 -0.05801054 -0.019191915 0.05747943 0.07885722 0.039102726 -0.013227329
00000000: 9e02 82bd 5a73 e1bd 4784 f93d 3b92 e8bd
00000010: 41a5 823d 23c9 8dbd 9d7b 9a3c 6696 193d
00000020: a335 f6bd 862c 97bc bdcb 3f3d 4369 8d3d
00000030: 0ccb e73c 45d4 1dbe d7dd b33d 6cc9 d83d
00000040: 8bd4 9c3d a774 92bd 1ae7 1dbe 6d25 62bd
00000050: 4f88 a3bd 2b9d b63d 445e dabd 0e8d ea3c
00000060: aa08 bd3d c597 04bb f639 a7bc 2310 eb3d
00000070: 0ee0 af3d 43ea c5bd 991b af3c b9ff c03d
00000080: 656a c23d 22d9 c1bd de46 88bd fb18 05bc
00000090: 2862 96bd fa61 313d ab17 6f3d 91c9 863d
000000a0: 97cc d43b 8a80 9d3c 0f2d c0bc af61 06bd
000000b0: 4d04 d23d 9183 b8bc 08b9 b3bd f47a 803d
000000c0: df4a bd3d 4c89 fcbd c53c 3b3d ba1c f9bd
000000d0: 7c67 0abe afc3 eb3d b98d 803c 7fd0 6b3c
000000e0: e543 dabd a6ed b4bd 0d3d 2a3e 172c 1bbe
000000f0: 1c80 8abd 76c2 00be ba9b c3bd 08f7 4abd
00000100: 3877 5b3d 72c7 a83d 5fbc 6abd 24d3 853d
00000110: 2499 8d3d d4de 03be c2f7 e63c 9280 b9bd
00000120: 8264 e9bd e219 32bc 5e94 753b 17ac aabd
00000130: e395 3a3d 23a2 a3bc 71f9 893d d23a 4a3d
00000140: 41f0 a8bd 000d 203e 6256 3dbd b93e d0bd
00000150: d8a9 df3d 98c3 f83d 80c0 babd a870 cabd
00000160: c16b d0bc 6362 8bbd 8faa c8bd 1e78 20be
00000170: c82b 893d 250e b13d 4839 323c 569d 06be
00000180: 3408 ebbd 5005 703d 41ad 9c3d 346b 20bd
00000190: 283f cebd c738 f33b d3d9 24be bd44 8dbc
000001a0: 50d6 05be 6e44 b4bd dbd4 2b3e 6f45 423d
000001b0: feac 5abc 272b b33d 6cdd 013c 4972 eb3d
000001c0: 429d 5fbd f35b 28bc 8086 c5bd f3fa 463c
000001d0: 5dea 093d 9db1 da3c fc1c 09bd 1a90 cc3d
000001e0: e36c b53d e81f 7c3d 769c 6dbd 5d38 9dbc
000001f0: 8d6f 6b3d e57f a13d 2e2a 203d 70b7 58bc

fc4.bias f4 [2]
0.10304236 0.102541454
00000000: df07 d33d 4101 d23d
