experiments/CartPole-v1_DQN/dqn.pth (torch, 6183 bytes, 8 tensors)

fc1.weight f4 [32, 4]
0	0xc029f0be	-2.6553187
1	0x408bcdd7	4.368877
2	0x40bdaace	5.9271
3	0xbf2e4038	-0.6806674
4	0x4040ddca	3.013537
5	0xbe05706a	-0.13031164
6	0xbfa484cf	-1.285303
7	0xbf3cbbea	-0.73724234
8	0x3fc46672	1.5343764
9	0xbfcdd727	-1.6081284
10	0xc1534d4b	-13.20637
11	0xc0a296a9	-5.080891
12	0x3f276ed6	0.654035
13	0x40131504	2.2981577
14	0x407f0f5f	3.9853132
15	0x400a8cf9	2.1648543
16	0x4025e78f	2.5922582
17	0xc06db1f2	-3.713986
18	0xc1854c2e	-16.662197
19	0xc09b64fd	-4.8560777
20	0x3f902673	1.1261734
21	0x3fa2f8ed	1.2732216
22	0x40a56a95	5.1692605
23	0x404fce4e	3.2469668
24	0x3f81b45a	1.0133164
25	0x4054ff8e	3.3280978
26	0x412f375a	10.951014
27	0x40833e55	4.101359
28	0x40ceb3da	6.4594545
29	0xbf1a81f9	-0.6035457
30	0xc145d966	-12.365576
31	0xc02eb4df	-2.7297895
32	0x40176d54	2.3660479
33	0x3fa9ac60	1.325573
34	0x3e317519	0.17329825
35	0x3f310cdf	0.69160265
36	0xbf972d6b	-1.1810735
37	0x402cfd01	2.7029421
38	0x4171c98b	15.111705
39	0x409de0ee	4.933707
40	0xc0cb45e7	-6.352283
41	0x3e726449	0.23671068
42	0x41452353	12.321124
43	0x4025563b	2.583388
44	0x3ff626fa	1.9230645
45	0x3f2b95b6	0.67025316
46	0x3ed1b434	0.40957797
47	0x3ecc496a	0.3989976
48	0x3fd2730d	1.6441361
49	0x405de495	3.4670765
50	0x418072a3	16.055975
51	0x40b8345d	5.756392
52	0x3f87d2b1	1.0611173
53	0xbff38519	-1.9024993
54	0xc1550b8f	-13.315322
55	0xc0867692	-4.201974
56	0xc07d1a43	-3.954728
57	0xc0a22375	-5.0668283
58	0xc18bafe6	-17.460888
59	0xc0b45187	-5.634952
60	0xbf39756a	-0.72444785
61	0x4040b3ba	3.0109696
62	0x40bf9cc1	5.987885
63	0x3f03d4ff	0.5149688
64	0x40e0044e	7.0005255
65	0x3f62ca3e	0.8858985
66	0xc13a3546	-11.638006
67	0xc06ceccd	-3.7019532
68	0x3f85e8b5	1.0461642
69	0x3fc22392	1.5167105
70	0x3fda1cb2	1.7040007
71	0x3f273cce	0.65327156
72	0x40225f17	2.5370538
73	0x3f1a373a	0.6024052
74	0x3fa45dfa	1.2841179
75	0xbe421298	-0.18952405
76	0x3fc1685d	1.5109974
77	0x3f3ff26e	0.74979293
78	0x3fa4e91c	1.2883639
79	0x3fa3d72c	1.280004
80	0xbfc54492	-1.5411551
81	0x3ffcfcdb	1.9764665
82	0x41804da9	16.03792
83	0x40c28344	6.0785236
84	0x3fd733dd	1.6812702
85	0x3f82987c	1.0202785
86	0xbf135938	-0.5755801
87	0xbe9dd1ea	-0.30824214
88	0x405b1151	3.422932
89	0x3ece83e8	0.4033501
90	0xbf81fecc	-1.0155883
91	0xbf699965	-0.91249686
92	0x3f2f81e9	0.685576
93	0x3f95bd94	1.169848
94	0x40478bea	3.1179147
95	0x3fdd98cf	1.7312258
96	0x403b30cd	2.9248536
97	0xbf7f360e	-0.99691856
98	0xc0358ec7	-2.8368394
99	0x3f58152e	0.8440732
100	0xbfe59332	-1.7935545
101	0x402cd182	2.7002873
102	0x417511b4	15.316822
103	0x4096e343	4.715242
104	0x402ea7f3	2.7290008
105	0x3f7bc9b6	0.9835466
106	0x3eb552ef	0.35414836
107	0x3e0a400a	0.13500991
108	0xbf10c709	-0.56553704
109	0x407a9487	3.9153154
110	0x416bba57	14.732993
111	0x40ab0851	5.344765
112	0x402c2fd0	2.6904182
113	0x3e9f8bca	0.31161338
114	0xbfef9e9f	-1.8720282
115	0xbf99f22a	-1.2027028
116	0x3fb64ec4	1.4242787
117	0x3ffba04e	1.9658296
118	0x402a66ab	2.6625164
119	0x3f785055	0.96997577
120	0x4052c4a5	3.2932522
121	0xc050ab83	-3.2604682
122	0xc0c9e495	-6.309153
123	0x3ffc02bc	1.9688334
124	0x3f887a1a	1.0662262
125	0x3e066c00	0.13127136
126	0x4021f610	2.5306435
127	0x3fca8199	1.58208

fc1.bias f4 [32]
0	0x3f811b6c	1.0086493
1	0x409e86f2	4.953973
2	0xc027fb74	-2.6247225
3	0x408cb97f	4.3976436
4	0x40894d1e	4.2906637
5	0x40864bfc	4.1967754
6	0xc0096008	-2.1464863
7	0xc0218483	-2.5237129
8	0x409fdc4f	4.995643
9	0xc06a5af2	-3.6618009
10	0x4052f242	3.2960362
11	0x409a7094	4.8262424
12	0xc022c5ee	-2.5433307
13	0xc032d0c4	-2.793992
14	0x4086618c	4.1994076
15	0x4013aea8	2.3075352
16	0xbfb030b9	-1.3764869
17	0x40a16a1d	5.0442033
18	0x40983c4b	4.75736
19	0x40a004c7	5.000583
20	0xc059ad94	-3.4012194
21	0x409c9e42	4.8943186
22	0x40ac2ca0	5.3804474
23	0x409c160f	4.8776927
24	0x40896be8	4.294422
25	0x40715dfe	3.7713618
26	0x409fe355	4.9965005
27	0xc05bb9ea	-3.4332223
28	0x40acd60b	5.4011283
29	0x40a0b2d0	5.0218277
30	0x3fcbe3e6	1.5928924
31	0x409e3f77	4.945247

fc2.weight f4 [16, 32]
0	0x40a4a747	5.1454196
1	0x408e2be2	4.442857
2	0xc0f70fca	-7.7206774
3	0x408e7f43	4.453035
4	0xc065174d	-3.5795472
5	0x40747de3	3.8201835
6	0xc119c585	-9.610723
7	0xc146c8ad	-12.423993
8	0x406f880b	3.7426784
9	0xc176f91a	-15.435816
10	0xc0b94491	-5.78962
11	0x407da6b3	3.9632995
12	0xc0f60347	-7.6879
13	0xc14ec3c7	-12.922797
14	0xc0ec44f8	-7.383419
15	0x406c98d5	3.6968281
16	0xc0d8dd3e	-6.777007
17	0x408775aa	4.2331133
18	0x4089ed58	4.3102226
19	0x407f01ba	3.9844804
20	0xc120f6d7	-10.060264
21	0x4069aa81	3.6510317
22	0x40811eee	4.0350256
23	0x4061b193	3.5264633
24	0x4090006c	4.5000515
25	0xc0961d15	-4.69105
26	0x408d644f	4.4184947
27	0xc16a9be2	-14.663057
28	0x4082f394	4.0922337
29	0x4077cac8	3.8717518
30	0x407570a0	3.834999
31	0x407945d8	3.894888
32	0x3f287e2b	0.6581752
33	0x41547281	13.277955
34	0x41530697	13.189109
35	0x3f6dc78e	0.9288262
36	0x4162b863	14.170016
37	0xbf58e6c4	-0.8472712
38	0xc19048d4	-18.03556
39	0x3f95911f	1.1684912
40	0x41148093	9.28139
41	0xc1b61c56	-22.763836
42	0xc1752962	-15.322603
43	0x4102fbd5	8.186482
44	0xc197d75f	-18.980162
45	0x4022872d	2.5395005
46	0x411026b0	9.009445
47	0x3f69a6db	0.91270226
48	0x413d2287	11.82093
49	0x40cbbdd6	6.3669233
50	0x41207241	10.027894
51	0x40bb4f5d	5.853438
52	0xc1b76f6e	-22.929409
53	0x41291f2f	10.570113
54	0x415da46f	13.852645
55	0x40371c3c	2.8610983
56	0x41294f2a	10.581827
57	0xc15728d7	-13.447471
58	0x4131818c	11.094128
59	0xc1ba29e0	-23.270447
60	0x415c899e	13.783598
61	0x40c456ee	6.1356115
62	0x40fdfc53	7.9370513
63	0x404fc895	3.2466176
64	0x40d4633b	6.637113
65	0x4029b168	2.651453
66	0xc113de67	-9.241797
67	0x409da66f	4.9265666
68	0xc0924bc6	-4.5717497
69	0x40a053e2	5.0102396
70	0xc103ce22	-8.237825
71	0xc1550c56	-13.315512
72	0x405e2f4f	3.4716375
73	0xc157b9b0	-13.482834
74	0xc0736ce7	-3.8035219
75	0x406ce991	3.7017558
76	0xc0ab2d44	-5.3492756
77	0xc1594f09	-13.581796
78	0xc110a619	-9.040551
79	0x40b3640e	5.6059637
80	0xc0e7a2cd	-7.238623
81	0x40811169	4.0333753
82	0x40613611	3.518925
83	0x408e29cb	4.4426017
84	0xc0e1a3a3	-7.051225
85	0x40306be0	2.7565842
86	0x40496a66	3.147119
87	0x40974034	4.7265873
88	0x402fc9a3	2.746682
89	0xbffad1be	-1.9595258
90	0x4083acce	4.1148443
91	0xc14a50a0	-12.644684
92	0x401f2f9d	2.487281
93	0x40a12433	5.035669
94	0x403fd11d	2.9971383
95	0x407a1bdb	3.9079502
96	0x40cca600	6.3952637
97	0x4037dc96	2.8728385
98	0xc115ae07	-9.354987
99	0x4099f655	4.81132
100	0xc09cdf11	-4.90223
101	0x40a38450	5.1099014
102	0xc10312a4	-8.192051
103	0xc14db853	-12.857501
104	0x40627674	3.5384798
105	0xc15eb269	-13.918557
106	0xc081d5e9	-4.057362
107	0x404dfad5	3.2184346
108	0xc0b36f30	-5.6073227
109	0xc160fe6c	-14.062115
110	0xc10e6b4f	-8.901198
111	0x40ae8c0b	5.454595
112	0xc0e34f94	-7.103464
113	0x4089af46	4.3026457
114	0x40751776	3.829557
115	0x408ce3e7	4.40282
116	0xc0ef1ff7	-7.472652
117	0x403d08ba	2.9536576
118	0x40466f38	3.1005383
119	0x409c4d89	4.8844647
120	0x402aecb6	2.6706977
121	0xc0086532	-2.1311765
122	0x40723f0d	3.7850983
123	0xc14b6a8e	-12.713514
124	0x402cb5d6	2.6985984
125	0x40944cc9	4.634373
126	0x4059cb95	3.4030507
127	0x407f94bf	3.9934537
128	0x40a84e23	5.259538
129	0x40956c5b	4.669477
130	0xc0da2b25	-6.8177667
131	0x408d9859	4.424847
132	0xc030ad31	-2.7605708
133	0x405f33ff	3.4875486
134	0xc1257801	-10.341798
135	0xc13fc96a	-11.986673
136	0x4099cbcf	4.806129
137	0xc16f70aa	-14.965006
138	0xc0bb77fa	-5.8583956
139	0x407feabc	3.998702
140	0xc0fa9d59	-7.8317075
141	0xc13fae3c	-11.980038
142	0xc0d42412	-6.629403
143	0x40712873	3.7680938
144	0xc0af3449	-5.4751325
145	0x409652bd	4.6976
146	0x40979775	4.7372384
147	0x4090f9cf	4.530494
148	0xc1234009	-10.203134
149	0x408a032a	4.312886
150	0x40943241	4.6311345
151	0x4084194f	4.1280894
152	0x40963724	4.694231
153	0xc098dd6c	-4.777029
154	0x409b986d	4.8623567
155	0xc16e0d15	-14.878194
156	0x4097dd1c	4.745741
157	0x409e341a	4.94386
158	0x408731e0	4.2248383
159	0x40620bfc	3.5319815
160	0x40ac83fc	5.3911114
161	0x40586622	3.3812337
162	0xc10a3e43	-8.640201
163	0x409344fc	4.602171
164	0xc0950b69	-4.657643
165	0x40878196	4.2345686
166	0xc117477f	-9.454955
167	0xc154bee0	-13.2966
168	0x406008f2	3.500546
169	0xc16e1af1	-14.8815775
170	0xc0a5e59d	-5.184279
171	0x40718d04	3.774232
172	0xc0d9162f	-6.783958
173	0xc15eea50	-13.932205
174	0xc107e76a	-8.493998
175	0x408f8587	4.4850497
176	0xc0ef61c8	-7.480686
177	0x408929a7	4.2863345
178	0x4060ba0f	3.511356
179	0x4087ba23	4.241472
180	0xc10de6c9	-8.868844
181	0x4043bf06	3.0585341
182	0x40328329	2.7892554
183	0x40810a44	4.032503
184	0x404e2d0a	3.221499
185	0xc06b89aa	-3.6802773
186	0x40783e82	3.8788152
187	0xc15afab1	-13.686204
188	0x4043698d	3.0533173
189	0x408c163c	4.377714
190	0x407a0db3	3.9070861
191	0x405f0ae3	3.4850395
192	0x40ae9de8	5.4567757
193	0x4051777d	3.272918
194	0xc10fc880	-8.98645
195	0x4085cde9	4.1813855
196	0xc0853946	-4.1632414
197	0x407cdfcd	3.9511597
198	0xc115c4a4	-9.360508
199	0xc14d9698	-12.849266
200	0x405ff537	3.4993417
201	0xc16d5616	-14.833517
202	0xc0abcc61	-5.3686986
203	0x4059f617	3.4056451
204	0xc0d7b2e6	-6.740588
205	0xc15ec30a	-13.922617
206	0xc10de32b	-8.867961
207	0x407e6db4	3.9754457
208	0xc0ea388c	-7.3194027
209	0x4061618a	3.5215783
210	0x40852779	4.1610684
211	0x4089cd5f	4.3063197
212	0xc10cf2b1	-8.809251
213	0x403d2823	2.9555748
214	0x40492e5e	3.143455
215	0x407d4985	3.9576123
216	0x405f3a6f	3.4879415
217	0xc068a939	-3.6353285
218	0x4088e48a	4.277898
219	0xc16548df	-14.330291
220	0x403c1a64	2.9391108
221	0x40895f44	4.292879
222	0x407c2294	3.9396105
223	0x4069a5f7	3.6507547
224	0x406d2d4e	3.7058902
225	0x3fc10868	1.508069
226	0xc194bc6a	-18.592
227	0xbf9a5884	-1.2058263
228	0x408522cf	4.160499
229	0xc041ff0b	-3.0311916
230	0xc0c320ae	-6.097739
231	0xc1b26525	-22.299387
232	0xbe95fbcf	-0.29293677
233	0xbeb242fb	-0.34816727
234	0xbfb3fe10	-1.4061909
235	0x3f9e6692	1.2375052
236	0xc1139686	-9.224249
237	0xc101f513	-8.122333
238	0x4110cf21	9.050569
239	0x3f8563e9	1.0421115
240	0xc1989f6f	-19.077848
241	0x3fdb2913	1.712191
242	0x3f222e7e	0.6335219
243	0x3ec05957	0.3756816
244	0xc03c5d34	-2.9431887
245	0x3fec8b1a	1.847995
246	0x3f3e2bc9	0.7428556
247	0x3f82abda	1.0208695
248	0x3f758685	0.95908386
249	0xc1835beb	-16.419882
250	0xbe388e7d	-0.18023105
251	0xbfc578c8	-1.5427485
252	0x4017e081	2.3730776
253	0x3f053368	0.52031565
254	0xc0995a8b	-4.7923026
255	0x3fd2b69d	1.6461979

fc2.bias f4 [16]
0	0x4080100d	4.0019593
1	0x40cd5096	6.416087
2	0x40780da5	3.8758328
3	0x408651be	4.1974783
4	0x40860044	4.1875324
5	0x40698f5f	3.6493757
6	0x406dc250	3.714985
7	0x403fdafe	2.9977412
8	0x4081149c	4.033766
9	0x40e354e4	7.1041126
10	0x407e26d6	3.9711204
11	0x4083503d	4.1035447
12	0x408c4c9a	4.384351
13	0x3c4990c0	0.0123025775
14	0x4067a6af	3.6195486
15	0x40bff581	5.9987187

fc3.weight f4 [16, 16]
0	0x4110509e	9.019682
1	0xc0ea7ef9	-7.3279996
2	0x417dfb3d	15.873837
3	0x41783c87	15.514777
4	0x41153bea	9.327127
5	0x4143b76e	12.232283
6	0x4141c9ac	12.111736
7	0x41f070c2	30.055058
8	0x410b4705	8.704839
9	0x419d2474	19.6428
10	0x4112fbc3	9.186465
11	0x4109d451	8.614335
12	0x41086968	8.525734
13	0xbebcfba8	-0.36910748
14	0x4152ef3a	13.183405
15	0xc1c14ec9	-24.16347
16	0x419f54ed	19.916468
17	0x407cacce	3.9480472
18	0x4199dcc7	19.232801
19	0x41a5ef0f	20.741728
20	0x419046e9	18.034624
21	0x41bc83a9	23.564287
22	0x41bfb812	23.964878
23	0xc0e6f1a7	-7.2169986
24	0x419aa237	19.329206
25	0x402a8748	2.664507
26	0x419de343	19.735968
27	0x419e2ebf	19.772825
28	0x4188d7fa	17.105457
29	0xbe4db2fa	-0.20087805
30	0x41b332f1	22.399874
31	0xc08295ea	-4.0808
32	0x40eed143	7.4630446
33	0x410aed82	8.682985
34	0x3f82083d	1.0158764
35	0x3fe79c40	1.8094559
36	0x41037499	8.215966
37	0x40b84f93	5.7597136
38	0x40bceb0e	5.903693
39	0xc1d6d1ba	-26.852406
40	0x410649cc	8.393017
41	0xc1677de5	-14.468236
42	0x40f5cdc3	7.6813674
43	0x4108985b	8.537196
44	0x410100ce	8.062696
45	0x3e557f88	0.2084943
46	0x40bd0838	5.9072533
47	0x415e146d	13.879987
48	0x41a18f44	20.194954
49	0x409316b7	4.596523
50	0x41986f29	19.054277
51	0x419f1e65	19.889841
52	0x418f5e10	17.920929
53	0x41bbc042	23.468876
54	0x41bd0fe7	23.632765
55	0xc1020f84	-8.128788
56	0x419cd15d	19.602228
57	0x3f9de859	1.2336532
58	0x419c66d2	19.550205
59	0x41961f38	18.765244
60	0x418df772	17.745823
61	0x3e5bc15c	0.2146048
62	0x41b595ae	22.698086
63	0xc06e037f	-3.7189634
64	0x40ef1768	7.471607
65	0x410ad2c9	8.676461
66	0x3f884edd	1.0649067
67	0x3f7b24e9	0.98103195
68	0x40ed218c	7.410345
69	0x408ee374	4.4652653
70	0x40b04592	5.5084925
71	0xc1d4632c	-26.548424
72	0x40e9206a	7.285207
73	0xc15eb511	-13.919206
74	0x40f768a3	7.731523
75	0x4101374a	8.075998
76	0x41029a48	8.162666
77	0x3d7d6390	0.06186253
78	0x40a025a4	5.004595
79	0x416d2e02	14.823732
80	0x419d819f	19.688292
81	0x407afa99	3.9215453
82	0x41a18864	20.191597
83	0x41a2d9a7	20.356276
84	0x41935a9b	18.41924
85	0x41be8ff0	23.820282
86	0x41c1815f	24.18817
87	0xc0e3daad	-7.120444
88	0x4195c3e6	18.720654
89	0x4044024f	3.062641
90	0x419be67d	19.487543
91	0x41996604	19.174812
92	0x418cd0c6	17.60194
93	0xbe9e45b6	-0.3091256
94	0x41b7b81c	22.964897
95	0xc069a594	-3.650731
96	0xc0402e9b	-3.0028446
97	0x40ce6801	6.450196
98	0xc132bf6a	-11.171732
99	0xc12810d8	-10.504112
100	0xbfac19ad	-1.3445336
101	0xc10812e8	-8.504616
102	0xc10e7237	-8.9028845
103	0xc0bc586c	-5.8857937
104	0xc0195117	-2.3955743
105	0xc15fd1e1	-13.98874
106	0xc02f15f9	-2.735716
107	0xbfd8dd3d	-1.6942517
108	0xbf53c0e1	-0.82716185
109	0xbcd2d9a0	-0.025738537
110	0xc110c5a9	-9.048257
111	0x40d985f5	6.797602
112	0xc01c2b2d	-2.4401352
113	0x40d058b4	6.510828
114	0xc142b0a1	-12.168122
115	0xc13b1b00	-11.694092
116	0xbf98c987	-1.1936501
117	0xc11998fc	-9.59985
118	0xc1122c45	-9.135808
119	0xc0a5f724	-5.1864185
120	0xc048fc8d	-3.1404145
121	0xc158d5d9	-13.552209
122	0xc0403a15	-3.003545
123	0xbff67a6d	-1.9256111
124	0xbf8797ed	-1.0593239
125	0xbde53c40	-0.111931324
126	0xc113e634	-9.243702
127	0x41002cf5	8.010976
128	0xc034876a	-2.820765
129	0x40c681bc	6.2033367
130	0xc1306ad9	-11.026086
131	0xc1206636	-10.024954
132	0xbf9eb339	-1.2398444
133	0xc1021e8c	-8.132458
134	0xc0ff8b31	-7.985741
135	0xc0c9e15a	-6.3087587
136	0xc02ec915	-2.731023
137	0xc1555c40	-13.335022
138	0xc04ef169	-3.2334845
139	0xbff94bca	-1.9476254
140	0xbf526e2d	-0.82199365
141	0x3f1b31cd	0.60622865
142	0xc1037847	-8.216865
143	0x40cfa6b7	6.489101
144	0x41a04892	20.035435
145	0x408132eb	4.0374656
146	0x41a106e1	20.128359
147	0x41a7b82a	20.964924
148	0x418febe4	17.990181
149	0x41bca4a9	23.5804
150	0x41bf80bc	23.937859
151	0xc0bd9d3c	-5.9254436
152	0x4198b971	19.090548
153	0x406c4703	3.6918342
154	0x419f57c5	19.917856
155	0x41985d49	19.04555
156	0x418ca51d	17.580622
157	0xbecb5938	-0.39716506
158	0x41afed39	21.990831
159	0xc09d1eac	-4.909994
160	0xc00eeeca	-2.2333245
161	0x4010cd99	2.2625487
162	0xc094a2c9	-4.644871
163	0xc083401b	-4.1015754
164	0xbf8e8d5e	-1.1136892
165	0xc08d21f0	-4.4103928
166	0xc0823d49	-4.069981
167	0xc0ac9e3c	-5.3943157
168	0xbfbcb151	-1.4741613
169	0xc0a1aabb	-5.052091
170	0xc01bc8e2	-2.434136
171	0xbfab3519	-1.3375579
172	0xbf77abb9	-0.967464
173	0xbedcdafe	-0.43135828
174	0xc06fc64a	-3.7464776
175	0x402a99ba	2.6656327
176	0x41a2cca7	20.349928
177	0x4091bc7c	4.5542583
178	0x419d57a9	19.667803
179	0x41a271d8	20.305588
180	0x4192bcda	18.342213
181	0x41b950c8	23.164444
182	0x41bdee13	23.741247
183	0xc108a54c	-8.540356
184	0x419de1e6	19.735302
185	0x3fd7b904	1.6853337
186	0x41a0657d	20.049555
187	0x419e63a1	19.798647
188	0x41880ef4	17.007301
189	0xbcd96600	-0.026537895
190	0x41b3f4dd	22.494562
191	0xc055b920	-3.3394241
192	0x419bd8a9	19.480791
193	0x40b76603	5.7312026
194	0x419b6e41	19.428835
195	0x41a0e9fa	20.114246
196	0x418c566a	17.542194
197	0x41bc433a	23.532825
198	0x41c050f4	24.039528
199	0xc10a86c3	-8.657901
200	0x419af833	19.371191
201	0x3eec37d4	0.46136343
202	0x41a1f252	20.24332
203	0x41959f68	18.702835
204	0x418a89f6	17.317364
205	0x3ed1265a	0.40849572
206	0x41b346c6	22.409557
207	0xbff5483f	-1.9162673
208	0x41105d8a	9.022837
209	0x40f33e6d	7.6013703
210	0x4052a64e	3.2914004
211	0x4061b1c0	3.526474
212	0x40ffa882	7.98932
213	0x40f8d6b3	7.7762084
214	0x41090bd7	8.565391
215	0xc1d7da2f	-26.981535
216	0x41159165	9.347997
217	0xc1653eca	-14.327829
218	0x4104a74f	8.290847
219	0x41153b7a	9.327021
220	0x410f5f78	8.960808
221	0x3ddf70b0	0.10910165
222	0x40fc5b0a	7.886113
223	0x4143d1b1	12.238694
224	0x41a35285	20.415293
225	0x40a0dd31	5.027001
226	0x419b330f	19.399931
227	0x41a6914a	20.820942
228	0x419101e5	18.125925
229	0x41b8ec0b	23.115255
230	0x41bb71e7	23.430616
231	0xc0eb1769	-7.3466077
232	0x41976937	18.926374
233	0x3fdb7b70	1.7147045
234	0x41a0772d	20.058191
235	0x4199be79	19.218004
236	0x418b4955	17.410807
237	0x3e8f1a7c	0.27949893
238	0x41b56230	22.672943
239	0xc07e87ae	-3.9770312
240	0xc03ab008	-2.916994
241	0x40cc93b4	6.39303
242	0xc141d67a	-12.114862
243	0xc1360171	-11.375352
244	0xbfe26beb	-1.7689184
245	0xc116fa77	-9.436149
246	0xc10d5537	-8.833304
247	0xc0b3c544	-5.6178303
248	0xc01db911	-2.4644206
249	0xc158bc16	-13.545919
250	0xc0356f22	-2.834908
251	0xc02fb053	-2.745137
252	0xbef5560a	-0.47917205
253	0xbea42be8	-0.32064748
254	0xc10d2aa4	-8.82291
255	0x40fb1557	7.846355

fc3.bias f4 [16]
0	0x417eca76	15.924429
1	0x402a183c	2.6577291
2	0xbdc1d819	-0.094650455
3	0x400d5a45	2.2086346
4	0x3f1d3745	0.6141246
5	0x4024fb70	2.5778465
6	0x4037f7c0	2.8744965
7	0x40289bb2	2.634503
8	0x403c9018	2.9462948
9	0x40276195	2.615331
10	0x3f97d4c1	1.1861802
11	0x4005dfe5	2.0917904
12	0x3fdd89e2	1.7307703
13	0xbfb122e1	-1.3838769
14	0x400c9ae2	2.1969533
15	0x4028b1e1	2.6358569

fc4.weight f4 [2, 16]
0	0xc198e03f	-19.109495
1	0x416358ee	14.209211
2	0x4119fae7	9.623755
3	0x416f990d	14.974866
4	0x410933c5	8.575139
5	0x415cfd99	13.8119135
6	0xc1815c5e	-16.170101
7	0xc185a328	-16.704666
8	0xc177519d	-15.457425
9	0x415a10b1	13.629075
10	0xc0b67385	-5.7016015
11	0x41677f4c	14.468578
12	0x4162fa72	14.186144
13	0x413df925	11.873326
14	0x41671414	14.442402
15	0xc18731cc	-16.899315
16	0x419bea4a	19.489399
17	0x41758fe3	15.347629
18	0xc151744a	-13.090891
19	0x4173d774	15.240101
20	0xc15d62fd	-13.836667
21	0x41716e8f	15.089492
22	0xc0cb12c3	-6.3460402
23	0xc0e4fb6c	-7.155691
24	0xc0b9ccb7	-5.8062396
25	0x4178a9bd	15.54144
26	0x4090e1c1	4.527558
27	0x416bc2b2	14.735033
28	0x41585a36	13.522024
29	0xc11e7b7b	-9.905147
30	0x41704e52	15.019121
31	0xc0dd6a5e	-6.9192343

fc4.bias f4 [2]
0	0xc023f686	-2.5619216
1	0x40c14899	6.040112
