experiments/CartPole-v1_PPO/dqn.pth (torch, 10427 bytes, 13 tensors)

actor.0.weight f4 [32, 4]
0	0xbd6f9988	-0.05849603
1	0x3e85db6a	0.26143962
2	0xbf8aad86	-1.0834205
3	0xbef3671a	-0.47539598
4	0x3f9ff3ea	1.2496312
5	0xbf00c3bb	-0.5029866
6	0xbf1eeef2	-0.6208335
7	0xbf41173b	-0.7542607
8	0x3f11ce88	0.56955767
9	0x3e39ad97	0.18132626
10	0xbddf5ca9	-0.109063454
11	0xbd6059a7	-0.054773
12	0xbf7faedf	-0.9987621
13	0x3ea6dfeb	0.3259271
14	0xbf0bc006	-0.5458988
15	0xbf6b76ad	-0.9197796
16	0xbe7e5024	-0.24835259
17	0x3edb26d4	0.4280306
18	0x3ebf488e	0.37360042
19	0x3f5359f3	0.82559127
20	0xbecf3d4f	-0.40476462
21	0xbf2c2d47	-0.6725659
22	0xbf7c9ee1	-0.9867993
23	0x3f6ada06	0.9173893
24	0xbf2212c7	-0.633099
25	0xbf5592b8	-0.83427
26	0xbeee01b8	-0.46485686
27	0xbf80e83f	-1.0070876
28	0x3ecba296	0.3977248
29	0xbf88f7ce	-1.0700624
30	0x3e7b9bba	0.24571124
31	0xbeafcb3f	-0.34334752
32	0x3f238316	0.63871896
33	0xbf314829	-0.6925073
34	0xbdc018f8	-0.093797624
35	0xbebb8900	-0.3662796
36	0xbe3679fc	-0.17819971
37	0xbf906751	-1.128153
38	0x3d2cf5dc	0.042226657
39	0xbf856edb	-1.0424455
40	0x3f8b4e4c	1.0883269
41	0xbf97f9cb	-1.1873106
42	0xbf8d5b0e	-1.1043413
43	0x3ebef57c	0.37296665
44	0xbe87a14e	-0.26490253
45	0x3f9bd637	1.2174748
46	0x3f2f705b	0.68530816
47	0x3ecc71af	0.39930484
48	0x3f993b54	1.197123
49	0x3f0776c1	0.5291558
50	0x3f954310	1.1661091
51	0x3eb1ee0b	0.34751925
52	0x3d1781eb	0.036989134
53	0xbf6be832	-0.92151177
54	0xbec4308c	-0.38318288
55	0x3dcaec54	0.09908357
56	0xbf923a62	-1.1424067
57	0x3f5c3e71	0.8603278
58	0x3f4ea870	0.80725765
59	0x3f3e86f7	0.7442469
60	0xbf0ea199	-0.5571533
61	0xbe20623f	-0.15662478
62	0xbf1d8402	-0.6152955
63	0x3f8cbd51	1.0995275
64	0x3f282677	0.6568369
65	0xbf6e97dd	-0.93200475
66	0x3f756391	0.9585505
67	0x3f35e000	0.7104492
68	0xbe2ff407	-0.17182933
69	0xbf028df0	-0.5099783
70	0xbeae9753	-0.34099826
71	0xbe78411b	-0.24243586
72	0x3f7ab10a	0.9792639
73	0xbec504a5	-0.38480106
74	0xbeba920c	-0.3643955
75	0x3fa797d1	1.3093206
76	0x3d1c263e	0.038122408
77	0xbf4cb732	-0.79967034
78	0xbef7a7ca	-0.483702
79	0x3f8f8ae3	1.121426
80	0xbd2ddf6d	-0.042449404
81	0x3f46f13a	0.7771183
82	0xbf0e6eac	-0.5563762
83	0x3f3ce720	0.7379017
84	0xbebbe303	-0.36696634
85	0x3dd96f42	0.10616924
86	0x3f72aafc	0.9479215
87	0x3f0a9bc8	0.54143953
88	0x3f9c4197	1.2207516
89	0x3f738fb9	0.9514118
90	0xbf7e2ad6	-0.9928411
91	0x3f92c4db	1.1466326
92	0x3e328961	0.17435218
93	0xbe8d63e5	-0.27615276
94	0x3f302d44	0.6881907
95	0xbe44e6fd	-0.1922874
96	0x3d15f69f	0.03661215
97	0xbf803cb5	-1.0018526
98	0xbebe5418	-0.37173533
99	0xbf84aebd	-1.0365826
100	0x3e639da1	0.222281
101	0xbf84b654	-1.0368142
102	0xbeaf0f6c	-0.34191453
103	0xbef9ef15	-0.48815218
104	0x3ea61f7e	0.32445902
105	0xbf81d4a5	-1.0143019
106	0x3f573f96	0.840814
107	0xbf3622fa	-0.7114712
108	0xbf31e0cc	-0.6948364
109	0x3e571f49	0.21008028
110	0x3f9e5d82	1.2372286
111	0x3f1cca4d	0.61246186
112	0x3e82b3e8	0.25527883
113	0x3f594bbe	0.848812
114	0xbea59517	-0.3234031
115	0xbf93b985	-1.1540991
116	0x3ec62935	0.38703313
117	0xbef74358	-0.48293567
118	0xbf527f07	-0.8222508
119	0xbf81d0ff	-1.0141906
120	0xbee8aa53	-0.45442447
121	0xbf7d4e4a	-0.98947585
122	0xbf33ff12	-0.7031108
123	0xbf7264c6	-0.9468502
124	0xbf45dca1	-0.7728978
125	0x3e83191b	0.2560509
126	0x3f834da9	1.0258075
127	0x3f7d56a7	0.98960346

actor.0.bias f4 [32]
0	0xbf00127c	-0.50028205
1	0xbe725c73	-0.23668079
2	0xbed63df8	-0.41844153
3	0x3e5f20a8	0.21789801
4	0x3e3be9aa	0.18350855
5	0x3dfb37d8	0.12266511
6	0xbebc77f3	-0.36810264
7	0xbf06cdd5	-0.52657825
8	0x3e13048d	0.14357205
9	0xbeeff6cd	-0.46867982
10	0xbeb41f32	-0.3518005
11	0xbcfd276a	-0.030902583
12	0xbebafd1e	-0.36521238
13	0xbe85eafe	-0.26155847
14	0x3e6e0169	0.23242725
15	0xbd2f7811	-0.042839114
16	0xbda56d2d	-0.08077464
17	0x3efdb7ac	0.49554193
18	0x3db96285	0.09051994
19	0x3ee428f6	0.445625
20	0xbf06cbb6	-0.5265459
21	0xbe3353b2	-0.17512396
22	0x3d5b47db	0.053535324
23	0x3eb38057	0.35058853
24	0xbeabfc26	-0.33590811
25	0xbe73ada6	-0.2379671
26	0x3e5b60fa	0.21423712
27	0xbe634d6c	-0.22197503
28	0x3f0c147b	0.5471875
29	0x3ec2a50d	0.3801655
30	0xbeec8b7e	-0.46200174
31	0x3e511189	0.20416845

actor.2.weight f4 [16, 32]
0	0xbe5929ad	-0.21207304
1	0xbea95abd	-0.3307704
2	0x3e19eb33	0.15031128
3	0x3e52b523	0.2057691
4	0x3e4b8dd9	0.1987833
5	0x3e9ff97e	0.31245035
6	0x3e21cbee	0.15800449
7	0x3e972d48	0.29526734
8	0xbe9192ff	-0.28432462
9	0xbe035125	-0.12823923
10	0xbeaedc0b	-0.34152254
11	0xbebfd158	-0.37464404
12	0xbea6925e	-0.32533544
13	0x3d8c618f	0.06854545
14	0xbef08b76	-0.469814
15	0x3e1510e7	0.14557229
16	0x3ead21d4	0.3381487
17	0x3d337bd8	0.04381928
18	0xbec76462	-0.38943774
19	0xbea736d1	-0.3265901
20	0x3e8b2bde	0.27181906
21	0xbe088e4d	-0.13335533
22	0xbba34b26	-0.0049833236
23	0x3d94d3eb	0.07266983
24	0x3d9f729f	0.07785534
25	0xbe3c1ad5	-0.1836961
26	0x3ec71d1c	0.38889396
27	0xbe345dac	-0.17613858
28	0x3effa84b	0.49933085
29	0xbe968361	-0.2939711
30	0xbeab20ce	-0.33423465
31	0xbe60b5da	-0.21944371
32	0x3e468f06	0.19390497
33	0x3d9abcb3	0.07555523
34	0x3a652c20	0.0008742232
35	0xbc190b24	-0.009341035
36	0x3e98cdb2	0.29844433
37	0x3e1e0a85	0.154337
38	0xbe38a6a3	-0.18032317
39	0xbef7165a	-0.4825924
40	0xbdeb3623	-0.11484935
41	0x3d0482f4	0.03235145
42	0x3d1a7fc8	0.037719518
43	0x3e0fbfeb	0.14038055
44	0x3e7d2fd1	0.24725272
45	0x3eb032ff	0.34413907
46	0x3bbabaf9	0.0056985584
47	0xbe80a578	-0.25126243
48	0x3df1d728	0.11808616
49	0xbd19fdd2	-0.037595578
50	0x3e81ef14	0.25377715
51	0x3dfae3c7	0.12250476
52	0x3dde1101	0.10843087
53	0xbe80e926	-0.25177878
54	0x3e9bace9	0.30405357
55	0xbd34a426	-0.044101857
56	0x3dde26df	0.10847258
57	0x3e124778	0.14285076
58	0x3daf4cfa	0.08559604
59	0x3e8c3479	0.27383783
60	0xbd794d54	-0.06086476
61	0xbca864b9	-0.02055584
62	0x3e919c23	0.28439435
63	0x3e2ba6bc	0.16762823
64	0xbc3e26e0	-0.011605948
65	0x3d2cdc8b	0.042202514
66	0xbe9c3075	-0.3050572
67	0xbe6325ae	-0.22182342
68	0xbe7f29ff	-0.24918364
69	0xbda44aa1	-0.08022047
70	0xbd91f8e0	-0.07127547
71	0x3e1278ff	0.14303969
72	0x3caa8220	0.020814002
73	0xbe6247b1	-0.2209766
74	0x3e4501e4	0.19239002
75	0xbeb65959	-0.35615042
76	0xbea40fab	-0.32043204
77	0x3ec85166	0.39124602
78	0xbea57c7e	-0.32321543
79	0x3eaf3d17	0.34226295
80	0x3e98640f	0.2976384
81	0xbecdc547	-0.40189573
82	0xbeb6d09c	-0.3570603
83	0xbe9dc961	-0.30817702
84	0xbe6c2e25	-0.23064478
85	0xbd95ee08	-0.073207915
86	0xbd780bb0	-0.06055802
87	0xbc2cce59	-0.010547244
88	0xbed23a34	-0.4106003
89	0xbc9f9b67	-0.019483281
90	0x3d76c855	0.060249645
91	0x3e016a1e	0.12638137
92	0xbe217c19	-0.15769996
93	0x3e8ffde1	0.28123382
94	0xbc9268ea	-0.017872293
95	0xbecdddd0	-0.40208292
96	0x3e3b0033	0.18261795
97	0xbe8a57f3	-0.27020225
98	0xbe2b39e7	-0.16721307
99	0xbe6fd054	-0.23419315
100	0xbe0762f5	-0.13221343
101	0x3d3a7bc5	0.045528192
102	0x3ea31685	0.3185312
103	0x3e9e77e1	0.30950835
104	0x3ec869be	0.39143175
105	0x3dbe319c	0.09286806
106	0x3ed94c49	0.42441013
107	0x3eff3fae	0.4985327
108	0xbe5e81e4	-0.21729237
109	0xbe3d7a50	-0.1850369
110	0x3e11e82b	0.14248721
111	0xbd8e1fcb	-0.06939658
112	0x3dd715ad	0.10502181
113	0xbec68fa6	-0.3878147
114	0xbe5906d1	-0.21194007
115	0xbe949840	-0.29022408
116	0xbe2fc050	-0.17163205
117	0x3ee81df5	0.45335355
118	0xbd814578	-0.06312078
119	0xbe803dc6	-0.2504713
120	0xbec54a5d	-0.38533297
121	0xbe1ba4e2	-0.15199617
122	0xbe97d7ec	-0.29656923
123	0x3ef5b21d	0.47987452
124	0x3d0f1c68	0.0349392
125	0xbe51cf94	-0.20489341
126	0xbe9275e4	-0.28605568
127	0xbe766320	-0.2406125
128	0xbeb97340	-0.3622074
129	0xbe865ff2	-0.26245075
130	0xbe8da66f	-0.2766604
131	0xbdd35537	-0.10318988
132	0x3f333845	0.70007735
133	0xbe650dee	-0.22368595
134	0xbdec2c09	-0.115318365
135	0xbe88302a	-0.26599246
136	0x3e9cd46e	0.3063082
137	0xbdf3f112	-0.11911215
138	0x3e0521ce	0.13001177
139	0xbe364757	-0.17800651
140	0x3d904153	0.070437096
141	0x3c5aabaf	0.013346597
142	0x3f214b0d	0.63005143
143	0x3e0271f2	0.12738779
144	0x3e8c5010	0.27404833
145	0x3ed18c7d	0.40927497
146	0x3f04ea18	0.519197
147	0x3e8e1270	0.27748442
148	0x3e0a7d3b	0.13524334
149	0x3e88070a	0.2656787
150	0xbe0c2e5f	-0.13689564
151	0x3e73af03	0.2379723
152	0x3e21fc4d	0.15818901
153	0xbe79e894	-0.24405128
154	0x3d604732	0.054755397
155	0x3d09159d	0.033467878
156	0x3e6789fb	0.22611229
157	0xbedd2ce4	-0.4319831
158	0xbef2ec1a	-0.47445756
159	0xbdb92038	-0.09039348
160	0xbec60dd3	-0.38682422
161	0xbde4b2a0	-0.111668825
162	0xbe70bffd	-0.23510738
163	0xbe081c40	-0.13292027
164	0xbed744a8	-0.42044568
165	0xbe301092	-0.17193821
166	0x3eb1cbd4	0.3472582
167	0xbe669f4d	-0.22521706
168	0x3d679313	0.056536745
169	0x3db696b1	0.08915461
170	0xbedd1788	-0.43182015
171	0xbe5ec193	-0.2175353
172	0x3d8c478b	0.06849583
173	0x3ec01840	0.375185
174	0xbe35f113	-0.17767744
175	0xbea6dfd6	-0.32592648
176	0x3e28b1ff	0.1647415
177	0x3d2382ad	0.039919544
178	0x3eacceed	0.33751622
179	0xbea118e6	-0.31464309
180	0xbeb21b70	-0.34786558
181	0xbd105df7	-0.03524586
182	0x3e11905c	0.14215225
183	0xbed84db1	-0.42246774
184	0x3eaa509a	0.3326462
185	0xbe915180	-0.28382492
186	0x3ecd282d	0.40069714
187	0xbebddffe	-0.37084955
188	0xbe83c0f8	-0.2573316
189	0x3e154ec5	0.1458083
190	0xbe94c02c	-0.29052866
191	0xbdad4b59	-0.08461637
192	0x3e1fec44	0.15617472
193	0x3eb5a374	0.35476267
194	0x3eadb2f7	0.33925602
195	0xbe6aa271	-0.22913529
196	0xbe989aee	-0.29805702
197	0x3dddfe05	0.10839466
198	0x3e5db8f7	0.2165259
199	0x3ebb0fe9	0.36535576
200	0x3d47c76d	0.04877417
201	0xbee44bf8	-0.4458921
202	0x3e370573	0.17873172
203	0xbe371fed	-0.17883272
204	0xbe3b855c	-0.18312591
205	0x3e131469	0.14363255
206	0xbe60827e	-0.21924779
207	0xbdb585aa	-0.08863385
208	0xbe85aace	-0.26106876
209	0xbe65a222	-0.2242513
210	0xbe2c38da	-0.16818562
211	0xbdc64ebc	-0.09682986
212	0xbed79e13	-0.4211279
213	0xbee406a1	-0.44536307
214	0x3ebdf447	0.3710043
215	0x3c9d4027	0.01919563
216	0xbefe4d04	-0.49668133
217	0xbeade171	-0.3396106
218	0x3e3b6cb8	0.18303192
219	0xbeb50277	-0.35353443
220	0xbe5217c9	-0.20516886
221	0x3e96ea99	0.2947586
222	0xbecc9dea	-0.3996423
223	0xbe11f8e0	-0.14255095
224	0x3dd049ad	0.101703025
225	0xbe903216	-0.28163213
226	0x3ed471b3	0.41492996
227	0xbe95627b	-0.29176697
228	0xbc43206c	-0.011909585
229	0x3ee65241	0.4498463
230	0x3e916c60	0.28402996
231	0x3e129ccf	0.1431763
232	0xbe65ef38	-0.22454536
233	0x3e28221f	0.16419266
234	0x3e8349eb	0.25642332
235	0x3e84932c	0.25893533
236	0xbe1fa3b7	-0.15589796
237	0xbea00ef0	-0.31261396
238	0x3f11593b	0.5677678
239	0x3efe30d2	0.49646622
240	0x3ecd5a91	0.4010816
241	0x3e75b130	0.23993373
242	0xbd85e410	-0.0653764
243	0x3eeb11a6	0.45911902
244	0xbe64dae9	-0.22349133
245	0xbe509f1c	-0.20373195
246	0x3e669220	0.2251668
247	0xbe9cbf82	-0.3061486
248	0x3e27fbfb	0.16404717
249	0xbe4fb554	-0.20284015
250	0xbe9c2280	-0.3049507
251	0x3eacae07	0.33726522
252	0xbe3fd014	-0.1873172
253	0xbe2be802	-0.16787723
254	0x3e482033	0.19543533
255	0xbe5be928	-0.21475661

actor.2.bias f4 [16]
0	0x3e21cada	0.15800038
1	0xbcfddf00	-0.030990124
2	0xbd6a7ce1	-0.057248
3	0x3e82b0e1	0.25525573
4	0x3dce3278	0.1006822
5	0xb94d8092	-0.0001959822
6	0xbb032f84	-0.0020017335
7	0x3e2d7378	0.16938579
8	0x3cfdeeb3	0.03099761
9	0xbd58dc18	-0.052944273
10	0x3e112007	0.14172374
11	0x3d7c5f57	0.06161436
12	0xbd12fbc5	-0.035884637
13	0x3d7e8334	0.062136844
14	0xbe4f5f8a	-0.20251289
15	0x3d4e590b	0.050377887

actor.4.weight f4 [2, 16]
0	0x3f1a328b	0.6023337
1	0xbefd3751	-0.49456266
2	0x3ebbaef0	0.36656904
3	0xbebc9090	-0.36829042
4	0xbe4c2897	-0.19937359
5	0xbe7833a1	-0.24238445
6	0xbca2d465	-0.019876668
7	0xbf1892ef	-0.595992
8	0xbead16e8	-0.3380654
9	0xbe2035c9	-0.15645517
10	0x3eea7c76	0.4579808
11	0xbed622c9	-0.41823414
12	0x3ed33d42	0.41257674
13	0x3eab0699	0.3340347
14	0x3d3c95f8	0.04604146
15	0x3f1ba993	0.60805625
16	0xbf1c04e7	-0.6094498
17	0x3e90f209	0.28309658
18	0xbe781c3b	-0.24229519
19	0x3f21ad5a	0.6315514
20	0x3f0dc77f	0.5538253
21	0xbccce47f	-0.0250113
22	0xbdd95a5f	-0.1061294
23	0x3f0df89f	0.5545749
24	0x3f0d0ee0	0.5510082
25	0x3f1cbcc1	0.61225516
26	0xbecd4bc7	-0.40096876
27	0xbe8d0e8d	-0.27550164
28	0x3f0a09ef	0.5392141
29	0xbf216507	-0.6304478
30	0xbf19082b	-0.5977809
31	0xbef684a5	-0.48148075

actor.4.bias f4 [2]
0	0x3e1ce8d8	0.15323198
1	0xbd9f4251	-0.07776321

critic.0.weight f4 [32, 4]
0	0x3ece4457	0.40286514
1	0x3ee74222	0.45167643
2	0x3ec2f243	0.38075456
3	0xbdad759e	-0.08469699
4	0xbe6316a6	-0.22176608
5	0xbec2e8fa	-0.38068372
6	0x3e01d9b3	0.12680702
7	0xbefe651a	-0.4968651
8	0xbe63643c	-0.22206205
9	0xbed095a8	-0.4073918
10	0x3ee03d40	0.4379673
11	0x3e9c4e73	0.30528602
12	0xbeaa2d07	-0.33237478
13	0x3e149e98	0.14513624
14	0x3dae2a24	0.085041314
15	0x3e1a97f3	0.15097027
16	0xbea93469	-0.33047798
17	0x3ee58535	0.4482819
18	0xbe08b032	-0.13348463
19	0x3ed84e21	0.42247108
20	0x3e7bac2d	0.24577399
21	0xbeff4302	-0.4985581
22	0x3ec04d86	0.37559146
23	0xbefc76d2	-0.49309403
24	0x3e8bac6b	0.27279982
25	0xbec8dfca	-0.39233238
26	0x3e6a9f95	0.22912438
27	0xbeca4f04	-0.3951341
28	0x3e785f85	0.24255188
29	0x3df2213a	0.11822744
30	0x3db87190	0.09006035
31	0xbde16d0e	-0.11007129
32	0x3ea5bba5	0.32369724
33	0xbf01b098	-0.50660086
34	0xbe43116a	-0.19049612
35	0x3e9bc67a	0.30424863
36	0x3ee55273	0.44789466
37	0xbe76c6ea	-0.24099317
38	0x3ee37353	0.44423923
39	0x3e164677	0.14675318
40	0xbe29e97d	-0.16592975
41	0x3ea0a97a	0.313793
42	0xbeac237c	-0.33620822
43	0x3e4189b7	0.1890019
44	0xbee58566	-0.44828337
45	0x3e86bbe1	0.26315215
46	0x3f01967e	0.5062026
47	0x3f091a1e	0.53555477
48	0x3e34ae4e	0.17644617
49	0x3e074133	0.13208465
50	0x3dcf3400	0.1011734
51	0xbce24a0d	-0.0276232
52	0x3e73c69e	0.23806235
53	0x3e074d2f	0.13213037
54	0xbe4ec646	-0.20192823
55	0xbdada80f	-0.0847932
56	0xbdcab4a4	-0.09897736
57	0xbe0f98a4	-0.14023072
58	0x3e402201	0.18762971
59	0x3cddfa85	0.027096996
60	0x3eba0234	0.36329806
61	0x3ea221f9	0.31666544
62	0xbea7fa2f	-0.32808062
63	0xbe9413e8	-0.28921437
64	0xbe8443aa	-0.25832874
65	0x3e368480	0.17823982
66	0xbd85d181	-0.065341
67	0x3d8112a7	0.06302386
68	0xbea83a76	-0.32857102
69	0xbe927d44	-0.28611195
70	0x3f407b86	0.7518848
71	0x3e886812	0.266419
72	0xbefe67f7	-0.49688694
73	0x3e9b858e	0.30375332
74	0x3f09ab78	0.53777266
75	0x3f011b3b	0.50432175
76	0x3eb18719	0.34673384
77	0xbf005ee6	-0.50144804
78	0x3c90649d	0.017626101
79	0x3eb20d97	0.34775993
80	0xbe88b419	-0.26699904
81	0x3ef1d00e	0.47229046
82	0xbef19bc4	-0.47189152
83	0x3e837cfb	0.2568129
84	0xbe7a4e8c	-0.24444026
85	0x3e50dbb3	0.20396309
86	0x3eac9e3a	0.33714467
87	0xbe6207dc	-0.2207331
88	0xbe905ab0	-0.2819419
89	0xbd90ea85	-0.07075981
90	0xbe0a32d3	-0.1349595
91	0x3e23bfa7	0.15991078
92	0x3e121e2b	0.1426932
93	0xbd44e808	-0.048072845
94	0xbe1b6ea3	-0.15178923
95	0x3df8efef	0.12155139
96	0xbf06e268	-0.5268922
97	0xbedb1c2e	-0.42794937
98	0x3c21351e	0.009839324
99	0x3f089a37	0.53360313
100	0x3c0e9a52	0.008703785
101	0xbd1b89a1	-0.03797305
102	0x3f16bfb6	0.5888628
103	0x3ee10a8d	0.43953362
104	0x3e9322af	0.287374
105	0x3e7add6f	0.24498533
106	0x3c9d8db9	0.019232618
107	0xbec79f5e	-0.38988775
108	0x3ed8d536	0.42350167
109	0x3d9f2d7a	0.07772346
110	0xbdcb8f71	-0.09939469
111	0x3eb664f6	0.35623902
112	0xbea2e25f	-0.31813332
113	0x3ca4cf87	0.020118488
114	0xbede078b	-0.4336513
115	0x3e406411	0.18788172
116	0x3d3f7115	0.046738703
117	0xbe8734b0	-0.26407385
118	0xbf06721b	-0.5251786
119	0xbdfdd68a	-0.12394436
120	0xbefcd82a	-0.4938367
121	0xbc9604ea	-0.01831289
122	0xbf0c97b5	-0.54918987
123	0xbeb8cdef	-0.36094615
124	0x3d55c312	0.052187987
125	0xbeed75aa	-0.46378833
126	0x3e22345b	0.15840285
127	0xbe03b784	-0.12862974

critic.0.bias f4 [32]
0	0x3f84de22	1.038029
1	0xbee5eb51	-0.44906095
2	0xbea33bb1	-0.31881478
3	0x3f126f19	0.5720077
4	0x3f6ca7c5	0.92443496
5	0x3f7680c7	0.9629025
6	0x3f435d14	0.763139
7	0x3f4d94d9	0.8030525
8	0x3efe732a	0.49697238
9	0x3f26db0e	0.65178
10	0x3f547b92	0.83001053
11	0xbe275422	-0.16340688
12	0x3f5ef5ce	0.8709382
13	0x3f230a2a	0.63687384
14	0x3f59d035	0.85083324
15	0xbe98359c	-0.297284
16	0x3f622558	0.8833823
17	0xbea2747a	-0.3172949
18	0xbe07b124	-0.13251168
19	0xbe148fb6	-0.14507946
20	0xbed8ced9	-0.42345312
21	0xbeb6ba66	-0.35689086
22	0xbefabdd6	-0.48972958
23	0x3f83a34c	1.0284209
24	0xbe58e5d8	-0.21181428
25	0xbe6e265d	-0.23256822
26	0xbedfc6ab	-0.4370626
27	0x3f825346	1.0181663
28	0x3f267635	0.6502412
29	0xbea475e7	-0.32121202
30	0xbedaf297	-0.42763206
31	0xbeea18c6	-0.45722026

critic.2.weight f4 [16, 32]
0	0x3f2b58c1	0.669323
1	0x3ca89120	0.020577013
2	0xbd9874f5	-0.07444183
3	0x3e847ecd	0.2587799
4	0x3e9a3de5	0.30125347
5	0x3f364c0e	0.712098
6	0x3f0d86a5	0.55283576
7	0x3eec770a	0.4618457
8	0x3d4a02e7	0.049319174
9	0x3e804c5b	0.25058255
10	0x3ed3f593	0.41398296
11	0xbdbfde09	-0.09368522
12	0x3ef49391	0.47768834
13	0x3f39609a	0.7241303
14	0x3f1be1ed	0.6089161
15	0xbdfd1238	-0.123569906
16	0x3f031212	0.5119945
17	0xbed832f1	-0.42226365
18	0xbeb1e932	-0.34748226
19	0x3dd513dc	0.104041785
20	0xbd92b7b4	-0.07163945
21	0x3e301c9f	0.17198418
22	0xbd91e381	-0.07123471
23	0x3ea43524	0.32071793
24	0xbcfaa8fd	-0.030598158
25	0xbd05e497	-0.032688703
26	0xbe49b9d7	-0.19699799
27	0x3f1a53ba	0.60284007
28	0x3ecc34b4	0.3988396
29	0xbe2975e7	-0.16548882
30	0xbe870678	-0.26372123
31	0xbce84c67	-0.028356744
32	0x3eb840ad	0.35986844
33	0xbcb9754f	-0.022638945
34	0xbe57ae68	-0.21062624
35	0x3ece634a	0.40310127
36	0x3f13d574	0.5774758
37	0x3f11389d	0.5672701
38	0x3f06860a	0.5254828
39	0x3f146a23	0.5797445
40	0x3e4bad76	0.19890389
41	0x3e869bb6	0.26290673
42	0x3ea84841	0.32867625
43	0xbeb50f46	-0.35363215
44	0x3eeb97a9	0.46014145
45	0x3ec8cb96	0.39217824
46	0x3eb3d076	0.3511998
47	0x3d7b7365	0.061389346
48	0x3edc328f	0.43007323
49	0xbea24c63	-0.31698903
50	0xbec0f85d	-0.37689486
51	0xbcd503d3	-0.0260028
52	0x3d255733	0.040366363
53	0x3ddb561b	0.10709783
54	0xbdd4de1d	-0.10393927
55	0x3f0d5d5a	0.5522057
56	0x3db24f65	0.087065496
57	0xbe59b7bf	-0.212615
58	0xbe4f2831	-0.20230176
59	0x3f0b5eb6	0.5444139
60	0x3f0f2b01	0.55924994
61	0x3d1a232d	0.037631202
62	0xbe101e4b	-0.14074056
63	0xbd5965cc	-0.053075597
64	0x3f24f3d2	0.6443454
65	0x3ca1dcf5	0.01975868
66	0xbd736b56	-0.059428535
67	0x3e4f751e	0.2025952
68	0x3e5f7e91	0.21825625
69	0x3ed1871e	0.409234
70	0x3f249c2e	0.6430081
71	0x3f1bb596	0.60823953
72	0x3ebcf392	0.3690458
73	0x3e96d03f	0.29455754
74	0x3f040bbf	0.51580423
75	0xbee056ac	-0.43816125
76	0x3f0f59af	0.5599622
77	0x3eb6f0e4	0.3573066
78	0x3f01e74a	0.50743544
79	0xbe415a1b	-0.18882029
80	0x3e8d6969	0.27619484
81	0xbed49315	-0.41518465
82	0xbe8c6095	-0.27417436
83	0x3ccbce0d	0.024878526
84	0xbd4cd6f1	-0.05000967
85	0xbd102e56	-0.03520044
86	0x3c1f8db6	0.009738376
87	0x3eee6f1c	0.46569145
88	0xbe034f53	-0.12823229
89	0xbcabb461	-0.020960035
90	0xbe884fda	-0.26623422
91	0x3e7b6890	0.24551606
92	0x3ecb8101	0.3974686
93	0xbe2698f2	-0.16269282
94	0x3d2f6124	0.04281725
95	0xbcf63a8d	-0.030057216
96	0xbcc63201	-0.024193766
97	0xbe06f3c7	-0.13178931
98	0xbdfa0f47	-0.12209945
99	0x3d30ad1c	0.04313384
100	0x3d3519da	0.044214107
101	0x3d7ee168	0.062226683
102	0x3cd26204	0.025681503
103	0xbc092892	-0.008371489
104	0x3d115b2b	0.035487335
105	0x3cfbdf38	0.030746087
106	0xbd82e8b9	-0.063920446
107	0x3e1749bd	0.14774223
108	0xbe169cdb	-0.14708273
109	0xbd8fd68b	-0.07023343
110	0xbce8f2ce	-0.02843609
111	0xbadb5400	-0.0016733408
112	0xbe3fc876	-0.18728814
113	0x3d80748c	0.062722296
114	0xbe0490e2	-0.12945893
115	0xbdd031b1	-0.10165728
116	0x3e061563	0.13094096
117	0xbc9c9810	-0.019115478
118	0xbdfa5c26	-0.12224607
119	0xbda0ea03	-0.07857134
120	0x3d1087c4	0.035285726
121	0xbdbf3470	-0.093361735
122	0xbc5da320	-0.013527662
123	0x3e14d496	0.1453422
124	0xbd9c4644	-0.076305896
125	0x3d7686c4	0.060187116
126	0x3d4bf3c4	0.04979302
127	0x3e16399c	0.14670414
128	0x3f1134e1	0.5672131
129	0xbe3a72ad	-0.18207808
130	0xbe75d57c	-0.24007219
131	0x3e415c03	0.18882756
132	0x3ee4010d	0.44532052
133	0x3f1781be	0.59182346
134	0x3f01e27f	0.5073623
135	0x3ef75170	0.4830432
136	0x3ea91167	0.3302109
137	0x3e1ba96d	0.1520135
138	0x3ecab0d7	0.39588043
139	0xbee93a66	-0.45552367
140	0x3f11a78c	0.5689628
141	0x3f1363ea	0.5757433
142	0x3f033381	0.51250464
143	0xbe4d9d84	-0.20079619
144	0x3ece0eb1	0.40245584
145	0xbea403f1	-0.32034257
146	0xbe458697	-0.19289623
147	0xbddda2da	-0.10822077
148	0xbbcc4db0	-0.006234847
149	0xbdf72a63	-0.120686315
150	0xbd04db4d	-0.032435704
151	0x3ecba82a	0.39776736
152	0xbe361618	-0.17781866
153	0xbdd2e769	-0.10298044
154	0x3ce75fa1	0.028243842
155	0x3f0c3fbb	0.54784745
156	0x3ed00f38	0.4063661
157	0xbd1b607e	-0.03793382
158	0xbd997297	-0.074925594
159	0x3e181441	0.14851476
160	0xbd78cc20	-0.060741544
161	0xbe3900f5	-0.18066771
162	0x3e43db24	0.19126564
163	0xbd57252a	-0.052525677
164	0x3e465db1	0.19371678
165	0xbcf221ae	-0.029557075
166	0xbdd5ec2a	-0.10445435
167	0xbe02d22c	-0.12775487
168	0xbe16a8c1	-0.14712812
169	0x3dd9dde5	0.10638026
170	0xbe117993	-0.14206533
171	0x3e012e78	0.12615383
172	0xbcb7bdbd	-0.022429341
173	0xbe4e9931	-0.20175625
174	0x3dd25694	0.1027042
175	0x3e26a0f5	0.16272338
176	0xbdb45b71	-0.088065036
177	0x3e82c7e5	0.25543132
178	0x3e920d6e	0.2852587
179	0x3e49f8aa	0.19723764
180	0xbc30deb3	-0.010795283
181	0x3de5388a	0.111924246
182	0xbe264ecb	-0.16240995
183	0xbd847496	-0.064675495
184	0x3ceb8eec	0.028754674
185	0xbd735986	-0.059411548
186	0x3cf74189	0.030182617
187	0x3de46684	0.11152366
188	0xbd95552a	-0.072916344
189	0xbbf377e0	-0.0074300617
190	0xbe40b27b	-0.18818085
191	0xbe69e847	-0.22842513
192	0x3e1bbcc1	0.15208723
193	0x3e296c6b	0.16545264
194	0xbdfb93cb	-0.12284049
195	0xbd1f8ebc	-0.03895448
196	0x3dbf7a02	0.09349443
197	0xbdd8a95e	-0.10579179
198	0xbe335593	-0.17513113
199	0x3d81a16a	0.063296154
200	0xbe16650a	-0.14686981
201	0xbd169fd0	-0.036773503
202	0x3cd2eb60	0.025747001
203	0x3dbba696	0.09162633
204	0xbd616cc0	-0.055035353
205	0xbd045960	-0.032311797
206	0xbd9ecfab	-0.07754453
207	0x3e1e7ec1	0.1547804
208	0xbd922e9f	-0.071377985
209	0x3e0f6b99	0.14005889
210	0xbc8936d8	-0.016749784
211	0x3e22581b	0.15853922
212	0x3bf4bbc0	0.0074686706
213	0x3d8f1fbc	0.06988475
214	0xbd098d9c	-0.033582315
215	0xbe1f96fa	-0.15584937
216	0xbe10da93	-0.1414588
217	0xbd8a55ee	-0.06754671
218	0xbe29a193	-0.16565542
219	0xbd4b7f94	-0.049682215
220	0xbd5d87aa	-0.054084457
221	0x3e333403	0.1750031
222	0xbd80ac26	-0.06282835
223	0xbe057196	-0.13031611
224	0x3f06660e	0.52499473
225	0xbde00883	-0.109391235
226	0x3b65c41a	0.0035059513
227	0x3eebb161	0.46033767
228	0x3ee25c55	0.4421107
229	0x3f13bcf6	0.57710207
230	0x3f13cbb5	0.5773271
231	0x3f1afe28	0.6054406
232	0x3e61bcfe	0.22044751
233	0x3eea4421	0.45755103
234	0x3ef3ef6c	0.47643602
235	0xbe9083c3	-0.28225526
236	0x3f068869	0.52551895
237	0x3ec35931	0.38153985
238	0x3e945765	0.28972927
239	0xbd1bd8cf	-0.03804856
240	0x3e8fa70d	0.28057137
241	0xbe837200	-0.25672913
242	0xbe8ee49e	-0.27908796
243	0x3dc604d6	0.09668891
244	0xbd9a0913	-0.07521262
245	0xbd93bd94	-0.072138935
246	0xbda804d0	-0.08204043
247	0x3efc81fe	0.49317926
248	0xbca1d882	-0.01975656
249	0xbe42b31b	-0.19013636
250	0xbe8b249b	-0.27176365
251	0x3ea4291e	0.3206262
252	0x3e819562	0.25309283
253	0xbe39849d	-0.18116994
254	0xbd064499	-0.032780264
255	0x3c28daca	0.01030607

critic.2.bias f4 [16]
0	0x3f02e9f8	0.5113826
1	0x3f0814f1	0.53156954
2	0x3f10cce4	0.5656264
3	0x3b8d72c1	0.0043166582
4	0x3f1a405b	0.6025445
5	0xbe138275	-0.14405234
6	0xbe1c8b25	-0.15287454
7	0x3ee1f0e4	0.44129097
8	0xbd04fc11	-0.03246695
9	0x3d43ec69	0.04783288
10	0xbe1df3a1	-0.15424968
11	0x3f205a7b	0.6263806
12	0xbe09cb30	-0.13456416
13	0x3f188a5a	0.5958611
14	0xbdd40792	-0.103530064
15	0x3ef14840	0.47125435

critic.4.weight f4 [16, 16]
0	0xbe6b817b	-0.22998612
1	0x3d068a3d	0.032846678
2	0xbd0d73d3	-0.034534287
3	0x3e4894d5	0.19588025
4	0x3e49de29	0.19713654
5	0x3d0e646f	0.03476375
6	0x3e6f6ab0	0.23380542
7	0x3cb1e83b	0.021717181
8	0xbe2689b7	-0.16263472
9	0xbd821018	-0.06350726
10	0x3dfb9e0c	0.122860044
11	0x3df89c64	0.12139204
12	0x3e7b26e4	0.24526554
13	0xbe4c00a9	-0.19922127
14	0x3df4b908	0.119493544
15	0x3db5431b	0.0885069
16	0xbe095829	-0.13412537
17	0x3d014d52	0.03156788
18	0x3dc848c6	0.097795054
19	0xbe028d2d	-0.12749167
20	0x3e2f5840	0.17123508
21	0x3d9377fb	0.07200619
22	0x3d861524	0.06547001
23	0xbe4e501b	-0.20147745
24	0x3e3c7ad7	0.18406235
25	0xbe0fb6f1	-0.1403463
26	0x3d40b596	0.047048174
27	0xbdff1db7	-0.124568395
28	0xbe2f237a	-0.17103377
29	0xbc9a5017	-0.018837018
30	0xbdf070a4	-0.117402345
31	0x3d863625	0.06553296
32	0xbd54dca7	-0.051968243
33	0x3dfae830	0.122513175
34	0x3e30fe4c	0.17284507
35	0xbe783682	-0.24239543
36	0xbe7ccec2	-0.24688247
37	0xbc874e7b	-0.016516915
38	0x3d483378	0.04887721
39	0xbe990b0c	-0.2989124
40	0xbe09bc7a	-0.13450804
41	0x3c7b8ac3	0.015352908
42	0xbda5e008	-0.08099371
43	0xbc64c1c2	-0.013962211
44	0xbdfbefec	-0.12301621
45	0xbdc2257f	-0.09479808
46	0x3d60cba8	0.05488172
47	0xbdceb337	-0.10092776
48	0x3f04487e	0.51673114
49	0x3eedccfc	0.46445453
50	0x3f39f677	0.726417
51	0xbdffbba9	-0.12486965
52	0x3f4b48f0	0.7940817
53	0xbea19632	-0.31559902
54	0xbb4de500	-0.0031417012
55	0x3f2074c9	0.626782
56	0xbeb13ccf	-0.34616706
57	0xbddf8297	-0.1091358
58	0x3e25afa4	0.16180283
59	0x3ef66aa1	0.48128226
60	0xbe0529de	-0.13004252
61	0x3f43f05d	0.7653864
62	0x3d8bd45e	0.06827615
63	0x3f32ec53	0.6989185
64	0x3ec9d7d6	0.39422482
65	0x3f394af3	0.7237999
66	0x3f15b1bf	0.58474344
67	0x3b7df976	0.0038753427
68	0x3f3321df	0.6997356
69	0xbe3fd9b8	-0.18735397
70	0xbe4341e2	-0.19068101
71	0x3f3caddc	0.7370279
72	0xbeb63d90	-0.35593843
73	0xbe80f72b	-0.25188574
74	0x3deebaf4	0.11656752
75	0x3f1feb1a	0.6246811
76	0x3e79ea4c	0.24405783
77	0x3ed475b1	0.4149604
78	0x3c92e698	0.017932221
79	0x3ec6471b	0.38726124
80	0xbdd4c1b4	-0.103885084
81	0xbdb53abc	-0.08849093
82	0x3d3f38b8	0.04668495
83	0xbe20d2d0	-0.15705419
84	0xbdfff6e4	-0.124982625
85	0x3d28d368	0.041217238
86	0xbd9fca5c	-0.07802269
87	0xbe5608f6	-0.20901856
88	0xbd6bf0a8	-0.057602555
89	0x3e2af25a	0.16694012
90	0xbde257f0	-0.11051929
91	0xbe66f5e4	-0.22554737
92	0x3bd3df00	0.0064657927
93	0xbe2dd35a	-0.16975155
94	0x3e2738e4	0.16330296
95	0xbdd3c5b4	-0.10340443
96	0x3d94e758	0.07270688
97	0x3d25ed5d	0.04050957
98	0x3cee47fa	0.029087055
99	0x3de470a6	0.111542985
100	0x3d70b708	0.058768302
101	0x3d85216b	0.065005146
102	0xbe2506b8	-0.16115844
103	0xbe14075f	-0.14455937
104	0x3e224424	0.15846306
105	0x3d909d3d	0.07061241
106	0xbc19135e	-0.009342996
107	0xbda84c74	-0.08217707
108	0x3e01acf2	0.1266363
109	0xbe9046d2	-0.28179032
110	0x3d9981fc	0.07495496
111	0xbe3acfea	-0.18243375
112	0x3dbb7a6a	0.09154208
113	0xbd78e0cd	-0.06076126
114	0x3e0e5236	0.13898548
115	0xbe1520bc	-0.14563268
116	0xbe04e9da	-0.12979832
117	0x3ddbbeb2	0.107297316
118	0x3e6aec32	0.22941664
119	0xbe790626	-0.24318752
120	0xbd1cc936	-0.038277827
121	0xbd1e3f58	-0.038634628
122	0x3e7d8ac4	0.24759966
123	0xbe382ce2	-0.17985871
124	0xbdc92c70	-0.09822929
125	0xbdec306b	-0.115326725
126	0xbd4c2a10	-0.0498448
127	0xbe1427b0	-0.14468265
128	0x3f217cc7	0.6308102
129	0x3f2f986f	0.6859197
130	0x3f3c74ce	0.7361573
131	0xbe333fbf	-0.17504786
132	0x3ebff0e6	0.37488478
133	0xbdc5da15	-0.096607365
134	0x3d845490	0.064614415
135	0x3f2e8b72	0.68181527
136	0xbea492f2	-0.3214336
137	0x3e2075cb	0.15669934
138	0xbde5bba0	-0.11217427
139	0x3efb08b5	0.4903008
140	0x3e5cbb8c	0.21555918
141	0x3ed6c576	0.41947526
142	0x3e60f255	0.21967442
143	0x3f354023	0.7080099
144	0x3bb17138	0.005415108
145	0xbd885e09	-0.06658561
146	0x3e21c932	0.15799406
147	0x3df28ccc	0.11843261
148	0xbd97bdfc	-0.074092835
149	0xbe013d29	-0.12620987
150	0x3cd9ebe0	0.026601732
151	0xbe68cf64	-0.22735363
152	0xbe6e5d1d	-0.23277707
153	0x3e0e76b9	0.13912477
154	0x3ce1fd97	0.027586741
155	0xbe9539a8	-0.2914555
156	0xbe531964	-0.20615155
157	0xbdcf7e7e	-0.10131548
158	0xbdcd9d18	-0.10039729
159	0xbe1f923d	-0.15583129
160	0x3f48dbdd	0.78460485
161	0x3efcc52d	0.49369183
162	0x3f254e00	0.64572144
163	0xbe6a3358	-0.22871149
164	0x3ee919ea	0.45527583
165	0xbe66fe98	-0.22558057
166	0x3d5bbfe8	0.053649813
167	0x3ee90449	0.45511082
168	0xbe95a72d	-0.29229107
169	0xbe95b6e6	-0.29241103
170	0x3e4fa434	0.20277482
171	0x3f00d17e	0.5031966
172	0xbe02cff2	-0.12774637
173	0x3f08e7a7	0.53478473
174	0x3db4e078	0.088318765
175	0x3f33b005	0.7019046
176	0xbe378b89	-0.17924322
177	0x3e3e58a2	0.18588498
178	0xbd9bfdb6	-0.07616751
179	0x3e0f8205	0.14014442
180	0x3d2aee9b	0.04173146
181	0x3d2c2b92	0.04203374
182	0xbd2e1908	-0.04250434
183	0xbe352196	-0.17688593
184	0xbd96afa4	-0.073577195
185	0x3e392e85	0.18084152
186	0x3e4758e8	0.19467509
187	0xbdbafddf	-0.09130453
188	0x3e66572e	0.22494194
189	0xbe81d8a0	-0.25360584
190	0xbe1eb2a8	-0.1549784
191	0xbe557578	-0.20845592
192	0xbe52b518	-0.20576894
193	0x3e1b5ff0	0.15173316
194	0xbd9759b9	-0.0739016
195	0x3bcc27b1	0.0062303175
196	0xbea3d66c	-0.31999528
197	0x3c0142e2	0.007889481
198	0x3e7aa2be	0.24476144
199	0x3e12f2f5	0.14350493
200	0x3e83e38b	0.2575954
201	0xbe4601d4	-0.19336635
202	0x3d792e99	0.060835455
203	0xbd8741b3	-0.06604328
204	0x3d6126f8	0.054968804
205	0x3e441d6c	0.19151849
206	0x3e27861e	0.16359755
207	0x3e1b6395	0.15174706
208	0xbdc46224	-0.09589031
209	0xbd832dbf	-0.0640521
210	0xbe83f3f6	-0.25772065
211	0x3e26a30a	0.16273132
212	0xbe7575aa	-0.23970667
213	0x3da931d6	0.082614586
214	0x3e4c2bd6	0.19938597
215	0xbc75fae0	-0.015013427
216	0xbc8ad9ac	-0.016949497
217	0xbdae462b	-0.08509477
218	0xbd2c6174	-0.042085126
219	0xbdb845a0	-0.08997655
220	0x3e71a4be	0.23598
221	0xbe87f252	-0.26552063
222	0x3d7590d0	0.059952557
223	0xbddaf756	-0.10691707
224	0xbe889ec5	-0.26683632
225	0xbe2a8393	-0.16651754
226	0x3de6329b	0.11240121
227	0x3d044438	0.03229162
228	0xbe0dae4c	-0.1383602
229	0xbc994277	-0.01870845
230	0xbcf0fe70	-0.0294182
231	0xbe37c208	-0.17945111
232	0x3e227783	0.15865903
233	0x3e729cc8	0.2369262
234	0xbe106532	-0.14101103
235	0xbe493992	-0.19650868
236	0xbd695390	-0.056964457
237	0x3dd87c5a	0.10570593
238	0xbe4b0230	-0.19825053
239	0xbd48f060	-0.049057364
240	0x3de08bb6	0.10964148
241	0xbd331d21	-0.04372895
242	0xbe8f9c3d	-0.28048888
243	0xbe1f6f0b	-0.15569703
244	0xbc821768	-0.015880302
245	0x3e4f1bc3	0.20225434
246	0xbe397bc2	-0.18113616
247	0x3e06f83b	0.1318063
248	0x3e9274dc	0.28604782
249	0xbdbab454	-0.09116426
250	0x3d631ecb	0.05544929
251	0xbd85e02a	-0.065368965
252	0x3d9cf298	0.076634586
253	0xbe56fbd4	-0.20994502
254	0x3dafbfc8	0.08581501
255	0x3e163edd	0.14672418

critic.4.bias f4 [16]
0	0xbd893f48	-0.06701523
1	0x3d0207e6	0.031745814
2	0x3d948639	0.072521634
3	0x3eb944f0	0.36185408
4	0x3edbcc2f	0.42929217
5	0xbda04d10	-0.078271985
6	0x3d9e039f	0.077155344
7	0xbd9a87de	-0.07545446
8	0x3e93af86	0.2884485
9	0x3e3e8a04	0.18607336
10	0x3e9ddaa4	0.30830872
11	0x3e350bd9	0.17680301
12	0xbe34d952	-0.17661026
13	0x3e1e9926	0.15488109
14	0xbe0abc4a	-0.13548389
15	0x3e1e22ba	0.15442935

critic.6.weight f4 [1, 16]
0	0xbd9989d4	-0.07496992
1	0xbdb77e08	-0.089595854
2	0xbda5f841	-0.08103991
3	0x3f1dc4d5	0.61628467
4	0x3f400a07	0.750153
5	0x3d26e220	0.040742993
6	0xbcaef3aa	-0.021356422
7	0xbdfaa497	-0.12238424
8	0x3f3101fc	0.6914365
9	0xbd9c9a95	-0.07646672
10	0x3f426936	0.7594179
11	0xbbb6456f	-0.0055624763
12	0xbe8bdeb2	-0.2731834
13	0xbe415e4b	-0.18883626
14	0xbd0de45f	-0.03464162
15	0xbe37ad83	-0.17937283
