experiments/CartPole-v1_AC/dqn.pth (torch, 10427 bytes, 13 tensors)

actor.0.weight f4 [32, 4]
-0.12814741 0.24734245 -0.98088133 -0.45905778 1.1900573 -0.4456096 -0.68343604 -0.82524115
0.58313227 0.17522499 -0.114715695 -0.088989876 -0.94729805 0.38709456 -0.42655233 -0.92872566
-0.3410425 0.46682978 0.48012453 0.8267056 -0.37554026 -0.68271065 -1.0141134 0.9187086
-0.71246725 -0.8974085 -0.4234729 -0.99014944 0.41515222 -1.1142756 0.1470626 -0.36375213
0.5209882 -0.71790224 0.0089631295 -0.3059307 -0.18431473 -1.0928459 -0.03976295 -1.0917702
1.1705514 -1.1159835 -1.1742488 0.26684332 -0.3004396 1.2320302 0.69077945 0.43876308
1.204079 0.53710026 1.1534542 0.3124846 -0.003226143 -0.9815393 -0.30363742 0.17681561
-0.99871475 0.9791431 0.65968764 0.5750565 -0.55180216 -0.06507964 -0.565062 1.0366201
0.90584636 -0.69922036 0.83503705 0.4798906 -0.15509717 -0.50342983 -0.36389604 -0.27053186
1.1140342 -0.31949708 -0.46828824 1.1935847 0.214124 -0.72493315 -0.6184602 0.9977082
-0.12010115 0.7899871 -0.5531641 0.7868245 -0.41286716 0.08113834 0.9313882 0.5399173
1.0425135 0.87385523 -0.83313024 1.260748 0.12426074 -0.29631868 0.73409003 -0.17825177
0.05942794 -0.9837577 -0.4177225 -1.0567172 0.13301763 -1.1055889 -0.4078555 -0.45147666
0.29657015 -0.97601986 1.0021197 -0.664929 -0.57550025 0.18589993 1.145936 0.56568086
0.27685484 0.84210455 -0.28950056 -1.1567323 0.2666277 -0.6356201 -0.86141187 -0.91770494
-0.40917853 -0.96817106 -0.71742284 -0.96257156 -0.7273001 0.25155374 1.0754424 1.0589076
00000000: 1339 03be 5747 7d3e 0a1b 7bbf 9f09 ebbe
00000010: cc53 983f f126 e4be aaf5 2ebf 0143 53bf
00000020: 2848 153f 2e6e 333e 10f0 eabd 5340 b6bd
00000030: 2082 72bf 4231 c63e 1165 dabe f7c0 6dbf
00000040: 1f9d aebe 5004 ef3e e2d2 f53e faa2 533f
00000050: d046 c0be 20c6 2ebf 78ce 81bf 7d30 6b3f
00000060: 4164 36bf 90bc 65bf 71d1 d8be 6f7a 7dbf
00000070: d58e d43e 95a0 8ebf 9497 163e b83d babe
00000080: 7c5f 053f 71c8 37bf 17da 123c f3a2 9cbe
00000090: 00bd 3cbe 60e2 8bbf 7ade 22bd 20bf 8bbf
000000a0: a1d4 953f 8cd8 8ebf c94d 96bf b09f 883e
000000b0: 38d3 99be 2ab3 9d3f ecd6 303f 8ea5 e03e
000000c0: 431f 9a3f 677f 093f 63a4 933f fbfd 9f3e
000000d0: b36d 53bb 2946 7bbf 5d76 9bbe 270f 353e
000000e0: c5ab 7fbf 1fa9 7a3f 4ae1 283f e736 133f
000000f0: e842 0dbf 7948 85bd e7a7 10bf f8af 843f
00000100: 8ce5 673f 1b00 33bf fdc4 553f 39b4 f53e
00000110: cbd1 1ebe c7e0 00bf 9550 babe 2783 8abe
00000120: ac98 8e3f 1f95 a3be 7ac3 efbe 62c7 983f
00000130: 5243 5b3e 3895 39bf 6853 1ebf ce69 7f3f
00000140: 97f7 f5bd 983c 4a3f 2a9c 0dbf 556d 493f
00000150: 5363 d3be dc2b a63d 756f 6e3f 0538 0a3f
00000160: 1571 853f fab4 5f3f 0648 55bf 3160 a13f
00000170: 6a7c fe3d 15b7 97be 53ed 3b3f a287 36be
00000180: b66a 733d 8bd7 7bbf b9df d5be 8242 87bf
00000190: c635 083e f083 8dbf 70d2 d0be f327 e7be
000001a0: 0bd8 973e 70dc 79bf 7545 803f c938 2abf
000001b0: fc53 13bf 8d5c 3e3e 08ae 923f 76d0 103f
000001c0: ebbf 8d3e 2a94 573f 6b39 94be ce0f 94bf
000001d0: 6d83 883e 00b8 22bf 7d85 5cbf b6ee 6abf
000001e0: d97f d1be 0fda 77bf 06a9 37bf 176b 76bf
000001f0: 5730 3abf a7cb 803e 19a8 893f 498a 873f

actor.0.bias f4 [32]
-0.48587906 -0.18421735 -0.38549134 0.24252757 0.20274685 0.1379719 -0.39633724 -0.49820158
0.19209085 -0.3773037 -0.3872998 -0.039236106 -0.39059407 -0.20974207 0.16617124 -0.08837707
-0.26681516 0.5542823 0.060552195 0.37894133 -0.50646746 -0.25670773 0.1758962 0.3215729
-0.33914903 -0.1841287 0.22963385 -0.2939695 0.5636171 0.39326632 -0.42137143 0.16170284
00000000: 24c5 f8be 79a3 3cbe 1f5f c5be 2659 783e
00000010: df9c 4f3e 8148 0d3e b7ec cabe 4714 ffbe
00000020: 77b3 443e f32d c1be 294c c6be 0ab6 20bd
00000030: f2fb c7be a0c6 56be cb28 2a3e 0aff b4bd
00000040: ff9b 88be 72e5 0d3f 9405 783d 9904 c23e
00000050: daa7 01bf 326f 83be 221e 343e 34a5 a43e
00000060: f1a4 adbe 3c8c 3cbe 2325 6b3e 2c83 96be
00000070: 3649 103f 345a c93e ffbd d7be 6e95 253e

actor.2.weight f4 [16, 32]
-0.20450264 -0.34844995 0.16301018 0.16484389 0.24246956 0.30538124 0.15215081 0.24565428
-0.35531232 -0.15612434 -0.3776089 -0.43679544 -0.37075406 0.041633893 -0.44250652 0.11359593
0.327328 0.022025365 -0.39983797 -0.33801246 0.16214257 -0.05529149 -0.12642458 0.073276825
0.036991816 -0.26296484 0.37804762 -0.1355803 0.45923978 -0.31874338 -0.37852585 -0.16359396
0.108598866 0.058130004 -0.074137874 -0.04291123 0.28414118 0.12502278 -0.16785783 -0.46667463
-0.056062344 0.08812541 0.038523432 0.16421282 0.2286755 0.3176811 -0.036435615 -0.30641344
0.05907186 -0.045792047 0.22617273 0.10522265 0.09285408 -0.29283804 0.3238288 -0.05413299
0.17042409 0.15474549 0.08861626 0.18036275 -0.1083367 -0.02152878 0.33072558 0.13797623
-0.011605948 0.052346848 -0.31768703 -0.22182342 -0.25496277 -0.06690436 -0.077185616 0.15645762
0.03292373 -0.21140783 0.20596439 -0.35615042 -0.32149914 0.40496203 -0.32321543 0.36287448
0.31114998 -0.38988215 -0.3434257 -0.29476064 -0.23064478 -0.073207915 -0.045219913 0.0009285224
-0.40078196 -0.00672493 0.07196523 0.12638137 -0.17472163 0.28996515 -0.008435437 -0.4089007
0.2056205 -0.23430623 -0.16873936 -0.29322037 -0.28856176 0.083360106 0.30204156 0.30950835
0.4282991 0.09286806 0.42441013 0.39602396 -0.2969846 -0.1850369 -0.005592395 -0.031726778
0.13578752 -0.41532344 -0.24156971 -0.32972765 -0.19334196 0.38732323 -0.15681048 -0.367597
-0.38533297 -0.15199617 -0.2749362 0.40546653 -0.022460004 -0.19770645 -0.28605568 -0.374195
-0.2377924 -0.1140313 -0.18106252 -0.06771652 0.5496477 -0.35010293 -0.08995943 -0.30551726
0.31680942 -0.12764572 0.09543123 -0.23922984 0.04897971 -0.047114514 0.4287864 0.024268141
0.17967834 0.3403185 0.40891814 0.13376477 0.160894 0.19905184 -0.22902703 0.1240082
0.21835674 -0.27884945 -0.0090908585 0.001565369 0.2486223 -0.4113386 -0.49699378 -0.24547184
-0.39528286 -0.08651692 -0.19089386 -0.16661413 -0.34558418 -0.17645867 0.32586932 -0.2216615
0.052712537 0.06528374 -0.36886346 -0.17999302 0.12161984 0.3715198 -0.11969414 -0.25522873
0.2960787 0.0074428935 0.41200146 -0.30929196 -0.28720728 -0.046319842 0.2052822 -0.41942897
0.30603498 -0.3072807 0.36911556 -0.3646709 -0.27874443 0.11367162 -0.31194735 -0.045587946
0.081596576 0.30060413 0.2689431 -0.23761275 -0.26591894 0.1588297 0.27877307 0.4262968
0.0965591 -0.3598171 0.22973008 -0.25785846 -0.26671198 0.20143354 -0.2114971 -0.030829038
-0.18061557 -0.19926186 -0.14071016 -0.049876176 -0.44833055 -0.41882953 0.3396992 0.04750086
-0.3661921 -0.24756242 0.22537242 -0.3695574 -0.2311339 0.30032855 -0.32140517 -0.108820185
0.040150065 -0.23488519 0.35976538 -0.29512534 -0.021895532 0.40711853 0.2847502 0.106648475
-0.16898091 0.15900613 0.22784507 0.2556216 -0.18239251 -0.36109173 0.5715738 0.4310349
0.3206592 0.27382496 -0.09545625 0.42864493 -0.28153998 -0.26817143 0.2523876 -0.2726757
0.17185007 -0.24555281 -0.2832983 0.20117173 -0.21682711 -0.14270756 0.18324433 -0.25096133
00000000: 2469 51be 0868 b2be 24ec 263e d6cc 283e
00000010: f149 783e ee5a 9c3e 6ccd 1b3e cc8c 7b3e
00000020: 7feb b5be 0fdf 1fbe f455 c1be a7a3 dfbe
00000030: 7ad3 bdbe 4d88 2a3d 3790 e2be fca4 e83d
00000040: 8997 a73e 8a6e b43c 90b7 ccbe f80f adbe
00000050: b408 263e 5479 62bd 7275 01be 2912 963d
00000060: bb84 173d 54a3 86be 758f c13e 90d5 0abe
00000070: 7a21 eb3e 5532 a3be 24ce c1be 2d85 27be
00000080: 1569 de3d ba19 6e3d 99d5 97bd b0c3 2fbd
00000090: f47a 913e f905 003e ece2 2bbe faef eebe
000000a0: a1a1 65bd 187b b43d bfca 1d3d 6827 283e
000000b0: e929 6a3e 19a7 a23e 833d 15bd 39e2 9cbe
000000c0: 56f5 713d 7190 3bbd d399 673e f97e d73d
000000d0: 482a be3d deee 95be e3cc a53e 8eba 5dbd
000000e0: a783 2e3e 9a75 1e3e 717c b53d 03b1 383e
000000f0: a2df ddbd 205d b0bc dd54 a93e a449 0d3e
00000100: e026 3ebc a669 563d e0a7 a2be ae25 63be
00000110: 7b8a 82be 2705 89bd 7e13 9ebd 6d36 203e
00000120: 08db 063d 4b7b 58be 54e8 523e 5959 b6be
00000130: 899b a4be 2f57 cf3e 7e7c a5be afca b93e
00000140: 0d4f 9f3e a29e c7be 7ed5 afbe deea 96be
00000150: 252e 6cbe 08ee 95bd 8438 39bd 1568 733a
00000160: 4b33 cdbe cd5c dcbb 8262 933d 1e6a 013e
00000170: 3aea 32be 5076 943e ca34 0abc 6f5b d1be
00000180: 2e8e 523e f9ed 6fbe 03ca 2cbe fb20 96be
00000190: 5ebe 93be b4b8 aa3d 31a5 9a3e e177 9e3e
000001a0: 054a db3e 9c31 be3d 494c d93e a7c3 ca3e
000001b0: 5e0e 98be 507a 3dbe 6940 b7bb f0f3 01bd
000001c0: e20b 0b3e 46a5 d4be 0d5e 77be 10d2 a8be
000001d0: 6ffb 45be 3b4f c63e ed92 20be ad35 bcbe
000001e0: 5d4a c5be e2a4 1bbe 70c4 8cbe 4f99 cf3e
000001f0: 0bfe b7bc 8f73 4abe e475 92be 7d96 bfbe
00000200: da7f 73be 3e89 e9bd 7468 39be f5ae 8abd
00000210: b6b5 0c3f b140 b3be a63c b8bd c26c 9cbe
00000220: d834 a23e 8fb5 02be 7371 c33d abf8 74be
00000230: f39e 483d 26fb 40bd e489 db3e fbcd c63c
00000240: 99fd 373e 3a3e ae3e b85d d13e a2f9 083e
00000250: 66c1 243e 3fd4 4b3e 1086 6abe 03f8 fd3d
00000260: e998 5f3e 5bc5 8ebe d3f1 14bc 112d cd3a
00000270: d896 7e3e f99a d2be f875 febe f85c 7bbe
00000280: 8462 cabe c82f b1bd ae79 43be e59c 2abe
00000290: 69f0 b0be 95b1 34be 58d8 a63e 3bfb 62be
000002a0: 1ae9 573d 7bb3 853d acdb bcbe 1750 38be
000002b0: d313 f93d d837 be3e 3422 f5bd 57ad 82be
000002c0: a197 973e 84e3 f33b dbf1 d23e 845b 9ebe
000002d0: d50c 93be e0b9 3dbd 7f35 523e 65bf d6be
000002e0: 9eb0 9c3e e553 9dbe b7fc bc3e 25b6 babe
000002f0: 97b7 8ebe abcc e83d 90b7 9fbe 6dba 3abd
00000300: 1b1c a73d c9e8 993e e9b2 893e c250 73be
00000310: 8726 88be 41a4 223e 58bb 8e3e 9343 da3e
00000320: c7c0 c53d f239 b8be 5d3e 6b3e 0606 84be
00000330: 798e 88be 9844 4e3e b292 58be 2e8d fcbc
00000340: 4af3 38be 4d0b 4cbe 5316 10be f64a 4cbd
00000350: 958b e5be d370 d6be 0eed ad3e 4390 423d
00000360: 887d bbbe 0181 7dbe 07c8 663e a136 bdbe
00000370: 5dae 6cbe aac4 993e 388f a4be 1edd debd
00000380: 6574 243d be85 70be 2b33 b83e ab1a 97be
00000390: 425e b3bc d771 d03e c7ca 913e 846a da3d
000003a0: 5509 2dbe 81d2 223e 3850 693e d6e0 823e
000003b0: 1ac5 3abe 04e1 b8be a952 123f 9bb0 dc3e
000003c0: 712d a43e c932 8c3e 917e c3bd 5977 db3e
000003d0: 0226 90be c44d 89be f338 813e 269c 8bbe
000003e0: 77f9 2f3e 3272 7bbe 7a0c 91be f6ff 4d3e
000003f0: ed07 5ebe ee21 12be 67a4 3b3e 017e 80be

actor.2.bias f4 [16]
0.14327578 -0.047123652 -0.046025816 0.15284353 -0.0016455891 -0.0023248338 0.0029041194 0.20414016
0.21396858 -0.098340556 0.12657927 0.0043983175 0.05094373 0.096962936 -0.11422365 0.02876563
00000000: e3b6 123e bb04 41bd 9185 3cbd 0483 1c3e
00000010: cfb0 d7ba 3d5c 18bb 0a53 3e3b 1e0a 513e
00000020: 941a 5b3e c666 c9bd ff9d 013e c31f 903b
00000030: 5faa 503d 8194 c63d 17ee e9bd e6a5 eb3c

actor.4.weight f4 [2, 16]
0.58873564 -0.52914226 0.35119575 -0.3711656 -0.10996538 -0.24680871 -0.021748012 -0.579997
-0.35958698 -0.18705891 0.4692744 -0.3684195 0.40376797 0.33890265 0.13760775 0.6282236
-0.40553212 0.24087463 -0.24002089 0.4811992 0.43929517 0.066316694 -0.035685472 0.53355855
0.6949213 0.5443421 -0.3644311 -0.33385292 0.72441673 -0.6003757 -0.6486351 -0.49502358
00000000: 61b7 163f de75 07bf eecf b33e 6b09 bebe
00000010: 8735 e1bd 6cbb 7cbe e328 b2bc af7a 14bf
00000020: c91b b8be 5f8c 3fbe bc44 f03e 7ba1 bcbe
00000030: adba ce3e a684 ad3e 0ce9 0c3e 43d3 203f
00000040: e8a1 cfbe d7a7 763e 09c8 75be be5f f63e
00000050: 4ceb e03e 0cd1 873d ee2a 12bd 4b97 083f
00000060: 5de6 313f 015a 0b3f b796 babe c5ee aabe
00000070: 6073 393f 39b2 19bf f30c 26bf bb73 fdbe

actor.4.bias f4 [2]
0.17127803 -0.03874192
00000000: 8263 2f3e d9af 1ebd

critic.0.weight f4 [32, 4]
0.42998934 0.41574258 0.3696615 -0.062275574 -0.30684933 -0.48894075 0.051668297 -0.5391456
-0.34467465 -0.4983306 0.47884595 0.40673196 -0.27212632 0.1706155 0.03502706 0.15838267
-0.32929698 0.46723682 -0.20103209 0.40557632 0.23234273 -0.49810869 0.3354653 -0.4870671
0.3064776 -0.39216438 0.20891804 -0.38129148 0.3099035 0.13429525 0.08365367 -0.09881484
0.3205466 -0.50637907 -0.23698694 0.3019572 0.49982837 -0.25189593 0.40337303 0.14851773
-0.1801283 0.32366562 -0.37776995 0.19383854 -0.35953873 0.2984782 0.31792322 0.46529886
0.15165138 0.13276938 0.07652509 -0.015822474 0.11118694 0.1320557 -0.16350076 -0.08468603
-0.12064242 -0.11738513 0.12657543 0.022829032 0.37771755 0.3225737 -0.21761657 -0.21597011
-0.29821604 0.18326631 -0.12020413 0.079445206 -0.21581401 -0.25975496 0.5972173 0.18995543
-0.5009903 0.3344374 0.38035607 0.4338924 0.35261425 -0.5504169 -0.08945356 0.33911753
-0.29934755 0.44729182 -0.5202289 0.28308865 -0.24514708 0.30088755 0.41079307 -0.30147898
-0.20212537 -0.0147417 -0.11682768 0.15268369 0.1411202 -0.050374173 -0.18222614 0.1294996
-0.4682256 -0.43267652 -0.14399363 0.48621985 -0.056878254 -0.09392709 0.5235257 0.4656849
0.37282643 0.27751422 0.07265493 -0.33525485 0.42302725 0.098771974 -0.10894338 0.37210882
-0.24599735 0.08771218 -0.49370536 0.17544809 0.080773 -0.21864209 -0.4805551 -0.09680152
-0.57530737 -0.104892634 -0.55919605 -0.35594815 -0.07725218 -0.5590122 0.13779101 -0.14502937
00000000: 9027 dc3e 36dc d43e 4644 bd3e ac14 7fbd
00000010: 5b1b 9dbe 7156 fabe 23a2 533d 7205 0abf
00000020: 3279 b0be 3025 ffbe 4c2b f53e 2c3f d03e
00000030: 2454 8bbe d4b5 2e3e 8978 0f3d 112f 223e
00000040: 9d99 a8be aa39 ef3e 5bdb 4dbe b3a7 cf3e
00000050: 41eb 6d3e 1a08 ffbe 1cc2 ab3e dc60 f9be
00000060: a2ea 9c3e c5c9 c8be 9cee 553e a338 c3be
00000070: acab 9e3e b284 093e 9e52 ab3d 6f5f cabd
00000080: af1e a43e 0fa2 01bf b4ac 72be 229a 9a3e
00000090: 81e9 ff3e 81f8 80be e986 ce3e 0815 183e
000000a0: 8e73 38be 80b7 a53e 106b c1be 9c7d 463e
000000b0: 7615 b8be 22d2 983e d5c6 a23e a73b ee3e
000000c0: 804a 1b3e b2f4 073e 30b9 9c3d 229e 81bc
000000d0: fab5 e33d 9c39 073e be6c 27be df6f adbd
000000e0: 6013 f7bd 9d67 f0bd fd9c 013e f303 bb3c
000000f0: 3264 c13e 6128 a53e e1d6 5ebe 4527 5dbe
00000100: c6af 98be 2aaa 3b3e 952d f6bd 2bb4 a23d
00000110: 59fe 5cbe 9afe 84be 3ce3 183f ad83 423e
00000120: e640 00bf 613b ab3e 08be c23e 2527 de3e
00000130: db89 b43e 1fe8 0cbf 6e33 b7bd d0a0 ad3e
00000140: 1544 99be 6f03 e53e b92d 05bf fff0 903e
00000150: d607 7bbe ef0d 9a3e 7853 d23e 745b 9abe
00000160: f4f9 4ebe 2c87 71bc 5a43 efbd 1d59 1c3e
00000170: d081 103e 2655 4ebd 7d99 3abe 8b9b 043e
00000180: 44bb efbe c787 ddbe 1173 13be cff1 f83e
00000190: 2cf9 68bd d95c c0bd c805 063f 406e ee3e
000001a0: 1be3 be3e 5816 8e3e 1ccc 943d 86a6 abbe
000001b0: 0797 d83e f648 ca3d b51d dfbd 0c85 be3e
000001c0: bbe6 7bbe 72a2 b33d f3c6 fcbe aaa8 333e
000001d0: 516c a53d b6e3 5fbe 510b f6be e03f c6bd
000001e0: 5847 13bf f3d1 d6bd 7927 0fbf d63e b6be
000001f0: 6436 9ebd 6c1b 0fbf 1619 0d3e 9482 14be

critic.0.bias f4 [32]
0.9827048 -0.34208992 -0.23507138 0.4662841 0.84952027 0.9067855 0.70561194 0.7360203
0.36336252 0.54072493 0.7658166 -0.17533042 0.81394106 0.54809386 0.78874165 -0.29208893
0.8472266 -0.3370733 -0.15643486 -0.10439713 -0.44106743 -0.21541093 -0.53720343 0.9663368
-0.19496971 -0.20645155 -0.4021195 0.94467413 0.5997563 -0.36813056 -0.38061288 -0.36732996
00000000: 8b92 7b3f 6926 afbe 8db6 70be cabc ee3e
00000010: 297a 593f 1823 683f fca2 343f d46b 3c3f
00000020: a70a ba3e f36c 0a3f 8f0c 443f d189 33be
00000030: 715e 503f e14f 0c3f f9ea 493f ae8c 95be
00000040: d8e3 583f df94 acbe 7630 20be 2ace d5bd
00000050: 97d3 e1be af94 5cbe 2a86 09bf d961 773f
00000060: 24a6 47be 0968 53be 9be2 cdbe 2ad6 713f
00000070: a189 193f 9c7b bcbe b1df c2be ac12 bcbe

critic.2.weight f4 [16, 32]
0.5747924 0.0036451255 -0.09229885 0.24924722 0.27638736 0.61348397 0.4442351 0.36442474
-0.003171502 0.1548425 0.37430373 0.014589714 0.3969602 0.6662907 0.579911 -0.107891954
0.47509176 -0.2768943 -0.22316077 0.10550786 -0.049071502 0.22232056 -0.010236874 0.25016457
-0.031136649 -0.0137951635 -0.2084453 0.531091 0.40335068 -0.11734284 -0.28042978 -0.100251816
0.2610281 -0.03835551 -0.2316304 0.39045468 0.5239832 0.4696028 0.4200833 0.4784245
0.14759196 0.16345744 0.26871917 -0.2473033 0.3688932 0.3309061 0.29697436 0.0745482
0.37212285 -0.19146904 -0.27275974 -0.018047452 0.06302257 0.15631472 -0.045995258 0.46763188
0.08822482 -0.19269073 -0.21330263 0.4578212 0.5452882 0.08644752 -0.1555852 -0.12580882
0.54318416 0.0029300705 -0.079654984 0.19610727 0.17547718 0.31294724 0.5378018 0.5055254
0.32453486 0.20442687 0.46125937 -0.3354408 0.47117382 0.28971764 0.4637116 -0.17644264
0.22375892 -0.2891 -0.16675201 0.0357179 -0.027199555 0.013694967 0.06304245 0.38845673
-0.12453077 0.0015534771 -0.27702942 0.16794877 0.39375705 -0.11441917 0.026246661 -0.099209376
-0.022932332 -0.13178931 -0.1201395 0.043512736 0.045251377 0.064194575 0.027733052 -0.007365318
0.036360364 0.031810448 -0.0628293 0.14774223 -0.14528787 -0.06736543 -0.027225867 -0.0016733408
-0.18609583 0.062256623 -0.13169266 -0.10016049 0.13094096 -0.019115478 -0.122369125 -0.07734964
0.036549687 -0.09519321 -0.013527662 0.14640655 -0.07544625 0.060187116 0.04979302 0.14200467
0.48526442 -0.19962381 -0.25683716 0.19673833 0.44456494 0.49379036 0.39382467 0.39618656
0.2844436 0.07133974 0.37448323 -0.33150035 0.5025087 0.5121698 0.50338864 -0.19677553
0.38575563 -0.19275968 -0.06458051 -0.09633189 0.016243823 -0.070079155 0.014701069 0.34376904
-0.17142056 -0.07758145 0.016659621 0.49560767 0.42687622 0.010003254 -0.09274254 0.07500028
-0.09607309 -0.15068293 0.10999573 -0.113835976 0.12966071 0.10598652 0.06673036 -0.10925822
-0.15618058 0.062073827 -0.16027112 -0.04954198 -0.017830027 -0.09497731 0.10437135 0.16633217
-0.08891843 0.14116384 0.10397722 0.15360399 0.0025952607 0.12620847 -0.17550142 -0.061947018
-0.022679565 -0.19008192 0.03217165 0.070198156 -0.06096765 -0.0074300617 -0.15200256 -0.15759014
0.13647385 0.16545264 -0.12284049 -0.05457071 0.077925794 -0.121418916 -0.19067948 0.04770128
-0.14686981 -0.051869944 0.0101669375 0.09162633 -0.07062287 -0.04791638 -0.09293338 0.13906588
-0.086999856 0.14005889 -0.016749784 0.15853922 -0.008260315 0.05374424 -0.033582315 -0.17129311
-0.1414588 -0.06754671 -0.18143111 -0.06511931 -0.06805408 0.1750031 -0.06282835 -0.13031611
0.434132 -0.124981485 -0.021643529 0.45440173 0.39077672 0.47817203 0.4705048 0.5092619
0.16297187 0.3525893 0.41710922 -0.19435088 0.43592528 0.3097381 0.23425771 -0.02951045
0.22119421 -0.14436434 -0.20306782 0.09947336 -0.052543975 -0.022863008 -0.029012082 0.4070394
-0.024086107 -0.17403385 -0.28279972 0.23285896 0.2371466 -0.13238546 -0.0474418 -0.062259894
00000000: 9825 133f 0fe3 6e3b 2e07 bdbd aa3a 7f3e
00000010: a582 8d3e 490d 1d3f c872 e33e e195 ba3e
00000020: f9d8 4fbb 088f 1e3e bda4 bf3e b209 6f3c
00000030: 5e3e cb3e 0792 2a3f 0c75 143f 75f6 dcbd
00000040: 3a3f f33e 17c5 8dbe 4284 64be 8114 d83d
00000050: 33ff 48bd 00a8 633e 90b8 27bc 9215 803e
00000060: 4912 ffbc 1c05 62bc af72 55be 94f5 073f
00000070: fb83 ce3e 7151 f0bd 7e94 8fbe d350 cdbd
00000080: 7aa5 853e ab1a 1dbd 8530 6dbe ade9 c73e
00000090: c323 063f c76f f03e 2915 d73e 0ef4 f43e
000000a0: 5922 173e 6361 273e 8f95 893e 143d 7dbe
000000b0: 92df bc3e 866c a93e 060d 983e baac 983d
000000c0: e386 be3e 7610 44be 2aa7 8bbe 40d8 93bc
000000d0: fa11 813d f710 203e 8665 3cbd 726d ef3e
000000e0: 37af b43d b850 45be 016c 5abe 8a67 ea3e
000000f0: 0298 0b3f 660b b13d ba51 1fbe 07d4 00be
00000100: 1e0e 0b3f 6d06 403b 2722 a3bd 58d0 483e
00000110: 4ab0 333e 9f3a a03e 61ad 093f 1d6a 013f
00000120: 6f29 a63e 4755 513e 302a ec3e e6be abbe
00000130: b23d f13e df55 943e 9b6b ed3e 61ad 34be
00000140: 0f21 653e ea04 94be 0ac1 2abe ef4c 123d
00000150: 9ad1 debc db60 603c 661c 813d cde3 c63e
00000160: fd09 ffbd 0b9e cb3a cdd6 8dbe c3fa 2b3e
00000170: 869a c93e 9954 eabd 3d03 d73c 492e cbbd
00000180: 96dc bbbc c7f3 06be b30b f6bd 693a 323d
00000190: 8259 393d 7278 833d 6d30 e33c c458 f1bb
000001a0: 9bee 143d ac4b 023d a6ac 80bd bd49 173e
000001b0: 58c6 14be e3f6 89bd c808 dfbc 0054 dbba
000001c0: e88f 3ebe cd00 7f3d 71da 06be f120 cdbd
000001d0: 6315 063e 1098 9cbc aa9c fabd 7d69 9ebd
000001e0: 20b5 153d a8f4 c2bd 20a3 5dbc 99eb 153e
000001f0: 9083 9abd c486 763d c4f3 4b3d ac69 113e
00000200: 9474 f83e 2f6a 4cbe 2980 83be c675 493e
00000210: 049e e33e 17d2 fc3e 63a3 c93e f7d8 ca3e
00000220: 97a2 913e 921a 923d 44bc bf3e 6aba a9be
00000230: 69a4 003f 8f1d 033f 14de 003f 867f 49be
00000240: c381 c53e cb62 45be c942 84bd a749 c5bd
00000250: c411 853c a985 8fbd c1dc 703c 7f02 b03e
00000260: df88 2fbe 06e3 9ebd c279 883c 4ac0 fd3e
00000270: 858f da3e b0e4 233c cdef bdbd bf99 993d
00000280: f8c1 c4bd a04c 1abe 7145 e13d d622 e9bd
00000290: c7c5 043e 760f d93d eda9 883d c6c2 dfbd
000002a0: cded 1fbe 2041 7e3d 1d1e 24be 88ec 4abd
000002b0: 4710 92bc 7783 c2bd a5c0 d53d fb52 2a3e
000002c0: de1a b6bd 418d 103e 02f2 d43d 5d4a 1d3e
000002d0: 4015 2a3b cb3c 013e a5b6 33be 28bc 7dbd
000002e0: 7fca b9bc d6a4 42be 6cc6 033d 0dc4 8f3d
000002f0: 37b9 79bd e077 f3bb 8fa6 1bbe 4f5f 21be
00000300: cdbf 0b3e 6b6c 293e cb93 fbbd 8985 5fbd
00000310: 8f97 9f3d 7baa f8bd 7b41 43be 6b62 433d
00000320: 0a65 16be 9475 54bd 3a93 263c 96a6 bb3d
00000330: b9a2 90bd f743 44bd db53 bebd 4967 0e3e
00000340: fb2c b2bd 996b 0f3e d836 89bc 1b58 223e
00000350: 4656 07bc ec22 5c3d 9c8d 09bd 7667 2fbe
00000360: 93da 10be ee55 8abd 14c9 39be 465d 85bd
00000370: f05f 8bbd 0334 333e 26ac 80bd 9671 05be
00000380: 8d46 de3e 4bf6 ffbd c54d b1bc 58a7 e83e
00000390: e313 c83e f7d2 f43e 01e6 f03e fd5e 023f
000003a0: 19e2 263e 9686 b43e 578f d53e eb03 47be
000003b0: 9931 df3e fe95 9e3e 41e1 6f3e e6bf f1bc
000003c0: bc80 623e 3fd4 13be 03f1 4fbe b0b8 cb3d
000003d0: 5a38 57bd 344b bbbc bfaa edbc 7867 d03e
000003e0: 3a50 c5bc ee35 32be 20cb 90be 9472 6e3e
000003f0: 8fd6 723e 0e90 07be 5552 42bd 3b04 7fbd

critic.2.bias f4 [16]
0.43802086 0.45049414 0.48849252 0.005694125 0.54149115 -0.13911684 -0.16845737 0.36063963
-0.0038981505 0.03188386 0.24643505 0.5477166 -0.13456416 0.5119537 0.32194865 0.4019316
00000000: 4544 e03e 2ba7 e63e b11b fa3e c895 ba3b
00000010: 2a9f 0a3f a574 0ebe 1780 2cbe c2a5 b83e
00000020: 1d78 7fbb a698 023d 7859 7c3e 2837 0c3f
00000030: 30cb 09be 660f 033f 74d6 a43e fbc9 cd3e

critic.4.weight f4 [16, 16]
-0.2474161 0.018253257 -0.05007182 0.19558775 0.1847511 0.029407118 0.23380542 0.0039968314
-0.16506872 -0.06435249 0.050622243 0.103675954 0.24526554 -0.21582669 0.066756986 0.078893624
-0.13794065 0.030364426 0.09769768 -0.1280816 0.16967767 0.023490716 0.06547001 -0.20348686
0.16049519 -0.1399918 0.010742406 -0.12662363 -0.17103377 -0.021138625 -0.117402345 0.06819861
-0.050311554 0.12444114 0.17497817 -0.24298665 -0.24612269 -0.01674019 0.04887721 -0.29696086
-0.1347887 0.015693923 -0.08143247 -0.011800825 -0.12301621 -0.09324299 0.05488172 -0.101661064
0.43642032 0.37681353 0.6310288 -0.12637827 0.7008784 -0.19655097 0.011128259 0.53878164
-0.21122696 0.033814114 0.6831423 0.39518505 -0.13004252 0.68870986 0.59201705 0.6058742
0.30659297 0.62935024 0.4837284 0.0044482797 0.6025912 -0.06818121 -0.17640877 0.64039624
-0.21778879 -0.16628627 0.58261746 0.53080434 0.24405783 0.32660943 0.52319235 0.2909913
-0.103885084 -0.08849093 0.04668495 -0.15705419 -0.124982625 0.041217238 -0.07802269 -0.20901856
-0.057602555 0.16694012 -0.11051929 -0.22554737 0.0064657927 -0.16975155 0.16330296 -0.10340443
0.06854507 0.03921615 0.028264562 0.11094028 0.057710018 0.029772319 -0.16115844 -0.14648642
0.15188533 0.0708614 -0.009441346 -0.08528366 0.1266363 -0.28385282 0.07495496 -0.1844344
0.10153493 -0.05077076 0.13898548 -0.14563268 -0.12979832 0.117292434 0.22941664 -0.23319444
-0.028282464 -0.038634628 0.24759966 -0.17985871 -0.09822929 -0.10534158 -0.0498448 -0.14468265
0.5466383 0.5942102 0.6374936 -0.17450234 0.28020036 0.031087775 0.07888596 0.5885562
-0.17940782 0.257302 0.37959146 0.39998195 0.21555918 0.33613256 0.73397285 0.6150318
0.0049827565 -0.067088015 0.15787983 0.11784098 -0.07560907 -0.12643316 0.026601732 -0.22774847
-0.23280905 0.13945901 0.027488645 -0.29158747 -0.20615155 -0.102153234 -0.10039729 -0.15778844
0.69960505 0.40120053 0.5465293 -0.22887692 0.36001754 -0.094607465 0.067922376 0.36104155
-0.1476629 -0.19820532 0.68515265 0.4119741 -0.12774637 0.45001036 0.598242 0.6065762
-0.18003632 0.18585876 -0.07601093 0.1395398 0.040560547 0.041812316 -0.04250434 -0.1770797
-0.074199945 0.18097006 0.18166125 -0.09153105 0.22494194 -0.2541178 -0.1549784 -0.20980299
-0.20964898 0.15377969 -0.06102774 0.008078044 -0.3189836 -0.109446265 0.24476144 0.14357336
0.10441339 -0.1915494 0.07654482 -0.06736536 0.054968804 0.18265145 0.019531257 0.1626065
-0.09011334 -0.0638211 -0.2578088 0.16214468 -0.24040511 0.10402481 0.19938597 -0.012140037
-0.0035131199 -0.08451826 -0.042183086 -0.08817868 0.23598 -0.2652542 0.059952557 -0.107224755
-0.24528697 -0.14495882 0.13394696 0.03229162 -0.1383602 0.0028121471 -0.0294182 -0.15790462
0.18018687 0.2369262 -0.14101103 -0.17496333 -0.056964457 0.12728855 -0.19825053 -0.049057364
0.08885073 -0.04748094 -0.28516254 -0.15628341 -0.02453641 0.09530777 -0.18113616 0.12270714
0.2146379 -0.0907587 0.02518911 -0.0805366 0.076634586 -0.2207577 0.08581501 0.1384894
00000000: a55a 7dbe db87 953c 1c18 4dbd 2848 483e
00000010: 642f 3d3e 32e7 f03c b06a 6f3e daf7 823b
00000020: c607 29be 3dcb 83bd 4559 4f3d 0f54 d43d
00000030: e426 7b3e ac01 5dbe e3b7 883d fb92 a13d
00000040: 5040 0dbe d1be f83c b915 c83d d327 03be
00000050: fcbf 2d3e 9a6f c03c 2415 863d dc5e 50be
00000060: da58 243e 035a 0fbe eb00 303c a0a9 01be
00000070: 7a23 2fbe e92a adbc a470 f0bd b6ab 8b3d
00000080: 7d13 4ebd ffda fe3d 7a2d 333e 7ed1 78be
00000090: 9607 7cbe b922 89bc 7833 483d 410b 98be
000000a0: 0d06 0abe 8b90 803c 11c6 a6bd 3f58 41bc
000000b0: ecef fbbd 2ef6 bebd a8cb 603d ad33 d0bd
000000c0: 7c72 df3e b4ed c03e 1a8b 213f 4e69 01be
000000d0: c46c 333f a844 49be 4d53 363c 98ed 093f
000000e0: e14b 58be ab80 0a3d 6ae2 2e3f b255 ca3e
000000f0: de29 05be 4a4f 303f 6e8e 173f 921a 1b3f
00000100: c1f9 9c3e 191d 213f 40ab f73e e0c2 913b
00000110: 6b43 1a3f 97a2 8bbd 80a4 34be 02f1 233f
00000120: 0604 5fbe f346 2abe 6b26 153f cbe2 073f
00000130: 4cea 793e 5a39 a73e efef 053f d0fc 943e
00000140: b4c1 d4bd bc3a b5bd b838 3f3d d0d2 20be
00000150: e4f6 ffbd 68d3 283d 5cca 9fbd f608 56be
00000160: a8f0 6bbd 5af2 2a3e f057 e2bd e4f5 66be
00000170: 00df d33b 5ad3 2dbe e438 273e b4c5 d3bd
00000180: 5c61 8c3d 1da1 203d 158b e73c a834 e33d
00000190: 5761 6c3d 14e5 f33c b806 25be 8900 16be
000001a0: d487 1b3e c81f 913d e0af 1abc 33a9 aebd
000001b0: f2ac 013e 2855 91be fc81 993d 5fdc 3cbe
000001c0: 8cf1 cf3d 00f5 4fbd 3652 0e3e bc20 15be
000001d0: dae9 04be 0437 f03d 32ec 6a3e 86ca 6ebe
000001e0: a0b0 e7bc 583f 1ebd c48a 7d3e e22c 38be
000001f0: 702c c9bd 54bd d7bd 102a 4cbd b027 14be
00000200: 7df0 0b3f 291e 183f c832 233f beb0 32be
00000210: 6c76 8f3e caab fe3c f68e a13d 9eab 163f
00000220: afb6 37be 16bd 833e d059 c23e 6fca cc3e
00000230: 8cbb 5c3e 9119 ac3e a5e5 3b3f b972 1d3f
00000240: 6446 a33b 7165 89bd 40ab 213e 9d56 f13d
00000250: eed8 9abd b277 01be e0eb d93c e536 69be
00000260: 7f65 6ebe 58ce 0e3e de2f e13c f44a 95be
00000270: 6419 53be b735 d1bd 189d cdbd 4b93 21be
00000280: 5119 333f 286a cd3e 58e9 0b3f b65e 6abe
00000290: 3854 b83e 8fc1 c1bd e31a 8b3d 70da b83e
000002a0: f134 17be 56f6 4abe 2a66 2f3f 45ee d23e
000002b0: f2cf 02be c267 e63e 6326 193f 9448 1b3f
000002c0: 715b 38be c251 3e3e 9eab 9bbd 85e3 0e3e
000002d0: d122 263d 6443 2b3d 0819 2ebd 6254 35be
000002e0: 24f6 97bd 3750 393e 6805 3a3e a274 bbbd
000002f0: 2e57 663e ba1b 82be a8b2 1ebe 98d6 56be
00000300: 39ae 56be 6c78 1d3e 39f8 79bd c659 043c
00000310: d251 a3be 5d25 e0bd bea2 7a3e e504 133e
00000320: b0d6 d53d 8725 44be 88c3 9c3d daf6 89bd
00000330: f826 613d fb08 3b3e 0400 a03c 5182 263e
00000340: 588d b8bd a3b4 82bd 84ff 83be 4109 263e
00000350: c22c 76be f60a d53d d62b 4c3e 01e7 46bc
00000360: 5f3c 66bb e917 adbd 2cc8 2cbd 0697 b4bd
00000370: bea4 713e 66cf 87be d090 753d a798 dbbd
00000380: 822c 7bbe 1670 14be 6429 093e 3844 043d
00000390: 4cae 0dbe 004c 383b 70fe f0bc c0b1 21be
000003a0: e882 383e c89c 723e 3265 10be 9629 33be
000003b0: 9053 69bd ee57 023e 3002 4bbe 60f0 48bd
000003c0: 5ff7 b53d 607b 42bd d300 92be c208 20be
000003d0: 9500 c9bc b830 c33d c27b 39be e24d fb3d
000003e0: 0aca 5b3e b3df b9bd 6459 ce3c 5ff0 a4bd
000003f0: 98f2 9c3d 4e0e 62be c8bf af3d 2ad0 0d3e

critic.4.bias f4 [16]
-0.07038924 0.03026628 0.0739055 0.29627877 0.38579237 -0.078271985 0.07730503 -0.06545967
0.23510106 0.1857994 0.2595836 0.17662832 -0.2120787 0.1549934 -0.11395505 0.15218386
00000000: 3c28 90bd fdf0 f73c c45b 973d dab1 973e
00000010: 9486 c53e 104d a0bd 1952 9e3d b80f 86bd
00000020: 55be 703e 3342 3e3e 24e8 843e 0ede 343e
00000030: 292b 59be 97b6 1e3e 4461 e9bd 16d6 1b3e

critic.6.weight f4 [1, 16]
-0.0754217 -0.08903032 -0.08251429 0.53857183 0.6671832 0.040742993 -0.02297821 -0.13229072
0.61805665 -0.076969415 0.6813519 -0.0060829986 -0.20539378 -0.19211599 -0.055910766 -0.16875067
00000000: b176 9abd 8755 b6bd 41fd a8bd d8df 093f
00000010: 85cc 2a3f 20e2 263d cd3c bcbc 3877 07be
00000020: f638 1e3f 24a2 9dbd 146d 2e3f e453 c7bb
00000030: bf52 52be 0eba 44be b002 65bd facc 2cbe
