experiments/LunarLander-v2_REINFORCE/dqn.pth (torch, 57511 bytes, 8 tensors)

fc1.weight f4 [128, 8]
00000000: 0aba 0e3f bb61 15bf 13f0 ccbd d5e4 0bbe
00000010: b446 adbe 3aec 30bf 47b0 c23e 8abb 65be
00000020: 0cbd ea3e f27d a73e 4c06 acbe 5ac7 f43e
00000030: 696f 06bf c161 5ebf f692 d73d 2ef4 62bf
00000040: c2b8 c33e d714 3a3f 5b4a 1abe 21ba 9f3e
00000050: 886d 583d 4861 82be 91ec 13bf 0d83 16bf
00000060: fbf2 b73e 052e c53e 873d 913e 2d1e bcbe
00000070: 9912 2fbf 2915 21bf 6b5e b7bd 6ad8 02bf
00000080: 8f05 d23e 8a1b dc3e 74ad 2f3f fa43 443f
00000090: 3f8a a2bd d8df 6bbf fd4a bb3e 1531 22bf
000000a0: 62b9 1ebf b5d7 713e 24df 063e 9310 28bf
000000b0: b224 0f3e 7cbe 0cbe 8253 403e b040 44be
000000c0: 7d82 0c3f 420f e73e ef21 30bf fe60 153f
000000d0: 51d9 ba3e 7635 cb3d 3f35 f5bd b018 443f
000000e0: 4ef2 44bf 3dbd 6abe 11e8 45be 9fa0 cbbe
000000f0: d379 d03e b206 443f e7da 5cbf c941 283e
00000100: e3af 0f3e c392 203f 8e0a 223c 8114 9a3e
00000110: eeaa 33be 1196 593e 9bdf efbe 81bf f63e
00000120: 8baa 113f 8b1e 58bc 03ec 1abf 1cce 0dbf
00000130: 4abd 5ebe 72cd 8e3e e33a fcbd 2edd ce3e
00000140: 5474 803e c1ba b33e df2c 643e e39b a7be
00000150: 56ec 42bf 42cc c43e 09e5 0fbf a71d 383f
00000160: 6071 203f afd8 64be 5b33 f43d b936 93bd
00000170: c014 1dbf c35f e0bd 8afa 39bd 6cd2 a9be
00000180: 467a dc3e 00e8 f2be 0c67 7fbe c158 453f
00000190: a4dd 233f 2f87 a13e fdac ae3e 54c6 0fbd
000001a0: ac77 06bf d1b2 5d3f da5c eebe c927 8dbe
000001b0: 5100 71bf c470 4e3f 9cc2 5a3e c16c f23e
000001c0: 8787 3abf 31f4 5b3f c6ee ebbe f394 073f
000001d0: 7a17 1a3f 99a7 29bf 2bac 4b3f fbc6 f53c
000001e0: bd35 ab3e d86e 31bf 2ce1 383f 87f5 ebbc
000001f0: e33b 3e3f bd7f 3a3f f595 273f e82b eabe
00000200: 2bd3 4abd dc02 4fbf 4ee9 353f 4a1b f3bd
00000210: 48fc 1f3e 4161 c7be 86dd bf3d 0922 f7be
00000220: 04be 51bf 34dc ffbe a5ba 413f e6c8 81be
00000230: 0829 89be aacc ebbe 47c6 213f e602 433f
00000240: f5a7 89be da0c 08bf 1ff3 103f 12a9 2f3e
00000250: 760b 14bf fea6 0ebf fdcb e43e 4cf7 26bd
00000260: 531f 3f3f 0231 3cbd fb87 61bf 5824 bb3d
00000270: 1a7b 073e e97e 563e 5deb 6abe d66d 45bf
00000280: cd0e 253f 095e 27bf 2829 1fbf ec95 b8be
00000290: d255 3b3f 40ac 463f 2858 95bd 5c03 983e
000002a0: c490 aebe 4b78 d3bd 74a7 1f3f b0fd 27bf
000002b0: ee3e 34bf f91d e5be 034c c4be 2672 12be
000002c0: 0dc3 523f d7c2 b4bd 2f41 9e3d 3f32 293f
000002d0: 63b7 f73e 03fe 333d 488b 263f cc1d 3e3e
000002e0: 4ae4 3c3f f00f 023f 1b78 cabe 711a db3e
000002f0: f2b0 6d3f d621 583f ceee 313f 2345 483f
00000300: ec1f a7be 2b8f 2a3f b1c0 10be ed8c 353d
00000310: 9026 44bf 0756 aabe 8068 00bf 1038 5fbf
00000320: 1f6a 82be caa6 17bf 2e5c cebe 7a9d 063d
00000330: 429e 91be 5cab 463f e618 35be 23d4 2dbf
00000340: 7f65 dbbe 4080 2cbf 071c b23e 860c 3b3f
00000350: ea78 133f 296d 87be 709a 213f 9452 1a3f
00000360: 8b8f d23e 6f13 513c 91bb 02bf 483b 123f
00000370: a86c e5be 8d8f babe 2a14 27bf 7eff 03bf
00000380: 2be4 ab3e 0ba5 1ebf 804b 873e b16f d6be
00000390: e22d 583f 4cde a83e 2b44 46bd 688f 17be
000003a0: 34ad 453d 11ec 7b3e e845 e3be 6faf 5a3f
000003b0: b7a1 e0be 63a7 59bd 6359 42bf e930 533f
000003c0: 49b8 a9be 50b9 eb3b 85db 3a3f 4033 08bf
000003d0: 51d3 8fbe fea9 40be c346 23bf 7c66 55bf
000003e0: 49f8 023f ae1d 623f 7d4c 393e a3a4 283f
000003f0: b913 6b3f dde0 053e 8252 963e 559a 03bd
0.55752623 -0.5835225 -0.10006728 -0.13661511 -0.33843005 -0.69110453 0.38025114 -0.22434822
0.45847356 0.32713276 -0.33598554 0.47808343 -0.5251375 -0.8686791 0.105260774 -0.8865384
0.38226897 0.7268805 -0.15067427 0.31196693 0.052838832 -0.25464845 -0.57782847 -0.5879372
0.35927567 0.38511673 0.28367254 -0.36741772 -0.6838775 -0.6292291 -0.08953556 -0.5111147
0.41019866 0.4298976 0.68624043 0.76666224 -0.079365246 -0.92138433 0.3658065 -0.63356143
-0.6200162 0.23617442 0.13171059 -0.6565029 0.13978842 -0.13744539 0.18781856 -0.19165301
0.5488661 0.45128828 -0.6880178 0.58351123 0.36493924 0.09922306 -0.119730465 0.7660017
-0.7693223 -0.22923751 -0.19326808 -0.39770982 0.40717945 0.76572716 -0.8627152 0.16431345
0.14031939 0.6272394 0.009890212 0.30093768 -0.17545673 0.21248652 -0.46850285 0.4819298
0.5690085 -0.013190876 -0.60516375 -0.5539262 -0.21751896 0.27891117 -0.12315919 0.40403122
0.2508875 0.3510342 0.22282742 -0.3273612 -0.7614187 0.38437086 -0.56208855 0.71920246
0.62672997 -0.22348283 0.11923858 -0.07188172 -0.61359787 -0.10955765 -0.04540495 -0.33168352
0.43062037 -0.47442627 -0.24941653 0.7708855 0.6401007 0.3154845 0.34116355 -0.03510125
-0.52526355 0.8660098 -0.46555215 -0.27569416 -0.9414111 0.80640817 0.213633 0.47348598
-0.7286305 0.8591948 -0.46080607 0.52961653 0.6019207 -0.6627136 0.7955958 0.030002108
0.33439437 -0.6930976 0.72218585 -0.0288036 0.7431013 0.72851163 0.6546319 -0.45736623
-0.04951779 -0.8086374 0.7105912 -0.11870439 0.15623581 -0.38941386 0.09368424 -0.48268154
-0.81930566 -0.4997269 0.7567542 -0.25348586 -0.26789117 -0.46054584 0.6319317 0.761763
-0.26885954 -0.5314461 0.56620973 0.17154339 -0.5782999 -0.5572356 0.4468688 -0.040763184
0.7465717 -0.045945175 -0.88098115 0.091377914 0.13230553 0.2094685 -0.22941346 -0.7712072
0.6447571 -0.6537786 -0.62172174 -0.3605188 0.73177826 0.7760658 -0.07292205 0.29690063
-0.34094822 -0.103256784 0.6236489 -0.6562147 -0.70408523 -0.4474943 -0.38339242 -0.14301357
0.82328874 -0.08826225 0.077272765 0.66092294 0.483821 0.043943416 0.65056276 0.18566054
0.7378584 0.5080557 -0.39544758 0.4279361 0.9284812 0.8442663 0.6950501 0.78230494
-0.32641542 0.66624707 -0.14136006 0.04432385 -0.7662134 -0.3326876 -0.50159454 -0.8719492
-0.2547159 -0.59238875 -0.40304703 0.032865025 -0.28441054 0.77605224 -0.17685279 -0.6790182
-0.42850873 -0.67383194 0.34787008 0.73065984 0.57606375 -0.2645047 0.6312628 0.60282254
0.4112514 0.012760981 -0.51067454 0.57121706 -0.4480946 -0.36437646 -0.6526514 -0.51561725
0.33572516 -0.61970586 0.2642479 -0.4188209 0.8444501 0.329821 -0.048404854 -0.14800799
0.048260882 0.24601771 -0.44389272 0.8542394 -0.4387338 -0.053138148 -0.75917643 0.82496506
-0.3314841 0.007193722 0.7299121 -0.532032 -0.2809091 -0.18814847 -0.6377985 -0.83359504
0.51160103 0.8832654 0.18095584 0.65876216 0.9182697 0.1307406 0.29359823 -0.032129604

fc1.bias f4 [128]
00000000: 314e 67bd eb75 863d 6ad8 dcbc 37bb d23c
00000010: 26ed 273e c89e 763e 61f4 2b3b 8320 96be
00000020: 2329 a8bd e99c 793e 457a f0bd 1187 5dbe
00000030: db75 06bd af18 fb3d 4602 eebd fbd6 13be
00000040: d17c f03d a880 543d 9791 803e 9ad5 73be
00000050: 3ff3 e83d 6b64 d03e f227 82be b399 073e
00000060: 569d 6e3e 3b28 0abd 39f3 163e 1b6a a43c
00000070: 2fd4 a9be 2605 abbe 1328 3f3e 78db c63e
00000080: ad9c 3a3e 18a1 e6bc bdc8 843e 42c5 493e
00000090: 3c9e 703d fad8 cebd 6504 8cbe 9371 1a3e
000000a0: 3333 453e 37bf 053d 4792 283e 2a48 d0bd
000000b0: ba0e a63e cd44 e5bd d775 51bd a45b 97bd
000000c0: 16b1 eebd 93de cd3c 352c f13d 34fb 8ebe
000000d0: ed1d 8d3d 3c57 a83e 97f1 fbbd bd37 323d
000000e0: 0414 04be f1b2 babd b633 a73e 29c0 b5bd
000000f0: aac2 17bd 5461 80be cc8e 90be 1603 a83a
00000100: 86e9 653e 2733 483e 3f31 19bd 63c2 6abe
00000110: ad6e 65be 0104 813d 058d a73e e9fe 0cbe
00000120: 218f e13b c858 b63e 8f34 783e bff0 fc3c
00000130: fdec fc3d e941 973c 999a b3b9 5b49 893e
00000140: a06a 91bd d0ef 873e 858d 0c3e fd9a 34be
00000150: 6f39 7dbe 3973 96be fcd3 0abd c455 6e3e
00000160: 1b62 5a3e ddd7 eabc be51 f13d 4bc0 b5be
00000170: 2c3c 1ebe fc50 653e d834 52be 1ad8 63be
00000180: 5e4c bb3d 78a7 c53d a1e0 1c3e 04d1 133e
00000190: 8a01 bc3d 36e4 b03e 1cb6 dbbd b8bf 1a3e
000001a0: b245 533e 1a76 e2bb f1a4 95be 9012 a8be
000001b0: cd6a 6a3e 904c 273d 0884 e9bd 9842 10be
000001c0: 4186 463e 9c36 363d d9a5 9ebe 4e72 013e
000001d0: 7c67 35bd f2f8 d5bd df75 9ebe 15dc 57bc
000001e0: ab8f c03c ff93 65be 3f24 803e 94bd 56be
000001f0: b579 a5bd a04c 183d 17ff 1b3e f6c3 a4be
-0.056471054 0.0656546 -0.026958663 0.025724037 0.16399059 0.24084008 0.002623819 -0.2932168
-0.08210971 0.24376263 -0.11742071 -0.21633555 -0.03282724 0.122605674 -0.116215274 -0.14437477
0.11742557 0.05188051 0.25111076 -0.23811951 0.113745205 0.40701613 -0.254211 0.13242225
0.23302206 -0.033729773 0.1474122 0.020070126 -0.33169696 -0.33402365 0.18667631 0.38839316
0.1822383 -0.028152987 0.259344 0.19704154 0.058744654 -0.10099979 -0.27347103 0.15082388
0.19257812 0.03265306 0.1646205 -0.10170014 0.3243311 -0.11194763 -0.05113777 -0.07390526
-0.1165487 0.025130546 0.1177601 -0.27926028 0.068904735 0.32879055 -0.12301939 0.043510187
-0.1289826 -0.091161616 0.3265664 -0.08874542 -0.03705088 -0.25074255 -0.28233945 0.0012818302
0.22452363 0.19550763 -0.03740048 -0.22925715 -0.224055 0.06299592 0.32724777 -0.13769116
0.0068835174 0.3561461 0.242388 0.030876515 0.123498894 0.018464046 -0.00034256725 0.26813778
-0.07100415 0.2655015 0.1372586 -0.17637248 -0.2472894 -0.29384783 -0.03389357 0.23274904
0.21326487 -0.028667385 0.11783169 -0.3549827 -0.15452641 0.22394174 -0.20527971 -0.22250405
0.09145425 0.09651083 0.15320064 0.14435202 0.09179981 0.3454911 -0.10728094 0.15112197
0.20632055 -0.0069110515 -0.29227403 -0.32826662 0.22892304 0.0408445 -0.11402136 -0.14087903
0.19387151 0.044485673 -0.30985907 0.1264126 -0.044288144 -0.10447873 -0.30949304 -0.01317503
0.023506006 -0.22419737 0.25027654 -0.20970756 -0.080798544 0.03718245 0.15234028 -0.32180756

fc2.weight f4 [64, 128]
00000000: 9b58 68bd 77a4 673d 0fef 133e 9c34 c63d
00000010: 87ce 073e e67a 5abc 0921 11be 5480 333e
00000020: 078a 393e f57c 523e d02f 66bd 7882 84bd
00000030: 7030 893d 1c2d d23c 3859 16bd b43b 683e
00000040: c76c 34be feb9 d6bb ac27 13be e2db 483d
00000050: 5884 2bbe e0d3 923d 4b55 4dbd dd19 553e
00000060: 28ef 27be c9ee 0abe c70e 69be 769f 703d
00000070: 449c a23d 0bce 173d af46 763e 2cbc 1c3d
00000080: 2918 09be 6fcb 66be 8e36 013e d53b b9bd
00000090: 9cab 2d3d 4c1f 79bd 4563 39be d3a1 fcbd
000000a0: 1f6b 443e 026a 53be f880 99bd a693 ccbd
000000b0: 9b7e 013e 9af9 f4bc 9ead 813c e665 3cbe
000000c0: 3ba1 e33d 9164 e0bd 51a0 323e 2c26 02be
000000d0: 811a ec3d c5d5 19bd ed42 9fbd d1b8 fbbd
000000e0: 3cfa 5dbc 1021 463e 4346 b7bd 84ab 773c
000000f0: 4394 40be 92ec da3b 5ee7 193d 0b12 f23c
00000100: c4df 19be 6e37 24be d98b ec3c e662 d23d
00000110: 868b 923d 2601 f63d 4654 283e 2e0f d63c
00000120: 99ae 28be 76f2 cabd 5c01 033e 0049 29bd
00000130: 1906 4abe 0b96 c1bd efd2 92bd 608d d7bd
00000140: 5ac4 72be c88c 0dbe f925 f4bd dbb1 393e
00000150: 46db 833c 75d4 a93b 39eb 7f3e 2abe 2d3c
00000160: 5f89 1bbe f664 50be 6927 35bd df8d 01be
00000170: adcd 08bc fd20 02be 4833 f23d fc83 e23d
00000180: 0f14 07be ce54 cbbd 23e5 e7bd c3de 33be
00000190: 7a3f 82be 97c5 02be 0042 15bc 5207 dd3c
000001a0: e409 19be 0cee d13d edc7 ca3d 12e6 fbbd
000001b0: 4771 05be 30c7 e43d bddf 2cbd b74d b2bd
000001c0: 60c1 dcbc 459e fcbd 5f42 823d 366d 0e3e
000001d0: 3906 433e d3ab fa3d e751 cb3c c9b0 3b3e
000001e0: 8f3f e33d 591e 7e3e 3b0e 803c 9e13 873e
000001f0: eba0 cd3d 8b59 2cbe 2452 6f3d 8052 3c3d
00000200: 6195 753d 6546 0d3e 6d3f 823d c768 58bd
00000210: eda0 ae3d 0828 c7bd 39c3 e33d 1dd1 483d
00000220: 2d59 083e 3ac7 dc3d 2635 d93d 086a 5dbe
00000230: ed79 79be b0cb 2ebe c9d0 39be 291d a33c
00000240: 0874 c83d 1cb4 febc 4a3c b7bd 46df 8b3d
00000250: 53d3 413e d4d0 883d 1ea6 8b3d 3ec0 e33d
00000260: 7388 50be 309a 8bbc 2693 753c a2a9 6ebc
00000270: de27 bcbd 3845 aabb 291d 25be 31a3 9f3c
00000280: ac85 2bbe 0258 b43a 2334 0bbe f4fc 0e3e
00000290: 47ae 243e 5843 e5bd fde4 22be eb62 833d
000002a0: b113 3d3e dcbd 3f3d 3ea5 ce3d f9bb f6bd
000002b0: e362 213c 232e 3c3e 690b 51be a591 acbd
000002c0: 7da0 1dbe 0ce6 bebd 76ea 4e3e 6cf3 a53d
000002d0: 6779 21be e5bb 053e ada9 0fbe 0eab b7bd
000002e0: ae89 44be fcf2 2f3e 12a5 07be 311b 46be
000002f0: 00a3 443e 30ad 4a3e e63e e0bd 9abf 4fbe
00000300: 883f 44be 7aed e73a eb36 2d3e ca7f 64be
00000310: a205 393c 2ed9 0bbd cade 893d 6491 22bd
00000320: 47a9 0cbe c53c 53be dad1 acbd de49 3dbe
00000330: e9a7 59be e59b 283d abf7 65be 4c6d 1d3e
00000340: 5fe6 443e e410 4fbe dcb1 1c3e 9ead 973d
00000350: d3ab 353e 465d 63be 20b7 963d e6bf 43be
00000360: 8dbd 1ebe 3670 f73d 17ba f8bc 9a88 0f3e
00000370: a1e1 28bd 1f89 393e 1f01 903d 5d72 1dbe
00000380: 6edd 0e3e cf63 bbbd 248c 46bd 12da a53c
00000390: ca22 1ebe 5882 69be 00be 43be 8f51 6cbc
000003a0: e1ce 51bd 5bc3 56be 967d 253e c7ff 233e
000003b0: eaa8 aa3b 5aa2 193e 8916 4dbe 9122 513c
000003c0: 3c85 aabc 1f06 a8bd 98db eb3d cbe2 1ebd
000003d0: 1e32 50be 53ae 5eba f80b 853c d071 293d
000003e0: 85cd 0cbe 6b1a c2bd 5ce5 3c3d 6765 05bd
000003f0: 82a6 823d 22b2 163e 39d8 7f3d 973c a23c
-0.056725126 0.05655333 0.14446662 0.09678003 0.13262378 -0.013334965 -0.14172758 0.17529422
0.1811906 0.2055548 -0.05619794 -0.064701974 0.06698692 0.025656275 -0.03670618 0.22679025
-0.1761962 -0.0065529337 -0.14370602 0.04903782 -0.16749704 0.07169318 -0.05013017 0.20810647
-0.16399825 -0.13567652 -0.22759543 0.058745824 0.079399616 0.037061732 0.24050401 0.038265392
-0.13388123 -0.22538541 0.12618467 -0.09044615 0.042399988 -0.060820863 -0.18104275 -0.12335553
0.19181488 -0.20645908 -0.07495302 -0.09989099 0.12645952 -0.029904176 0.015829857 -0.18398246
0.11114737 -0.109566815 0.17443968 -0.12709874 0.11528493 -0.037557382 -0.07776437 -0.1229111
-0.01354843 0.1934855 -0.08948948 0.015116576 -0.18806557 0.0066810334 0.037574165 0.02954962
-0.15026766 -0.1603677 0.028875278 0.1027277 0.07155518 0.12011938 0.16438398 0.026130285
-0.16472854 -0.09909527 0.12793487 -0.041329384 -0.19728889 -0.094524466 -0.07169139 -0.10525012
-0.23707715 -0.13823235 -0.11921305 0.18134253 0.016095769 0.0051827976 0.24992074 0.010604421
-0.15189122 -0.20351014 -0.044227038 -0.12651776 -0.008349818 -0.12707897 0.11826187 0.1106033
-0.13191245 -0.099282846 -0.11323001 -0.17565446 -0.25439054 -0.12770687 -0.009109974 0.02698103
-0.14945179 0.10250482 0.09901414 -0.12299742 -0.13031493 0.111708045 -0.04220556 -0.08706229
-0.026947677 -0.12334875 0.063603155 0.13908848 0.19045343 0.12239804 0.024819328 0.18329157
0.11096107 0.24816264 0.015631786 0.26382154 0.10040458 -0.16831033 0.058427945 0.045977116
0.059956912 0.13796385 0.06359754 -0.0528343 0.08526788 -0.09724432 0.1112122 0.04902755
0.13315268 0.10780187 0.106058404 -0.21622479 -0.24362917 -0.17069888 -0.18146051 0.019911366
0.09787756 -0.031091742 -0.08947046 0.068296954 0.1892827 0.06680456 0.06818794 0.11120652
-0.20364551 -0.017041296 0.014988696 -0.014566811 -0.091872916 -0.00519624 -0.16124405 0.019486995
-0.1675021 0.0013759139 -0.13594107 0.13963681 0.16082107 -0.111944854 -0.15907665 0.064153515
0.18464543 0.046811923 0.10090111 -0.12047572 0.009850237 0.18376975 -0.20414509 -0.08426217
-0.15393253 -0.09321222 0.20206627 0.0810307 -0.15768968 0.13059957 -0.1402957 -0.08968173
-0.19193146 0.17182535 -0.13246563 -0.1934631 0.19202805 0.19792628 -0.10949497 -0.20287934
-0.1916486 0.0017694675 0.16915481 -0.22314373 0.011292847 -0.034142666 0.06731947 -0.039689437
-0.13736449 -0.2062865 -0.084384635 -0.1848521 -0.21255459 0.041164298 -0.22457759 0.15373725
0.19228505 -0.20221287 0.15302223 0.07406162 0.17741327 -0.2220355 0.07359147 -0.19116172
-0.15501995 0.120819494 -0.030362172 0.14016953 -0.0412308 0.18118714 0.07031464 -0.15375657
0.13951656 -0.09149896 -0.048473492 0.020245586 -0.15442958 -0.22803628 -0.19115448 -0.014423742
-0.051222686 -0.2097296 0.16161188 0.1601554 0.0052081244 0.15003338 -0.20028128 0.012764589
-0.020815484 -0.082042925 0.115164936 -0.038790505 -0.20331618 -0.0008494604 0.016241059 0.041368306
-0.13750274 -0.09477695 0.04611717 -0.032567408 0.06379415 0.1471639 0.062462065 0.019804282

fc2.bias f4 [64]
00000000: 2c13 493d dc37 0dbd f012 b4bc 0764 da3d
00000010: 5166 833d 9647 8a3d 868d 8c3d 1017 383c
00000020: b38a 333c fd78 aa3c ff95 bc3a 80b0 183d
00000030: 3d22 9eb9 1135 1c3d c6e8 9dbd 3b82 a1bd
00000040: 6217 e23c cbd8 653c 832e a23d 1c51 cabd
00000050: ed92 0e3d e5d1 91bd d89c 90bd 599d 703d
00000060: 8808 d0bd 5cb9 87bd 408e 62bd d8dc 64bc
00000070: a1d9 b33d 65e1 9e3c d4c9 c8bc 0883 0bbd
00000080: 38a1 c63d 3983 17bc d11e 71bd a4e9 50bd
00000090: 57aa 0cbd a499 2a3c 1165 4ebc 257e 913d
000000a0: b45a 833d eb1d 243c 6738 e93c f441 f5bc
000000b0: 2a99 4abd 2572 ab3c 51c0 e8bb 7b61 cf3d
000000c0: 36aa 86bb 6e18 8bbd a63d 21ba 0323 b1bb
000000d0: 7f74 c33d 7327 423d 4068 bcbd 290b 03bd
000000e0: ce22 8bbd 4d0c e63d 0ed9 a2bc a36f 87bc
000000f0: ed01 19bc b14c 553d 31c1 7c3c 681e 03bd
0.04909055 -0.0344771 -0.021981686 0.1066361 0.06416 0.06751935 0.06862931 0.011235967
0.010958361 0.020809645 0.0014387964 0.0372777 -0.00030161618 0.038136546 -0.07710414 -0.078861676
0.02759904 0.014028738 0.07919028 -0.09878752 0.034808088 -0.07120112 -0.070611656 0.05874381
-0.10157877 -0.06627151 -0.05531144 -0.013968669 0.08781744 0.019394586 -0.024510302 -0.034060508
0.09698719 -0.0092475945 -0.05886728 -0.051004067 -0.034342136 0.010412607 -0.012597338 0.07104138
0.064137846 0.010016899 0.028469278 -0.029938675 -0.049462475 0.020928452 -0.007103004 0.10126015
-0.004109646 -0.06791769 -0.0006150849 -0.005405785 0.09543704 0.047400903 -0.091995716 -0.031993065
-0.06793748 0.11232815 -0.01987889 -0.016532725 -0.009338838 0.05207509 0.01542692 -0.03201142

fc3.weight f4 [64, 64]
00000000: e91c 90be 6fdc 63be 1cfa 96be b3a8 36bd
00000010: 1ed7 fcbd bf08 e13d a52e 68bd 0c4c 69be
00000020: 41ec 8dbd 403b 2bbd 833f 00be ee93 d3bd
00000030: 0cbb 71be 1259 b43d 31d3 2abd 7392 d5bc
00000040: 9bba c1bd aca6 0c3e aa68 90be 4f34 57be
00000050: 03e2 92be 7403 36be 8212 93bd aecf 80bd
00000060: f5a4 093e a5a6 03be 9288 eebd 5bc9 55be
00000070: a12c 8a3e 4d41 8ebe 168f 46be 057f 84bd
00000080: bc81 8dbd 9d1b 473e 1e64 f7bd df65 803d
00000090: 5c32 97be 8cba 52be c57e c0bd 40e7 4e3d
000000a0: 7ebb 903d e71c 92be a0e2 e13d 139f 993e
000000b0: 5492 93be 1183 77be ebe9 cbbd bee9 96bc
000000c0: 5d14 413e 6f18 aabd be71 633e 9ae2 a0bd
000000d0: 4659 65bd e8cd f43d 00ee 483e 8a4d 993d
000000e0: 3e08 82be f473 8c3e 50c0 acbc ffd6 193d
000000f0: 3339 59bb 41e6 b8bc b192 643e cbef 613d
00000100: 1603 9cbd e550 59bd f21c 4fbe c3f9 a3bd
00000110: d21f 6d3e 964f 2a3e 1d8b 8dbe 0c9d 363e
00000120: 2b06 4abe 67a6 8bbe 3ed4 e53c 457c c43e
00000130: 6898 753e 6c3f 8abe f4a0 8f3e 2950 f1bc
00000140: 5581 1d3e 7793 2c3d 6095 23be 2f83 473d
00000150: 35ae c3bd 4666 91be 240b 8d3e 1fe1 423e
00000160: 71a7 8e3e 3bf1 84be c6bf 8cbc 4fdd 6abe
00000170: 3664 11be 9a72 33be 488e a7be edbc 8fbe
00000180: ccfa febc f5bc 5a3e cb0d 6e3e 6d76 66be
00000190: f61e 433e 4339 7bbe 897e 1a3e 5f0c 3e3d
000001a0: 01e5 173d ad7d 10be 5e70 623e 80d4 9c3c
000001b0: 9017 8bbd 44fb 9c3e f1c9 173d 936a 883e
000001c0: 33ed 03be 9279 66bd b90a 9c3d fa02 d9bd
000001d0: 1e48 7dbe c914 5a3e fbc6 943e e886 45be
000001e0: aaed 3f3d 9c01 273e cc7a 90bd 8fff 30be
000001f0: 6579 463e a898 753e ab86 08bd 5ed9 36be
00000200: 62e7 23be a2e0 f53d 8d0d 5e3d 732c 8cbc
00000210: 9a81 f2bd f95a 12be 5ed8 8abc e06e 66be
00000220: a9c0 7bbe a768 66be a416 f43b 5f1d b33e
00000230: 5c55 753e c921 723e c0c6 d9bc e029 263d
00000240: 1c50 0abd f94e 48be 69b4 60bd 62b8 82be
00000250: 0303 9bbe 8b18 7b3e ee50 9bbd 30b3 013e
00000260: d692 1bbe 7832 893e 80e6 70be c3cb 1ebe
00000270: 5593 993c dce3 e93b ae34 41be 450c ce3d
00000280: 2b0e 45be 5719 77be 288c 5abe def9 043e
00000290: 43b6 bebd a940 2a3e b8f9 8f3e 921e 303e
000002a0: d12d 04be 0f2d 0bbe d24d 88be 48fd cf3d
000002b0: ddf3 0bbe 0e4e 833e e43f 3e3e ab46 92bd
000002c0: 6358 70be 755f 21bd c77d 073e 4814 0ebe
000002d0: 3ef0 50be dfee b13d 1d23 1dbe 5701 46be
000002e0: 77db fe3d 468d d5bd 30d8 2fbe 0c0a bebc
000002f0: 5ec6 473e 514f 8f3e 14a4 9f3e 2cff 64bd
00000300: 0035 473e d9ff 8abe c38a 94bd be1e 43be
00000310: 34c1 c2bd 8092 c93e 8950 ec3c 8d6b 85be
00000320: c07f 7dbc 28b2 a63e 951e 83bc cafa 3dbb
00000330: 7770 e73c c862 28bd c437 30be 1f56 efbd
00000340: 3030 913d 0170 26bd ed44 f5bc 600e 58be
00000350: 23f5 50be 16e7 66be 4fac 8bbe 74a9 3a3e
00000360: d3ff 63be ad44 89be 9571 d63d 8e1c fb3d
00000370: 17d0 033d b33e efbd 60ba 9d3d 3b02 c63d
00000380: ee68 7abe ef44 cb3d 521b 4abd 7ae8 0ebe
00000390: af24 703e 6dc1 963b d175 0b3e c948 3c3e
000003a0: 3172 34bb b75a b13e 372f 27be 99bb 87be
000003b0: 6c38 8ebe e2d9 983d 9580 ba3e 81ce b13e
000003c0: 0b0a 60be 5e9d 83bd 802d 81bd e042 7d3e
000003d0: 19c9 3fbe b505 34bd e976 0bbe 7928 743e
000003e0: 5088 993e b411 a0be 9a2b b5bd 1c5d 2f3e
000003f0: 5e1a 96bc cd72 0f3e 3a07 64bd 8062 483d
-0.28147057 -0.22252057 -0.29487693 -0.044594478 -0.12345718 0.10987996 -0.05668511 -0.22782916
-0.069298275 -0.041804552 -0.12524228 -0.1033095 -0.23606509 0.08806051 -0.041705314 -0.026070809
-0.0945942 0.13735455 -0.28204852 -0.21016048 -0.28688058 -0.17774755 -0.071812645 -0.06289612
0.13441832 -0.12856539 -0.116471425 -0.20877592 0.26987174 -0.27784196 -0.1939052 -0.064695396
-0.069095105 0.19444127 -0.12079643 0.0626943 -0.2953061 -0.20578974 -0.09399179 0.050513506
0.07067011 -0.28537676 0.110295534 0.30004176 -0.28822577 -0.24171092 -0.09956726 -0.018422004
0.18855424 -0.083054416 0.22211358 -0.07855721 -0.05599334 0.11953336 0.1962204 0.074854925
-0.25396913 0.27432215 -0.021087795 0.037558552 -0.0033145666 -0.022570731 0.22321583 0.055160325
-0.07617776 -0.053055663 -0.20225886 -0.08006623 0.2315667 0.16631922 -0.27645198 0.17833346
-0.19728915 -0.27275392 0.028055307 0.3837606 0.2398392 -0.27001512 0.28052485 -0.029457169
0.15381368 0.04213282 -0.15974951 0.04870909 -0.09554712 -0.2839834 0.27547562 0.1903119
0.27862123 -0.25965294 -0.017181288 -0.22935985 -0.14198384 -0.17524186 -0.3272574 -0.28073826
-0.031125449 0.21361144 0.23247449 -0.22506113 0.1905478 -0.24533562 0.15087332 0.046398517
0.03708363 -0.14110442 0.22113177 0.019144297 -0.067916036 0.3066045 0.03705782 0.2664381
-0.12883453 -0.056268282 0.07619233 -0.10596271 -0.24734542 0.21296991 0.2905806 -0.19289744
0.046857513 0.16309208 -0.07054672 -0.17284988 0.19382246 0.23984015 -0.033331554 -0.17856357
-0.16006234 0.12005736 0.05421214 -0.017111039 -0.11841126 -0.14292516 -0.016948875 -0.22503233
-0.24585213 -0.22500859 0.007448988 0.34983346 0.23958343 0.236457 -0.02658403 0.04056728
-0.033767805 -0.19561376 -0.054859553 -0.25531298 -0.30275735 0.24521081 -0.075837955 0.12666011
-0.15192732 0.26796317 -0.23525429 -0.15507416 0.018747011 0.0071377587 -0.18867752 0.10060934
-0.19243686 -0.2413076 -0.21342528 0.12985942 -0.093121074 0.16626228 0.28120208 0.17199162
-0.12908103 -0.13591407 -0.26621872 0.101557314 -0.13667245 0.25645489 0.1857906 -0.07142385
-0.23471217 -0.039397676 0.13231574 -0.13874924 -0.20404145 0.08688139 -0.15345426 -0.19336449
0.12444203 -0.104273364 -0.17172313 -0.02319815 0.19509265 0.279902 0.3117987 -0.055907413
0.19453812 -0.2714832 -0.07253029 -0.19054696 -0.09509507 0.39369583 0.028846996 -0.26058617
-0.0154723525 0.32557797 -0.016005794 -0.0028988593 0.02825187 -0.04110983 -0.17208773 -0.11686348
0.07089269 -0.04063416 -0.029940093 -0.21099234 -0.20406012 -0.2254909 -0.272799 0.18228704
-0.22265558 -0.26810208 0.10470883 0.12261306 0.03218087 -0.11681881 0.07701564 0.09668394
-0.2445409 0.099252574 -0.04934246 -0.1395587 0.23451494 0.004600695 0.13619162 0.1838714
-0.0027533884 0.34639522 -0.16326605 -0.26510313 -0.2777742 0.07463433 0.36426225 0.34727862
-0.21878831 -0.064265 -0.063075066 0.24732542 -0.18729056 -0.043950755 -0.1361958 0.23843564
0.2998681 -0.31263506 -0.08846207 0.17125362 -0.01832312 0.14008637 -0.055670954 0.048922062

fc3.bias f4 [64]
00000000: 0d9a 293d 6700 093e dad8 53bc 294b 41bd
00000010: 38aa f93d 4ced 6dbc 4049 893d c520 c13c
00000020: bae3 f2bd 22ab bc3c b930 08bd 66f9 51bd
00000030: 9c63 9b3d f88f ad3d 11be d53c 2095 72bd
00000040: a5f3 c3bd 4075 81bd 5f61 c9bd 9b7c 503b
00000050: 09f7 febc 90ff b1bc 4aae 6ebd bcd9 6a3d
00000060: 43c3 763d 2bbe ef3d 1ef5 16bc eb14 f83c
00000070: 88b1 49bd 6004 89bd 180b 983d c05b 613d
00000080: 84ec 9d3d 92df cf3d f6bc 473d ba2b 193e
00000090: 35c8 1f3e c5f7 ab3d 41de d63d 52d1 ae3d
000000a0: ab0e ed3d 5a3c 3abd 22ec b4bd 7077 bd3d
000000b0: 1d23 a33d 4f87 ce3a 3c66 243d f2ba 95bd
000000c0: 4559 063e 20cb 7dbc 2934 af3d a6fc 573d
000000d0: aa40 3d38 fdf3 553d c184 0e3d 5627 ff3d
000000e0: 4f62 363e d6a7 06be 899b 3ebd 818f ae3c
000000f0: 3ad7 103d 5ea4 943d 2f72 d3bd e67a ac3d
0.04140668 0.1337906 -0.012930119 -0.04719082 0.1219067 -0.014521908 0.067034245 0.023575196
-0.11859842 0.023030821 -0.03324959 -0.051263236 0.07587358 0.084747255 0.026091607 -0.059224248
-0.09567956 -0.06321192 -0.09833025 0.0031812552 -0.031123655 -0.021728307 -0.058271684 0.057336554
0.06024481 0.117061935 -0.009213714 0.030283412 -0.049241573 -0.066902876 0.07423991 0.05501914
0.077111274 0.101500645 0.04876419 0.14958087 0.15603717 0.08396868 0.1049161 0.085360184
0.11575063 -0.045467712 -0.08834101 0.092512965 0.07965682 0.0015756878 0.04013656 -0.073110476
0.13119991 -0.015490323 0.08554871 0.05273118 4.5121335e-05 0.05223464 0.034794573 0.124586746
0.17810939 -0.13149962 -0.04653505 0.021308662 0.035361506 0.07257913 -0.10324513 0.084218785

fc4.weight f4 [4, 64]
00000000: 40b7 5a3c 9cde aebc e65e 49bd 9b0f 0dbe
00000010: 0928 01bc cf0a 06bd 22bc a03d fcb0 42bd
00000020: 70d6 83bd 1b64 ac3d 28fd 0dbe 633d 0bbe
00000030: 1938 e6bd 9c68 92bc 5a6c e1bd 9c1b 5c3d
00000040: 85c0 06be ff86 52bd 014a b7bc aecb c03d
00000050: 9c60 97bd 5444 783d 4dce dbbd 15cb 10bd
00000060: b3d8 e8bd 0791 edbd 743c 963d 8eed b8bd
00000070: 8930 c9bc b74b 633c fa02 db3b d89f f9bd
00000080: 9aa0 023c 25dc 293d 592f eb3d e6ea 42bd
00000090: 97d7 2e3d 0ea5 c7bc 9857 e53d 2da3 9ebd
000000a0: dbd8 5ebc 2267 f13d ec88 833d d400 03be
000000b0: 22f2 8e3d d253 e9bc 729f 39bd ed4a 4e3b
000000c0: 02d1 94bd 11af 46bd 13cb c03d 2d72 c4ba
000000d0: 8ee2 4e3d 561f c73d fefd 9b3d 5f43 3fbd
000000e0: 2295 99bd 6cb1 02be 7e1b 043d 0ada cb3d
000000f0: 25ae 73bd 46c5 a8bd 4f30 503d bc94 c1bc
00000100: 26b4 e0bb de2b 3dbe 4665 d0bd 8cb4 c0bd
00000110: 8f49 62bd 21a3 92bd f680 e53c 061f fa3b
00000120: 6788 96bd 2006 403d 44d5 043d 6347 a23d
00000130: c1ce a3bc 8c3c 46bd 3852 493c 699b 593d
00000140: 038f 843d 2aea 253d 268d 493e 7196 e4bd
00000150: 0698 19be 80cd 30bc 4b31 22bd bff3 a7bd
00000160: d737 97bd 7e2c dabd 1bff acbc 5035 733d
00000170: 6732 40be aa2f 8d3d e65d 143e 3955 c6bc
00000180: 6ae4 a03d e6db 1abe 4ce3 68bb 4687 2d3e
00000190: ee69 d6bd ec6b 07be 8ece acbd 3dd3 463e
000001a0: 1540 19bd caa6 d9bd a908 833d 4aa8 b63d
000001b0: 27d1 2bbd 853a bc3d b3b7 14be a6fd 12be
000001c0: fae2 2bbe 28e2 553c 980f 883d 6d56 f43d
000001d0: 60e1 bc3d cfd4 1ebd 8693 db3d 32f6 653d
000001e0: 402a 643e 24d1 b53c f678 8c39 6289 063d
000001f0: 279e 1b3e f339 09be 3858 723d 48c3 febd
00000200: 5697 0dbd 2f6a b8bd d179 28bd 021b 52bd
00000210: 60e8 883c b393 fb3d 33a1 a43d 8c57 1a3b
00000220: ced5 a0bd 16f7 c7bd ed20 483e 9bf0 c1bd
00000230: 799c 27be 93df 8fbd c255 aebd 8274 eabd
00000240: cddc 37bd fb83 81bd 1b32 2cbd d4ec 36bd
00000250: a940 d93d a4b6 afbd 2f2f d1bd c388 c3bd
00000260: d9dc 4ebc 55a3 0dbe 2287 293d afd5 943c
00000270: 8caf b03d 0e7e cc3d c918 3f3e 15e6 3a3e
00000280: 27d4 b0b9 afc8 363d eff4 de3c 9179 1e3e
00000290: 9cf4 5cbd ccfe a23d f81b ed3c 3e29 fdbd
000002a0: e7e7 d83d 5352 bdbd cca8 0b3e 7a3f 333d
000002b0: 9804 f5bd a3dc c8bd dfd5 0a3e 17c5 2f3e
000002c0: 0463 8c3d 70cc aebd 665c 9f3d 2596 4c3d
000002d0: c41b fdbc 86f4 d6bd bca6 0c3e eb5e f33c
000002e0: cdb6 f33d e23d 18bd 25c5 b9bd 9466 03be
000002f0: 1db1 1ebd 3f43 ee3d a537 6dbd 2ffb a33c
00000300: 92de 2cbd df77 d83d 21d9 f63d 2995 5d3e
00000310: dad3 1a3e 5533 083e ee5d 883d 3c0f eabd
00000320: 4c45 f839 3f1d 69bd 24cf c73d 7ccd 903d
00000330: 4b78 f83d fa1b d43d 4d38 453e 162b 14be
00000340: ce05 753c 908a 46be 93fc 213d fcbf 353e
00000350: 453a e33c 10f4 e1bd f3b7 8b3c 0ad3 f63d
00000360: f7e3 6ebd 6e43 033c eea5 fc3d ce9f 543d
00000370: b6ff 4abc b73a 23be db4a 12be ec63 113d
00000380: b1ef a73b b99b 8a3d 3285 a53d 664a 43be
00000390: 1079 053d 4288 5bbb b598 21bd 1da5 afbd
000003a0: 5d1b 21bd 38e6 f3bd 25f4 62bd 65bc 123e
000003b0: 6a0d f0bc 9a3d 91bd 7424 9b3d f4f0 35bb
000003c0: ac3a cc3d 5e31 4a3d e5e5 7dbd 5613 30bc
000003d0: a72a f23b 492d 013e bfe1 d83a 5195 e9bd
000003e0: d4ef 39be 8eaa bcbd b419 4c3e 4d9c 3e3c
000003f0: 9236 eb3a 7f1a d9bd 0209 343d 22a4 243e
0.013349354 -0.021346383 -0.049162768 -0.13775484 -0.00788308 -0.03272515 0.078483835 -0.047532067
-0.06437385 0.08417531 -0.13866103 -0.13597636 -0.112411685 -0.017872147 -0.110069945 0.053737268
-0.13159378 -0.051398274 -0.022374155 0.09413849 -0.07391474 0.060612038 -0.10732708 -0.035349924
-0.11369457 -0.115999274 0.07335749 -0.09029685 -0.024559276 0.013873032 0.0066837044 -0.12188691
0.007972861 0.04146971 0.1148364 -0.047587298 0.04268607 -0.024370696 0.11198348 -0.07745967
-0.013601507 0.11787249 0.064226 -0.12793285 0.06979777 -0.028482351 -0.045318075 0.0031477765
-0.072664276 -0.0485068 0.09413733 -0.001498764 0.050509028 0.09722774 0.076168045 -0.04669511
-0.07499148 -0.12762994 0.03225278 0.09953697 -0.05949225 -0.08240752 0.05082732 -0.023630492
-0.006857413 -0.18473765 -0.101755664 -0.094094366 -0.055245932 -0.071600206 0.028015595 0.007633093
-0.073502354 0.04688084 0.03242995 0.07923772 -0.019996049 -0.048397586 0.012287669 0.053126726
0.0647259 0.04050652 0.1968275 -0.11161507 -0.14999399 -0.0107911825 -0.03959779 -0.08200788
-0.073836975 -0.106530175 -0.021117738 0.059377015 -0.18769227 0.06893857 0.14488944 -0.02421056
0.078560665 -0.15122947 -0.003553587 0.16946134 -0.10469423 -0.13224763 -0.08437835 0.19416519
-0.03741463 -0.106275156 0.06398136 0.08918817 -0.04194751 0.09190849 -0.145232 -0.14354572
-0.16785803 0.013054408 0.06643599 0.11930547 0.09222674 -0.03877717 0.10721497 0.056142993
0.22281742 0.022194453 0.00026793004 0.032845862 0.15197049 -0.13401012 0.059166163 -0.12439591
-0.034568153 -0.09004628 -0.0411318 -0.051295288 0.016712368 0.12284031 0.08038559 0.0023550717
-0.0785328 -0.09763925 0.1954381 -0.0946972 -0.16368283 -0.07025065 -0.08512451 -0.11448003
-0.044888306 -0.063240014 -0.04203997 -0.04465945 0.10608036 -0.08579758 -0.10214078 -0.095475696
-0.012625896 -0.13831837 0.04138864 0.018168299 0.08627233 0.099849805 0.18661799 0.18251832
-0.00033727402 0.04462498 0.027216403 0.15476061 -0.053944215 0.07958755 0.028944 -0.12361382
0.10591107 -0.09244218 0.1363861 0.043761708 -0.11963767 -0.09807708 0.13558148 0.17165028
0.06854823 -0.08535087 0.077812955 0.049947876 -0.030897029 -0.10495858 0.13735479 0.029708346
0.11900101 -0.03716839 -0.090708055 -0.12832099 -0.038743127 0.1163392 -0.057914395 0.020017235
-0.042204447 0.105697386 0.12053133 0.21638931 0.15119877 0.13300832 0.06658541 -0.11428687
0.00047353876 -0.056912657 0.09756306 0.07070443 0.12132319 0.103568986 0.19259758 -0.14469561
0.014954997 -0.19388795 0.039547514 0.17749017 0.027737746 -0.11032879 0.017055487 0.12051971
-0.058322873 0.008011682 0.12336336 0.051910214 -0.012390068 -0.15940367 -0.14286368 0.035495684
0.005125009 0.06767983 0.080820456 -0.1907135 0.032586157 -0.0033497964 -0.039452273 -0.08576415
-0.039332736 -0.11909145 -0.055408616 0.1432968 -0.029303271 -0.07091828 0.07575312 -0.0027762027
0.09972128 0.049363486 -0.061986823 -0.010746798 0.0073903385 0.12614931 0.001654677 -0.11405433
-0.18157893 -0.09212218 0.1993168 0.011633945 0.001794534 -0.10600757 0.043953903 0.16078237

fc4.bias f4 [4]
00000000: 94cc 673d a4fa 253d d9f1 703d 5e64 2f3d
0.056591585 0.040522233 0.058824394 0.042820327
