experiments/LunarLander-v2_REINFORCE/dqn.pth (torch, 12327 bytes, 8 tensors)

fc1.weight f4 [32, 8]
00000000: 2f8e d33e 51cd c13d 81fd 193e cc18 f03e
00000010: 0f6b 2e3e 580f d5bd 5b28 5ebf 462f f7bd
00000020: 07e6 0b3f b3b3 a1bc 0431 7e3e 2ea5 4f3e
00000030: 5dfc 383f f5be 5bbe 6bcc 02bf 2bcd f43d
00000040: e65d 1f3b c369 e43e b6aa 2d3e 8ed2 8a3e
00000050: 8f3f 72bf 111a 533e 18b8 d03c 5e4f 023f
00000060: 36f9 883e b00e a03e 11fb f13e fa43 103e
00000070: bf91 d53d cf41 533f 90c7 1cbd b3b4 25be
00000080: f919 713e 954a 13bf 5c66 edbe a9c5 50bf
00000090: 8f12 d1bc e4a9 18be e39c c93e 3c0c cd3d
000000a0: 3355 fabd e479 ca3e 2f22 2abf 967e 6abf
000000b0: 96ea 883f 2757 f0be eb95 3e3f 2ebb 0a3f
000000c0: b661 13bf 8e93 3dbf 16e2 ddbe d2b7 f1be
000000d0: 19ea 04be bf22 1a3c cba8 80bd 1764 65bf
000000e0: 40b4 d1bd 9bba 893e 0e37 933e 6703 70be
000000f0: a2b7 523f 64a7 863e 2755 7ebf 761a 9f3e
00000100: 89af d6be e8b9 82be 37d2 d9be 12c3 5abf
00000110: 56d7 1c3e c6d4 103f 1391 1a3f 6a92 5d3f
00000120: 2310 533d 604d 613f d6fd 573f b6ca d3be
00000130: f0e0 28bf c53e 85be 6c9b 1d3d 20de bb3e
00000140: cabc 3abf 2b6f 06bf d5d9 13bf f147 8fbe
00000150: ba2e 4b3f aedc b0bd 72a8 4cbf 7b05 42bf
00000160: bbf6 58be c1ca 45bf 43df 363f 4fc7 16be
00000170: 08f5 50be 205d 11bf 9d7e 41bf 7411 03bf
00000180: 29cd 2bbe 9073 f6be 5cf4 4cbe 7e9c 653f
00000190: 83c2 38bf 12e3 3dbe 04b0 28bf d601 413f
000001a0: 1a46 5cbe 7a6b 1c3e 2b4d 5bbf 233d a4bc
000001b0: 6360 61bd 45e9 1d3f d844 0f3d 022f 8b3e
000001c0: 5642 0f3f bdce 493f 877a 3a3e f652 5b3e
000001d0: 7be9 7c3d e3b4 47bf 78c2 cd3d 66c3 053f
000001e0: 469d f5be 649f b6bd a252 c5be d82a fc3e
000001f0: eac7 10bf e9bb 3abf 64f6 4fbf 9cdd 5cbf
00000200: 8af4 5bbe 190b 09bf 4ec6 a9be d448 43bf
00000210: e3a6 b3be 8073 273f 2af8 d5be 9585 53bd
00000220: 2191 153e 4ece 12bf 1803 0fbf 7254 eb3c
00000230: c0a8 413f c812 c2be d815 1fbf 9231 b53e
00000240: 361f ed3d eb48 183f cdcf f9be 6c24 30bf
00000250: 945e 06be cbfc c03e 237c 86bf a628 353f
00000260: 6673 19bf 5bed 3f3f 487e 21bf 9c47 1bbf
00000270: 6ee6 e43d 3074 47bf ba9e 58be d579 9a3e
00000280: e8da 163f fb6f 103f 42db 02bf 53d1 babe
00000290: f03f 0d3f 7d25 1c3f 0035 2d3f 36c0 883e
000002a0: 7e3e 51bf ffcc ea3e ab7d 5ebe a1ad 5bbe
000002b0: 7209 923e 973a c2be 0554 77be 86d8 cabe
000002c0: 547c 8dbe 0655 83be 0ff3 edbd eea6 60bf
000002d0: d8f9 40bf 78ca 5b3f e546 833e 37eb 66bf
000002e0: 0a4b 2ebf af2f 063f 0353 65bf 5de7 adbe
000002f0: 715d 773f 9907 17bf 5d6a eebd 92a6 3e3e
00000300: 2e2f e1be 430d 383f e6e0 19bf d6e4 a8be
00000310: 5387 803f a59c 813f 9746 a33e 3248 6cbe
00000320: ade2 db3e 816f 033f 7483 b73e 9361 ddbe
00000330: f8f0 6abf fa32 1d3f c419 3f3f 804e 093f
00000340: 55c3 c93e 26fd 05be b8e0 423f 4251 1fbf
00000350: f222 79bf 2ec7 44bd 4ccf 40bf 51d5 e83e
00000360: 2a8a b6be 1c98 31bf 19bc b53e b5ac babe
00000370: cb68 60be d601 853e ede4 2fbf 24b8 403e
00000380: 0a03 553e 92de e53e b501 90be a4f1 a63e
00000390: 4f64 1f3f 937a 393f 7607 0d3f 820f c13e
000003a0: d799 063f d139 e5be aa2d f03e efee a6be
000003b0: 1787 7f3e dede ebbe b4de 3b3e f6d3 d3be
000003c0: 5be4 9f3e a256 b13e e4e8 1fbe 6159 57bf
000003d0: 232a 6bbe 6821 fc3e 0681 44bf 036a 8bbe
000003e0: 8a7e c6bd 304d b8be 803e b23e 8454 24bf
000003f0: 33c4 063f 830b d43e a6fc d8bd 126c 3cbf
0.41319415 0.09462989 0.1503811 0.4689392 0.17033027 -0.10403317 -0.8678033 -0.120695636
0.5464787 -0.019739008 0.24823385 0.20277855 0.72260076 -0.21459563 -0.5109317 0.11953195
0.0024317442 0.4461194 0.16959652 0.27113765 -0.9462823 0.20615412 0.025478408 0.50902355
0.26752633 0.31261206 0.4726186 0.14088431 0.104281895 0.8252229 -0.038276255 -0.16182213
0.23545064 -0.5753568 -0.46367157 -0.81551605 -0.025521545 -0.14908558 0.39377508 0.10012099
-0.12223282 0.3954612 -0.6645841 -0.91599405 1.069659 -0.46941492 0.74447507 0.54191864
-0.5757097 -0.74053276 -0.43336552 -0.47210556 -0.12979926 0.009407698 -0.06282195 -0.8960585
-0.10239458 0.2690018 0.2875294 -0.23438798 0.8231145 0.26299584 -0.9934868 0.31074876
-0.41930798 -0.2553246 -0.42543194 -0.85453904 0.15316519 0.56574667 0.60377616 0.86551535
0.05152906 0.8800869 0.843717 -0.41365594 -0.6596823 -0.26024452 0.0384783 0.36692905
-0.7294432 -0.5251338 -0.5775426 -0.27984574 0.79368174 -0.08635841 -0.7994453 -0.7578961
-0.2118787 -0.772625 0.7143442 -0.14724468 -0.20405972 -0.5678272 -0.7558382 -0.51198506
-0.16777481 -0.48135042 -0.2001509 0.89691913 -0.721718 -0.18543652 -0.6589358 0.75393426
-0.21511117 0.15275374 -0.85664624 -0.020048684 -0.055023562 0.61684066 0.034977764 0.27184302
0.55960596 0.7883108 0.18210803 0.21418366 0.0617461 -0.78010386 0.100468576 0.5225128
-0.47971553 -0.0891712 -0.38539606 0.49251437 -0.56555045 -0.7294298 -0.8123534 -0.8627565
-0.21480003 -0.5353256 -0.33159107 -0.76283 -0.35088262 0.65410614 -0.41790897 -0.051641066
0.14606144 -0.57346046 -0.55864096 0.02872679 0.7564812 -0.37904954 -0.62142706 0.35389382
0.11578219 0.59486264 -0.48791352 -0.68805575 -0.13122016 0.37692866 -1.0506634 0.7076515
-0.5994171 0.7497155 -0.63083315 -0.6065614 0.111767635 -0.77911663 -0.211543 0.30171075
0.58927774 0.5642087 -0.5111581 -0.36487827 0.55175686 0.609947 0.67658997 0.26709145
-0.8173598 0.45859525 -0.21727626 -0.21452953 0.2852283 -0.37935326 -0.24153145 -0.3961832
-0.27633917 -0.25650805 -0.116186254 -0.87754714 -0.7538123 0.8585582 0.25640026 -0.9020266
-0.6808325 0.5241651 -0.8957979 -0.3396558 0.96626955 -0.5899597 -0.11641381 0.18618229
-0.43981308 0.71895236 -0.6010879 -0.32987088 1.0041298 1.0125929 0.31889793 -0.23074415
0.42946377 0.51342016 0.35842478 -0.43238506 -0.9177394 0.6140591 0.7464869 0.53635406
0.3940684 -0.1308485 0.76124144 -0.62233365 -0.9731895 -0.048041515 -0.7531631 0.45475248
-0.35652286 -0.69372725 0.3549507 -0.3645989 -0.21914975 0.25977963 -0.6870869 0.18820244
0.2080194 0.4489637 -0.28126302 0.32606232 0.62262434 0.7245266 0.5508951 0.37707144
0.5257849 -0.44770673 0.4690984 -0.32604167 0.24953876 -0.46068472 0.18346673 -0.4137265
0.3122891 0.34636408 -0.15616184 -0.84120756 -0.22965293 0.49244237 -0.76759374 -0.27229318
-0.09692104 -0.3599639 0.3481331 -0.6419146 0.52643126 0.41415033 -0.10595064 -0.736024

fc1.bias f4 [32]
00000000: 789e 7dbe 92d1 193d 538e e5bd 9818 0fbd
00000010: 4d0f 9d3e 5542 063e 3818 b33c 9529 edbd
00000020: 9f46 66be e367 16be 230a 0ebe 2578 1b3e
00000030: e3aa cb3e a1ba c53d ef01 8fbe 409c 363e
00000040: 5a30 49be 3626 873d cf85 923c 2002 db3e
00000050: e246 f4bb b1c9 94be 4d2a 62be a28a 8abe
00000060: b50e 8b3c 650b 8f3e 4ab1 6c3e 4d0c 983d
00000070: d378 003d bed0 ac3d 724f a23e 6e94 893e
-0.24767482 0.037553377 -0.11208787 -0.034935564 0.30675736 0.13111241 0.021862134 -0.11580197
-0.22487877 -0.14688067 -0.13871054 0.1518255 0.39778814 0.09654737 -0.27931163 0.17833042
-0.19647351 0.06599085 0.01788607 0.4277506 -0.007454739 -0.29060128 -0.22086449 -0.27058893
0.016974786 0.2793838 0.23114505 0.07424221 0.031365227 0.08438252 0.31701237 0.26871055

fc2.weight f4 [32, 32]
00000000: bf09 403e eb54 a4bc 786a f3be e6ba 4dbe
00000010: 9e4c 6bbe d5c3 b5bd b00c 3d3d 127c c63e
00000020: 56bf 873c baf5 aa3d c60e 5cbe 5905 04bd
00000030: 4c76 79be 7a6c ac3e 8d40 4d3e 5b30 373e
00000040: 348b ff3d 25b5 a03e 83f1 413e f35c bc3e
00000050: c289 073e 7ab5 05be ac51 a5be 7420 083f
00000060: 3927 063e feca a4bd 02fd 0fbf 964f eebb
00000070: b679 503e 22d9 8fbe 2908 24be 16b1 e83e
00000080: 0432 90be 0c5f 2abd f4c5 013d 56d6 b93e
00000090: fe68 e0be 1507 783e 3310 d7be 57cf b53e
000000a0: 7e9a bfbe 2638 cebe 4855 443e 8cd2 82be
000000b0: 792e 82be 4396 a0bd f7f6 fa3c cb89 983d
000000c0: 3aba cfbe ea8d 41be 8c30 893d 52c9 61be
000000d0: dd07 a5bc b0ae a5bc acff e33d 13cc 9bbd
000000e0: 9a34 623e d101 833e 7ae6 823e 7fdb 3fbd
000000f0: 9b1e cfbc 717e abbe ab10 9b3c 905a 28be
00000100: a39c 85be cf55 3d3e 05e5 083e d630 ed3d
00000110: ba39 bb3e ebf0 66be aaae 3e3e af28 35be
00000120: 6d83 983e f2b2 93bd a17f 3f3e bc7c ec3e
00000130: 8831 8bbe 0f29 32be 36c7 05bf f426 43bc
00000140: 0e0c b2be b736 b63d ff4d 723e fe2e 19be
00000150: 04e0 c63e 5992 d8be 16bb bdbd 5971 6dbe
00000160: 7f40 cf3d 7a41 583c d518 963e adad 1ebd
00000170: e2d7 fe3c d2d3 a23e 97dc d73e bb51 6cbe
00000180: 74a4 fbbd 2af6 0b3e c13c e73e 4c33 9e3e
00000190: ff78 ebbe 70ea d1bd cd2b cebe eefb b93d
000001a0: a939 babe 41bb ea3e c935 a6be 186b e5bd
000001b0: e476 d63e 012f 27be a3d8 efb9 fc25 0f3e
000001c0: fbb0 353e 3291 4dbd fdb6 133e 9f7d 713e
000001d0: ab2e c4be 1e76 833b 3ff7 1abd ab74 17bc
000001e0: 4aa6 febe b281 933e 49ce 52bd 2225 543e
000001f0: 1b0d b93d fabe 633e 3bc1 923d 61fe 15bf
00000200: d531 5f3e f5c5 c2bd 79bf 373e 39ad 4cbe
00000210: a632 913e 637c df3e 5e0a 933e 2281 eb3e
00000220: 687e 50be f883 d3bd 5e8c 13be 6941 11be
00000230: cb97 6dbe ac30 6b3e 51df 09bf 4ecf 79bc
00000240: a30f 08be 11f0 0dbe 60d6 443e ad09 d63e
00000250: 5ffe 113e 7371 cdbd 74ea 6ebe 10cd 0a3f
00000260: 8b29 ed3e 5e78 a1bd 9de5 efbe a3ce b93e
00000270: eeb6 b03e 383b 9abe 0759 7dbe 7274 b83e
00000280: 93bf 8cbe e8ba e53e 6e01 a43e 9712 8cbe
00000290: 8574 88be 7f01 ce3e b4f4 a13e 87c0 273f
000002a0: 8bcb 27be a5a0 f23d 6512 bdbd 44e1 aa3e
000002b0: 0080 30be cae7 273e bd1b 4e3e 5805 9ebd
000002c0: 9fe2 c23e f8e9 0dbb 9302 a4bd 2153 9bbd
000002d0: 3f49 273f 0607 0e3f 39a7 b03e 996f 923d
000002e0: 6722 55bd 57b2 f93d ff6e 30be fa2c d93d
000002f0: 6ab4 9cbd 5f9c 953e 0577 86be 046c 58be
00000300: 52b9 2b3e 70db 253d 5c63 443e 4bd8 bfbd
00000310: 10b3 863d 8f50 433e 5184 cfbd f8bd 27be
00000320: 4ce3 27bd 727c 13bd 0f25 a2be d8b6 8cbe
00000330: fae0 de3d d9ca 3abd 8ad7 b0bd dcfe 1f3e
00000340: 782e 45be 074e 913e 8005 3d3d 876f b03e
00000350: 94cb c33e c3b7 a33e ddce 0a3e 9bc8 5b3a
00000360: 8579 0abe 49ee c13a 50b5 ff3d 760a e13e
00000370: c171 14bf d7b2 e03e ada2 d8bc 2c2e cb3e
00000380: 49d8 a8be bf35 483e 6b42 adbe 825a 3dbe
00000390: a9ae 28be 14e4 aabd b306 02bf 35a0 e6be
000003a0: 5585 68be 8156 6b3e b718 83be 7e2f 873e
000003b0: ce1f 403e f971 8abd eaee b53e 4e7b 9cbe
000003c0: 9018 a8bd f522 ecbd 6903 853e b52c 673e
000003d0: 4a96 9bbd 1e23 2ebd f12d 3f3e 06a5 c83e
000003e0: 948b 813e 4511 e1be 1507 b9be e448 6d3e
000003f0: 0840 02bf e09c 9dbe 973b d9be 1c2f bcbe
0.18753718 -0.020060023 -0.47542167 -0.20090827 -0.22978446 -0.088752426 0.046154678 0.38766533
0.016570728 0.0834765 -0.2149001 -0.032231662 -0.24361533 0.3367651 0.20044155 0.1788954
0.12477723 0.31388202 0.18939786 0.36789665 0.13236144 -0.13057509 -0.32288873 0.5317452
0.131009 -0.0804653 -0.56245434 -0.007272671 0.20358929 -0.28095347 -0.16018738 0.45447606
-0.2816316 -0.04159455 0.031682923 0.36296338 -0.43830103 0.24221452 -0.42004547 0.3550975
-0.37422556 -0.40277213 0.19173157 -0.2555126 -0.2542608 -0.0784116 0.03063534 0.07448157
-0.40571767 -0.18901792 0.06698713 -0.22049454 -0.020145351 -0.020224899 0.1113275 -0.076072834
0.22090378 0.25587323 0.25566465 -0.046840187 -0.025283149 -0.33494905 0.018928846 -0.16440797
-0.26096067 0.18489765 0.13368614 0.1158158 0.3656748 -0.2255284 0.18621317 -0.17691301
0.2978777 -0.072118655 0.1870103 0.46188915 -0.27186227 -0.17398475 -0.52257097 -0.011911143
-0.34774822 0.08897155 0.23662566 -0.14959332 0.38842785 -0.42299154 -0.092641994 -0.2318777
0.101197235 0.013199205 0.2931582 -0.03873985 0.0311088 0.3180223 0.42160484 -0.23078053
-0.12287226 0.13668123 0.4516354 0.3089851 -0.4599075 -0.102497935 -0.40267792 0.09081255
-0.36372116 0.45845988 -0.3246291 -0.11202067 0.4188758 -0.16326524 -0.0004574704 0.13979334
0.17743294 -0.050187297 0.14425273 0.23583077 -0.38316855 0.0040118834 -0.03783345 -0.009244124
-0.49736243 0.28809887 -0.05146626 0.2071729 0.09035703 0.2224082 0.07165762 -0.58591276
0.21796353 -0.095104136 0.17944135 -0.19987954 0.28358954 0.43649587 0.28718847 0.45996958
-0.2036072 -0.103279054 -0.14409015 -0.14185108 -0.23202436 0.22967786 -0.5385638 -0.015247179
-0.13287215 -0.1386111 0.19222403 0.41804257 0.14257191 -0.10031404 -0.23331624 0.5421915
0.46320757 -0.07884286 -0.4685487 0.36290464 0.34514564 -0.30123305 -0.24740992 0.3602634
-0.2748991 0.4486916 0.3203234 -0.27357933 -0.26651397 0.40235516 0.31632006 0.6552815
-0.16386239 0.11847047 -0.09232024 0.3337499 -0.17236328 0.16397014 0.20127769 -0.07715863
0.38063523 -0.0021654349 -0.080083035 -0.07584215 0.6534614 0.55479467 0.3450258 0.07150192
-0.05203476 0.12192219 -0.17229842 0.10604282 -0.07651599 0.29220864 -0.2626268 -0.21134955
0.16769913 0.040492475 0.19178528 -0.093674265 0.06577122 0.190737 -0.10132659 -0.16381061
-0.04098825 -0.036007352 -0.31668898 -0.2748325 0.108827546 -0.045603607 -0.08634861 0.15624565
-0.19256008 0.28379843 0.046147823 0.3446009 0.38241255 0.31976137 0.13555475 0.00083840796
-0.13522919 0.0014795746 0.124857545 0.43953294 -0.57986075 0.43886444 -0.026444757 0.39683664
-0.32977512 0.19551753 -0.33839735 -0.18491557 -0.16472878 -0.08344284 -0.5079147 -0.45044103
-0.22707112 0.22982217 -0.25604793 0.2640342 0.18762133 -0.0676002 0.3553384 -0.30562824
-0.0820781 -0.11530105 0.25979164 0.22575648 -0.07597025 -0.04251396 0.18669869 0.39188403
0.25301802 -0.43958488 -0.36138216 0.23172337 -0.50878954 -0.3078375 -0.42428276 -0.36754692

fc2.bias f4 [32]
00000000: fcd6 eb3d 6848 04be c943 943d 6c90 b53d
00000010: 0a15 103c 9777 a4bd 05d9 fc3d eb28 0cbe
00000020: 5f0b 103d 4b56 b23e 8e62 a9bc 6de1 31bd
00000030: 378b 35be ca03 e1bd 2af4 b8bd f4b5 cbbd
00000040: 4270 29be 9ee4 733d 4a5a 153e b49f bebd
00000050: 7487 3bbc ab07 213e 5c71 8bbd 278c 94bd
00000060: 5ae6 353d bb44 21be f011 f43d ad46 1bbd
00000070: cab4 3f3e f526 05be eca3 06be 5669 783e
0.115156144 -0.12918246 0.072394915 0.08865437 0.008794079 -0.080306225 0.12346081 -0.13687484
0.035167094 0.3483146 -0.020676877 -0.043427873 -0.17728887 -0.10987051 -0.090309456 -0.09946814
-0.16546729 0.0595442 0.14585224 -0.09307805 -0.011445869 0.15725581 -0.06808731 -0.072532944
0.044409133 -0.15748875 0.11917484 -0.0379092 0.1872131 -0.13003142 -0.13148469 0.24258932

fc3.weight f4 [32, 32]
00000000: ffc4 623e 5bdd 633e 0b32 823e a4d5 07bf
00000010: 443a dd3e d347 d5be eb20 153e 6d3a 5d3e
00000020: 3727 a23e f993 5dbe 2290 1f3c 3b12 913d
00000030: daae a13d 2c12 a1be 6960 c23e a8a1 c0be
00000040: 42ea 073e 2cfe 4d3e 2b2e 243e 24c8 1a3e
00000050: bf50 903e 271d 123e b456 5ebd 3ac6 c23e
00000060: 37de adbc 6494 a5bd 098f e23d ebe8 edbd
00000070: 4c8b a73e 3458 283b a755 36bd b4a5 8b3e
00000080: 2f5a 603e a600 f93c 73e1 fd3c 9ce8 2bbd
00000090: c916 5abe 9278 a13d 0cf3 ccbe 8996 763e
000000a0: 469e abbe 2967 e1be 0a67 1b3c b2d3 833e
000000b0: 3332 bfbe 0826 b73c 0a0b ad3e 9f90 2abd
000000c0: 6946 9c3e f095 cdbe 3f10 fcbb 9c41 713b
000000d0: 4889 66be e4a3 673d 7d0c cdbe c555 e2be
000000e0: 1d92 c1be bdca aebe 5a20 263d aea2 61be
000000f0: d7a1 ff3e 3076 d3bd 9b82 a03e fcd3 9639
00000100: d954 903e 30fe 4c3e b766 2dbe 4859 42be
00000110: f3d9 2b3e add9 aa3e 6fab ed3c 9181 5cbe
00000120: fe7d 073f 062f b73e 1560 f9bc de38 93be
00000130: 5102 15be bffa ae3e 664a eabd 1e07 bd3e
00000140: e458 ca3e eb7a f0bc 3ccd 89be 4228 debe
00000150: 380c 2b3c 6039 96be e0e1 23bd fa97 8b3e
00000160: 13c7 b6be 3d1f a8be e1cb c1be bad9 593e
00000170: 2aea d8bd 8b04 693e 3d9a ec3e 9ed9 dabd
00000180: d513 60bc 240a 81bc 3e7d bdbe 5ca3 ef3e
00000190: 1a2f 94be 40de afbc 96ed d03e ca0d a6be
000001a0: 0b54 96be 7102 ff3e 556d 66be 9436 1c3e
000001b0: 52eb 9e3e 5482 d33c a034 ae3d 16cb 813d
000001c0: 59ce a83e 7e04 e53e e1f5 603e 5b12 993e
000001d0: 4cc9 c7bd 5279 313e 8b2c 513e 5336 85bd
000001e0: 5d54 073f 7b6f 80be 1fef 1d3e 2768 b03e
000001f0: d6e8 3dbe 1ae0 b73d c867 833e 24a3 dd3e
00000200: 6760 d83d e648 e9be 6251 53be b441 3a3e
00000210: 2f44 e9bd 1047 b1be a528 dfbe 522a aebe
00000220: 6fdf ad3e 8c62 f03c 2c5d f0be 51e1 0a3e
00000230: dbe7 b93e 724c c9be eb46 8dbd bdd4 cabe
00000240: 2433 86be cafa 0b3e 3f54 983e c12a 67be
00000250: 248f 7d3e 3f9a e8be d68e 133e a6f6 d13e
00000260: 16b1 c13d 097a 123e df0c 0abf 6c52 b13e
00000270: e5d1 c9bd d934 493e 30af 573e 1431 68bd
00000280: 2cac fdbc 8a0c 013e 6144 bc3d 7d11 8e3e
00000290: d778 42be 3a27 ddbe 194c 1cbe 7e3f 3a3e
000002a0: 7dd4 fdbe cc26 b9bc 8ca7 853e 2aac 833e
000002b0: efe1 053d 2855 313e e247 debe 9b96 dc3e
000002c0: 3694 1ebe 611b 713e 1bc2 3d3e 6327 b73d
000002d0: 27d4 c5be 01e8 493e b573 c3bc 1690 59be
000002e0: ac58 debd f212 89be 1509 ea3e d02e cd3c
000002f0: 3240 173e cc54 a83e 761a ae3e c1f2 383f
00000300: 8423 b43d 25eb 1c3e f5ca 3fbe 40e8 c6be
00000310: 5bb8 ac3c 7dfa 9c3d 852f fb3d f44c ce3e
00000320: 19a0 37be cdf6 693d 6ed1 acbe 5ea1 dd3d
00000330: 2bc8 1fbe c9e0 eb3c 337b 1abe 3301 0cbf
00000340: 3865 19be 934b 9f3e 9a4b 853e b0b2 dcbe
00000350: c37e ccbe e981 8e3d 3850 b33e 5d92 cabe
00000360: 26f4 88bc aae0 3a3d ecf0 03bf a032 413e
00000370: 91b1 7c3e 55af 67be a807 1f3b a0be 26be
00000380: 2473 993e 4b3c 4a3e 39f8 8ebb 3277 49be
00000390: 926a 9b3e 2a14 1abe b116 44bd 38ae ba3e
000003a0: 3621 4d3e 5665 37be f511 3b3e fe0e 743d
000003b0: b8e4 273e acc5 973e b0a7 b33e d67b 74be
000003c0: 713a 8fbe f856 82be ae7f 183e d202 8bba
000003d0: cd57 893d 1114 d23e 389a 41bc 07a9 8e3e
000003e0: c8c3 9c3e 0320 af3e 9917 4abe cacd 223e
000003f0: e7c3 0d3f afdc fd3c 77d4 a03d 5c31 1dbc
0.2214546 0.22252409 0.25428805 -0.53060365 0.43208516 -0.4165636 0.14563338 0.21604319
0.31670544 -0.21638478 0.009738954 0.07083555 0.078946784 -0.31459177 0.3796418 -0.37623334
0.13272956 0.2011649 0.16033237 0.1511541 0.28186604 0.14268933 -0.054281905 0.3804186
-0.021224124 -0.08084944 0.11062438 -0.11616691 0.32723463 0.0025687339 -0.04451528 0.2727486
0.21909402 0.030395817 0.030991292 -0.04196988 -0.21297754 0.07884325 -0.4002918 0.24080862
-0.3351919 -0.44024017 0.009485016 0.25747448 -0.37342986 0.022357002 0.33797485 -0.041641828
0.3052247 -0.40153456 -0.0076923664 0.0036812788 -0.22513306 0.056552783 -0.4004859 -0.44206062
-0.37806788 -0.34139052 0.040558197 -0.22034714 0.49928162 -0.10325277 0.31349644 0.0002876817
0.28189734 0.2001884 -0.16933714 -0.1897937 0.1678236 0.33369198 0.02901241 -0.215338
0.52926624 0.35778064 -0.030441323 -0.28754324 -0.14551665 0.3417568 -0.114399716 0.36919492
0.39520943 -0.029355487 -0.26914394 -0.4339009 0.010439925 -0.2934065 -0.040010333 0.27264386
-0.35698757 -0.32836333 -0.3785086 0.21274462 -0.10591538 0.2275564 0.46211424 -0.106860384
-0.013676603 -0.015751906 -0.37009615 0.4680432 -0.28942186 -0.021468282 0.40806264 -0.32432395
-0.29360995 0.4980655 -0.22502644 0.15255195 0.3103891 0.025818981 0.08506131 0.06337564
0.3296993 0.4472999 0.21968795 0.29896817 -0.09755191 0.17331436 0.20427148 -0.06504502
0.52863103 -0.25085053 0.15423249 0.34454462 -0.18545851 0.08978291 0.25665116 0.4328853
0.10565262 -0.4556343 -0.20636514 0.18189126 -0.11389958 -0.3462453 -0.43585697 -0.34016663
0.3395953 0.029343866 -0.46946084 0.13562514 0.36309704 -0.39316136 -0.06898292 -0.3961543
-0.26210892 0.13669887 0.29751775 -0.22574903 0.24761635 -0.4543018 0.14409956 0.4100849
0.094576046 0.14304365 -0.5392589 0.34633195 -0.09854487 0.19649066 0.21062922 -0.05668743
-0.030965887 0.1260244 0.0919273 0.27747717 -0.18991409 -0.4319399 -0.15263404 0.18188283
-0.49576178 -0.022601508 0.2610439 0.25717288 0.03268617 0.17317641 -0.43414217 0.43083653
-0.15486225 0.235456 0.18531077 0.08943059 -0.38638422 0.19717409 -0.023858884 -0.2124637
-0.108567566 -0.26772267 0.45710054 0.025046736 0.14770582 0.32877195 0.34004563 0.72245413
0.087958366 0.15324076 -0.18729766 -0.38849068 0.021084001 0.07664964 0.12264923 0.40293086
-0.17932166 0.057120133 -0.33753532 0.10821794 -0.15603702 0.02879371 -0.1508606 -0.5468933
-0.14980018 0.31112346 0.26034242 -0.43105078 -0.39940462 0.06958372 0.3502214 -0.3956479
-0.016717982 0.045624413 -0.5153949 0.18866968 0.24677111 -0.22625478 0.0024266038 -0.16283655
0.29970658 0.19749562 -0.0043630865 -0.19674376 0.30354744 -0.15046754 -0.047873203 0.36461043
0.200322 -0.1790975 0.18268569 0.05958461 0.16395843 0.29643 0.35088873 -0.23875365
-0.27974275 -0.25456977 0.14892456 -0.0010605699 0.067062 0.41030934 -0.011816554 0.27863333
0.3061812 0.3420411 -0.19735564 0.15898815 0.5537705 0.03098902 0.078530245 -0.009594288

fc3.bias f4 [32]
00000000: 6378 e4bc afd4 39be 393f 5d3e c749 d63d
00000010: 1f69 a0bd f974 02be 4e9a 11be cef8 873e
00000020: 210e e0bc 6bbb 37be b949 65bd 7299 073e
00000030: e851 d33d 1fe9 fa3d 5715 88bd 1c58 20be
00000040: f571 993c 9c19 d8bc 8a04 0dbd 58d5 1abe
00000050: d4f1 d93d 9e9c 7d3d b633 3b3e e343 f6bd
00000060: e79b 00bd 16f2 5abe 003a 493e 2a82 d5bd
00000070: d029 2abe 3489 a83d c19c a2bd 930c 833d
-0.027889436 -0.18147539 0.21606149 0.10463291 -0.0783255 -0.12739934 -0.14219019 0.2655701
-0.027350487 -0.17942588 -0.05597851 0.13242128 0.10318357 0.122514956 -0.06644695 -0.15658611
0.018731097 -0.026379399 -0.034428157 -0.15120447 0.10641828 0.06191694 0.18281445 -0.12024667
-0.03139868 -0.21381411 0.19651031 -0.104252174 -0.16617513 0.082292944 -0.07940055 0.06398883

fc4.weight f4 [4, 32]
00000000: 2acf 67be b06b 8e3e 3f9e 5e3d 46cd b8bd
00000010: 681e a2bd 0f11 afbd 0228 51bd 84a3 8abd
00000020: d109 50be 20ad 2b3c 7923 61be 05f8 653e
00000030: 5351 31be 8253 36be c96a b73d 5a39 22bd
00000040: 93fa 4e3e 6845 f5bd 0213 96bd 41ee 8b3d
00000050: 646f 4d3d c87f 293e c5da a93c d3fb 0abd
00000060: 5b98 28be d2e6 edbd 1cc0 963d 8d69 02be
00000070: aa4f 513e 95e8 b63d 3705 d73c 426d 07be
00000080: 3273 17be b499 48be f208 ed3b 69d7 b83e
00000090: 8e14 bfbd 34c5 b23e 99a2 21bd 3218 e5bd
000000a0: e126 51be 2ff3 10bd 2945 153e 4547 563e
000000b0: 8a89 e63d d939 08be bfbe 683e 342c 083e
000000c0: 168d 9dbd be71 03be 1341 843e 8763 4cbc
000000d0: e2d9 403d 4414 a23d 1abb d53c 92ac 1cbd
000000e0: 2c33 50be dcbe 303e 03b0 693e 2b8e 593e
000000f0: 6cb1 0c3e 81de 95be 70b1 8e3e d79a 6c3e
00000100: e9b4 983d 732b 2f3d accb 2ebe ca07 d2bd
00000110: 08fe 37be 526a e8bd d90e 7ebc c7a8 113e
00000120: 4f4b 12be dbe9 fabc 462e 5dbe 7923 aa3d
00000130: 7c3e 42be af6a 913e 176e 24be b6cf 21be
00000140: 236f 45bc 4cff 373e 2b8f f13d eb4c 1e3e
00000150: eaf6 443e 9398 38be 69cd 12be 3ce2 b63d
00000160: 1a30 adbc 26b7 d7bd 5c3d d6bd 1056 ac3d
00000170: 8e5b 79be 1f32 38be 1e92 3dbe 12ee 21be
00000180: fbc0 9f3d 300c 433e 4d41 ca3e 52c6 a8bd
00000190: 974b d3bd 6311 55bd f382 833d eefd 023e
000001a0: a6a3 8e3e c991 21bb e3a9 d13d 76a3 9abe
000001b0: 0690 34be 15e7 70be a39e 1ebe 9cc8 fcbd
000001c0: 5a38 613d f486 3d3c 4e24 b6bc ddc7 a83d
000001d0: 5070 2f3d bdb3 bbbd 3d4f 973c 4c6e 653d
000001e0: 4b95 1d3e d1fc 94bb e262 23be a06a 4ebe
000001f0: 7609 58bb 690e 973e 5492 acbd e11b 173d
-0.2263762 0.27816534 0.054350134 -0.09023528 -0.07915956 -0.085481755 -0.051063545 -0.067694694
-0.20316245 0.010478288 -0.21986188 0.22457893 -0.17316179 -0.17805293 0.089559145 -0.039605476
0.20212774 -0.11976129 -0.07327844 0.06832553 0.05015506 0.16552651 0.0207342 -0.033931565
-0.16464369 -0.11616291 0.07360861 -0.12735577 0.20440546 0.0893108 0.026247604 -0.13225272
-0.14790037 -0.19589883 0.0072337324 0.36101845 -0.09330092 0.3491608 -0.039461706 -0.111862555
-0.20424987 -0.035388168 0.14577164 0.20925625 0.11256702 -0.13303317 0.22729014 0.13298112
-0.07692926 -0.12836358 0.25830898 -0.012474901 0.04708279 0.079140216 0.026090194 -0.038250513
-0.2033202 0.17260307 0.2282105 0.21245639 0.13739556 -0.2927132 0.2786975 0.23105942
0.07456381 0.042766046 -0.17069882 -0.10255392 -0.17967999 -0.11348404 -0.01550647 0.1422454
-0.1428654 -0.03062909 -0.21599683 0.08307547 -0.18969148 0.28401706 -0.16057621 -0.15801892
-0.012050423 0.17968482 0.11794885 0.1545903 0.19234815 -0.18026952 -0.1433617 0.089298695
-0.0211411 -0.1053298 -0.10460922 0.084148526 -0.24351332 -0.1798787 -0.1851277 -0.15813473
0.0780048 0.19047618 0.39502946 -0.082409516 -0.10317152 -0.052018534 0.06421461 0.12792179
0.2785923 -0.0024653545 0.102374814 -0.30202836 -0.17633066 -0.23525651 -0.15490203 -0.12342951
0.05498538 0.01156782 -0.022234108 0.08241246 0.04283172 -0.09165142 0.018470401 0.05601339
0.15388982 -0.0045467396 -0.1595569 -0.20157862 -0.0032964624 0.29503182 -0.084263474 0.03689182

fc4.bias f4 [4]
00000000: 60ad 63be fa22 5ebe 95db 9d3d 9114 953d
-0.22234106 -0.2169303 0.077078976 0.07279313
