experiments/LunarLander-v2_REINFORCE/dqn.pth (torch, 39143 bytes, 8 tensors)

fc1.weight f4 [65, 8]
00000000: 0ce9 8b3e 2f6a a73e 8c71 51bf 520c cfbc
00000010: 7a09 583f 9eb1 c93c b4ba 1bbe 49e1 323f
00000020: a07c 6a3e 018b 87be d945 163f 022a 433f
00000030: c984 7d3e af6b 5ebf 93c9 df3e 1ac0 81be
00000040: 614b 93be 3dfb ffbe 04f2 0bbf 47e2 1cbf
00000050: 260f 113f 6bed 453f a6fb 23bf 6199 dc3e
00000060: 57d9 8a3e 2656 583f c2a6 3fbf c548 113f
00000070: 426f a33e b563 e93e 4cae 103f 02cf aa3e
00000080: d7e6 bfbc cf8f 39bf 3e23 09bf d5ce 163e
00000090: 0c06 733e c40a e8bd c47e 893e 06fe 783d
000000a0: e2ab 2abf 3773 2abf 7dd1 0dbf 671c 21bf
000000b0: b1e8 053f 25e1 373f fdc0 f73e ab4a cabe
000000c0: 15ca 9d3e b45c 2f3f 9517 463f 33d1 413f
000000d0: 0fdc a3bd 0e68 6abd 0395 e43d 8e63 a2be
000000e0: 07a8 4fbf 32b3 da3e 2e12 193f 31a0 ddbc
000000f0: e425 88be f87f 2d3f 5aa5 443f c758 593e
00000100: b174 31be 0d01 113f 117b 47bf 7856 ec3e
00000110: ab30 ccbe b882 88bd 38e0 45bf f111 fa3e
00000120: 83c5 5abe fa83 79be 708c 433f 05f4 f5be
00000130: 5611 b6bd beeb 2e3f 96eb bb3e de84 d0be
00000140: d39f c33e 24e1 903e 7fed f53d bec3 6ebf
00000150: 711a 8b3e 3c57 4d3e df2a 2b3f 7e07 313f
00000160: b98c 0f3f 7a08 bdbc fb88 263f 2e76 15bf
00000170: bbcd 57bf 65da 383f 3696 b5be 3b6a 403f
00000180: 351b 293e 0004 183e 6701 0dbd 4e82 113e
00000190: a02c 6b3f 0e2a 983d b58e d2bd 7d03 7b3e
000001a0: 178e 55bf 0d2f 5f3f 54b4 f03e 3301 3b3f
000001b0: 5e50 b73e bbb6 22bf 7699 cebe f997 36bf
000001c0: 5718 313f 9e83 84be c60c 473f c524 b63e
000001d0: 9dc6 48be 6947 88bb c4c0 3e3f 2ab7 fb3e
000001e0: 4e69 da3e 1a40 fb3e b571 853e 649e f0bb
000001f0: cf6d 6e3e 9a4a 30be 5006 5f3d ced9 b4be
00000200: 58ba 44bd f715 24bf 7990 16bf 9b1f 043f
00000210: bea9 903e bf23 373e cec8 51bf ed26 893e
00000220: a46f 48bf 8950 03bf dcb2 fdbd 0d96 4dbf
00000230: 70dd 42bf c133 51bf 1b20 eabe e9ea 083f
00000240: 8daa de3d 11a9 c3be 05e5 36be 72de 193f
00000250: 9e14 b5be 5756 c4be 9ca6 29bf 6fcf 05bf
00000260: 0ebf eabe 9bf4 d2be 9a73 513e 9ca9 f23e
00000270: ae69 653d 56bc 1dbe ef11 9abe cb82 b5be
00000280: db33 e1bc c566 01bf f411 c93e c027 04be
00000290: 5f72 33bf d5a3 133e 4fba 2abd 31d4 c53e
000002a0: fbda 953e cd94 42bf 3c4a cbbe 34c7 3ebf
000002b0: b2ff 3f3f a06a fcbe b4e6 71be b37b d4be
000002c0: 1359 2dbe 4099 acbd 6e2c a5be 96f4 2dbf
000002d0: 9dd7 e03e 1098 37bf e6c4 19bf 1d69 173f
000002e0: 1bc9 f1be cfc0 99be 32a0 3a3f c55d 223e
000002f0: c296 113f 88b0 19bf a84e 16bf 78b2 3d3e
00000300: 9ffc 0e3e 4c8d 0dbf c3ac dc3e 0450 3f3e
00000310: 1162 acbc 9415 9c3e f3db c83e 89f4 4e3f
00000320: bfbb 173f 466a 7fbe bc6a 1ebd 69bb cabd
00000330: 5ecd 63bf 7de0 52be 37a3 e1be 71d9 803e
00000340: 1b92 243f d0d7 43bf 4b73 3ebf 6673 363f
00000350: c79f 2cbe 20f6 26bf bb56 503f f1b0 75be
00000360: 7681 3fbf d7b1 dc3d 02bd d9bd 659c 52bf
00000370: 2a5c bcbe 2351 5e3e 4863 89be ecce 033f
00000380: 0d6f 5abf 1471 0dbf cb81 15bf ae59 c3be
00000390: e179 183f ec60 f7be 50b5 9a3e 492c f4be
000003a0: 8dd7 ed3d 05d3 b0be ec7c 49bf a6aa 3c3f
000003b0: eacc 323f fcc9 7dbe e31d 9cbe 7f65 2a3f
000003c0: 212e c7be 00b6 b93e 2510 103f 20e8 3e3f
000003d0: f10a 1d3f 624a fcbe 0f63 583f aa0b bdbc
000003e0: dabb 40bf 025d f43d f4e4 5d3d 0840 f5be
000003f0: 58c3 383f 2dac edbe 448d 483f bf2b 253f
0.27326238 0.326982 -0.81813884 -0.02527443 0.8438946 0.024620827 -0.1520794 0.6987501
0.22899103 -0.2647324 0.5870033 0.76235974 0.24757685 -0.8688306 0.43708476 -0.25341874
-0.28768447 -0.49996367 -0.5466616 -0.6128277 0.5666374 0.77315396 -0.6405586 0.4308577
0.27118942 0.8450645 -0.7486383 0.5675166 0.3192082 0.45583883 0.56515956 0.3336106
-0.023425503 -0.7248506 -0.535694 0.14727338 0.23732775 -0.113301784 0.26854527 0.06078913
-0.6666852 -0.66582054 -0.5539778 -0.62933964 0.52308184 0.7182792 0.48389426 -0.39510092
0.3081824 0.6850083 0.77379733 0.7570984 -0.08000957 -0.05722814 0.11161234 -0.3171658
-0.81115764 0.4271484 0.59793365 -0.027053924 -0.26591408 0.6777339 0.76814806 0.21225272
-0.1732967 0.5664223 -0.7792216 0.4615972 -0.3988088 -0.066655576 -0.77295256 0.48841813
-0.21364407 -0.24366751 0.76386166 -0.48037735 -0.08890025 0.68328464 0.36703175 -0.4072637
0.38207874 0.2829677 0.120081894 -0.9326743 0.2716861 0.20052809 0.6686229 0.6915206
0.560741 -0.023075331 0.65052766 -0.5838345 -0.84298295 0.72208244 -0.35466164 0.75162095
0.16514285 0.14845276 -0.034425166 0.14209864 0.9186497 0.07429896 -0.102811255 0.2451305
-0.83419937 0.8718117 0.4701258 0.73048705 0.35803503 -0.63560075 -0.40351456 -0.7132564
0.69177765 -0.25881666 0.77753866 0.35574928 -0.19607015 -0.0041589034 0.74512887 0.4916318
0.42658466 0.49072343 0.26063314 -0.0073431004 0.23284076 -0.17215958 0.05444938 -0.35322422
-0.048029274 -0.64096016 -0.588142 0.51610726 0.28254503 0.1788473 -0.8194703 0.2678751
-0.7829535 -0.5129476 -0.1238763 -0.80307084 -0.76119137 -0.81719595 -0.4572762 0.53483444
0.10872374 -0.38214925 -0.17860802 0.6010505 -0.35367292 -0.38347122 -0.6626985 -0.52269644
-0.45848888 -0.41202244 0.20454255 0.47395027 0.056008987 -0.15403876 -0.30091807 -0.3545135
-0.027490547 -0.5054744 0.3927151 -0.12905788 -0.7009639 0.14417966 -0.041681584 0.38638452
0.2926863 -0.760083 -0.39705074 -0.7452271 0.74999535 -0.49300098 -0.23623163 -0.41500625
-0.1692851 -0.084276676 -0.3226046 -0.67951334 0.439145 -0.71716404 -0.6006607 0.59144765
-0.47223744 -0.30029914 0.7290069 0.15856083 0.56870663 -0.6003499 -0.5871377 0.18525112
0.13963555 -0.55293727 0.43100557 0.18682867 -0.021042855 0.30485213 0.39230308 0.8084188
0.5927085 -0.24942884 -0.03867601 -0.09899027 -0.8898524 -0.20593448 -0.44069836 0.25165895
0.6428544 -0.7650118 -0.74394673 0.71269834 -0.16857825 -0.65219307 0.8138234 -0.23993279
-0.74806917 0.10776108 -0.106317535 -0.8226989 -0.36789066 0.21710639 -0.26833558 0.5148761
-0.853257 -0.5525067 -0.58401173 -0.38154358 0.5956097 -0.48316133 0.30216455 -0.47690037
0.11613379 -0.34535995 -0.7870624 0.7369789 0.69843924 -0.24784082 -0.30491552 0.6656112
-0.3890238 0.36271667 0.56274635 0.74572945 0.6134482 -0.492755 0.8452615 -0.02307685
-0.7528664 0.11931802 0.054173425 -0.47900414 0.7217307 -0.46420422 0.78340554 0.64519876

fc1.bias f4 [65]
00000000: 0e4a 9b3e f063 12be 1f55 a4be d35c 223e
00000010: e86f c4be a29b 00be 16d6 6dbe c861 4a3d
00000020: af66 88be a454 2bbe d53d d63c ef5b 42bd
00000030: 43c6 233e daf5 73be 10cf 933e 1ab7 d03d
00000040: e8d1 203e d0af 14be 6b5c b33e cbcd 153e
00000050: 2c6b 013e 2420 2fbe 6aec 963e 8b8f 0a3e
00000060: 887b 503e e8c0 af3e 747f 543e 573b 43be
00000070: 723b 1a3e be70 46be 84c3 b43d d910 423e
00000080: 368e 71be 2242 9b3c dbe0 aebe a914 75bd
00000090: ea6e 3dbe 4dec 0e3e 8a56 02be 8f77 cd3e
000000a0: dc25 8cbe 01a0 80be fe13 d83e 1da4 2fbe
000000b0: 943d 91be 9219 a9bd db7b 9cbe 64c1 143e
000000c0: 4017 3f3e b937 893e 50b6 94bd 24b4 0f3c
000000d0: 44de 4abe 22f3 1fbe 438c d93d fc9e 8a3e
000000e0: 7172 783e 2f7e 6dbe c4d7 53be bce5 923e
000000f0: 1cda 003c 39c4 273e 0757 943e 2588 99bd
00000100: 24d2 113d
0.30329937 -0.14295936 -0.32096192 0.15855722 -0.38366628 -0.12559369 -0.23226199 0.049409658
-0.2664084 -0.16731507 0.02615253 -0.047450956 0.159936 -0.23824254 0.28868914 0.10191174
0.15705073 -0.14520192 0.35031447 0.14629285 0.12638539 -0.17102104 0.29477245 0.1353132
0.20359623 0.34326863 0.20751745 -0.19065605 0.15061739 -0.19378945 0.08826354 0.1895174
-0.23589405 0.018952433 -0.34155926 -0.059834156 -0.18499342 0.13957329 -0.12728325 0.40130278
-0.27372634 -0.25122073 0.42202753 -0.17152448 -0.28367293 -0.0825683 -0.30563244 0.14526898
0.18661213 0.26800326 -0.07261336 0.008770976 -0.1981135 -0.15620092 0.10622456 0.2707442
0.24262406 -0.23192666 -0.20687777 0.28690898 0.007864501 0.16383447 0.28972647 -0.07496671
0.035600796

fc2.weight f4 [64, 65]
00000000: 956f 9cbe c5ed 6bbd 3172 3c3e 12c3 dcbd
00000010: 039a fabc c01b b3bd 75a2 9cbe 90c7 a43e
00000020: 0678 90be 2332 a73e de81 c5bc db9e 7e3c
00000030: 67b3 833e 1d07 543e 909c 0ebc 0393 8cbe
00000040: a596 1cbd ad70 4fbd 3fb0 09be 8b79 46be
00000050: 9feb dc3d 5a7d aabd 5d08 b5bd fa51 69be
00000060: f1fa 99bc 8900 49be 493a 4dbc 6391 50bd
00000070: 4758 253e 61ca 84be a347 a53d b609 953d
00000080: 0a88 18bc eed2 31bd 7bf8 0b3e 3b88 77bd
00000090: a189 e33d f1a6 70be 0ee6 94bd 50a9 983e
000000a0: fe86 fa3d 1c04 9e3e 4571 89bd dedb 703e
000000b0: 5e16 343e 4f2e 583c 04fc f83d bbd0 8dbe
000000c0: d3b0 023c ec8d 12be 31ba 95bd c1b9 d8bd
000000d0: a431 91bd 447c 6d3d 0b99 3abe f933 85be
000000e0: 9cbb 0d3e 0f80 f13d c53d 3dbe 0419 85be
000000f0: 57bf 5c3e 8530 983d c354 973e 3776 6dbe
00000100: b40d 61be 1a8e fb3c a932 2b3d bf26 e03d
00000110: 4488 55be 2f97 39be 0751 cabd f5fd 1d3e
00000120: 174d 1abe c0df 8d3e 9449 ec3a 6c5a 77ba
00000130: eb51 f4bd a590 793c 54b2 75be 36f9 0bbe
00000140: 7e28 273e f805 633e 79fa a23e 3c07 91be
00000150: ea60 aebe aae4 803e b486 3d3e 6dc8 03be
00000160: 51bd 353e e9d0 5e3e 50c3 8b3e 5d59 ffbc
00000170: 0cb1 e33b f050 1cbe 5979 69be 2c28 97be
00000180: c465 2dbe 873f 9bbe 54a6 a23c 5fcc 183d
00000190: 28e0 783e 1f2f db3d 25cf 93bd a633 69be
000001a0: a187 793e ff90 5b3e f9d5 b13c 3998 803e
000001b0: 22a3 663e 6277 9c3e 4c9c ee3d 868c 2ebe
000001c0: 31d0 a43e f452 523e d920 46bd cd48 183c
000001d0: b9a0 9c3e 23b3 163e 8f60 86be 87e3 fabd
000001e0: c2ee 9b3e d400 3ebe 5bd5 86bb 28e7 9fbd
000001f0: 099b d83d 6dbe 0a3e ac02 a23e e546 b03e
00000200: ab91 0cbe 20f4 77be 82f8 a23e 53c9 883d
00000210: 0639 8c3e 5913 303d 8c2a cebd 6316 afbd
00000220: 577a a1bd 6353 813e 46fe a2bd fb36 06bd
00000230: 5c95 4b3d dae0 afbc 9523 edbd a1c4 943c
00000240: 19d7 3abe 3406 b13c 9e07 c03d 7f38 923e
00000250: d0df 17be d4ce 733e 1db1 353e 2eda a03e
00000260: 364a 23be a13c 9b3e ee2d 19be f149 8bbe
00000270: 4ca3 99bd 92ca 963c 9e48 843d 448e 2dba
00000280: 7dd6 353e 6e5e 163e e3e2 b0bc e6ae 053e
00000290: e7a2 f8bd e4c1 4f3e 2e16 963e 90ce 473e
000002a0: 9cde 173e 9cd0 613d 9855 293e 3ae4 19be
000002b0: fa71 fbbd bb84 8b3e 0f53 eebc 2896 b6bc
000002c0: 6e53 493d 8bb0 ad3e 6a0a 133e 6c6c 4b3e
000002d0: a2cb 553e 3364 52bd 665b 893e be80 013e
000002e0: 39c9 743e 03bd f2bd 75cd 383e c533 8b3e
000002f0: 4255 eebc 2ab8 2ebe 9b9e 223e 50a7 183e
00000300: a022 6dbd 34ae 17bd b1d5 743e 8161 d3bb
00000310: dba0 b53d 041b 563e 4723 9e3e 9184 69be
00000320: 78da 4ebe ac58 a9bc 6994 983c 2ffc bebc
00000330: a637 323e 6132 6d3e e7ca da3d c22c 103e
00000340: 77bd 573d 4b80 fc3c b443 333e 9967 833e
00000350: f8f7 173e b937 5ebe c0db d03d bd15 873e
00000360: 9061 423e 30ab e63d fc4a 2c3e a95f a23e
00000370: 7bd9 02be 85ed b63e 7ddf 733e 2efa e63d
00000380: 5df6 93bc 62fe d53d 5a12 cd3d 7e7f 023e
00000390: 13aa 153e 5ee6 193e 96f0 5cbe 0c0c 423e
000003a0: 1199 e63d 7fc4 7b3e 1f23 943e 4935 15be
000003b0: bac2 f23d f251 863e d23f 463e 902d 083d
000003c0: 2d3a fa3d 3a86 723e 11d8 31be 4106 4ebd
000003d0: 3969 ff3c d082 853e f1af 96be 1708 01be
000003e0: 062a a8b7 d689 76be 40ea 7a3e a31f 883c
000003f0: df3e 873e d0da 053e ddd0 5e3e 946a a03e
-0.3055388 -0.0575998 0.18402936 -0.10779394 -0.030591017 -0.08745527 -0.30592695 0.32183504
-0.2821657 0.3265544 -0.024109777 0.015540804 0.2572281 0.20705839 -0.00870432 -0.2745591
-0.038229603 -0.050644565 -0.13446139 -0.19382302 0.10787129 -0.0832469 -0.08839486 -0.22785178
-0.018796416 -0.1962911 -0.012526103 -0.0509199 0.16146956 -0.25935653 0.08070304 0.07277243
-0.009309778 -0.04341405 0.13669007 -0.060432654 0.11110235 -0.23501183 -0.07270442 0.29816675
0.12232779 0.3086251 -0.067110576 0.23521373 0.17586657 0.013194635 0.12157443 -0.2769831
0.0079767285 -0.14311951 -0.07310904 -0.10582305 -0.07089546 0.057979837 -0.18222444 -0.26016214
0.13841099 0.11792003 -0.18480594 -0.25995648 0.21557365 0.07431129 0.29556856 -0.23189627
-0.21977884 0.030707408 0.04179636 0.1094489 -0.20852762 -0.18124078 -0.09878736 0.15428908
-0.1506847 0.2770977 0.0018027299 -0.0009435776 -0.11929687 0.01523224 -0.23993808 -0.13669285
0.1632404 0.22170246 0.3183172 -0.28325832 -0.34058315 0.25174457 0.18508416 -0.12869425
0.17748 0.2175938 0.2729745 -0.031170541 0.006948596 -0.1526525 -0.22800197 -0.29522836
-0.16933352 -0.30321905 0.019854702 0.03730428 0.24304259 0.10702347 -0.07217244 -0.22773609
0.24368145 0.2144203 0.021708475 0.25116137 0.22523168 0.30559832 0.11650905 -0.17045793
0.32190087 0.20539457 -0.04837117 0.009294701 0.30591372 0.14716773 -0.26245543 -0.12250429
0.30455595 -0.18555003 -0.0041147894 -0.078077614 0.105764456 0.13549204 0.31642663 0.34429088
-0.13727443 -0.2421422 0.3183022 0.066790245 0.27387255 0.0429872 -0.10066709 -0.08549192
-0.078846626 0.25258932 -0.07958655 -0.032767277 0.049702987 -0.021469522 -0.11579052 0.018160166
-0.18246116 0.021609403 0.09376453 0.28558728 -0.14831471 0.23809367 0.17743345 0.31416458
-0.15946278 0.30319694 -0.14958927 -0.2720485 -0.075018495 0.01840714 0.06459163 -0.00066206255
0.17757602 0.1468446 -0.021592563 0.13055 -0.12140446 0.20288807 0.29313797 0.19512391
0.14831012 0.055130586 0.16536558 -0.15028468 -0.12277599 0.27249703 -0.02909234 -0.022288397
0.04915183 0.33923754 0.14359441 0.19865578 0.20878461 -0.05136509 0.26827544 0.12646767
0.23904885 -0.118524574 0.18047126 0.27187935 -0.029093388 -0.1706244 0.15880816 0.14907575
-0.05789435 -0.037031367 0.23909642 -0.0064508324 0.08868571 0.20908743 0.3088629 -0.22804476
-0.20200527 -0.020672165 0.018625455 -0.02331361 0.1740404 0.2316375 0.10683232 0.14079574
0.052670922 0.030822894 0.17506295 0.25664976 0.14840686 -0.21700944 0.10198164 0.26383772
0.1898253 0.1126312 0.1682548 0.31713608 -0.12778275 0.35728088 0.23815723 0.11278187
-0.018061811 0.1044891 0.10013266 0.12743947 0.1461566 0.15029284 -0.21576151 0.18949908
0.11259664 0.24586676 0.28933045 -0.14571108 0.118535474 0.26234394 0.19360283 0.033246577
0.122181274 0.23684016 -0.17367579 -0.050298933 0.031178104 0.26076365 -0.29431108 -0.12600742
-2.004673e-05 -0.24076018 0.24503422 0.016616648 0.26415154 0.13071752 0.21759363 0.31331313

fc2.bias f4 [64]
00000000: 0352 f63c 7011 063e fedf d43d 06fb b03b
00000010: addd 5f3d e236 a83c 818d 91bd 3291 1cbd
00000020: a91e 53bd ea0c 7bbd 41fa cfbd 6b42 5e3d
00000030: 8f9e 753d 436a a13b a8b4 d1bd cc20 ce3d
00000040: ea5e 533d c097 eabd 1f26 673d 836c f5bd
00000050: d785 ae3d b352 d23d 4170 3cbd 9edd e73d
00000060: 2a74 13ba d2c8 98bd 05a4 4cbd 08c7 783d
00000070: 35df 6fbd 0581 7b3b 4355 843d 0d2b c8bd
00000080: 4982 b5bd fdc7 2fbc ff7f 10bc b78a a63d
00000090: 19a3 613d 7d95 a53d 9c1f 3b3e bb5f bb3d
000000a0: 027a 8a3d fee5 07bc 89ba 07bd b1fd 113e
000000b0: 1951 cfbb 3278 b73d dea0 693d c43a ba3d
000000c0: b053 403c cd26 213e 919e 5d3d 5842 24bd
000000d0: 51b0 d8bc cf66 09bd 4996 093e eeaf 41bd
000000e0: c750 2c3b 48a5 d53c 16bf d5bd 9905 15be
000000f0: 1051 8bbd f855 953d 2ebb 083e c4e0 773d
0.030068403 0.1309259 0.103942856 0.005401018 0.054654766 0.020533983 -0.07107068 -0.038224407
-0.05154291 -0.061291613 -0.10155154 0.05426256 0.059965666 0.0049259975 -0.102395356 0.10064849
0.05160419 -0.11454725 0.05643284 -0.119835876 0.08521622 0.1026968 -0.04600549 0.11321567
-0.0005624915 -0.074601784 -0.04996111 0.060736686 -0.058562476 0.0038376462 0.06461575 -0.09773836
-0.088627405 -0.010728833 -0.008819579 0.081319265 0.055087183 0.08085153 0.18273777 0.091491185
0.067615524 -0.0082945805 -0.03313688 0.14256932 -0.0063268063 0.08958472 0.05703818 0.0909324
0.011738703 0.15737458 0.0541063 -0.040102333 -0.026451262 -0.03354531 0.13436235 -0.04728692
0.0026293264 0.026079789 -0.104368374 -0.14552917 -0.06802571 0.07291788 0.13352653 0.060517088

fc3.weight f4 [64, 64]
00000000: 2b46 d93d 3d6d 983c f8b1 08be 64f2 7fbe
00000010: 8dad 083e 6a7b 67be ac41 4f3e a741 5d3e
00000020: 2c85 94bd 8949 7f3c 49ea 51bd 7c6b 80be
00000030: be8c 28bd 306c 1fbd 9cf9 e9bd b261 0a3e
00000040: 4d7e 36be b3f2 57bd 25f7 6a3e e1b9 693e
00000050: 2c90 c93d f225 c93d 5a31 e5bc 98f2 5abe
00000060: 8f69 713e a4d0 37be 4df7 ccbd 8ba2 8ebe
00000070: 1691 933e 854b fd3c 0a2a 2c3e a089 87be
00000080: a826 8f3e 32de 40be f00c 3f3e 6cb4 083e
00000090: 16c6 91be d80d 903e 3865 79bd ec6a 0c3e
000000a0: 8fd5 65be f229 6a3e c5c6 02bc 35e6 673e
000000b0: 4b16 853e 99ee 743e b7c5 2ebe f8d3 6dbc
000000c0: 304f 9bbe 55f2 583e b9d3 23bd 9b03 8b3d
000000d0: e094 1dbe eff0 993c f9b6 43be 4a45 abbe
000000e0: 351f 53be b39d 803e 94a9 96bd 3126 f1bd
000000f0: f5bc 29be e9e7 483e 46d0 833e b99d 2dbe
00000100: 1f05 3abe dd16 4d3e cec8 de3c 21c5 63be
00000110: d21f 4cbe cfe5 143e 3e73 15bd fb0a 863e
00000120: 97f1 0bbd 8927 9cbe 69e0 d73c 6575 9c3c
00000130: c0ab 943d 8e51 94bd 1cc1 88be deae 6f3e
00000140: f63d 72be d24a 63be 6cba 0abe fa6d 863e
00000150: 1b53 8c3e bdd0 01bd 3757 c93d b7dc 19be
00000160: 8c5c 49bd 5eae 4b3e 91f7 57be f111 75be
00000170: cd45 19be 263a 28be 03f1 61bd 5db8 913e
00000180: ce16 bebc 8bc8 ee3c 9e3a 4b3e 61b0 233e
00000190: 08ae 533c bf38 643e 329e 663d ce52 8a3e
000001a0: 4554 1d3e b376 f4bd 5109 2d3e 1591 893e
000001b0: 7ffc 873e 2b39 513e ad7d 833e a96c 22be
000001c0: 0015 6b3e 97d0 9cbd 3b75 e53b 1c57 6dbe
000001d0: ccd3 dcbd e947 41be 7fee 9ebe bac3 cdbd
000001e0: c01e 5fbe d582 15be 5610 9c3c c8b6 d4bd
000001f0: 3957 823e 784b c8bd cefd 72be d0e6 21be
00000200: 5dab 57be 4d7b 383e 428c 853e 9f39 5f3e
00000210: fe69 3dbd a981 ac3e 73e0 9c3e e501 c83d
00000220: b8c5 5f3a 6ec0 26be 6448 713e dad6 e1bd
00000230: 2683 20be 4961 4dbe d0a7 43be df5a fa3d
00000240: 3b16 5dbe ef8d 643d ebf4 24be c6e8 9f3e
00000250: e6b1 ed3d 1965 663d 775f 03bd abc4 de3b
00000260: d344 213e 9781 1ebe 140b ae3e 9970 48be
00000270: bab2 c5bc bb8c 7cbe 24ab 8e3e 2d7e dabd
00000280: 6c3f 803c 5fb5 a43e cd54 fabd 9068 e1bc
00000290: 8e15 2a3c 02b2 42be a46c 8dbe 3233 053e
000002a0: f349 ac3e 302d 423d 92a9 903e c02a 973e
000002b0: 2c1d 4e3d 5831 25bc 377a 193d a930 7cbd
000002c0: add8 3ebd 7ef4 2bbe 539f 96be 52f2 9ebe
000002d0: cb88 d73d 4f22 91be b095 263d 7e59 1a3e
000002e0: 4091 cdbd 0b19 7ebe 5b3f 5b3e 6906 1c3e
000002f0: 3d2e 90be bdc8 acbb da9e 8d3e 7284 e63d
00000300: 23c9 6b3e 51ea 5c3e c89b 8f3e 6e58 c1bd
00000310: 541b 233d 503d 293e aa7f 3e3d 414b bb3c
00000320: f521 eebd 0445 e5bc ea47 b4bd 660b 37be
00000330: 67e8 853e 1622 3a3e ca20 4ebe b153 873e
00000340: 410b 0cbd 54e1 2b3e cab5 07be 6e01 d8bc
00000350: 9bf6 843e 77a1 7c3e 2a19 fc3d 4991 903e
00000360: 2a10 3d3e b448 96bd 86ca a6be 0074 f1bd
00000370: 04c3 7c3e 0d3e e73d 5fa7 48be ec3a c8bd
00000380: 4386 1abe 9b6a 35be 16db de3c 975f 8e3e
00000390: b3d9 80bd 6cc1 363e 6d72 a03e 7292 d53d
000003a0: 4b47 743e d762 29be be7f 98bb f7eb 6cbe
000003b0: 1225 94be 002e 56be 35ed abbe 73a4 533e
000003c0: 46e5 753e 1ba1 ffbd c864 5fbe 9c17 243d
000003d0: 86f6 0f3d 0783 293c 5811 a13e 3bfb 143e
000003e0: 3572 a53d 9b6f 8cbe 44fb fe3d ce8b 8f3e
000003f0: ac23 2e3e be2f 1abe 207c 1abe 91b2 10bc
0.106090866 0.018606776 -0.1334914 -0.24994808 0.13347454 -0.22605672 0.20239896 0.21607076
-0.07251963 0.015581497 -0.051248822 -0.25082004 -0.041149847 -0.038921535 -0.11424562 0.1351383
-0.17821617 -0.05272169 0.2294584 0.22824813 0.09841952 0.098216906 -0.027977634 -0.21381605
0.23575424 -0.17950684 -0.100081064 -0.27858385 0.2882163 0.0309198 0.16812912 -0.26472187
0.2795918 -0.18834761 0.18657279 0.13350075 -0.2847144 0.28135562 -0.060887545 0.13712662
-0.22444747 0.22867563 -0.007981961 0.22646411 0.2599357 0.23919143 -0.1706761 -0.014515869
-0.30333853 0.21186192 -0.039996836 0.06787797 -0.15388823 0.018791644 -0.19112767 -0.334513
-0.20617373 0.25120315 -0.07356563 -0.117748626 -0.16575988 0.19619717 0.25744838 -0.16954698
-0.18166016 0.20028253 0.02719536 -0.22243167 -0.19934013 0.1454079 -0.036486857 0.26180252
-0.034165945 -0.30498913 0.026352124 0.019098947 0.07259321 -0.07242118 -0.2670983 0.2340655
-0.23656449 -0.2219651 -0.13547677 0.2625578 0.27407154 -0.03169321 0.09831088 -0.15025602
-0.049160525 0.19890735 -0.21090533 -0.23932625 -0.14968033 -0.16428432 -0.055161487 0.2846097
-0.023204233 0.02914836 0.1984658 0.15985252 0.01291991 0.22287272 0.05630321 0.270163
0.15364178 -0.119367026 0.16898085 0.268685 0.26559827 0.20431964 0.2568182 -0.15861763
0.2295723 -0.07656973 0.0070025004 -0.23177761 -0.107825845 -0.18875088 -0.31041333 -0.100470975
-0.21789074 -0.1460069 0.019050758 -0.10386425 0.2545717 -0.097800195 -0.23729631 -0.15810704
-0.21061464 0.18015786 0.2608357 0.21799324 -0.04624366 0.33692673 0.3063999 0.09765986
0.00085362373 -0.16284344 0.23562771 -0.11027308 -0.15675029 -0.20056643 -0.19106984 0.122243635
-0.21590512 0.05579942 -0.16109054 0.3123228 0.11606197 0.056248758 -0.032073464 0.006798347
0.1574891 -0.15479122 0.33992827 -0.19574203 -0.024133075 -0.2466306 0.27864945 -0.10668597
0.015655242 0.32169625 -0.12223206 -0.02751568 0.010381116 -0.19013217 -0.2762195 0.1300781
0.3365017 0.047406375 0.28254372 0.29524803 0.05032079 -0.010082565 0.03747007 -0.061569843
-0.046593357 -0.16792485 -0.2941843 -0.3104425 0.10524138 -0.28346488 0.040670097 0.15073201
-0.1003747 -0.2481424 0.21410887 0.1523682 -0.28160277 -0.0052729533 0.27660257 0.11255731
0.23025946 0.2157376 0.2804854 -0.09440695 0.039820984 0.16527295 0.04650847 0.022863032
-0.116275705 -0.02798701 -0.08802779 -0.17875442 0.2615387 0.18177065 -0.20129696 0.2643104
-0.03419042 0.16785175 -0.13252941 -0.02636787 0.25969395 0.24670969 0.12309487 0.28235844
0.18463197 -0.07338086 -0.32576388 -0.11789703 0.24683768 0.11291132 -0.19595097 -0.097768635
-0.1509028 -0.17716448 0.027204078 0.27807304 -0.06291523 0.17847222 0.313373 0.10428323
0.23855321 -0.1654161 -0.0046539 -0.23136888 -0.28934532 -0.20915985 -0.33579412 0.20668201
0.24013242 -0.124819 -0.21815789 0.04006158 0.035147212 0.010346181 0.31458545 0.14548962
0.08078424 -0.27428898 0.12450269 0.2803635 0.17005795 -0.15057275 -0.15086412 -0.008831636

fc3.bias f4 [64]
00000000: c94b a1bd 852d 3d3d e8b8 073e aec4 393d
00000010: 75fe d6bd e261 97bd e831 e33d 5fa9 35bb
00000020: 6b64 8fbd c259 e93d 7bed 0b3e 4773 b73c
00000030: 3b13 84bd b8d4 073e 3a52 cabc fb3f c43d
00000040: e87a 94bd 306c 9f3c 5058 003e b2e3 9e3c
00000050: 6c0d dfbd 4e6c be3d 88cc 093d a85d 4cbd
00000060: 6b53 b5bd 46aa b53d 5d5c b5bc 9f45 293e
00000070: 6fac d3bd 5872 393c 3f86 bb3d e2c9 07be
00000080: de73 3fbd a442 9f3c 00dd 25bb 03b8 c2bd
00000090: de32 853d 8e5f 10bd f1f0 30bc 7279 183e
000000a0: de75 80bd 3c48 193d 531f ec3c 0095 583b
000000b0: 93fd 90bd 9d87 043e b9b7 cbbd 54db 943d
000000c0: aef5 23be 3f21 14bd ba2d 5b3c ad70 7ebd
000000d0: 1d73 733d 33aa 3cbd cfd1 56bd ff50 473d
000000e0: 63fd 5ebc ff90 40bc ecf1 193d 9ee2 e23d
000000f0: 6b33 183d 1bd5 18bd 2d8b 34bb 4f30 3abd
-0.07875783 0.04618599 0.1325413 0.045353584 -0.104977526 -0.073917165 0.11093503 -0.0027719361
-0.07001575 0.11394073 0.1366481 0.022393836 -0.064489804 0.1326474 -0.024697412 0.09582516
-0.07250005 0.019460768 0.12533689 0.019395683 -0.10891232 0.09298001 0.03364232 -0.049894005
-0.08853801 0.08870368 -0.022138769 0.16530465 -0.103356235 0.011318766 0.09156465 -0.13260606
-0.04674136 0.019440956 -0.0025308728 -0.09507754 0.06503843 -0.035247378 -0.010799632 0.14890078
-0.062724814 0.037422404 0.02882353 0.0033047795 -0.070796154 0.12942357 -0.09947152 0.07268396
-0.16011688 -0.03616452 0.013377601 -0.062119175 0.059435952 -0.046060752 -0.052446183 0.04866123
-0.013610217 -0.01175332 0.03758423 0.1107838 0.03715841 -0.03731261 -0.0027548776 -0.045456227

fc4.weight f4 [4, 64]
00000000: 21c0 d83c f9f2 4fbc 42ca b83b a233 33be
00000010: 441a 883d 46ee 033e d036 45bd 3ad6 61bd
00000020: df59 23be b7d7 5b3d e4ec 9ebd 31d2 f1bd
00000030: 1ba7 693d c0fd 3abe 2560 96bc 1e82 343d
00000040: 4380 fc3a e233 5f3c 044f 2d3e 3e36 743d
00000050: 03f3 fb3c 6ae4 e13d 4e20 43be 5bd0 92bd
00000060: eb24 033e 5444 29be 3541 cdbd 5da4 febd
00000070: 7a9e bb3d b268 773d c432 c63d ef29 49bd
00000080: f748 8f3d 4b52 1b3e 3549 203d b413 be3d
00000090: dce1 06be eace 3fbd 1b5f 8abc 573e 06be
000000a0: 2a0e ec3d 37bd 07be 907b b8bd 3927 d23d
000000b0: a8a4 c9bc 0cbb 043e 518b 8cbd 0aa3 1dbe
000000c0: b94e f93d f9ea b2bd 99a0 9dbd b3f8 88bd
000000d0: d983 e4bd 62e6 fa3d 7335 843a 7989 ef3d
000000e0: 29da fcbd 4492 c73d 118f 1b3e ae89 4f3b
000000f0: 880f 3ebc a959 b6bd 0a51 053e a7aa 6abd
00000100: cfa2 403d e644 cb3d f4b4 2ebe f7e4 d03d
00000110: 3a7f 2abe 97e9 ffbd eea3 b3bc 3ef0 4fbd
00000120: ce19 05bd 811f 743e 9c2b 773d 7a0f 1ebe
00000130: 1485 9bbc e1ae d13d ef27 2d3e 3361 e3bd
00000140: c7fc 06be 3b1f 3bbe 1105 8b3d edd8 0ebe
00000150: b7f1 2abd 6aaf 623b 6181 23be bd4b 233e
00000160: 2fa1 d8bc d44c 6bbd 3e72 c1bd be2b 44bd
00000170: aeeb a5bb a089 473c c0cd babc 757c 123d
00000180: ebb7 14bc 0f29 043e c401 74bb b0b3 033d
00000190: 685b 143c e9f7 17be 3d81 bbbc d014 8b3d
000001a0: 2b6f 48be 085c 07bd 529c 973b 343b 26be
000001b0: 5f38 0c3e 6c00 6b3d 732a 77bd 2c55 83bd
000001c0: c2d9 2abe 2b51 5cbc e88a fe3d 57ba fa3d
000001d0: 8430 9c3c 3ac6 dabd 3e00 fe3c cc96 f1bd
000001e0: f71f 83bd e632 32bd 356b 953d 5ab5 8dbc
000001f0: 0ed4 d4bd f6cf 943c 5074 683d 0a2c d2bd
00000200: fd3f 90bc e83a a73d 33fb b63d eae5 253b
00000210: 9770 cdbd 727f 283d 56de 03be 5d33 92bd
00000220: 7e3c 233e cfe7 45bd 91e7 ecbd c896 f1bd
00000230: e0e7 30be 5269 323e cc2f b93d 36a8 2c3d
00000240: ccac d83d c5e5 993c fe59 2a3d 5e2a 2f3e
00000250: eddb 073e 3187 1ebe 2043 0abd 5d27 46be
00000260: c8ef c73c b3e9 8b3d e216 2c3e 1d9b 8e3d
00000270: b74a 8dbc eb0f 353d fb13 16bd d554 943d
00000280: 0904 e8bd 499e 0a3e 6557 0cbe f4fa 4cbe
00000290: 1f66 28bd 35f5 423d 71bf 10be ad91 3ebd
000002a0: ae19 0b3e 0793 cf3d d618 0c3e b2bb 9ebd
000002b0: e512 23be 247f c8bd 43d1 04be 9619 563e
000002c0: dab3 e9bd 5f66 acbd d5f2 233c a5d0 2fbd
000002d0: 6029 1e3d 3fe4 9b3d 3397 e9bd 2729 963d
000002e0: bbe9 c33d 8a30 863d 82b7 0fbe 28b8 b4bd
000002f0: 2b43 a1bd b981 1cbc f0d5 ecbd b9cc 2c3d
00000300: d6ca 72bc 5443 b0bd 4f8a 603d c284 e7bc
00000310: 7332 7f3d 1076 e93d 786e 263e b60b 88bd
00000320: 7921 313d a6a9 67be 57ad 50be c7dd 413e
00000330: 0d4e f23c 1520 e4bd a7b2 f8bd bd9f b43d
00000340: 7e12 953b 9836 903b 9421 bcbd 59b9 0f3e
00000350: 0da4 cabc 4b24 763d d766 013e c093 383d
00000360: 778d 33bc 8e0b 673b 1bd3 f3bd 4e39 12bd
00000370: 0784 1c3e bef8 fdbd c1ca bd3d e29f 663d
00000380: c0d4 adbd 1946 17be 716a 0bbe 29bf 163e
00000390: ec18 cfbd 4a90 6abd f887 dfbd 51a9 c63d
000003a0: 2e28 973d 9b78 2b3c 1afd 133c e485 21be
000003b0: 347b 6fbd db9d 84bd c1fa d7bd 864a 76bd
000003c0: 174c a9bc 645d fe3c 57e2 63bd b5be 87bd
000003d0: 51f1 66be aa73 ddbd 57c3 af3c 84d0 383d
000003e0: 9228 143e 9ad9 23bd 8837 58be cce6 453e
000003f0: 43f6 933d 7689 4dbe e341 f23d 1654 233e
0.026458802 -0.012692207 0.0056393454 -0.17500165 0.06645635 0.12883863 -0.048147976 -0.055135943
-0.15952252 0.05367252 -0.07760027 -0.11807669 0.05704413 -0.1826086 -0.018356392 0.044069402
0.0019264299 0.01362321 0.16924673 0.059622042 0.030755525 0.11029895 -0.19055292 -0.07168647
0.12807052 -0.16529971 -0.10022203 -0.124336936 0.091610864 0.06040258 0.096776515 -0.049112257
0.06996339 0.15168111 0.039132316 0.09281102 -0.13172096 -0.046828188 -0.016891053 -0.13109718
0.11526139 -0.13255773 -0.09007943 0.102613874 -0.024614647 0.12961978 -0.0686251 -0.15394226
0.12173218 -0.08736224 -0.07696647 -0.066880606 -0.111579604 0.12250973 0.001008673 0.11696143
-0.12346298 0.09744695 0.15191294 0.0031667757 -0.011600383 -0.0890382 0.13019195 -0.057291653
0.047030266 0.09925251 -0.17061216 0.101999216 -0.16650096 -0.124957256 -0.021928754 -0.050766222
-0.032495312 0.23840143 0.060344324 -0.15435591 -0.018984355 0.10238434 0.16909765 -0.11102524
-0.13182364 -0.18273632 0.06788076 -0.13949938 -0.041734423 0.0034589418 -0.15967323 0.1594686
-0.026444046 -0.057446316 -0.09445618 -0.04789328 -0.0050634956 0.012178808 -0.022803187 0.035763223
-0.009077053 0.12906288 -0.0037232498 0.032153785 0.009054996 -0.14840664 -0.022888774 0.06791079
-0.19573657 -0.033046752 0.004626789 -0.16233522 0.13693379 0.05737345 -0.060343217 -0.064127296
-0.1668463 -0.013447086 0.12428838 0.12242573 0.019066103 -0.1068234 0.031005975 -0.1179634
-0.06402581 -0.04350557 0.07295839 -0.01729839 -0.10392009 0.01816557 0.05675155 -0.10262306
-0.017608637 0.08165532 0.08934631 0.0025314041 -0.100312404 0.041137166 -0.12877783 -0.07138703
0.15941045 -0.048316773 -0.11567605 -0.11796337 -0.17275953 0.17422989 0.0904232 0.042152606
0.105798334 0.01878632 0.04158973 0.17106006 0.13267489 -0.15481259 -0.03375542 -0.19350953
0.024406329 0.06831684 0.16805604 0.06963179 -0.01724754 0.044204634 -0.03664015 0.07242743
-0.11328895 0.13536943 -0.13705213 -0.20017606 -0.041113015 0.04759713 -0.14135529 -0.046525646
0.13584015 0.10135465 0.13681349 -0.07750644 -0.15925176 -0.09789875 -0.12970452 0.20908198
-0.11411257 -0.08417963 0.010006626 -0.04292359 0.038613677 0.07611894 -0.11405792 0.07332068
0.09566065 0.06552227 -0.14034846 -0.088241875 -0.078741394 -0.009552413 -0.11564243 0.042187426
-0.014818868 -0.08606592 0.0548194 -0.028261546 0.06230397 0.11399472 0.16253078 -0.06642859
0.043244813 -0.2262331 -0.20378624 0.18932258 0.029578233 -0.11138932 -0.1214345 0.0881953
0.0045493236 0.0044010393 -0.09186092 0.14035548 -0.024736429 0.060093205 0.12636887 0.04506278
-0.010959021 0.003525469 -0.119054995 -0.03569918 0.1528474 -0.124009594 0.09267188 0.05630482
-0.084878445 -0.14772834 -0.13614823 0.1472136 -0.10112175 -0.05726651 -0.10914606 0.09700263
0.073807105 0.010465766 0.009032512 -0.15773731 -0.058467105 -0.06475421 -0.105458744 -0.060129665
-0.020666165 0.031050391 -0.055635776 -0.06628171 -0.22552992 -0.10813077 0.02145545 0.04512073
0.14468601 -0.040002443 -0.21114933 0.19326323 0.07224705 -0.20071968 0.11828973 0.15950045

fc4.bias f4 [4]
00000000: 1051 b6bc 07d6 44bd c97c 6d3d 5820 d43b
-0.02225545 -0.048055675 0.057980333 0.0064735822
