experiments/LunarLander-v2_DQN/dqn.pth (torch, 57511 bytes, 8 tensors)

fc1.weight f4 [128, 8]
1.0293874 0.2860992 -0.088844195 -0.25935128 0.09571527 -0.4916342 0.173601 -0.25065345
0.7550663 0.6553728 -0.35636574 0.044960823 0.37473816 -1.0281565 -0.3369403 -1.0410311
0.44476652 0.3939592 0.07958186 0.96234274 0.9287215 0.18797982 -0.42056566 -0.23066993
-0.31208697 0.8638287 0.1651396 -0.7215376 0.06757083 -0.47697634 -0.52538675 -0.5708434
0.32479915 1.0273278 -0.27357256 0.9579951 0.74242836 -1.1799746 0.18630831 -0.321272
-0.61792105 0.8655709 0.4880399 -0.6271184 -0.29620004 -0.1738333 0.32744122 -0.15052925
1.2124044 0.3370022 -0.10876389 0.39761922 0.5606519 0.7208998 -0.4363333 0.71497214
-1.0983862 1.0331382 0.02740917 -1.2758248 0.5189713 1.1948233 -0.5346846 -0.077588856
0.37635344 0.15674007 0.020344805 0.7706116 -0.1531629 0.48249143 -0.37237415 0.8657698
1.1065286 0.4560698 -0.69637907 -0.8292547 -0.16625597 0.26981664 -0.14504822 0.20461494
-0.16674173 0.5823156 -0.13439977 -0.024866505 -1.3183053 -0.40577894 -1.599535 0.5682016
0.7903651 0.043274373 -0.8030389 -0.39561275 -0.5755528 -0.3417539 -0.062801324 -0.056292675
0.20770648 -0.024133105 -0.11225519 0.10745476 0.691186 0.34623966 0.4320573 0.21925908
-0.60368395 0.9593071 -0.8791452 -0.17236027 -0.7338239 1.2622846 0.1883998 0.3040666
-0.63259673 -0.36274815 0.12323057 1.4578468 1.2844142 -0.3912905 0.932075 0.355181
0.17651078 -1.1392525 0.89573765 0.0921334 0.44947755 1.0200303 0.7132335 -0.4440246
-0.1249089 -1.159829 1.0563061 -0.48819962 -0.38304704 -0.634332 -0.05546039 -0.2845254
-0.6330683 -0.62551504 0.88124925 -0.25749415 -0.9183327 -0.8022281 0.6080917 0.48482648
-0.517647 -0.5695646 0.48705146 -0.22731465 -0.86873233 -0.5580573 0.3971621 0.23264936
0.7489953 0.106461786 0.3202864 -0.114935234 -0.1863526 0.5679775 0.17913674 -0.93739563
0.24399677 -0.8451002 -0.7496612 -0.72481173 0.55892247 1.14405 0.2864257 0.19428453
-1.3559841 0.41086146 -0.13930966 -0.44813856 -1.0261599 -0.95312166 -0.9669921 -0.40768194
0.7093554 -0.6349166 0.47678235 1.1935384 0.4205914 0.22874908 0.7045453 0.10122179
0.31718856 0.20980819 0.0605449 -0.02695432 0.5614796 1.0924773 1.0415697 0.6097629
-0.42895612 0.67360467 -1.2000345 0.1810626 0.82141894 -0.17899558 -0.45527664 -1.0162922
-0.44051802 -0.66795474 -0.56846327 -0.45241076 -0.68075305 0.64745325 0.20612803 -0.91924816
-0.9262437 -0.3656526 0.40946063 0.1697683 0.24296792 0.08713506 0.73179936 0.50164336
0.21495685 -1.0958598 -0.9364104 1.4270235 -0.31434834 -0.44935355 0.11495517 -0.05546794
0.16444679 0.26615292 0.6413338 -0.54449093 0.74119526 0.78935605 -0.121658705 -0.4147915
0.019903336 -0.33294216 -0.77040327 1.160999 -0.34655175 0.007846993 -0.38153884 0.92735696
-0.35518277 0.049140006 0.47991106 -0.7014893 -0.47122523 -0.7323826 -0.6211145 -1.1498098
-0.13325006 0.76892304 0.28309622 0.83267 0.5261492 0.5191407 0.25388837 0.14644559
00000000: f7c2 833f 987b 923e f2f3 b5bd b1c9 84be
00000010: 5e06 c43d 7ab7 fbbe 76c4 313e a655 80be
00000020: 064c 413f 83c6 273f 9275 b6be d728 383d
00000030: aedd bf3e a29a 83bf 7083 acbe 8240 85bf
00000040: 70b8 e33e 05b5 c93e d0fb a23d 185c 763f
00000050: b1c0 6d3f c87d 403e 6254 d7be bd34 6cbe
00000060: ddc9 9fbe e123 5d3f 5b1a 293e b0b6 38bf
00000070: 9362 8a3d 3e36 f4be bf7f 06bf cb22 12bf
00000080: 134c a63e 7a7f 833f b411 8cbe 2b3f 753f
00000090: c90f 3e3f 6809 97bf 9bc7 3e3e c37d a4be
000000a0: 1330 1ebf 0e96 5d3f 5ee0 f93e d58a 20bf
000000b0: 88a7 97be 5b01 32be 60a6 a73e 5724 1abe
000000c0: 1130 9b3f 8d8b ac3e 9abf debd bf94 cb3e
000000d0: e286 0f3f e48c 383f 1467 dfbe 6a08 373f
000000e0: eb97 8cbf df3d 843f 3289 e03c 3a4e a3bf
000000f0: 4edb 043f f8ef 983f 17e1 08bf e8e6 9ebd
00000100: 66b1 c03e 7880 203e 26aa a63c cd46 453f
00000110: bcd6 1cbe 1e09 f73e d3a7 bebe 17a3 5d3f
00000120: bba2 8d3f fb81 e93e e645 32bf 094a 54bf
00000130: 013f 2abe 6825 8a3e 8587 14be 9486 513e
00000140: 58be 2abe a312 153f 18a0 09be d7b4 cbbc
00000150: 3abe a8bf 42c2 cfbe 90bd ccbf a975 113f
00000160: 5e55 4a3f 7840 313d f593 4dbf c18d cabe
00000170: 6e57 13bf 5efa aebe fb9d 80bd 2693 66bd
00000180: 02b1 543e cab2 c5bc 0de6 e5bd 3e11 dc3d
00000190: 91f1 303f 5346 b13e 9d36 dd3e 7485 603e
000001a0: 088b 1abf 2695 753f a90f 61bf 367f 30be
000001b0: e2db 3bbf 8b92 a13f e1eb 403e 9eae 9b3e
000001c0: dcf1 21bf 20ba b9be 4f60 fc3d b99a ba3f
000001d0: af67 a43f 3a57 c8be 789c 6e3f 49da b53e
000001e0: 3ebf 343e 07d3 91bf 104f 653f 70b0 bc3d
000001f0: ec21 e63e 5a90 823f 7896 363f 3157 e3be
00000200: 3dd0 ffbd 4775 94bf 0a35 873f 4df5 f9be
00000210: be1e c4be 9563 22bf 6f2a 63bd 50ad 91be
00000220: c410 22bf c121 20bf 8d99 613f 46d6 83be
00000230: da17 6bbf d25e 4dbf e6ab 1b3f 2d3b f83e
00000240: 8484 04bf fcce 11bf cf5e f93e 2cc5 68be
00000250: 3e65 5ebf d8dc 0ebf d558 cb3e a23b 6e3e
00000260: 28be 3f3f a308 da3d 94fc a33e 2a63 ebbd
00000270: 37d3 3ebe f966 113f 9f6f 373e 29f9 6fbf
00000280: 4ada 793e 7d58 58bf cce9 3fbf 438d 39bf
00000290: 8b15 0f3f 3b70 923f 64a6 923e 86f2 463e
000002a0: e390 adbf 6f5c d23e 31a7 0ebe 6b72 e5be
000002b0: 3559 83bf c8ff 73bf cb8c 77bf b0bb d0be
000002c0: 5198 353f e589 22bf d11c f43e dec5 983f
000002d0: c257 d73e 333d 6a3e 155d 343f 5f4d cf3d
000002e0: 8a66 a23e f5d7 563e eefd 773d 4ecf dcbc
000002f0: 21bd 0f3f 4cd6 8b3f 2852 853f 6c19 1c3f
00000300: 23a0 dbbe 5b71 2c3f bb9a 99bf 7968 393e
00000310: 8348 523f 9e4a 37be 051a e9be dd15 82bf
00000320: 948b e1be 15ff 2abf cf86 11bf 62a2 e7be
00000330: d545 2ebf 7fbf 253f 3a13 533e d953 6bbf
00000340: 4f1e 6dbf d136 bbbe d3a4 d13e bed7 2d3e
00000350: 95cc 783e de73 b23d 3457 3b3f b36b 003f
00000360: a61d 5c3e 2245 8cbf 98b8 6fbf b5a8 b63f
00000370: 44f2 a0be ab11 e6be 9e6d eb3d 5a32 63bd
00000380: bd64 283e 3245 883e 742e 243f c263 0bbf
00000390: f9be 3d3f 3d13 4a3f 3328 f9bd 8d5f d4be
000003a0: 520c a33c 6577 aabe 2639 45bf 9d9b 943f
000003b0: 3b6f b1be ad90 003c 0f59 c3be 4467 6d3f
000003c0: 84da b5be 0847 493d e7b6 f53e ce94 33bf
000003d0: 6f44 f1be 6d7d 3bbf 5c01 1fbf f82c 93bf
000003e0: b472 08be 24d8 443f fdf1 903e dc29 553f
000003f0: b7b1 063f 68e6 043f a8fd 813e d5f5 153e

fc1.bias f4 [128]
0.3801673 0.28528452 -0.5409643 0.47318006 0.066396244 0.0069964356 0.19943461 0.08014635
-0.067101344 0.49906102 -0.18494867 0.15921636 0.42471236 0.29231185 -0.2679046 -0.16945249
0.2458518 -0.27445605 0.5549688 0.43008098 0.31478432 -0.050075114 -0.35317993 0.22745886
0.7704248 -0.074216396 0.8456923 -0.1788968 -0.11750939 -0.17823482 0.19853997 0.79919213
0.52924097 -0.0062441775 0.6578377 0.6782061 0.16644342 -0.03171014 0.115204945 -0.005341309
0.4143882 0.18529978 -0.057637274 0.20822047 0.43575352 0.43671918 0.116230294 0.39895535
-0.2533042 -0.09104231 0.15477018 0.0060756905 -0.23977405 0.37277552 0.1806084 0.4042022
-0.07433192 -0.013882968 0.46411046 0.29125008 -0.17015766 -0.4598703 -0.08090604 0.21021637
-0.31757462 0.36532006 0.050056648 0.22139989 -0.5728058 0.2907827 0.26044184 -0.37204516
0.49795657 0.55751264 0.14040197 0.41523027 0.6853471 0.34146532 0.15781568 0.11220724
-0.29846 0.3081259 0.40839422 -0.4288388 -0.4322457 0.07692562 0.2941256 0.8730428
-0.015746983 0.46362 0.18939458 -0.38315433 -0.17211933 0.33624172 -0.27849054 -0.40554065
0.38570452 0.08760114 -0.2960601 0.42198017 -0.13206981 0.7228172 0.10979179 0.6445602
0.89160144 0.47150546 -0.36078697 -0.49873763 0.5282585 -0.021859983 0.25417772 0.09555212
0.556392 0.091968544 0.11101627 0.015988993 -0.14149162 -0.20722365 -0.0885144 0.3791297
0.049829643 0.3062051 0.69893163 -0.08536096 0.44438133 0.09745674 0.33415765 -0.22320497
00000000: 4aa5 c23e d010 923e a37c 0abf a844 f23e
00000010: c1fa 873d 5b42 e53b 9638 4c3e c523 a43d
00000020: 6e6c 89bd ed84 ff3e 2f63 3dbe 9d09 233e
00000030: e673 d93e e6a9 953e cb2a 89be f484 2dbe
00000040: 93c0 7b3e 8185 8cbe 6f12 0e3f 9333 dc3e
00000050: 692b a13e 901b 4dbd 00d4 b4be faea 683e
00000060: 8f3a 453f c4fe 97bd 4a7f 583f b930 37be
00000070: c3a8 f0bd 3083 36be 104e 4b3e db97 4c3f
00000080: 567c 073f f59b ccbb 0d68 283f ea9e 2d3f
00000090: 2570 2a3e 7ee2 01bd 92f0 eb3d 2606 afbb
000000a0: b12a d43e 3abf 3d3e 1015 6cbd bf37 553e
000000b0: 161b df3e a899 df3e 260a ee3d e043 cc3e
000000c0: 17b1 81be 6474 babd 137c 1e3e 9616 c73b
000000d0: 5487 75be 6fdc be3e 69f1 383e 97f3 ce3e
000000e0: 553b 98bd 6375 63bc e39f ed3e bb1e 953e
000000f0: cf3d 2ebe 1f74 ebbe 11b2 a5bd f642 573e
00000100: 2499 a2be 3b0b bb3e 3308 4d3d a7b6 623e
00000110: 67a3 12bf 78e1 943e a258 853e b47c bebe
00000120: 2af4 fe3e 26b9 0e3f 89c5 0f3e 1099 d43e
00000130: e872 2f3f 8bd4 ae3e 6f9a 213e e9cc e53d
00000140: c0cf 98be aec2 9d3e 0c19 d13e c290 dbbe
00000150: 4f4f ddbe 2e8b 9d3d a197 963e bc7f 5f3f
00000160: d1ff 80bc 9a5f ed3e a7f0 413e ce2c c4be
00000170: 0d40 30be e027 ac3e 5096 8ebe 06a3 cfbe
00000180: 107b c53e 3a68 b33d 3095 97be c90d d83e
00000190: 4f3d 07be 8c0a 393f 85da e03d e601 253f
000001a0: fe3f 643f 2a69 f13e 12b9 b8be 8a5a ffbe
000001b0: f33b 073f b513 b3bc 9523 823e d4b0 c33d
000001c0: b56f 0e3f 015a bc3d 805c e33d 59fb 823c
000001d0: 2ee3 10be 7032 54be 0a47 b5bd 4a1d c23e
000001e0: 2b1a 4c3d eac6 9c3e 2fed 323f bad1 aebd
000001f0: f385 e33e 6697 c73d b616 ab3e d88f 64be

fc2.weight f4 [64, 128]
-0.20340265 -0.92878884 -0.020996751 -0.17150424 -0.5608831 0.012734794 -0.067976594 -0.19340187
0.68062407 0.107769124 -0.37982568 -0.31407985 0.9153892 -0.033377815 0.12495406 0.21884198
-0.083568625 -0.11538868 -0.36948645 -0.07418432 -0.60205626 -0.017225195 -0.012728868 -0.19253029
-0.71208066 -0.41232526 -0.25743434 -0.22148429 -0.0407581 -0.63060266 -0.09182195 0.25430915
-0.6762387 -0.2373568 0.1042103 -0.07512281 0.15965432 0.27478868 -0.51900536 -0.4084996
0.22879356 -0.5218186 0.43511453 0.15533362 0.032537416 -0.713606 0.0545029 -0.31057605
0.17265525 0.027432721 0.13392304 -0.33228862 -0.05756216 -0.03086312 -0.92381555 0.01688955
0.09296665 0.6708737 -0.66886115 0.045354936 -0.26006976 -0.22451726 0.51576126 -0.042082
-0.26748487 -0.44427258 0.11349807 0.1618374 -0.25893798 -0.36603773 0.2384501 -0.51057416
0.03373188 -0.12924492 0.25210106 -0.008487901 -0.15899043 -0.45172808 0.07317163 -0.071372114
-0.05442242 -0.19592863 -0.5724033 -0.1103059 -0.27518284 -0.4141471 0.035385057 -0.5614092
-0.30776677 -0.28881422 0.27871966 -0.80700547 -0.38436508 -0.24948002 0.3390062 -0.13380058
-0.5032444 -0.43317753 -0.21453695 -0.5777367 -0.32821658 -0.20408107 -0.63578296 -0.038491562
-1.082283 -0.5052749 -0.0028317426 -0.113288306 -0.12523808 0.1846427 -0.07881487 -0.3711447
-0.40781754 -1.0406059 0.48300904 0.047249485 0.4363415 0.25942725 -0.011132502 -0.038812596
-0.21958043 0.21251512 0.26857156 0.23907477 0.117647484 -0.679629 0.06718347 0.3003598
0.061182905 -0.43796447 -0.28633404 -0.07693533 0.014638206 0.039754797 0.12739527 0.32967165
0.09526115 0.19098397 0.23774827 -0.41365758 -0.22811493 -0.085389346 -0.003344828 0.16625997
0.20666851 0.12192338 0.08518801 0.017775869 0.27421775 0.52158195 0.0857899 0.18865713
-0.394648 0.2682424 0.110584676 -1.772915 0.060081605 -0.13961048 -0.29763788 -0.031255458
-0.10326536 0.081254296 -0.04056253 0.12505054 0.27848127 0.019685859 -0.0684044 -0.56283855
0.29950783 0.20331459 -0.0844264 0.0046937205 0.0840045 0.3617068 -0.05620648 0.0402903
-0.9261991 0.14911807 0.39563808 0.15899293 -0.080207445 0.1471907 0.070057675 -0.074960105
0.40407926 -0.06641497 0.037206754 -0.18016416 0.41154733 0.7071704 -0.16310935 -0.109054066
-0.31426942 0.08986567 0.4043914 -0.1550289 0.55028063 0.22502545 -0.0420821 0.21515705
-0.0433712 -0.3908208 0.07522112 -0.07745615 -0.051081367 0.04320091 -0.05277251 0.29742786
0.22741924 -0.032831624 0.22561935 0.3148708 0.16171645 -0.14070028 0.09461715 -0.37731025
-0.37407553 0.06507149 -0.1391091 0.3056721 -0.15593618 -0.2503548 0.34493196 -0.22918797
0.24815881 -0.0005031797 0.054550678 0.17570427 0.09090827 -0.20412345 -0.32745507 -0.035626605
-0.23920766 -0.30123144 0.06520417 0.4700161 0.07186444 -0.1661111 -0.42057168 0.15712215
0.18764775 0.042350676 0.13686079 -0.0007851439 0.020585451 0.037997402 -0.031451732 0.15174985
0.07695906 -0.11087025 0.012590592 0.3406408 0.11686675 0.24496533 0.072669506 -0.28309363
00000000: c948 50be 1bc5 6dbf 6101 acbc cf9e 2fbe
00000010: 0996 0fbf 99a5 503c 5037 8bbd 240b 46be
00000020: 613d 2e3f 0fb6 dc3d 8378 c2be 13cf a0be
00000030: f256 6a3f 2db7 08bd eae7 ff3d 1d18 603e
00000040: 0726 abbd e650 ecbd 542d bdbe f3ed 97bd
00000050: 5c20 1abf da1b 8dbc be8c 50bc a926 45be
00000060: eb4a 36bf 4c1c d3be 6fce 83be c7cc 62be
00000070: f7f1 26bd 2d6f 21bf 260d bcbd cf34 823e
00000080: fb1d 2dbf a90d 73be 366c d53d fdd9 99bd
00000090: 6c7c 233e 1ab1 8c3e 89dd 04bf dc26 d1be
000000a0: dc48 6a3e e795 05bf 55c7 de3e c70f 1f3e
000000b0: f445 053d e2ae 36bf 6f3e 5f3d d303 9fbe
000000c0: 8acc 303e 96ba e03c 1f23 093e bc21 aabe
000000d0: 4dc6 6bbd a7d4 fcbc 2d7f 6cbf f45b 8a3c
000000e0: 4d65 be3d 61be 2b3f 7c3a 2bbf 19c6 393d
000000f0: dd27 85be dae7 65be ee08 043f 2d5e 2cbd
00000100: c7f3 88be b277 e3be ad71 e83d b4b8 253e
00000110: 8593 84be 4c69 bbbe 432c 743e fdb4 02bf
00000120: 712a 0a3d c858 04be 6413 813e d610 0bbc
00000130: 63ce 22be e748 e7be 02db 953d 8b2b 92bd
00000140: 0bea 5ebd 84a1 48be 0689 12bf 0fe8 e1bd
00000150: c4e4 8cbe 170b d4be ecef 103d 83b8 0fbf
00000160: 9b93 9dbe 75df 93be 58b4 8e3e e997 4ebf
00000170: 80cb c4be b177 7fbe 3892 ad3e 0503 09be
00000180: a0d4 00bf 72c9 ddbe 93af 5bbe 8de6 13bf
00000190: 010c a8be a1fa 50be acc2 22bf 54a9 1dbd
000001a0: 4088 8abf b259 01bf c294 39bb b303 e8bd
000001b0: 693e 00be fa12 3d3e b169 a1bd ae06 bebe
000001c0: 76cd d0be 9332 85bf f64c f73e ad88 413d
000001d0: 2768 df3e a6d3 843e 1965 36bc f5f9 1ebd
000001e0: b1d9 60be 909d 593e 3682 893e 04d0 743e
000001f0: 2af1 f03d 2bfc 2dbf 7d97 893d c2c8 993e
00000200: ed9a 7a3d e13c e0be 609a 92be 4590 9dbd
00000210: 16d5 6f3c edd5 223d e873 023e b9ca a83e
00000220: 4718 c33d 4d91 433e 4874 733e edca d3be
00000230: f696 69be 9ce0 aebd e734 5bbb 0e40 2a3e
00000240: e9a0 533e f7b2 f93d 0d77 ae3d b39e 913c
00000250: 4566 8c3e 6586 053f 9db2 af3d 562f 413e
00000260: 4d0f cabe 1157 893e 387a e23d e1ee e2bf
00000270: 2118 763d 0df6 0ebe fe63 98be b905 00bd
00000280: ca7c d3bd a768 a63d e524 26bd 400d 003e
00000290: 1995 8e3e 3d44 a13c 9b17 8cbd 3016 10bf
000002a0: 1759 993e b331 503e c0e7 acbd c8cd 993b
000002b0: 8d0a ac3d a231 b93e c438 66bd 7107 253d
000002c0: 621b 6dbf 68b2 183e 1391 ca3e 0bcf 223e
000002d0: cd43 a4bd 29b9 163e 667a 8f3d af84 99bd
000002e0: 7ae3 ce3e 9204 88bd 1c66 183d f47c 38be
000002f0: 55b6 d23e 1f09 353f 2306 27be bd57 dfbd
00000300: ece7 a0be 7e0b b83d 640c cf3e e5bf 1ebe
00000310: 31df 0c3f 126d 663e 485e 2cbd 2152 5c3e
00000320: 00a6 31bd aa19 c8be 880d 9a3d 54a1 9ebd
00000330: b23a 51bd 70f3 303d fd27 58bd 7748 983e
00000340: 97e0 683e 747a 06bd c208 673e bf36 a13e
00000350: ff98 253e bc13 10be a3c6 c13d cf2e c1be
00000360: d486 bfbe 3444 853d 9e72 0ebe 0e81 9c3e
00000370: bcad 1fbe 812e 80be ec9a b03e 40b0 6abe
00000380: 581d 7e3e d1e7 03ba 8870 5f3d d2eb 333e
00000390: 1d2e ba3d bd05 51be 31a8 a7be 34ed 11bd
000003a0: daf2 74be 023b 9abe c489 853d f3a5 f03e
000003b0: aa2d 933d 0719 2abe 2c55 d7be a1e4 203e
000003c0: bb26 403e e777 2d3d 3c25 0c3e 1dd2 4dba
000003d0: d2a2 a83c 2aa3 1b3d 88d3 00bd 5064 1b3e
000003e0: b69c 9d3d f10f e3bd c548 4e3c 7968 ae3e
000003f0: d657 ef3d 31d8 7a3e c0d3 943d a6f1 90be

fc2.bias f4 [64]
-0.0724026 -0.000441496 0.039869487 0.19937281 -0.063752264 -0.07315921 -0.061413657 0.017062731
-0.099345 0.01851221 -0.018606875 0.30119348 0.018751886 -0.11239255 -0.3269084 -0.11894127
-0.13317217 -0.028185572 0.1502322 -0.089578204 0.077818066 -0.15159297 -0.08651593 0.4723453
-0.16055688 0.18934166 -0.21935219 0.18405774 0.22341585 -0.07629896 -0.08262361 -0.18779805
-0.0068327044 -0.0017806791 0.039583277 -0.30870926 -0.061042342 0.24190868 -0.03685785 0.1582142
0.19481911 0.1808419 -0.018777048 -0.029938675 0.047078904 0.17916858 -0.22975832 0.30339047
-0.24664316 -0.123825505 -0.018603314 -0.09103214 0.17745166 0.2947701 -0.14250997 -0.045367483
-0.2550765 0.40383258 0.02002241 -0.010618346 -0.03572317 0.12735243 0.30909592 0.002268035
00000000: d047 94bd 9778 e7b9 304e 233d 6328 4c3e
00000010: 8c90 82bd 7fd4 95bd e38c 7bbd 24c7 8b3c
00000020: 6475 cbbd eba6 973c 726d 98bc 0836 9a3e
00000030: 8e9d 993c 112e e6bd 8a60 a7be 7b97 f3bd
00000040: 495e 08be 6ee5 e6bc 78d6 193e c774 b7bd
00000050: 145f 9f3d 303b 1bbe 442f b1bd 3ed7 f13e
00000060: 0669 24be c8e2 413e dc9d 60be a279 3c3e
00000070: 20c7 643e a142 9cbd 9136 a9bd 224e 40be
00000080: e1e4 dfbb ad65 e9ba 1322 223d 240f 9ebe
00000090: 8907 7abd e9b6 773e 42f8 16bd e702 223e
000000a0: a97e 473e 9e2e 393e 53d2 99bc f441 f5bc
000000b0: cfd5 403d f877 373e c445 6bbe ff55 9b3e
000000c0: 0690 7cbe 3a98 fdbd fa65 98bc 0f6f babd
000000d0: e3b5 353e 1bec 963e 22ee 11be 41d3 39bd
000000e0: 6399 82be 25c3 ce3e 0a06 a43c 92f8 2dbc
000000f0: 7552 12bd ad68 023e d241 9e3e 50a3 143b

fc3.weight f4 [64, 64]
-0.14320543 -0.07380284 -0.2725796 0.16159637 -0.00025946987 0.40532607 -0.24728267 0.61803967
-1.9044598 -0.3271632 0.106895186 0.15622357 -0.9860068 0.118700124 -0.15628424 -0.1882996
-0.3473502 -0.0968873 -0.8288672 -0.21016048 0.29674932 -0.11709253 -0.4478792 -0.16433057
0.14849593 0.16056816 -0.41761136 -0.1791183 0.19815314 -0.6352014 -0.39557785 -0.43622667
-0.46769524 0.44008416 -0.28280315 -0.44698113 0.026992746 -0.10960553 -0.30298176 -0.008975914
-0.13131842 -0.477845 0.01318159 0.30004176 -0.35544696 0.12397642 0.11606688 -0.12874313
-0.035188146 -0.3917014 0.3186486 0.025512505 -0.056695215 0.31221867 0.29354715 0.083283156
-0.38367587 0.22614351 -0.32454005 0.2533015 0.15352532 -0.22661369 0.25117186 -0.3374335
-0.67814696 0.112255424 -0.0052746534 -0.03127203 -0.52528936 0.27194786 -0.06556195 0.22040123
-0.9040121 -1.1686833 0.1323237 0.28262532 0.2907586 0.021983894 0.41849607 -0.20970833
-0.528031 1.0294265 -0.63207465 0.05585557 0.43376765 -0.18996128 0.93217266 0.21693352
0.41139197 -0.75632155 0.09891954 -0.785336 -0.05764955 0.46724862 -0.07164436 0.08857141
0.22770132 0.41174775 -0.32504457 0.34414926 -0.6770842 -0.10873555 -0.04702895 0.75863856
-0.47998556 -0.11288375 0.29684386 0.019144297 -0.2747856 -0.07860968 0.44171056 0.33378384
0.28062928 0.7094467 0.24948749 -0.07288263 -0.51217866 -0.2119188 0.36367595 -0.19359444
0.8350538 0.30586317 -0.75099033 0.026872737 0.30749837 0.20378421 0.03313074 0.37012288
-1.0579807 0.35122097 0.21241465 0.18198654 -0.8219884 -0.046744827 0.37863696 0.3405747
-0.970434 -0.92848206 0.21860245 0.19897534 0.24260888 0.5407677 0.44378117 0.03918651
-0.9936851 0.4364233 -0.4563884 -0.2472186 0.16356795 0.39030316 0.6290152 0.25184405
0.011165632 -0.15034367 0.02442918 -0.9607752 0.0739712 0.7125684 0.105652384 0.59541094
0.3857123 0.14682275 -0.8270623 0.8503446 -0.74235165 0.37532783 0.13572636 0.829457
-0.63920766 -0.073585875 -0.025979219 0.101557314 0.09953111 -0.18399046 0.74604875 0.05724321
0.11227871 0.75786537 0.24321432 -0.008965932 -0.33902434 -0.5528484 -0.062244866 -0.203235
0.8702789 0.042745348 -1.1543784 0.08571051 0.30797085 0.29251415 0.4200721 0.27475357
0.3570663 -0.078716375 0.021556677 -0.42465043 0.19862531 0.3409496 0.016560938 -1.0137694
0.007253246 -0.17939994 0.103502646 -0.0063845273 -0.14421356 -0.2130566 -0.79900116 -0.12692825
0.6832851 -0.093334846 0.11870733 -0.20127106 -0.13332091 -0.20585407 -0.45666602 0.22041418
-0.17319402 -0.6551656 -0.018798713 0.17336997 -0.1515107 -0.063191526 -0.014433618 0.14701661
-0.41739294 0.31058195 -0.0721045 -0.19884339 0.28734025 -0.119744636 -0.5479891 0.4159781
-0.24232845 0.40312046 -0.2067105 -0.26510313 -0.77559024 0.2626021 0.9675415 0.30054042
-0.048202902 -0.51583236 -0.13996468 0.38456118 0.048522167 -0.009033464 -0.04860498 0.2592999
0.33750412 -0.28048208 -0.13768165 -0.20981702 0.2543742 -0.050774805 -0.098348215 0.10367293
00000000: 72a4 12be f225 97bd 8e8f 8bbe 8579 253e
00000010: 7509 88b9 e686 cf3e ab37 7dbe d937 1e3f
00000020: 57c5 f3bf ef81 a7be ddeb da3d 12f9 1f3e
00000030: f16a 7cbf 0d19 f33d fa08 20be 9cd1 40be
00000040: e3d7 b1be d96c c6bd a430 54bf 4f34 57be
00000050: 87ef 973e 35ce efbd 6c50 e5be 4646 28be
00000060: 510f 183e fb6b 243e 28d1 d5be ca6a 37be
00000070: a8e8 4a3e 8f9c 22bf 2e89 cabe 1a59 dfbe
00000080: c075 efbe b652 e13e 93cb 90be b6da e4be
00000090: e41f dd3c dd78 e0bd 6d20 9bbe b60f 13bc
000000a0: 5678 06be 1aa8 f4be 98f7 573c 139f 993e
000000b0: 25fd b5be 59e7 fd3d 79b4 ed3d 3dd5 03be
000000c0: 7221 10bd 168d c8be e925 a33e 9aff d03c
000000d0: 3e39 68bd 20db 9f3e d04b 963e 5c90 aa3d
000000e0: 2a71 c4be 2a92 673e 1d2a a6be bcb0 813e
000000f0: be35 1d3e 6b0d 68be 9999 803e 15c4 acbe
00000100: 0a9b 2dbf 2ce6 e53d 00d7 acbb 1a17 00bd
00000110: 5d79 06bf c03c 8b3e 5845 86bd dcb0 613e
00000120: 566d 67bf 6a97 95bf dd7f 073e 44b4 903e
00000130: 50de 943e 9117 b43c 1e45 d63e c8bd 56be
00000140: 0a2d 07bf 3fc4 833f a5cf 21bf cfc8 643d
00000150: cb16 de3e 3685 42be dea2 6e3f d223 5e3e
00000160: f8a1 d23e 4a9e 41bf 5496 ca3d c80b 49bf
00000170: ef21 6cbd 363b ef3e 47ba 92bd ed64 b53d
00000180: 892a 693e 9ad0 d23e 3e6c a6be 5534 b03e
00000190: 6455 2dbf beb0 debd 6ea1 40bd 2336 423f
000001a0: abc0 f5be 982f e7bd ebfb 973e 80d4 9c3c
000001b0: b3b0 8cbe 1dfe a0bd e327 e23e b7e5 aa3e
000001c0: a4ae 8f3e 4d9e 353f a679 7f3e 7d43 95bd
000001d0: 241e 03bf 3e01 59be bc33 ba3e 9f3d 46be
000001e0: 16c6 553f 199a 9c3e e740 40bf 3724 dc3c
000001f0: 6d70 9d3e cfac 503e 19b4 073d bf80 bd3e
00000200: e96b 87bf 3cd3 b33e 3a83 593e ae5a 3a3e
00000210: d56d 52bf 8177 3fbd b4dc c13e cf5f ae3e
00000220: 5d6e 78bf 00b1 6dbf 52d9 5f3e 31c0 4b3e
00000230: 766e 783e c16f 0a3f 4937 e33e 0982 203d
00000240: 2662 7ebf e072 df3e beab e9be df26 7dbe
00000250: 5b7e 273e d1d5 c73e 2407 213f b4f1 803e
00000260: 0ef0 363c b1f3 19be b41f c83c 5df5 75bf
00000270: 367e 973d e26a 363f 4760 d83d da6c 183f
00000280: 157c c53e b458 163e 5bba 53bf 2fb0 593f
00000290: c20a 3ebf f82a c03e dafb 0a3e 4b57 543f
000002a0: 1da3 23bf 31b4 96bd 5fd2 d4bc 48fd cf3d
000002b0: f7d6 cb3d ff67 3cbe 0dfd 3e3f db77 6a3d
000002c0: 61f2 e53d 7703 423f 2d0d 793e d8e5 12bc
000002d0: 9994 adbe 7987 0dbf 79f4 7ebd d61c 50be
000002e0: 99ca 5e3f bf15 2f3d acc2 93bf fe88 af3d
000002f0: 5bae 9d3e 6ac4 953e b113 d73e 80ac 8c3e
00000300: 65d1 b63e 0d36 a1bd a197 b03c c86b d9be
00000310: 6f64 4b3e f290 ae3e ceaa 873c 32c3 81bf
00000320: a3ac ed3b 9eb4 37be 32f9 d33d 4c35 d1bb
00000330: b8ac 13be 822b 5abe 578b 4cbf 7bf9 01be
00000340: c6eb 2e3f 5726 bfbd d41c f33d 001a 4ebe
00000350: 4785 08be 69cb 52be 21d0 e9be 41b4 613e
00000360: c659 31be efb8 27bf c2ff 99bc e687 313e
00000370: 9f25 1bbe 8f6a 81bd fb7a 6cbc 868b 163e
00000380: 87b4 d5be 9904 9f3e 86ab 93bd 9a9d 4bbe
00000390: 431e 933e ad3c f5bd 0349 0cbf 15fb d43e
000003a0: f324 78be ce65 ce3e ebab 53be 99bb 87be
000003b0: 158d 46bf c873 863e cdb0 773f 6fe0 993e
000003c0: 6870 45bd 970d 04bf e752 0fbe 34e5 c43e
000003d0: 2ebf 463d 1801 14bc 0416 47bd f5c2 843e
000003e0: 57cd ac3e 599b 8fbe 6bfc 0cbe 46da 56be
000003f0: 563d 823e 3ef9 4fbd ca6a c9bd 7952 d43d

fc3.bias f4 [64]
0.070745185 0.108956486 -0.013372614 -0.034041647 0.41034687 0.38768655 -0.06949355 0.088097796
-0.2820671 -0.44452453 -0.057221636 -0.2348851 -0.24831556 -0.04865829 -0.04743792 -0.122254126
-0.11747535 -0.13012569 0.08827806 0.17462124 -0.18803014 -0.03806859 -0.17591937 0.16815439
0.024077252 0.32617646 0.3450981 0.18194027 -0.12302399 -0.014586113 0.41965923 0.2907941
0.07977427 -0.09727927 0.3337482 0.43290502 0.24791107 0.12351909 0.18084241 0.013879105
0.32990307 -0.21045162 0.18725629 0.051002443 -0.12497186 -0.0074523794 0.22583617 -0.07625044
0.17129989 -0.20880349 0.0877962 0.17476884 -0.12643759 0.10976514 0.24680302 0.17868368
0.5575663 -0.32757422 0.19288665 -0.17955802 0.20938633 0.056278795 -0.0348972 -0.101922594
00000000: dae2 903d 9424 df3d cf18 5bbc 416f 0bbd
00000010: fc18 d23e da7e c63e a252 8ebd 9e6c b43d
00000020: 196b 90be b898 e3be 3c61 6abd b885 70be
00000030: 6f46 7ebe ea4d 47bd 444e 42bd 5f60 fabd
00000040: eb96 f0bd ab3f 05be 21cb b43d e9cf 323e
00000050: f98a 40be cfed 1bbd 3524 34be aa30 2c3e
00000060: a83d c53c 9a00 a73e b3b0 b03e 8d4e 3a3e
00000070: 00f4 fbbd 98fa 6ebc 93dd d63e f7e2 943e
00000080: b160 a33d 5b3a c7bd 0be1 aa3e baa5 dd3e
00000090: 66dc 7d3e 94f7 fc3d c12e 393e 3065 633c
000000a0: 0ee9 a83e a180 57be 1dc0 3f3e f0e7 503d
000000b0: 3ff1 ffbd 1733 f4bb 9941 673e 3129 9cbd
000000c0: 3d69 2f3e 95d0 55be 7ece b33d 9af6 323e
000000d0: db78 01be 8ccc e03d eeb9 7c3e dbf8 363e
000000e0: aabc 0e3f cfb7 a7be 1484 453e 0fde 37be
000000f0: 5f69 563e 9884 663d 5ef0 0ebd cbbc d0bd

fc4.weight f4 [4, 64]
0.36114854 -0.49113002 -0.49927008 -0.026691213 0.8387196 0.9366342 1.0085781 0.6051344
-0.41208807 -0.38240764 1.0944725 -0.6663251 -0.551473 -0.36703557 -0.9155105 0.040726848
-0.4131247 -0.40440175 -0.12070666 0.76667464 -0.42232704 0.057510927 -0.5929761 0.9736745
-0.5217626 -0.6825084 0.963511 -0.22887716 -0.5700429 -0.21672966 0.4443364 0.54553473
0.014849061 -0.6543175 0.73506916 0.25714022 -0.42695442 0.35190514 0.23930821 -0.5281672
-0.3434919 -0.19886036 0.9548478 -0.59554875 -0.17662963 -1.0415214 -0.49060887 0.6109234
-0.72221756 -0.34090155 0.08648855 0.96550846 -0.63693845 1.8093874 0.87268925 -0.31127727
-0.58140385 -0.5819924 0.82272714 -0.37859538 1.3728073 -0.46759835 0.044286665 -0.5071018
1.0715541 -0.8406552 -0.58366525 0.08093799 0.80633134 0.8945923 0.64338535 0.69820255
-0.624998 -0.55936766 1.0593516 -0.74626696 -0.21912615 -0.24944173 -0.5103959 -0.28316674
-0.37126616 -0.18096279 0.19082959 0.43199974 -0.3665012 -0.010745899 -0.41562694 1.0594833
-0.4899704 -0.8345281 0.9465792 0.19238439 -0.71471244 -0.1768814 0.4816376 0.7440215
0.07852234 -0.60902023 0.7083014 0.8018893 -0.8185515 -0.09920218 -0.22108687 -0.52954185
-0.2859976 -0.91567427 0.9251655 -0.6266649 -0.56538874 -1.5046062 -0.65534544 0.68387145
-0.70980424 -0.191466 0.068697885 0.9877197 -0.53111607 1.8173413 0.9435078 -0.18648776
0.06289853 -0.3739112 0.9109742 -0.73270124 1.3077782 -0.7566656 -0.108035326 -0.559943
-1.198901 -0.39913183 -0.29011092 -0.42244336 0.76861477 0.7884193 0.85717636 0.35734028
-0.6416288 -0.5784333 1.1201813 -0.73139405 -0.42921385 -0.48038355 -0.794847 -0.4021604
-0.42023766 -0.24244407 -0.5085516 0.7102879 -0.22852588 -0.07627222 -0.6289623 0.6511377
-0.6411269 -0.8091826 0.93994 -0.12303685 -0.5445809 -0.12071735 0.7389396 0.9890304
-0.00411733 -0.58497095 0.6944388 0.36131105 -0.27200955 0.535544 -0.18061644 -0.5096998
0.3562499 -1.0237695 1.0546243 -0.88393795 -0.48418278 -0.9659835 0.37218118 0.7993984
-0.53147674 -0.35580963 0.0874407 0.29550624 -0.7836479 1.8946692 0.89934397 -0.23706341
0.97640646 -0.74062836 0.59672517 -1.0438703 1.5283825 0.04712487 -0.21611086 -0.7313408
0.42282024 -0.29801676 -0.26327327 0.64622706 0.94254684 0.946552 1.3598012 -0.6513159
-0.4494575 -0.8623232 0.70166785 -0.6714502 -0.2738827 -0.2854554 -0.7754076 -0.48066074
-0.46848142 -0.5286232 -0.22074136 0.9157914 -0.24606441 -0.10715237 -0.34676334 1.0430082
-0.44239134 -0.6757031 0.93621886 -0.32752046 -0.4315066 -0.49885932 0.23812413 0.6696085
-0.0008697871 -0.7131144 0.73981285 -0.7661477 -0.41888183 0.52286285 -0.6751249 -0.8243988
-0.2241223 -1.3337969 0.8012519 -0.6260256 -0.3650508 -0.61059606 -0.27969766 0.52856076
-0.4183236 -0.4391468 -0.08385017 0.41028285 -0.71265924 1.5570343 0.77521694 -0.664717
-0.29586026 -0.6605935 0.89081043 -0.8329558 1.172219 -0.42407802 0.53926843 -0.47414353
00000000: 76e8 b83e 6575 fbbe 54a0 ffbe 88a7 dabc
00000010: 54b6 563f 42c7 6f3f 1619 813f 17ea 1a3f
00000020: 35fd d2be efca c3be ad17 8c3f 4894 2abf
00000030: 562d 0dbf 16ec bbbe e55e 6abf 32d1 263d
00000040: 1585 d3be bf0d cfbe 0e35 f7bd ca44 443f
00000050: 403b d8be 9490 6b3d 48cd 17bf bb42 793f
00000060: 3c92 05bf dfb8 2ebf a8a8 763f c65e 6abe
00000070: 55ee 11bf 61ee 5dbe 1080 e33e 2aa8 0b3f
00000080: 7a49 733c 5a81 27bf 7e2d 3c3f e2a7 833e
00000090: c599 dabe e92c b43e 360d 753e f735 07bf
000000a0: 2cde afbe 0da2 4bbe e870 743f e275 18bf
000000b0: 66de 34be 9350 85bf 1631 fbbe 7a65 1c3f
000000c0: 40e3 38bf a68a aebe e920 b13d 902b 773f
000000d0: 660e 23bf 029a e73f 9068 5f3f bc5f 9fbe
000000e0: e2d6 14bf 74fd 14bf 3f9e 523f 41d7 c1be
000000f0: 26b8 af3f 0d69 efbe ef65 353d 6cd1 01bf
00000100: af28 893f 2e35 57bf 166b 15bf d1c2 a53d
00000110: bb6b 4e3f 0004 653f e7b4 243f 67bd 323f
00000120: deff 1fbf b832 0fbf d598 873f 5a0b 3fbf
00000130: 9b62 60be a76d 7fbe 4ea9 02bf 3bfb 90be
00000140: 9916 bebe 4f4e 39be d568 433e 122f dd3e
00000150: 0ca6 bbbe 910f 30bc 0ecd d4be 269d 873f
00000160: 66dd fabe a2a3 55bf 0453 723f 6a00 453e
00000170: 65f7 36bf 6620 35be 3499 f63e 3178 3e3f
00000180: 52d0 a03d c0e8 1bbf 3e53 353f 9e48 4d3f
00000190: 978c 51bf 832a cbbd 9964 62be 0e90 07bf
000001a0: 476e 92be a169 6abf a5d7 6c3f 1c6d 20bf
000001b0: 51bd 10bf f096 c0bf b8c4 27bf 3312 2f3f
000001c0: bbb5 35bf aa0f 44be 7ab1 8c3d 33db 7c3f
000001d0: 39f7 07bf a49e e83f ba89 713f a6f6 3ebe
000001e0: f2d0 803d 4a71 bfbe 9b35 693f 4f92 3bbf
000001f0: 4765 a73f d6b4 41bf a041 ddbd 6d58 0fbf
00000200: 9775 99bf 025b ccbe 6b89 94be 7f4a d8be
00000210: f0c3 443f d9d5 493f e96f 5b3f 4ef5 b63e
00000220: c941 24bf 3414 14bf 1a62 8f3f a43c 3bbf
00000230: ebc1 dbbe d5f4 f5be 187b 4bbf f8e7 cdbe
00000240: 6429 d7be 4243 78be 7030 02bf 6ed5 353f
00000250: b002 6abe 9c34 9cbd ac03 21bf f6b0 263f
00000260: e420 24bf 9726 4fbf e89f 703f befa fbbd
00000270: a769 0bbf a83a f7bd 252b 3d3f 1931 7d3f
00000280: abea 86bb a8c0 15bf bec6 313f c3fd b83e
00000290: d644 8bbe 6919 093f 84f3 38be b07b 02bf
000002a0: 6366 b63e e10a 83bf eefd 863f c249 62bf
000002b0: cee6 f7be b24a 77bf 888e be3e 60a5 4c3f
000002c0: dc0e 08bf ae2c b6be 1c14 b33d 984c 973e
000002d0: 269d 48bf 8584 f23f 683b 663f c0c0 72be
000002e0: c6f5 793f d299 3dbf fbc2 183f 8b9d 85bf
000002f0: 0aa2 c33f 0206 413d 2a4c 5dbe 2739 3bbf
00000300: e57b d83e a795 98be c1cb 86be 236f 253f
00000310: c04a 713f 3b51 723f f70d ae3f a4bc 26bf
00000320: 4b1f e6be 37c1 5cbf 81a0 333f 29e4 2bbf
00000330: 5a3a 8cbe 3627 92be 1d81 46bf 2a19 f6be
00000340: ccdc efbe da53 07bf 060a 62be 4e71 6a3f
00000350: 4ff8 7bbe b472 dbbd f78a b1be 4b81 853f
00000360: 1e81 e2be e1fa 2cbf 0aac 6f3f c3b0 a7be
00000370: 6fee dcbe 7d6a ffbe d0d6 733e 766b 2b3f
00000380: 6d02 64ba aa8e 36bf 6064 3d3f 4122 44bf
00000390: ae77 d6be 57da 053f fcd4 2cbf cd0b 53bf
000003a0: 5180 65be dbb9 aabf d81e 4d3f 3743 20bf
000003b0: f0e7 babe 0650 1cbf 8834 8fbe c24f 073f
000003c0: 832e d6be d9d7 e0be a3b9 abbd 9810 d23e
000003d0: d670 36bf e64c c73f 9e74 463f e52a 2abf
000003e0: ff7a 97be a81c 29bf 270c 643f 973c 55bf
000003f0: 460b 963f c120 d9be 7f0d 0a3f f1c2 f2be

fc4.bias f4 [4]
-0.03784502 0.1625807 0.20986943 0.06421225
00000000: 6103 1bbd 8e7b 263e 03e8 563e b681 833d
