experiments/LunarLander-v2_DQN/dqn.pth (torch, 57511 bytes, 8 tensors)

fc1.weight f4 [128, 8]
000000 0e fa 1f 3f 62 ee aa be 5c 69 81 3e 71 30 bd be
       0.6249093 -0.33384997 0.25275695 -0.3695102
000010 0e 45 29 be 66 64 98 bf 61 83 7f 3e 93 c6 e1 3c
       -0.16530249 -1.1905639 0.24952461 0.027560508
000020 51 3c 1d 3f 57 ac c3 3c bc c9 02 3e 71 c5 b2 be
       0.6142016 0.023885889 0.12772268 -0.3491626
000030 c7 b4 d3 3f a2 cd a1 3e 36 cf 62 be b7 43 a8 bf
       1.6539544 0.31602198 -0.22149357 -1.3145665
000040 50 74 00 3f 7a 02 1f 3f 7d 02 d9 3e 0c d3 16 3f
       0.5017748 0.62113154 0.4238471 0.5891578
000050 6e fe ab 3e 37 ae 19 bf 4e 59 6b bf 51 fb 92 bd
       0.33592552 -0.60031456 -0.91933143 -0.07176841
000060 05 27 35 3f be f5 bf 3e 06 80 46 3e 83 02 5c bf
       0.70762664 0.37492174 0.19384775 -0.8594133
000070 d5 4c 6f bf 01 5e 33 bf 95 26 2c bf c0 18 22 3e
       -0.9347661 -0.70065314 -0.6724637 0.15829754
000080 e9 e9 d3 3a 8d ba 34 3f e7 0b 44 3e 1e b5 56 3f
       0.0016167733 0.70597154 0.19145165 0.8387011
000090 21 b2 d0 bd 91 ab b1 bf de c4 b5 3e 2e 61 3c be
       -0.101902254 -1.3880483 0.3550176 -0.18396446
0000a0 e7 63 49 bf e1 ed 8d 3f 75 ff ea bd f1 6f 1d bf
       -0.78668064 1.108822 -0.11474506 -0.61498934
0000b0 0a 9a 08 3f ae 5c f8 bd cf 8b ec 3d f6 94 58 be
       0.53360045 -0.12127052 0.11550104 -0.21150574
0000c0 98 cb b0 3f 5d 34 16 3f 8b 47 c8 bd ea 62 c9 3e
       1.3812132 0.5867365 -0.09779271 0.39333278
0000d0 25 49 e2 3e f4 37 27 3e 14 8d ab bd 59 7b 62 3f
       0.4419643 0.16329938 -0.08376518 0.88469464
0000e0 b4 93 c7 bf 1b 7a 7f 3e 16 bf 2a bf fd c4 44 3e
       -1.559195 0.24948923 -0.66697824 0.1921577
0000f0 e2 26 0c bf b9 ba 22 3f d7 2d 83 bf b0 8e 09 bd
       -0.5474683 0.63566166 -1.0248364 -0.033583343
000100 a2 19 a1 3e d2 dd 53 bc 0e 00 af 3e bf 10 0d 3f
       0.3146487 -0.012931304 0.3417973 0.5510368
000110 5e da f1 be 07 e2 e8 3e 10 0d a9 bd 5a 70 c1 3e
       -0.47236913 0.45484945 -0.082544446 0.3778103
000120 ad 21 8a 3f ec af 63 bb 85 02 65 bf d7 47 1f bf
       1.0791527 -0.0034742309 -0.8945697 -0.62218994
000130 59 e2 ee bd 68 e6 16 3e d5 7f 8d be f1 79 a3 3e
       -0.11664266 0.1473633 -0.2763659 0.3192897
000140 61 82 93 3e c6 02 07 3f 9d 71 8f 3d 97 f8 90 3d
       0.2881041 0.52738607 0.07004092 0.07078665
000150 87 fb aa bf 77 c5 f9 be 98 a1 95 be d6 b5 54 3f
       -1.335801 -0.48783466 -0.2922485 0.8308996
000160 ec f1 a4 3e 9d f4 37 be 16 c8 b8 be 17 70 56 bf
       0.32215822 -0.17964406 -0.36090153 -0.83764786
000170 ed 4d 52 be 63 e6 59 be 7d 68 ba be 59 9b f4 3d
       -0.20537539 -0.21279292 -0.36407843 0.11943693
000180 5a d9 8c 3e ce 6c 58 bf 56 67 bd be 35 13 7c 3e
       0.27509576 -0.8454102 -0.36992902 0.24616702
000190 87 1a 58 3f be 8b b5 3e 64 c6 b4 3e 08 e4 eb bd
       0.8441548 0.35458177 0.3530761 -0.11518103
0001a0 73 71 50 bf 67 3b bb 3e e5 e9 8e bf 32 53 6b 3e
       -0.8142311 0.36568758 -1.1165129 0.22980955
0001b0 7c b3 90 bf c9 1a d0 3e 1a 94 15 3e 41 98 be 3e
       -1.1304774 0.40645435 0.14607278 0.37225536
0001c0 a7 11 80 bf 6f 29 87 3e e3 69 38 bf 3f 0c b8 3e
       -1.0005387 0.263988 -0.7203657 0.35946843
0001d0 98 55 c1 3f c5 db 2d bf 6c de 3e 3f 65 2f ac 3e
       1.5104246 -0.67913467 0.7455814 0.3362991
0001e0 52 3b 3f 3f d6 97 03 3e 4f b1 90 3f 3e 9a 27 be
       0.7469989 0.1285089 1.130411 -0.16367432
0001f0 64 76 18 3e ff a9 88 3f b7 cc 07 3f 04 b1 5c bf
       0.14888912 1.0676879 0.53046745 -0.86207604
000200 a8 c0 9e 3e 39 ff 5a 3e 03 97 7d 3f 37 de 1b bf
       0.3100636 0.21386422 0.9905855 -0.6088595
000210 81 1a 53 bc e2 75 f9 be ec d1 f3 3c 51 97 b7 be
       -0.012884737 -0.4872275 0.029763184 -0.35857633
000220 55 55 d3 bf a6 d0 9f be 66 f6 e6 3e a8 6b 83 bf
       -1.6510416 -0.31213874 0.45109862 -1.0267229
000230 8b 20 04 bf c5 22 01 bf f0 b7 16 3f e6 67 3c 3f
       -0.51612157 -0.5044368 0.58874416 0.73596036
000240 32 01 e9 be 75 ff 0f 3b 79 68 15 3b 49 70 18 bf
       -0.45508724 0.0021972333 0.0022797866 -0.59546334
000250 8e ef 0d be 89 a9 8d bf dd da 41 be a0 3d 3a 3e
       -0.13860914 -1.1067363 -0.18931146 0.1818757
000260 12 65 4a 3e c2 89 c9 3e 11 79 d0 be d0 0b e6 be
       0.19765118 0.39362913 -0.40717366 -0.44930887
000270 51 4d 11 bd fc 9f 7f 3f 51 32 0a bf 95 b6 4e bf
       -0.035474125 0.9985349 -0.53983027 -0.8074735
000280 54 dd b2 3f 45 60 a8 be b9 b7 b0 bd 2f 98 2c bf
       1.3973794 -0.32885948 -0.08628792 -0.67419714
000290 c3 84 34 3f 0d 42 90 3f f5 22 13 be 0c 4a 67 bd
       0.7051508 1.1270157 -0.14368804 -0.0564671
0002a0 fe 67 71 be 13 8a 30 3e c5 27 7c 3e 5c ba 2d bf
       -0.23574826 0.17240171 0.24624546 -0.67862487
0002b0 61 77 d4 be 41 67 3d bf e8 fe fa be 6c e4 41 bc
       -0.4149733 -0.7398568 -0.49022603 -0.011834245
0002c0 fa a2 2c 3f 7f 89 ad bf fd 3d 78 3e ac 49 dc 3e
       0.6743618 -1.3557585 0.24242397 0.43024957
0002d0 11 84 66 3f 70 ab a1 3d 09 30 02 3f 00 4a 50 3c
       0.9004527 0.07894027 0.50854546 0.0127129555
0002e0 8c 45 a5 3f 9b 35 72 be 70 d0 09 3f 18 f6 b0 3e
       1.2911849 -0.23653261 0.53833675 0.34562755
0002f0 bb 9d b8 3e 12 c7 64 3f 4b 01 81 3f 93 97 2f 3f
       0.3605784 0.8936626 1.007852 0.6859066
000300 ae 52 90 3e 0a 17 47 3f 7e c0 58 bf 0a a3 a5 3f
       0.2818808 0.7776953 -0.8466872 1.294038
000310 bd ee 76 be d7 88 28 bf ac e1 da be 95 01 1f bf
       -0.24114509 -0.658338 -0.427503 -0.6211179
000320 59 98 51 3e 03 87 60 bf e4 25 16 3e f9 84 04 bf
       0.20468272 -0.8770601 0.14662892 -0.517654
000330 a2 4f 35 bf 72 e5 46 3f 69 8a 1a be bd f5 b2 bf
       -0.70824635 0.77693856 -0.15091862 -1.3981243
000340 79 47 8f be 9d 17 14 c0 90 31 0f 3f 2f e8 e7 3e
       -0.27984217 -2.3139412 0.55935 0.4529433
000350 e2 52 35 3f 93 25 69 be b9 f5 5e 3f e4 8b 04 3f
       0.70829594 -0.2276824 0.87093693 0.51775956
000360 e0 69 a5 3e bb 07 52 bf 5c 3e fe be a0 1d af 3f
       0.3230734 -0.82043046 -0.4965695 1.3680916
000370 02 e8 10 bd a3 55 a7 be 5d 9e c4 be 3d 22 c8 3e
       -0.03537751 -0.32682523 -0.38402072 0.39088622
000380 57 d5 17 3f 1b 62 20 3f 51 96 42 3f 55 c9 27 bf
       0.59309906 0.626497 0.76010615 -0.65541583
000390 37 34 fb 3e b2 4a d1 3e c2 6a 9d bd 14 d6 00 bf
       0.49063274 0.408773 -0.07686378 -0.5032666
0003a0 73 dd d4 3e a0 4b 28 bf 02 2d 30 bf 77 71 38 3f
       0.41575202 -0.65740395 -0.68818676 0.72048134
0003b0 45 be 36 3e 2c bb a4 bb 32 70 d9 be 4e 64 92 3f
       0.1784602 -0.0050271954 -0.4246841 1.143686
0003c0 55 06 0d bf c8 b7 35 3f 72 cf 43 3f 4d 86 14 bf
       -0.55087787 0.7098355 0.7648841 -0.58017427
0003d0 a3 ce 49 bf fe e1 27 be 8c 5e 2f bf d8 e2 65 bf
       -0.7883093 -0.16394803 -0.6850364 -0.8979926
0003e0 b6 a5 2f 3f eb b6 98 3f 7f 7b f2 3c 52 31 fc 3e
       0.6861223 1.1930822 0.029599903 0.49256378
0003f0 4e 8f 6a 3f b3 bd b2 3e bc 84 3b 3e 6a 9f 49 bd
       0.91624916 0.34910354 0.18312353 -0.049224295

fc1.bias f4 [128]
000000 40 66 1c be 03 26 9e 3e 6c 6d fb 3d 10 6f ab bd
       -0.1527338 0.30888376 0.1227673 -0.08370793
000010 6c 6a cf 3e 0d f3 99 3e 00 96 b8 3e 29 c2 85 be
       0.4051088 0.30068246 0.3605194 -0.26124695
000020 ce c6 83 be 43 25 67 3e 83 f0 c1 bb e6 c5 78 bd
       -0.25737613 0.22572808 -0.005918564 -0.060735606
000030 fe d5 ab 3e 0b f5 85 3e 71 29 ab be 3d b9 9c bd
       0.335617 0.26163515 -0.33430055 -0.07652519
000040 a5 ce f6 3e cd 50 c5 3c bd d4 da 3e 09 95 1c 3e
       0.48204532 0.02408638 0.4274043 0.15291227
000050 bb bd 95 3e 5e d3 55 3f 66 7c 08 bf b8 5e 1c 3e
       0.29246315 0.83525646 -0.53314817 0.15270507
000060 58 be 0c 3f a9 0d 0e 3f 21 ef ce 3e 90 33 27 3e
       0.5497794 0.55489594 0.40416816 0.16328263
000070 bc 78 c8 bd 66 8d ed bd bc 6d 5e 3e dc 86 2d 3f
       -0.09788653 -0.11599235 0.21721548 0.67783904
000080 dd ce 10 3f f8 43 e2 bc b8 d9 09 3f cc 9c 12 3f
       0.5656565 -0.0276203 0.5384784 0.57270503
000090 8c 40 3c 3d bf 65 27 3e cf 7a 87 bd 1b c7 0d 3e
       0.045959994 0.16347407 -0.06615221 0.13845484
0000a0 55 5a 2c 3e d1 e3 f3 bc b9 7c 4e 3e 80 0d 5e 3e
       0.16831334 -0.029771717 0.20164765 0.21684837
0000b0 04 98 fb 3e 45 fa e6 bd b1 c3 2b be fd ef db 3e
       0.49139416 -0.11278204 -0.16773869 0.42956534
0000c0 0d 34 46 3e c9 d2 c7 3c 63 e0 aa bc e4 c3 57 bd
       0.19355793 0.024392502 -0.020858949 -0.05267705
0000d0 3e b8 9e 3e a7 72 ee 3d 51 69 44 be b1 bc 5f 3e
       0.3099994 0.11642962 -0.191808 0.21849324
0000e0 5c 07 a9 be 94 bf d3 bd 72 97 6e 3e a9 f9 7c 3e
       -0.33013427 -0.10339275 0.2329996 0.24704613
0000f0 38 96 4c be fa 51 74 be ee 62 4b 3e 24 6a 1e 3e
       -0.19979179 -0.23859397 0.19861957 0.15470177
000100 de 12 68 3e 78 0f 7b 3e d7 b8 c3 3e ba f6 33 be
       0.22663447 0.2451762 0.3822696 -0.17574587
000110 32 20 08 bf 1d 42 96 3e 99 60 26 3f 6d e1 8c be
       -0.53174126 0.29347315 0.64991146 -0.27515736
000120 e4 d4 25 3d 32 91 0a 3f 5a de 84 3e 58 53 26 3e
       0.04048623 0.541278 0.2595089 0.1624273
000130 3a a3 d8 bc d2 71 45 3e e4 c5 9f bd d6 22 5f 3e
       -0.02644502 0.192817 -0.078014165 0.21790633
000140 85 39 f2 3d 81 91 5b 3e 41 05 18 be 97 31 36 3e
       0.11827377 0.21442224 -0.14845754 0.17792355
000150 69 3b fc be 7b b3 f2 be 16 e0 b6 3d 56 76 e2 3e
       -0.49264076 -0.47402558 0.0892946 0.44230908
000160 b5 a3 0d 3f 14 07 f6 3d f6 90 e5 3e fe 18 22 bf
       0.5532792 0.12013069 0.4483716 -0.63319385
000170 2c e3 22 bd ef 48 9f 3e 95 fb c9 be e2 94 e0 be
       -0.03976743 0.3111033 -0.39449754 -0.4386359
000180 c3 a4 30 3f ec 55 9d 3e d7 94 5b 3d f9 9f 4c 3e
       0.69001406 0.30729616 0.05360874 0.199829
000190 69 1d 79 3e 99 cc d1 3e 5a f2 36 3e 7a ed 20 3f
       0.24327625 0.40976408 0.17865887 0.6286236
0001a0 61 df 63 3e 3a d4 14 3d fd b8 db bb 10 11 5d be
       0.22253181 0.036335208 -0.006705402 -0.2158854
0001b0 87 47 d9 3e 1b 11 ac 3d e3 b9 81 3e fa ec 4b 3e
       0.42437384 0.084017 0.25337133 0.19914618
0001c0 c6 58 42 3f 81 e8 2a 3e 03 9b fe be 93 fb 49 3e
       0.7591671 0.16690256 -0.4972764 0.19724874
0001d0 4e 0e 2a be 3a 20 c3 bd c9 86 42 be c0 40 d5 3e
       -0.1660702 -0.09527631 -0.18996729 0.41650963
0001e0 20 1c 8a 3d e1 85 3f 3e f7 a8 3f 3e f7 fe b2 be
       0.06743646 0.18703414 0.18716799 -0.34960148
0001f0 62 c2 bb 3e f4 1f 00 3f 39 9b 80 3e 2b 64 4a bd
       0.3667174 0.50048757 0.25118425 -0.049411934

fc2.weight f4 [64, 128]
000000 0f ed 25 bf bb da a7 bf 38 94 cb 3d 9f 89 83 3e
       -0.6481485 -1.3113626 0.0994038 0.25690934
000010 75 e0 99 3e c4 2d c5 bd a9 6c 99 be 31 7d af 3e
       0.3005406 -0.0962787 -0.29965714 0.342752
000020 8e b6 07 3f f5 67 d6 bd b2 3d db bd 44 a9 12 bf
       0.5301293 -0.10469047 -0.10705127 -0.5728953
000030 db dd fd bc 4c 51 05 3d b1 89 99 be 0c 2e d5 bc
       -0.030989578 0.032548234 -0.29987863 -0.026022933
000040 43 a8 39 bf 60 2b 9b bd 88 8f 19 bf d6 53 c9 be
       -0.7252237 -0.075766325 -0.59984636 -0.39321774
000050 41 21 8a be 49 d5 56 be f4 26 7f be f8 6b 2a be
       -0.26978496 -0.209798 -0.24917203 -0.1664275
000060 02 49 11 3c 9e bd 85 bf 5f 5f cf bb 47 f9 22 3f
       0.008867504 -1.0448492 -0.006328508 0.6366162
000070 e9 da 3a be fc b9 07 be 65 04 97 3e 85 ed 1a 3d
       -0.1824757 -0.13254541 0.2949554 0.037824173
000080 c2 9a d0 bd 4a 63 17 bd 74 60 93 bd 1b 52 9e be
       -0.10185768 -0.036959924 -0.07196131 -0.30922017
000090 69 d4 9f 3e 92 fb 68 be 00 f5 43 3e d1 1a e8 bd
       0.31216744 -0.22752216 0.19136429 -0.1133324
0000a0 54 9c ac 3d 51 4a 08 be 33 d4 9e be 9c 57 77 bd
       0.08428255 -0.133096 -0.3102127 -0.060386285
0000b0 f8 f5 b8 3d 42 f4 54 be b4 b5 a1 bd e7 39 32 bf
       0.0903129 -0.20796302 -0.07895985 -0.696196
0000c0 23 2e c4 3c ee 81 6a be eb 82 02 be c4 cd e2 bd
       0.023947781 -0.22901127 -0.12745254 -0.11074403
0000d0 fc 4a 16 bf e7 f4 9e 3d ba 70 0b 3c 3a 89 6d be
       -0.5870817 0.07761555 0.008510763 -0.23196879
0000e0 fe 72 56 3e 4c c0 a6 ba e9 ac cf bd fe 4a 88 3d
       0.20942304 -0.0012722104 -0.10140402 0.066549286
0000f0 d3 73 ad 3d e9 55 e4 3d 1f 8a 8c be ad fc ea 3a
       0.08469357 0.111491986 -0.27449128 0.0017928086
000100 fb 98 8e be c1 9f f5 3d c7 b1 46 bf 1b 08 29 bf
       -0.2785109 0.11993361 -0.77615017 -0.6602799
000110 38 8d af 3e ee f8 6f 3b b7 b9 e4 3d fe bc ef bc
       0.3428743 0.003661688 0.11168235 -0.029264923
000120 39 d0 4d bd e2 20 d7 be 3a 04 01 3d 0e 6c 9c 3e
       -0.050247405 -0.42017275 0.03149817 0.3055119
000130 43 ba 70 be f6 35 2e be d3 54 b3 3d 47 34 f3 be
       -0.23508553 -0.17012772 0.08756413 -0.47500822
000140 2c 7b db be b7 f8 3c be 3b a3 6b 3e f5 e9 0a 3f
       -0.4286741 -0.18454252 0.23011486 0.5426324
000150 9f 90 b2 3d bb 7e 76 be 25 d4 30 3e b7 94 26 3e
       0.087189905 -0.24071781 0.17268427 0.16267668
000160 c1 b2 06 bf 0e 57 2b bd 21 5a 69 bd b2 ed 70 bf
       -0.52616507 -0.04183107 -0.05697072 -0.94112694
000170 dc 15 c4 3d 31 b8 18 3d 16 01 9e bd 87 88 7d 3e
       0.09574482 0.037285034 -0.07715051 0.24759112
000180 7e ed 85 be 94 26 eb be 83 5f f8 bd 6c ef 09 bc
       -0.26157755 -0.4592787 -0.121275924 -0.008418899
000190 44 e0 0c bf e1 60 0c be e7 2c 35 3d 09 3c 04 3d
       -0.550297 -0.13708831 0.044232275 0.032283816
0001a0 aa 5a 7e bf 60 ef 68 bf 55 81 86 3f 11 a4 1e be
       -0.9935709 -0.9099026 1.0508219 -0.15492274
0001b0 7c f7 e4 bd b3 c7 5b be 8e e8 fb be e0 59 d3 bd
       -0.111800164 -0.21462898 -0.49200863 -0.10319877
0001c0 3d 70 c7 bd 72 c0 23 bf df 0f 93 3e eb 4f 07 3e
       -0.09738205 -0.63965523 0.28723046 0.1321408
0001d0 75 55 c3 3e b3 62 22 3e 08 5b b2 bc 5e f7 cc bd
       0.38151136 0.15857963 -0.021771923 -0.10008119
0001e0 c9 f9 2c bd f2 28 b2 3e ce f7 fe 3d b2 d3 40 3f
       -0.0422304 0.34796864 0.12449609 0.7532302
0001f0 2c 08 7e bd 2d 91 2c bf 4d a6 5e bd 59 2f 99 3e
       -0.062019512 -0.6740902 -0.054357816 0.29918936
000200 9e b6 ae 3e 24 9e 09 be 64 35 52 be dc e3 a9 bd
       0.341237 -0.13439232 -0.2052818 -0.08295414
000210 f5 50 97 3e 21 9d 3c be c5 f9 13 3e ce f3 cb 3e
       0.29553953 -0.18419315 0.14450748 0.39834446
000220 27 67 28 3e 1d 53 e5 3d 45 51 45 3e 6f b2 3c 3d
       0.164456 0.11197493 0.19269283 0.046068605
000230 b8 26 86 be 21 5f 76 bd 67 28 08 bd ba 0c 54 3d
       -0.26201415 -0.060149316 -0.033241656 0.05176995
000240 55 3c 9b 3e ab b6 a2 3d d0 9a a4 3d f3 bf 0b bd
       0.30319467 0.079449974 0.08037341 -0.034118604
000250 33 f1 99 3e 61 1f d3 3d a7 92 ae 3e 5f 44 70 3e
       0.30066833 0.103087194 0.34096262 0.23463582
000260 a1 96 ad be 88 61 12 be 76 db 03 3e 70 f0 2d be
       -0.33903983 -0.14295018 0.12876686 -0.16986251
000270 19 82 72 bd b8 6d fd bd 84 0f 8c be 20 5a c2 bc
       -0.059206102 -0.12374443 -0.27355587 -0.023724616
000280 f5 85 2e be b1 26 f3 bd 62 49 89 3b cf 6f 67 3e
       -0.17043288 -0.11872614 0.004189656 0.22601245
000290 57 a9 80 3e 04 4d e0 bd 7c 74 82 bd 18 32 28 be
       0.25129196 -0.109521896 -0.06369874 -0.16425359
0002a0 63 5c 66 3e bc 40 73 be e6 c0 ac 3e fc 56 b3 bd
       0.2249618 -0.23755163 0.3374092 -0.08756825
0002b0 30 0b b0 3d ee c9 db 3e 24 85 a2 be 61 df 7d 3e
       0.08595884 0.42927498 -0.31742203 0.24792244
0002c0 7e e4 ca be e9 b2 2f bc 49 77 99 3e a7 ce 53 3e
       -0.3962745 -0.010723808 0.2997382 0.206843
0002d0 a9 06 79 bd 65 a5 2e 3e 80 d4 3a 3e cf f6 12 bd
       -0.060797367 0.1705528 0.18245125 -0.035879906
0002e0 a1 ab 79 be 03 1f 80 be e0 13 c4 3d f0 e2 96 be
       -0.24381877 -0.2502366 0.09574103 -0.29470015
0002f0 a7 4a c4 3e 56 60 32 3f 53 f0 ba bd c2 8c d6 bd
       0.38338205 0.69678247 -0.091278695 -0.10476066
000300 2d 7d 5f be b7 a4 36 3e 5f a3 cb 3d 64 60 39 3d
       -0.21825095 0.17836271 0.0994327 0.04525794
000310 87 db b1 3e 9f d2 54 3e 3e d0 f9 3c 0e 55 72 3e
       0.347378 0.2078347 0.030494805 0.23665258
000320 73 5a 08 3c cf 25 90 be c0 12 82 3c 20 a0 c3 3c
       0.008322346 -0.28153846 0.015878081 0.023880064
000330 cb 07 6d 3d b8 f2 3e 3e 67 33 06 bd 7c 46 6c 3e
       0.05786876 0.18647277 -0.032763865 0.23073763
000340 7c be 0e be 3c d7 27 be 8f ee 16 3f 24 1a ff bc
       -0.13939852 -0.16390699 0.5895776 -0.031140395
000350 aa 7d a2 3e 08 c6 85 be 0f 49 09 3d 67 ff 2a bc
       0.317365 -0.26127648 0.03351694 -0.010436869
000360 33 a3 d2 bd 96 67 ac 3e 07 e9 f1 bd 48 bb 00 3f
       -0.10285034 0.3367278 -0.118120246 0.5028577
000370 ae 07 51 3e e2 49 3f 3e 07 fd 2c 3d 00 fd da be
       0.20413086 0.18680528 0.042233493 -0.4277115
000380 18 f4 60 3d 61 7f 2e bd a5 41 5f bd 8b c5 33 3e
       0.054920286 -0.042601947 -0.054505963 0.17555825
000390 56 ef c8 3c 11 25 25 be 74 0b eb bd 22 8e cd 3d
       0.024528187 -0.16127421 -0.11476794 0.10036875
0003a0 03 01 a7 3e f2 13 6b bd 83 f5 9a 3d f8 40 93 3e
       0.3261796 -0.05739207 0.07566359 0.28760505
0003b0 68 71 d9 3c 95 4f 9e 3c 9d ca ad be a9 fc 82 bc
       0.026543334 0.019325057 -0.33943644 -0.015989618
0003c0 8b 56 ea 3c a3 6e 9f 3d 1f 89 24 3e f4 06 11 be
       0.02860572 0.07784774 0.16067933 -0.14162809
0003d0 17 b0 d0 bd 88 99 f8 3d af 4f 19 3e 7f 5e 7c 3d
       -0.101898365 0.12138659 0.14971803 0.061613556
0003e0 cc 7e 17 bb b6 f8 05 3d 8f 77 8a 3e b9 fd 50 3e
       -0.0023116348 0.032707892 0.2704434 0.20409288
0003f0 97 54 de 3d 97 74 81 3e 45 1b 36 be d8 3d 10 3b
       0.10855978 0.25284263 -0.1778384 0.0022009518

fc2.bias f4 [64]
000000 73 4e 93 bd cf ac ce 3c 36 39 fb bd c6 40 6b be
       -0.071926974 0.025228886 -0.122667715 -0.22973928
000010 a1 e2 9d 3d 7d f5 d2 bd 2f 59 dd 3d 95 09 b5 ba
       0.07709242 -0.103007294 0.10808026 -0.001381206
000020 5f bd 1d 3e 78 38 51 3e 20 d0 b6 3c 4c a8 0b 3e
       0.1540427 0.20431697 0.022316039 0.13638419
000030 cf 42 48 bd 01 da 6a be 40 bf 02 bd e4 b6 37 be
       -0.04889184 -0.22934724 -0.03192067 -0.17940861
000040 c4 97 55 bb ad ee 84 3d 88 92 1b be 19 90 90 3d
       -0.003259168 0.06490836 -0.15192616 0.070587344
000050 53 71 12 3e e0 31 70 be 70 bc 49 bd 82 8a b2 3e
       0.14301042 -0.23456526 -0.049251974 0.34871298
000060 0d ea bd bd da 3c fd 3c 4a 31 03 be d3 2c 52 3e
       -0.09273157 0.030912805 -0.12811771 0.20524912
000070 9a af 0c bd df bc 60 3d 09 08 b4 bd 0b bb 03 be
       -0.034347154 0.05486762 -0.08790595 -0.1286432
000080 21 28 a3 bc 8b 94 1f bd ef 3b 48 3e 93 91 e1 bd
       -0.019916596 -0.03896002 0.19554113 -0.11014094
000090 87 7b 31 3e 5c 6b a8 ba 45 61 62 bd 50 ed e6 3d
       0.17332278 -0.0012849378 -0.055268545 0.112757325
0000a0 61 c3 1d 3e ee a5 32 3e ee 8f 64 bd f4 41 f5 bc
       0.15406562 0.1744611 -0.055801325 -0.029938675
0000b0 bb 2a 0e 3e 76 84 1f bd 80 20 5d 3d 90 d0 9a 3e
       0.13883488 -0.038944684 0.053986073 0.30237246
0000c0 1e 63 a7 bd 9b 3b 2c 3c 6e 72 98 3d c1 5a 2f 3e
       -0.08173202 0.010512258 0.07443701 0.17124464
0000d0 91 94 9a 3d 78 a1 cd 3d 12 54 e8 bd d9 40 13 3e
       0.07547868 0.10040563 -0.1134416 0.14380206
0000e0 68 0d 65 3d e3 6c 8b 3e db 73 55 3e 67 21 93 bd
       0.05592099 0.2723151 0.20844977 -0.07184105
0000f0 1f 75 db bc 96 ff 03 3e 9c 8b 25 bc 27 48 84 bc
       -0.026789246 0.12890467 -0.010104086 -0.016147686

fc3.weight f4 [64, 64]
000000 cc 7b 95 bf 7a 2b e7 bb df f1 ae 3e 75 05 00 bf
       -1.1678405 -0.0070547434 0.34168908 -0.50008327
000010 9f 67 92 bf e1 1a c0 3e 29 62 8b 3e 39 1d a0 3e
       -1.1437873 0.37520507 0.27223328 0.31272295
000020 bb c8 4d bf c7 73 3a bf 2d 4f 23 3b ea 8d 67 3e
       -0.80384415 -0.7283291 0.0024919019 0.2261273
000030 68 2c a6 bd ec 90 4f 3f e0 9f 3f 3e 0c fd a2 3d
       -0.081139386 0.8108051 0.18713331 0.07958421
000040 4e bb b5 bf 2b 4e a7 be 9e 6a 87 bf 41 38 81 bf
       -1.4197786 -0.32676825 -1.0579412 -1.0095292
000050 80 6e dd bd e3 3e 5a 3e f4 97 13 3f 9c e2 1b 3d
       -0.10812092 0.21313052 0.5765374 0.03805791
000060 0b be 82 3e 85 c3 b0 bf f0 e1 03 3e 66 6d 43 3d
       0.25535616 -1.3809668 0.12879157 0.047711752
000070 5d 43 7b 3f 72 24 72 bf bd 83 9e 3e d1 40 f3 3e
       0.98149663 -0.9458686 0.30959883 0.47510388
000080 2a d5 4b be d5 3e 0c 3f 86 ef 64 be b0 d7 10 3f
       -0.19905534 0.54783374 -0.22356996 0.56579113
000090 09 05 4c bf d7 a8 f4 bd e6 42 b1 3e 8b 88 ca 3e
       -0.79695183 -0.11946266 0.34621352 0.395573
0000a0 96 72 44 bf 1e 8e 01 be ed 2c 21 3e 13 9f 99 3e
       -0.76737344 -0.1265187 0.15739794 0.30004176
0000b0 28 21 39 be e8 8e 31 bf 04 6d 6a 3e e4 ee 78 bc
       -0.18079054 -0.6935868 0.22893149 -0.015193675
0000c0 01 c3 13 3f 24 b0 c9 bf 06 4c d4 3e 4c 6a 47 3e
       0.5771943 -1.5756879 0.4146425 0.19474143
0000d0 b5 a7 6a bf 97 86 fd bd 23 43 fc 3e 20 97 41 bf
       -0.9166215 -0.123791866 0.4926997 -0.75621223
0000e0 b5 94 75 bf 21 94 9a 3e ce ac 4a 3d a8 dd 8b 3e
       -0.95930034 0.30191138 0.049481206 0.27317548
0000f0 e1 46 91 3e 65 28 bc 3d ef 62 8a 3e 63 34 46 bf
       0.2837439 0.09187392 0.27028605 -0.77423686
000100 bd 8d 7f bf 9e 34 c6 bd 56 0e 8f 3d ca 18 2e bf
       -0.9982565 -0.09678005 0.06985156 -0.68006575
000110 c3 5a 2e be ae 1a cb 3e aa af 82 bd b6 fa 25 3f
       -0.1702681 0.39668792 -0.063811615 0.6483568
000120 18 f4 0a bf e4 f1 8d bf 46 4a ab 3d 9c 13 05 3f
       -0.5427871 -1.1089444 0.08363776 0.51983047
000130 a0 fb f1 3e db 94 fc be 1c 50 6f 3e f7 26 77 3e
       0.47262287 -0.49332318 0.23370403 0.24135958
000140 34 88 40 bf 4e 6d 8d bc 52 b2 dd be 0c f9 a3 bf
       -0.7520783 -0.017264035 -0.4330011 -1.2810378
000150 cd 74 50 be b1 ca af 3d 09 f8 ff 3e c7 10 c9 3e
       -0.20357056 0.08583582 0.49993923 0.39270613
000160 32 ab 25 3f 4f ef ac bf 42 db f1 3d 83 ed 0d bf
       0.6471435 -1.3510531 0.11809398 -0.5544054
000170 ea e2 0f 3e 69 3b 9f bf 97 3f 60 bd eb f4 61 3e
       0.14051405 -1.2440006 -0.054748144 0.22066085
000180 02 1c 1b 3e 76 b1 9e 3e c3 64 7e 3e 53 e1 86 be
       0.15147403 0.30994767 0.24843125 -0.26343784
000190 dc 37 ce be 18 5c ee be 55 a4 03 3f 9f 07 8e 3d
       -0.40276992 -0.46554637 0.51422626 0.06935047
0001a0 19 8b 8a bf 5a d8 97 3c 29 7f 0d 3e 80 d4 9c 3c
       -1.0823699 0.018535782 0.13818039 0.019144297
0001b0 16 7f 8d bd 80 a6 0f 3e 02 2a 1b be 88 42 8d 3e
       -0.06909005 0.14028358 -0.15152743 0.27589822
0001c0 1b d1 5a 3e 5d 58 e2 bf ae a2 9e 3d 24 ac 27 3e
       0.2136883 -1.7683216 0.077458724 0.1637426
0001d0 04 1e 9c bf a7 ca 9b be 48 eb 0b 3f a0 cd 24 bf
       -1.219666 -0.3042805 0.54655886 -0.6437626
0001e0 a0 f6 8f bf 8d 07 88 3e ac 24 93 bc 8b ba 1a 3e
       -1.1247139 0.2656826 -0.017961822 0.15110223
0001f0 e7 93 cd 3e e9 60 a2 3e 66 b1 04 3d 3f 05 9a bf
       0.40151903 0.31714562 0.032395743 -1.2032851
000200 ce bb a0 bf 96 31 96 3e fe f9 2a 3f 1b db 5a be
       -1.2557313 0.29334706 0.6678771 -0.21372645
000210 60 0f ae bf 9d 29 13 3e b3 58 c8 3e ed a5 86 3e
       -1.3598442 0.14371343 0.39130172 0.26298466
000220 24 47 8f bf 9b 9b 5b bf b3 00 4e 3e 2b 57 0e 3f
       -1.1193585 -0.8578431 0.20117454 0.5560176
000230 44 21 e2 3e 6e bc 35 3f 0a 65 e9 3d 85 e2 28 3e
       0.44166005 0.70990646 0.11396225 0.1649266
000240 5a 59 cc bf a7 21 93 be 6e a4 2c bf 64 6c 7b bf
       -1.5964768 -0.28736612 -0.674384 -0.98212266
000250 97 95 f5 bd ee 63 19 3f a8 de 33 3e ed 74 63 3e
       -0.119914226 0.59918106 0.17565405 0.22212572
000260 11 ef 07 3e fb 82 69 bf 27 2d 2d be d6 e1 3e 3e
       0.1327479 -0.91215485 -0.16911756 0.18640837
000270 f4 cc eb 3e cb 44 81 bf d0 f5 af 3e 2c be d4 3e
       0.46054804 -1.0099119 0.34367228 0.4155134
000280 91 f3 e0 bd f7 1b c6 3d c2 84 5f be 57 04 0b 3f
       -0.109839566 0.096733026 -0.21827987 0.543035
000290 07 fb 6c bf 6c 23 9f 3e 79 f6 1e 3f 73 6e 0d 3f
       -0.9257054 0.31081712 0.6209484 0.5524666
0002a0 24 bc 0b bf b6 58 9c bb ae 23 23 be 48 fd cf 3d
       -0.54583955 -0.0047713174 -0.1593158 0.101557314
0002b0 49 a9 e2 3d aa cd cf bd a7 8f 1d 3f 67 5f 30 bd
       0.11067445 -0.10146649 0.6154732 -0.043059733
0002c0 0e 98 12 3e 6f 46 c5 bf 6d 5f 7a 3e 9a 58 12 3d
       0.14315817 -1.541212 0.24450465 0.03572903
0002d0 6a df 55 bf 2a 01 29 bf 6e 23 e9 3d 9f e2 97 bf
       -0.8354403 -0.660174 0.11383711 -1.1866034
0002e0 8a b0 1d bf 88 f4 6f bd e8 ea 31 bd 14 44 92 3e
       -0.615975 -0.058582813 -0.043436915 0.28567564
0002f0 bd 49 de 3e e8 87 b6 3e af 1a 57 3d 7b ba 94 bf
       0.43415633 0.35650563 0.05251568 -1.1619409
000300 c4 0a 9f be 06 17 d2 be e5 3b cb 3d 91 5e 3f bf
       -0.310629 -0.4103319 0.09923533 -0.7475367
000310 f6 af 3d be 54 c7 57 3f 31 70 1c 3e ea c5 da be
       -0.18524155 0.84288526 0.15277173 -0.4272912
000320 01 09 fb 3d 4b 5b af 3d a1 31 dc be 36 5a b6 3e
       0.12257577 0.085623346 -0.43006614 0.356157
000330 63 36 41 bf de 9b 86 3e 97 e1 00 3d 2d 68 86 3d
       -0.7547361 0.26290792 0.03146514 0.06562839
000340 81 53 87 3d 99 cc a5 3d ba d8 3f bf 62 63 47 bf
       0.06607724 0.080956645 -0.74940073 -0.7788602
000350 29 b2 32 bf 07 32 81 be 48 b3 58 bd ac 8e c6 3e
       -0.698031 -0.2523348 -0.05290535 0.38780725
000360 51 98 ca bd 63 ed 57 bf 67 37 da 3e be fe a4 3e
       -0.09892333 -0.843466 0.42620394 0.32225603
000370 60 61 88 3e 76 5e a1 3e 6b c4 92 3f 0c 91 1a 3f
       0.2663679 0.3151738 1.1466192 0.60377574
000380 ee ec 1e bf ae 95 7b 3d 1e b1 71 be b6 ab c5 be
       -0.62080276 0.061422043 -0.23602721 -0.38607568
000390 ef c4 82 3c f3 ea 80 bd 80 93 46 3e f0 08 90 be
       0.015963046 -0.06294813 0.19392204 -0.2813182
0003a0 c3 60 ec 3e ee 60 8d 3e 44 42 21 bd 99 bb 87 be
       0.46167573 0.27613014 -0.039369836 -0.26510313
0003b0 fd d0 1f bf bd b0 25 bf d6 9b 38 3e e0 83 a8 3e
       -0.62428266 -0.64722806 0.18028197 0.32913113
0003c0 d2 99 23 bf ff 41 54 be 34 cf d8 3d df 99 94 3e
       -0.63906586 -0.207283 0.10586396 0.29023644
0003d0 e3 9a 89 bd 76 40 46 3e a1 39 63 bc 9b 3a d0 be
       -0.067189954 0.19360527 -0.01386872 -0.40669712
0003e0 4d 8c 95 3e da c1 ae be 4c 56 ff 3c 6c 34 38 3f
       0.29208604 -0.34132272 0.03116908 0.7195499
0003f0 c4 0d f9 bd d1 3e 3c 3e 49 28 ba be a4 38 27 be
       -0.12160829 0.18383338 -0.3635886 -0.163302

fc3.bias f4 [64]
000000 09 e6 d4 bc 58 b8 8b 3e 38 07 34 3c 5d b9 00 3d
       -0.025988596 0.2728908 0.010988049 0.031426776
000010 0d 6e a6 3e 66 e4 3b 3e 83 0f 41 3e b8 2d 90 3e
       0.32505837 0.18348846 0.18853574 0.2815988
000020 11 fc ea bd e4 35 6a 3d 5f 8b 8c be ff 7c 4d be
       -0.11473859 0.0571803 -0.27450082 -0.20067213
000030 e9 d3 4b 3e 3f 4a 46 3e c2 b3 71 3d aa 15 9b be
       0.19905056 0.1936426 0.05900932 -0.30289966
000040 39 7d 00 be 41 87 08 be d6 91 0c be 01 86 99 3b
       -0.12547769 -0.13332845 -0.13727507 0.004685164
000050 4c 08 7c be d3 d4 5c 3e 83 f8 89 3d 85 d1 46 be
       -0.2461254 0.21565561 0.06736853 -0.19415863
000060 d4 54 83 3d 67 6e e0 3d 9b 4c 95 3d 65 71 38 3e
       0.06412664 0.109585576 0.07290002 0.18012007
000070 5b 2e 1d be 83 6d cc 3d 79 4d 07 3e 03 df 99 3e
       -0.15349714 0.09981825 0.13213147 0.30052957
000080 86 4f 91 3d ee 91 5d bc 7d d2 80 3e 64 4a a8 3e
       0.07095246 -0.013523562 0.2516059 0.32869256
000090 55 87 97 3d a3 1e 56 3e 7d ce de 3d 53 2a 2c be
       0.073988594 0.20910124 0.10879228 -0.1681302
0000a0 99 8d 6f 3e db 3a 3e be 73 f6 dd 3d 2a 19 34 3e
       0.23393859 -0.18577139 0.10838022 0.17587724
0000b0 3a 11 33 be e5 37 da 3b 11 7e 8f bd b5 22 d2 bb
       -0.1748704 0.006659495 -0.07006467 -0.006412829
0000c0 3b 7e b2 3e b0 2c 8b bd 18 11 8b 3e 9b 88 4c 3c
       0.3486193 -0.06795633 0.2716148 0.012483741
0000d0 7a 23 f5 3d 9c b4 11 be 7e 3a 61 3e 56 00 8d 3d
       0.11969657 -0.14229053 0.21994969 0.0688483
0000e0 99 9c af 3e 24 84 3c be ea d9 9d 3c c3 fa 81 be
       0.34299162 -0.18409783 0.019268949 -0.25386629
0000f0 ca fb 64 3c a5 33 c9 3e 1e 74 07 bb 48 ec c2 3b
       0.013976047 0.39297214 -0.0020668576 0.005948577

fc4.weight f4 [4, 64]
000000 35 ca 03 bf d2 21 4d bf 07 e9 22 bf 5f 29 25 bf
       -0.5148042 -0.8012973 -0.6363682 -0.6451625
000010 3b 4b 2e 3f 53 a9 1f 3f 9a 87 91 3b 35 22 f5 be
       0.6808354 0.62367743 0.004441214 -0.4787766
000020 55 9d f8 be 73 61 9f 3e e6 41 28 3e 7d 86 68 bf
       -0.48557535 0.31129035 0.16431388 -0.9083021
000030 88 04 0e bf 8c ce 22 bf 98 b0 18 bf d5 66 c0 be
       -0.55475664 -0.63596416 -0.5964446 -0.37578455
000040 a8 5d 08 bf 93 40 04 bf 20 ca 73 3f d8 db f4 3e
       -0.5326791 -0.5166103 0.95230293 0.47823977
000050 50 52 67 3e 6a ce 0e bf 26 b5 bc be 74 e7 06 bf
       0.22589993 -0.5578371 -0.36856955 -0.5269692
000060 66 ea 0c bf 37 ea 64 bf ed bd 67 3f b5 45 ba bf
       -0.55045164 -0.89419883 0.9052418 -1.4552523
000070 64 90 2e bf 9a b1 98 3d a6 fc d3 3e b5 3d 68 3e
       -0.6818907 0.0745575 0.41403693 0.2267979
000080 e1 c6 01 3c e7 e6 2c bf 1b c5 84 3f 38 9d 27 be
       0.007920952 -0.6753983 1.0372652 -0.16368568
000090 8c 53 4a bf a8 7d a0 be c2 0c e7 3d d0 47 2d bf
       -0.7903373 -0.31345868 0.1128173 -0.676877
0000a0 77 29 a9 be 3d 16 a0 be 3e 09 5a 3f 1e 22 33 bf
       -0.33039448 -0.31266966 0.8517035 -0.69973934
0000b0 b8 c3 08 bf 82 da a4 3e 9e 8e 8e 3f 9d 7f 3f 3e
       -0.53423643 0.32197958 1.1137273 0.18701024
0000c0 e1 21 24 bf 98 81 30 bf 5d d3 8b 3f fc 2d 3e bd
       -0.64114195 -0.68947744 1.0923878 -0.046430573
0000d0 84 2d cc 3c 85 53 aa be d5 f5 34 3f d2 4b ec be
       0.024924047 -0.33266845 0.7068761 -0.46151596
0000e0 0c 05 37 be c4 16 b3 be fd 88 1c 3f 04 3f b0 bd
       -0.17873019 -0.34978306 0.6114653 -0.08605769
0000f0 0b ff 9e 3d b5 90 73 be 62 16 3e 3f f7 06 10 bf
       0.07763489 -0.2378567 0.74252903 -0.5626063
000100 0a 98 ab be 88 39 18 bf 5e 1f 4a bf 66 01 93 bf
       -0.33514434 -0.59462786 -0.7895411 -1.1484802
000110 e4 6a e3 3e b3 22 10 3f 09 1c 7a bd d9 b3 15 be
       0.4441749 0.56302947 -0.061061893 -0.14619388
000120 82 8b f4 be 46 1a 7b be 42 03 90 3e 65 08 12 bf
       -0.47762686 -0.24521741 0.28127486 -0.5704406
000130 6a 50 2b bf 4c 79 05 bf 45 89 b9 be 48 65 4f bf
       -0.6691958 -0.5213821 -0.3623754 -0.8101392
000140 42 d6 0f bf 62 0b f4 be 59 d4 53 3f 8c 2c 56 3e
       -0.56186306 -0.47664934 0.8274589 0.20915431
000150 0c aa fd be 22 52 20 bf ee 62 10 bf 2f d2 53 bf
       -0.49543798 -0.62625325 -0.56400955 -0.8274259
000160 04 43 af be d8 bb b5 be 04 7e 71 3f df 85 a2 be
       -0.34230816 -0.35494876 0.9433291 -0.3174276
000170 34 db dc be 1f d7 28 bd b5 c0 39 3f 89 60 05 3f
       -0.4313599 -0.04122078 0.7255967 0.52100426
000180 1f b1 9d 3d d7 ab bb be 04 77 7f 3f 55 52 07 3f
       0.07699799 -0.3665454 0.9979098 0.52860004
000190 4d b6 50 bf da 59 5e 3e 53 fe ac bd e6 40 28 bf
       -0.8152817 0.21713963 -0.08446946 -0.6572403
0001a0 24 ba 84 be 19 58 fe be a5 4c 75 3f e9 4d d1 be
       -0.25923264 -0.49676588 0.95820075 -0.40879753
0001b0 fb 17 18 bf 9f a3 c9 3e e5 f4 80 3f b9 8d 10 bf
       -0.5941159 0.39382645 1.0074736 -0.5646625
0001c0 3a b8 1a bf 91 de 12 bf 79 d0 83 3f 35 71 1b 3f
       -0.6043736 -0.5737086 1.0297996 0.60719615
0001d0 69 5d bc 3d 3c f9 38 bf 26 ab 54 3f 4b b4 06 bf
       0.09197504 -0.722553 0.8307365 -0.52618855
0001e0 d6 b2 d0 be a2 46 d3 3d a8 be 0e 3f 84 45 38 be
       -0.4076144 0.103162065 0.5575967 -0.17995268
0001f0 ae 7d 90 3e 29 16 e4 be 80 6a 2e 3f 75 7c 1d bf
       0.28220886 -0.44548157 0.68131256 -0.6151803
000200 6c 52 18 bf b1 68 3a bf a4 0e 25 bf 76 f0 3d bf
       -0.59500766 -0.72815996 -0.64475465 -0.7419504
000210 26 25 3b 3f be 60 2e 3f 08 09 5c 3f d5 db 92 bf
       0.7310356 0.68116367 0.8595128 -1.1473337
000220 3b 5e f7 be 24 ce 20 bf e6 93 49 3f f0 19 44 bf
       -0.4831408 -0.62814546 0.787413 -0.7660208
000230 03 0e b4 be a6 9a cb be 86 29 40 bf b7 0e 13 bf
       -0.3516694 -0.39766425 -0.7506336 -0.5744433
000240 89 f3 c1 be 37 56 0a bf 01 86 16 3f c5 fa f4 3e
       -0.37881115 -0.54037803 0.58798224 0.47847572
000250 ca fb 47 3f db 92 e3 3b b7 79 1a bf a0 72 4a bf
       0.78118575 0.006944997 -0.6034197 -0.79081154
000260 b1 55 c5 be 7f 84 37 bf 69 aa 62 3f 97 e3 82 be
       -0.3854194 -0.7168655 0.88541275 -0.25564262
000270 3a 21 bc be 88 3c a7 bd 44 4a 4f 3f 9d a3 42 3f
       -0.367441 -0.08165842 0.80972695 0.76030904
000280 5e b2 16 3b 42 b9 02 bf fb 91 86 3f 09 bf 41 3f
       0.0022994499 -0.5106393 1.05133 0.7568212
000290 d0 ef a7 be 69 d6 e6 3e 6a bf a4 3c 4b db 3d bf
       -0.3280015 0.45085457 0.020110805 -0.7416274
0002a0 ab 2f 26 bf 12 cc 5a bf 86 32 54 3f 9e 35 b6 be
       -0.64916486 -0.85467637 0.8288959 -0.35587782
0002b0 31 a0 48 bf 27 32 14 bf 0b 85 89 3f 5b 09 a4 3f
       -0.7836943 -0.57889026 1.0743726 1.2815355
0002c0 a0 3d 60 bd f7 f0 12 bf 64 f2 8a 3f 18 c3 31 bf
       -0.05474627 -0.57398933 1.0855222 -0.69438314
0002d0 f0 13 2d bf 92 83 21 bf 37 31 72 3f df 0b ab be
       -0.6760855 -0.63091385 0.94606346 -0.33407494
0002e0 35 d2 89 3f 67 36 6e bf ab f8 a3 3e ad 2d 59 bf
       1.0767275 -0.9305176 0.32025656 -0.8483532
0002f0 62 04 8f 3f ee 41 7d 3c df 54 f6 3e a4 58 62 3f
       1.1173213 0.015457613 0.48111627 0.88416505
000300 ef f2 04 bf a8 9a 62 bf 76 c6 8a be 65 aa 3a 3d
       -0.5193319 -0.88517237 -0.2710454 0.045572657
000310 34 be 4c 3f 5c 43 5f 3f 93 24 c5 3e 3c 41 4a bf
       0.79977727 0.8721216 0.38504466 -0.7900579
000320 c6 95 1d bf 41 fb 37 3f a5 f5 96 3c e2 5d 0b bf
       -0.6155666 0.7186776 0.01842768 -0.5444013
000330 a9 ed 03 bf d7 e5 13 bf 6c e1 96 be aa ff 14 bf
       -0.51534516 -0.5777258 -0.29468858 -0.5820261
000340 d2 01 0f bf 64 0c fd be b4 fe 8a 3f f5 f0 6e 3f
       -0.5586215 -0.49423516 1.0858979 0.9333642
000350 1c 88 b3 be 7c 9d 37 bf dd bf 0b be d5 41 1a bf
       -0.3506478 -0.7172468 -0.13647409 -0.602567
000360 16 06 fd be 0b 30 3d bf 9f 79 4f 3f fe 94 66 3e
       -0.49418706 -0.7390143 0.81044954 0.22517774
000370 dd 62 19 bf d7 d4 7f be d0 42 10 3f b5 3c b1 3e
       -0.5991648 -0.24983536 0.5635195 0.34616628
000380 c2 65 98 bb b2 ea 4a bf a9 d4 63 3f a9 1b 3a be
       -0.0046508024 -0.79264367 0.8899637 -0.18174614
000390 99 b2 07 bf f4 84 45 be ad ce 54 bd c5 18 23 bf
       -0.53006893 -0.19288999 -0.051954914 -0.6370967
0003a0 27 28 3e bf 0b 12 2b bf 2f 84 0b 3f 4e 26 cf be
       -0.7428002 -0.66824406 0.5449857 -0.40458912
0003b0 0a f8 40 bf ba fb 88 be 5a a2 9a 3f 20 6d 00 3f
       -0.7537848 -0.26754552 1.2080796 0.5016651
0003c0 8b 04 27 bf 83 e1 f0 be 27 5c 86 3f ce de 6a 3e
       -0.6524131 -0.47047052 1.0496873 0.22936556
0003d0 ff 5e a3 be 0c d9 7f 3e 50 57 2d 3f 73 ba 54 bf
       -0.31908414 0.2498514 0.67711353 -0.83097
0003e0 cf 1d 8c 3e 30 55 ec be 99 3c 2f 3f 63 57 7d be
       0.27366492 -0.46158743 0.6845184 -0.24740367
0003f0 af 8c 63 b8 a0 d5 14 be a2 7c 10 3f e3 85 34 3f
       -5.425204e-05 -0.14534616 0.56440175 0.70516795

fc4.bias f4 [4]
000000 a7 e8 3e bd a4 d5 d6 bd 5e 2a 89 3e 2b 43 9d bd
       -0.046608593 -0.104899675 0.26790136 -0.07678827
