experiments/LunarLander-v2_PPO/dqn.pth (torch, 96827 bytes, 13 tensors)

actor.0.weight f4 [128, 8]
000000 eb 0f 49 3f d4 77 24 3f 6c aa 4c 3f b4 39 e0 be
       0.78539914 0.64245343 0.79947543 -0.43794024
000010 5b 0f d3 3d a2 00 31 bf 8d fa f6 be ab 4d cc 3e
       0.10305663 -0.6914159 -0.4823803 0.39903006
000020 d2 71 5f be f5 29 ee 3e cb 5f 8c 3d f2 9f 2e bf
       -0.21820763 0.46516386 0.068542086 -0.6821281
000030 13 be 95 3f 57 2c 8f 3f 4b 17 6c be 1f d3 35 3e
       1.1698631 1.1185406 -0.2305576 0.17756318
000040 bd c1 32 3e 9b c6 5c bf a4 e6 1a bf 76 37 0a 3f
       0.17456718 -0.8624055 -0.6050818 0.53990877
000050 66 09 21 3f 8a 46 b7 be c9 3e cc bd e5 b3 08 3f
       0.62904966 -0.35796005 -0.09972913 0.533995
000060 de 93 24 be f6 41 de 3e ab ef 28 3f 75 f2 7f bf
       -0.16072032 0.434097 0.65990704 -0.99979335
000070 67 73 0d bd a4 14 07 3f ba 15 bf 3c 54 08 e3 be
       -0.034533884 0.5276587 0.02332579 -0.4434229
000080 12 db 20 bf 11 55 71 be 5a 24 0d bf f5 67 40 bd
       -0.62834275 -0.23567607 -0.55133593 -0.04697414
000090 94 df 0f 3f 39 99 5d 3f 06 16 c1 3e f7 e4 db be
       0.5620053 0.86561924 0.37712115 -0.42948124
0000a0 ec ce 28 3f 3d dc 14 3f 82 b9 31 3f 98 26 57 3f
       0.6594074 0.58148557 0.6942369 0.84043264
0000b0 e7 db 7c bf 4e 0c 88 bf 28 8f 41 bf f8 c5 2a bf
       -0.98773044 -1.0628755 -0.75609064 -0.66708326
0000c0 95 13 bf 3d bb 2c 83 3e 20 2e e7 3e 8a 94 4b 3f
       0.09329907 0.25620064 0.45152378 0.7952353
0000d0 21 e2 0b bf 0d dc bb bd 8b e3 0b bf 91 50 05 3d
       -0.5464192 -0.09172831 -0.5464408 0.032547537
0000e0 01 84 4b bf bf e8 15 be bc e8 24 bf ec d1 80 be
       -0.79498297 -0.14639567 -0.64417624 -0.25160158
0000f0 07 f4 27 bf 1c 99 a7 bb b8 4f 25 bf 06 d5 f9 3c
       -0.6560673 -0.0051146876 -0.64574766 0.030497085
000100 d6 df 90 be 84 b9 65 3f 59 52 8a be f9 a3 0d 3f
       -0.28295773 0.897362 -0.2701595 0.5532833
000110 0f 0d 82 3e 66 3f 63 bd 77 2a 33 bf 55 14 26 3f
       0.25400588 -0.055480383 -0.6998667 0.64874774
000120 9b e9 eb be 96 65 02 bf 14 d9 46 bf a6 3d 06 3f
       -0.46076664 -0.5093626 -0.77674985 0.5243782
000130 b6 de 68 3f a7 cd bc 3e f2 5b a1 be 8c 07 bc be
       0.9096483 0.3687565 -0.3151546 -0.36724508
000140 39 b5 f2 3d b5 80 fe be ae 5f 42 3f 9a 83 80 bc
       0.11850972 -0.4970757 0.75927246 -0.015687753
000150 7f 54 d7 3e 97 24 76 3f aa 5e 3c 3f 9c 58 57 3f
       0.42056653 0.9614958 0.73581946 0.8411958
000160 9a dc 2f bf 53 2f 48 bf 9c 10 55 bf 01 3d 13 bf
       -0.68695986 -0.7819721 -0.8322847 -0.5751496
000170 87 4d 06 be 40 4b 38 3f da f1 72 3e 81 f1 28 be
       -0.13115512 0.7198982 0.23725072 -0.16498376
000180 a4 d4 46 3f 42 a3 b4 3e b3 d8 21 bd fd 9a 32 3f
       0.77668214 0.35280806 -0.0395133 0.69767743
000190 e0 b4 47 3e 08 61 d4 bb 39 f8 b5 3e 44 fc 8d ba
       0.19502592 -0.0064812936 0.3554094 -0.0010832627
0001a0 52 ba 14 3f 3f a7 42 3e b3 4b b4 3e f4 44 3f be
       0.580968 0.19009112 0.35214004 -0.18678647
0001b0 49 21 98 bf 50 29 d0 be 0a a5 44 bf ad 33 1e bf
       -1.1885158 -0.4065652 -0.7681433 -0.617976
0001c0 18 47 2b bf 99 a6 2f 3f 67 57 9b 3e 29 6a 0c 3f
       -0.66905355 0.6861358 0.3034012 0.5484949
0001d0 a3 82 b2 be 5d 56 4a 3f 70 d1 b1 3d dc 5f 17 bd
       -0.34865293 0.7903803 0.08682525 -0.036956653
0001e0 72 1f 10 bf 1e d5 de 3e 4a 08 c7 be ff 26 31 bf
       -0.5629798 0.4352197 -0.38873512 -0.6920013
0001f0 d0 8b 22 bf ae 42 62 bf 73 84 38 bf c5 18 03 bf
       -0.63494587 -0.88382995 -0.720771 -0.5120967
000200 76 27 3d 3f a9 89 6a bf ca 25 2b 3e fd a1 f6 3e
       0.7388834 -0.916163 0.16713634 0.48170462
000210 70 06 30 bf aa 37 40 3f 6b db 1f bf 6f a4 b4 be
       -0.6875982 0.75084937 -0.6244418 -0.35281703
000220 a4 44 87 be 68 5a c6 be 9a 5c 4e bf 94 cb 64 3f
       -0.26419556 -0.3874085 -0.8061005 0.89373136
000230 2c 3c 07 bf 29 ab 35 3f df a1 25 3f 93 5d a5 3e
       -0.5282619 0.70964295 0.6470012 0.32297954
000240 bb 55 eb 3e a8 25 a3 3e 8d b8 53 3e e3 30 46 3f
       0.45963845 0.31864667 0.2067587 0.77418345
000250 7b c2 a4 bf 38 36 7a bf 94 55 ed 3e 2c 6a 16 bf
       -1.2871851 -0.9773898 0.46354353 -0.58755755
000260 84 db 4a bf 23 34 34 bf bd 57 4a bf 98 ec 07 3f
       -0.79241204 -0.70392054 -0.7904013 0.5309539
000270 6f 76 95 3e 08 83 af 3e 90 5f d6 bd 91 6d 27 3f
       0.2919192 0.34279656 -0.10467446 0.6540156
000280 12 1e cb be 91 1c 5d 3e d0 32 03 bf 4d 0f 54 3e
       -0.3967138 0.21592928 -0.5124941 0.20708962
000290 04 fa 95 bf a3 d0 6b 3e e6 b4 5e 3e 6b 41 4a 3f
       -1.1716924 0.23028807 0.21748695 0.7900607
0002a0 9c 4a 06 3f 42 c4 8d bd 1a a0 0b be 97 44 9e 3e
       0.52457595 -0.06922199 -0.13635293 0.30911705
0002b0 13 9d 43 bf ed 1d 21 3d 5b 2d 36 bd 19 73 21 3f
       -0.7641155 0.03933518 -0.044476848 0.6306625
0002c0 da 1b 23 bf 6e a5 7e be e4 54 7d be 64 a4 7f be
       -0.63714373 -0.24867794 -0.24739414 -0.24965054
0002d0 69 d2 c3 3e 20 18 2c bf d3 35 3a 3f 7e 81 c8 be
       0.38246468 -0.6722431 0.7273838 -0.39161295
0002e0 f1 32 45 3f b6 b7 c6 be e6 ee a0 be b5 5d 02 3f
       0.77030855 -0.38812035 -0.31432265 0.50924236
0002f0 4e 2f c7 be d8 7b 0b be 81 67 15 bf 24 ba 42 3f
       -0.38903278 -0.13621461 -0.5836106 0.7606528
000300 fb 99 45 bf 10 5a 7c bf 7f 8c f2 be 90 2e e9 3d
       -0.7718808 -0.98574924 -0.47372815 0.11385834
000310 9a ff 63 be 22 fc 52 3f 70 35 23 3f 97 1d 48 3f
       -0.22265473 0.82415974 0.63753414 0.7817015
000320 0e bc 02 3e d7 74 01 3f 01 2e aa 3e 5b 99 41 bd
       0.1276705 0.5056891 0.33238223 -0.04726539
000330 88 75 87 3f 72 ab 81 3f f0 e3 bd 3c 41 39 2b be
       1.0582743 1.0130446 0.023179978 -0.1672106
000340 eb bc cf 3d 59 58 cd 3e 59 b1 0b 3f b9 41 0a bd
       0.10143455 0.40106466 0.54567486 -0.033754084
000350 a7 03 8c 3f d0 57 d0 be 76 83 f3 3e fb 12 99 bd
       1.0938615 -0.40691996 0.47561234 -0.07474323
000360 d7 aa 13 bf 91 0d 31 3e e6 8c cd be f8 31 ea be
       -0.57682556 0.17290331 -0.4014656 -0.45741248
000370 17 19 12 be 6f ab 71 3f 30 37 e5 3e c1 c5 68 3f
       -0.14267384 0.9440221 0.44768667 0.9092675
000380 92 3c f4 3e f8 e7 13 3f cf 5d 28 be 1c 9e ae 3e
       0.4770246 0.5777583 -0.16442035 0.34105003
000390 33 83 75 3f cf 82 73 3f 52 37 64 3f c6 13 9f bd
       0.9590332 0.95121473 0.8914691 -0.07767443
0003a0 9c 37 ed 3e 97 57 45 3e e8 ec 02 3f d1 3f 5c bf
       0.4633149 0.19271694 0.5114274 -0.86034876
0003b0 d0 70 a3 3e 95 4f 33 3f 73 65 1b be a5 8e 67 3f
       0.31922007 0.7004331 -0.15175419 0.90452033
0003c0 9f d0 31 be 1b f9 cf be 0c 6c cc 3e e6 9a ae 3d
       -0.17364739 -0.4061974 0.39926183 0.08525638
0003d0 86 bd 24 bf b9 3c cf 3e ab c4 04 3f 26 50 36 3f
       -0.6435169 0.40476015 0.5186259 0.71216047
0003e0 37 66 d9 be 2e 5a 99 be dc 45 da 3c 69 8c 08 3f
       -0.42460796 -0.29951614 0.02664464 0.5333925
0003f0 67 65 90 bf f5 aa 00 bf b3 8d 47 bf f7 c7 3e 3f
       -1.1280946 -0.5026086 -0.7795059 0.7452387

actor.0.bias f4 [128]
000000 2f 0c 0a bd 6d 1f fb 3a d5 49 9a 3d d6 66 d1 3d
       -0.033703025 0.0019159146 0.075336136 0.102246925
000010 c1 00 41 3e aa 92 75 3e f4 a8 52 3e 47 86 35 be
       0.18847944 0.23981729 0.20572263 -0.17727004
000020 00 d0 94 3b 7b 98 4f 3e c2 63 e8 bd 50 df 0a be
       0.004541397 0.2027301 -0.11347152 -0.1356175
000030 18 ee e7 bd 1e 07 32 3d 39 bf 9a bd 91 1b d6 bc
       -0.1132471 0.04346382 -0.07556004 -0.026136192
000040 47 3d 1b 3e 10 96 95 3d 9f ba a8 3e c9 65 33 be
       0.15160094 0.07304013 0.3295488 -0.17519297
000050 74 7c f4 3d aa c6 a6 3e f5 84 4e be f3 4d 6e 3d
       0.119378 0.32573444 -0.20167907 0.058179807
000060 99 71 60 3e 90 fc d9 3c a9 95 80 3e ba 01 4b 3c
       0.21918334 0.026609689 0.25114182 0.012390548
000070 5f ff 93 be b0 a0 91 be 95 86 44 3e 67 4c d1 3e
       -0.2890577 -0.28442907 0.19191964 0.40878603
000080 3c c0 8b 3e 1b 5d 2d 3d 86 d9 35 3e c6 40 7c 3e
       0.272951 0.04232512 0.1775876 0.24634084
000090 34 dc ad 3d 55 b4 11 be 89 9e 7e be a9 03 45 3e
       0.08489266 -0.14228947 -0.24865164 0.19239677
0000a0 30 6b 99 3e 54 02 7c 3d 4c 2e c2 3d 3d 61 61 bd
       0.2996459 0.061525658 0.09481487 -0.055024374
0000b0 ad a4 ac 3e b4 f0 90 bd ac 42 e4 3b 71 0e 88 bd
       0.33719388 -0.070771605 0.0069659557 -0.066433795
0000c0 3f 12 bc bc 7d 02 29 3d 02 e0 fd 3d 25 e2 75 be
       -0.02295792 0.04126214 0.12396242 -0.24012049
0000d0 a6 79 8c 3c af a6 a5 3e 5f 94 70 bd 73 75 37 3d
       0.01714785 0.32353732 -0.058735248 0.044789743
0000e0 81 aa 9f bd 14 3b c9 3c 53 b6 9a 3e 2e 8c 01 bd
       -0.07796193 0.024564303 0.30217227 -0.031627826
0000f0 6c 6c 3e 3d 5f 5d 64 be be 80 a3 be 71 12 15 3e
       0.046490118 -0.22301243 -0.3193416 0.14557816
000100 06 ae 68 3e 9a 10 19 3e 06 9a de bd 33 31 5d be
       0.22722635 0.14947739 -0.108692214 -0.216008
000110 5e b8 b8 bd ff 81 b4 3d 34 22 aa 3e f7 85 80 be
       -0.0901954 0.08813857 0.3322922 -0.25102207
000120 2b e9 5e 3d 68 e4 bf 3e 0b fe 78 3e bb ab 06 3e
       0.054421585 0.37478948 0.2431566 0.13151447
000130 1c 08 eb 3d de 7f c1 bc 65 15 53 bd ac fc 6f 3e
       0.11476156 -0.023620542 -0.051534075 0.2343623
000140 17 cd 18 bd a6 fb 8f 3e 82 fb fb 3d 22 33 2a be
       -0.037304964 0.2812168 0.12303831 -0.16621068
000150 ae fd 47 be 90 3b 7b be fd bd 2c bd 12 40 b6 3e
       -0.19530365 -0.2453444 -0.042173374 0.35595757
000160 24 92 9b 3e 94 71 b3 3d aa 5c ae 3d f8 f9 59 be
       0.30384934 0.08761898 0.08513768 -0.21286762
000170 55 1c f1 bd 5b 1c 6d 3e 26 da 5d be 00 85 25 be
       -0.11772982 0.23155348 -0.21665248 -0.16164017
000180 ac 90 2b 3e d1 76 41 3e ff 31 72 3e 93 d8 86 3e
       0.16754407 0.18892981 0.23651884 0.26337108
000190 af 92 4e 3e 17 ee da 3e a3 2a 9c bc c5 46 78 3e
       0.20173143 0.42759773 -0.0190633 0.24245746
0001a0 c0 6a f6 3d d8 16 95 bd 14 1d 92 be 4c da b3 be
       0.1203208 -0.07279748 -0.2853781 -0.35127485
0001b0 d4 9f 9f 3e a2 09 1c 3d 9c ff 4d 3c 88 8d 57 be
       0.31176627 0.038095124 0.012573149 -0.21050084
0001c0 eb 14 a2 3e 38 b7 e8 3d 55 07 83 be 5d 03 a3 3e
       0.31656584 0.11363071 -0.2559153 0.31838503
0001d0 de 09 23 3d ba 67 40 bd dc 84 79 be 36 b4 af ba
       0.039804332 -0.04697392 -0.24367088 -0.0013405147
0001e0 65 bd f0 3c 32 be 07 be 6b 4e 7f 3e bb fb 94 be
       0.029387185 -0.13256148 0.24932258 -0.29098305
0001f0 7d 3e 81 3c 7a ba e2 3d 53 a0 44 3e d0 0b 20 be
       0.015776867 0.11070724 0.19201784 -0.15629506

actor.2.weight f4 [64, 128]
000000 6d eb 87 bd f5 94 05 3c 8d 8c 26 3e 30 0f 49 3e
       -0.06636701 0.00815319 0.16264553 0.196347
000010 d6 a0 b5 bd 81 ba d2 3d d2 a6 a9 bd 41 e6 63 bd
       -0.08868568 0.10289479 -0.082837716 -0.05563951
000020 1f 23 89 bd 1a ee 27 3e 4f ba 7a bc 42 5e 6c 3e
       -0.06696152 0.16399422 -0.0153032085 0.23082832
000030 21 dc 95 3d 54 02 70 3d b8 88 9c 3c e9 e1 85 3d
       0.07317377 0.05859597 0.019108161 0.065372296
000040 14 61 6e be a1 b7 cf 3d 1d 19 a5 3d 9d 13 81 3c
       -0.2327922 0.10142446 0.080614306 0.015756423
000050 d4 ee 67 be 06 31 6f 3c 67 ae 2f 3e 44 79 46 bd
       -0.226497 0.01459909 0.17156373 -0.04845549
000060 07 ad c8 bd a7 68 27 bd 8b a9 95 3d 5d 04 ee bd
       -0.09798627 -0.04087129 0.073077284 -0.11621926
000070 64 d3 1b 3d d3 30 f5 3d b8 2c 94 3c bc 23 5c be
       0.038043395 0.11972203 0.01808773 -0.21498007
000080 74 11 6d 3e 9e 4f 2c be 34 3e 5c 3e a8 11 09 be
       0.23151189 -0.16827247 0.21508104 -0.13385642
000090 a7 de af bd fe 1b 98 3e 44 4b 14 be 51 a3 c3 bc
       -0.085873894 0.29708856 -0.14481837 -0.023881586
0000a0 55 13 1d bc 1f ef 02 3e e5 00 59 3e 01 41 89 3d
       -0.009587129 0.1278653 0.21191747 0.06701852
0000b0 8c 6b 0f 3e 45 f7 77 be 32 81 1b 3e 69 0b c0 bd
       0.1400587 -0.2421542 0.15186003 -0.09377176
0000c0 0d 92 a9 3c 54 63 3d 3d c6 65 b0 3c 6a f5 14 3e
       0.020699525 0.046237305 0.021532904 0.14546743
0000d0 44 d8 9c 3d 99 2e f2 bc 61 db 15 3e a9 6c 1d 3b
       0.07658437 -0.029563235 0.14634468 0.0024021065
0000e0 b2 be 07 3e b9 3d 1d be 7a 7a 02 be b8 f2 35 3d
       0.13256338 -0.15355577 -0.12742034 0.044420928
0000f0 ab 3e dd 3c 19 f9 c5 3d 45 1d 25 3d 61 27 3a 3e
       0.027007421 0.09666652 0.040311117 0.18179084
000100 fe ce 16 3e eb 4d 21 be d7 f7 d1 bd a7 05 9d bc
       0.14727399 -0.1575238 -0.1025235 -0.019167734
000110 47 6f 0d 3e a8 a4 2b be 65 44 2d 3e ee f6 65 3e
       0.1381198 -0.1676203 0.16920622 0.22457477
000120 c4 ac 5e 3c 6b 70 b8 bd 1a aa a8 bd e8 19 e8 bd
       0.013590995 -0.09005817 -0.08235569 -0.11333066
000130 30 a3 8d 3d 77 fe 55 be bf 37 3d 3e ea 80 05 3d
       0.06915891 -0.20897852 0.18478297 0.032593645
000140 6e b0 9b 3d 8b ee 86 3d f6 17 db 3d b5 e4 b4 3d
       0.07602011 0.06588467 0.106979296 0.08832685
000150 12 88 70 be af ec a9 be 61 fc 8c 3d d9 7a 03 be
       -0.23489407 -0.33188388 0.06884075 -0.12839831
000160 3d 1d d4 3d 29 4e 2c 3d 26 b4 15 3d 05 7e 38 be
       0.10357139 0.042066727 0.036548756 -0.18016823
000170 6a 2d d4 bd 3a f6 c7 3d 7e 63 84 be 19 36 3b be
       -0.103602245 0.09763761 -0.25857157 -0.18282355
000180 6b cb a5 3d 03 5d f0 bd 1b ae 87 3e 4a be f5 3d
       0.080954395 -0.117364906 0.2650002 0.119991854
000190 f9 a0 06 be 59 51 27 3d 8a ce b0 3e 19 b1 b3 3d
       -0.13147344 0.040849064 0.34532577 0.08774013
0001a0 55 0b d2 3d 38 e3 88 bd 7a 67 ef 3d 9c 11 11 3e
       0.10256068 -0.066839635 0.116896585 0.14166874
0001b0 3f b7 11 be f2 91 6c bc c7 45 35 bc f4 b5 ff 3c
       -0.14230059 -0.014439093 -0.0110639995 0.031214692
0001c0 5b 34 9b 3d 46 ab 05 3d f3 b3 aa bc cc a9 27 3e
       0.075783454 0.032634042 -0.02083776 0.16373366
0001d0 17 48 80 bd 61 7f 45 3e 09 dc de 3d 60 37 a7 3e
       -0.0626375 0.19286872 0.10881812 0.32659435
0001e0 67 4f 81 be 15 c5 18 3e 16 86 e1 bc ec ff 8f be
       -0.25255892 0.14918931 -0.027529757 -0.2812494
0001f0 50 68 49 3d f1 6f 50 3e 2f b6 00 bc f7 97 36 3e
       0.049171746 0.20355202 -0.007855936 0.17831407
000200 89 ab 48 be f5 7b 93 3e 32 99 ae 3d fb 42 8f 3e
       -0.19596685 0.2880551 0.085253134 0.2798079
000210 cc 55 79 bd e0 9b 54 be 68 13 b8 3d 49 ff b6 3d
       -0.060872838 -0.20762587 0.089880764 0.089354105
000220 a5 e9 f0 3d f9 b6 71 3e 05 32 28 bd 55 57 25 bd
       0.11763314 0.23604955 -0.041063327 -0.04036649
000230 12 35 45 be 0d 40 c5 3d fe 1e d1 bc b3 e6 87 bd
       -0.19258526 0.09631357 -0.025527474 -0.06635799
000240 98 e9 46 3e 2e 74 41 be 1f 79 24 3e 2a 79 68 be
       0.19425046 -0.18891975 0.16061829 -0.2270247
000250 65 ea c6 3d f5 d7 ea bd ad 4f 51 bd 9a d2 2e be
       0.09712676 -0.11466972 -0.051101375 -0.17072526
000260 3d c3 97 3c 0f 5f 34 3e 28 2f 95 3d 96 ff fa bd
       0.018525714 0.17614387 0.07284385 -0.122557804
000270 2a 81 50 3d a0 5c 35 3d 40 bc 98 3d 4f 7e 8c bd
       0.05090443 0.044277787 0.07457781 -0.06860029
000280 8f 25 6b 3e 61 83 cb 3d d8 2a 2b be 80 7d ff 3d
       0.22963546 0.09937168 -0.16715562 0.12475109
000290 3e 3e 30 3d 71 91 76 3e 99 c8 b8 3d 69 68 12 be
       0.04302811 0.24078919 0.09022636 -0.14297642
0002a0 61 e7 97 3e 64 34 e6 bd 2a ce 6f 3e 79 d9 93 3d
       0.29668716 -0.112404615 0.23418489 0.07219214
0002b0 22 ae 10 3e 18 ea 19 3e 93 8a 11 3c a6 1c cc bd
       0.14128926 0.15030706 0.008883136 -0.09966402
0002c0 ee 9e 5f 3b 29 2d 8c bd c7 2e e0 bd 72 c5 ce 3d
       0.003412183 -0.06844551 -0.10946422 0.100962535
0002d0 77 91 3f 3d 5e ad 68 3d 3a 0d 68 3e a1 6a c3 3c
       0.046769585 0.05680596 0.22661296 0.023854556
0002e0 4a 1a 73 3e 34 5b 23 bd 7c b5 26 be 5d 2c 11 3d
       0.23740497 -0.0398819 -0.16280168 0.0354427
0002f0 1e 90 1a bd 2e fa e6 bd 47 2a ff 3b 4d ca f8 3d
       -0.037735097 -0.11278187 0.0077870223 0.12147961
000300 1b 36 db bb fd 1b b0 bb b5 74 16 3e 6b 78 fe bc
       -0.0066897995 -0.00537443 0.14692958 -0.03106328
000310 bd 29 e0 bd b6 a5 4a bd 21 d7 49 3e 48 02 60 be
       -0.10945461 -0.04947444 0.19710971 -0.2187587
000320 23 29 f4 3c 56 0f fe 3d a6 27 13 bd c0 ca 6b bd
       0.029804772 0.12405269 -0.035926484 -0.057566404
000330 d2 1c 5b 3e d5 e3 0f 3d c6 f4 0c 3e 59 a1 83 3e
       0.21397713 0.035129387 0.13765249 0.25709036
000340 44 ad 9a bd b4 1d 41 3e 2a f7 a4 3d 69 3f 37 3d
       -0.07552579 0.18858987 0.08054955 0.044738207
000350 a8 0e 6d 3e b6 41 0a 3e 2c 3f 84 3e ed 71 3f 3d
       0.23150122 0.13501629 0.25829446 0.046739507
000360 4e 81 6b 3e 37 06 23 3b 28 5e 88 be e9 88 83 bc
       0.22998545 0.002487553 -0.26634336 -0.016056495
000370 e5 e2 c7 3d 06 39 f2 3d 56 8a 12 be c4 65 7d 3c
       0.097600736 0.118272826 -0.14310583 0.015466157
000380 d8 62 c0 3d a9 f7 87 3e 73 a0 53 bd 6c 89 b9 3e
       0.09393853 0.26556137 -0.05166669 0.36237657
000390 4a 3e a7 bc b9 ef 83 3c ae ad 4c 3d 7b e0 48 3e
       -0.020415444 0.01610552 0.04997032 0.19616883
0003a0 55 f4 5d 3c 26 48 6d be ea fa b5 3b bb 25 37 3e
       0.013547023 -0.23172054 0.005553593 0.17885487
0003b0 c1 26 29 3e 6b f8 6b bd ce 67 32 3e 4b 15 1d 3e
       0.1651869 -0.057609957 0.17422411 0.15340154
0003c0 f7 c8 85 3d 52 c5 b5 bc aa a4 65 3e 62 c6 de bb
       0.065324716 -0.022188816 0.22426096 -0.0067985514
0003d0 8b 05 dd 3e 9b d3 6e be 94 fe 87 bd 35 4f 33 be
       0.4316829 -0.23322909 -0.06640354 -0.17510684
0003e0 a9 1e 8d bd c5 2c 25 bd 92 72 7b bc 17 16 8f bd
       -0.068906136 -0.0403259 -0.01534714 -0.06986635
0003f0 36 ce 0f be f5 68 04 3e 6a eb 89 3e 70 73 58 3e
       -0.14043507 0.12930663 0.2693742 0.21137786

actor.2.bias f4 [64]
000000 ea f8 3a 3d 1f a1 be 3d e6 b5 3c 3d 98 48 3b 3e
       0.04564754 0.09308075 0.04607191 0.18289411
000010 88 30 b8 3c 07 76 7a 3d 6c 66 6d 3d 71 f4 96 3d
       0.022484079 0.061147716 0.057959005 0.07370842
000020 41 38 d8 bc 4a ec 5f 3d c8 22 55 3b 0f 5a f3 3b
       -0.026394011 0.054668702 0.0032521952 0.0074265073
000030 d7 3b a7 bd a1 55 95 3d 50 51 9d bd 64 a6 b7 bc
       -0.081657104 0.07291723 -0.07681525 -0.022418208
000040 5f 4f 91 3d 00 8d 81 3d c6 f5 b9 3d df d1 ef bd
       0.07095217 0.06325722 0.09080081 -0.117099516
000050 33 95 ad 3d 1f 2f f6 bd cd a1 e5 bc be a8 8b b9
       0.08475723 -0.120207064 -0.028031254 -0.0002663787
000060 1d d9 7a bd 7e c9 88 bd c4 6a a2 bb d2 fd 8a bd
       -0.06124221 -0.066790566 -0.004956575 -0.06786694
000070 92 48 fc 3d f4 0b 0d bc 8a ae 0d 3e ae db e8 3b
       0.12318529 -0.008608807 0.13836113 0.007106266
000080 21 e5 9f 3d a7 4b 04 3d 50 59 2d bd b3 4a 5a bd
       0.07807375 0.03229871 -0.042321503 -0.053293895
000090 cb a8 1c 3d 94 82 47 bd 47 a7 27 bd 53 e1 63 3d
       0.03824691 -0.048708513 -0.040931012 0.055634808
0000a0 d2 0b 9c 3d b7 05 6c bd d4 13 75 3b 33 14 ad 3c
       0.07619442 -0.057622638 0.0037395852 0.021127796
0000b0 1c 45 92 3d 7d af 29 3d d5 00 fc 3c b9 42 5e 3d
       0.07142088 0.041427124 0.030762115 0.05426285
0000c0 9a de 11 3d e8 d9 c8 3b 2a 09 e9 3c 26 63 2d 3d
       0.03561268 0.006129492 0.028446753 0.042330883
0000d0 bb 5a a8 3d b6 3c aa 3d 10 21 aa bd f2 cc 99 ba
       0.082204305 0.08312361 -0.083070874 -0.0011734052
0000e0 c9 7a c6 bd 21 10 9c 3d 2e 4f e2 bd 3d 30 38 3d
       -0.09691388 0.07620264 -0.110502586 0.04496788
0000f0 92 50 46 3d b5 b4 7a 3c 52 e7 9b 3c 6d 28 ce 3d
       0.04841668 0.015301873 0.0190312 0.10066304

actor.4.weight f4 [4, 64]
000000 17 33 2f bd 2e f3 77 be 4a 26 52 3e 36 6c a9 bd
       -0.042773332 -0.2421386 0.20522419 -0.08272593
000010 84 1e b4 3e 8a 18 73 3e 08 1d ec 3d b1 68 b8 3e
       0.35179532 0.2373983 0.11528975 0.36017373
000020 2e 52 c3 bd ce 5a cc bd 0c 43 93 3e ce 43 57 be
       -0.09537159 -0.09978257 0.2876209 -0.21021959
000030 b1 db 40 3b 6b 5d 5c be ed 2e 62 3e ae 3e c8 3e
       0.0029427821 -0.21520011 0.22088213 0.3911032
000040 ce ba b8 3e e5 55 f6 bc 32 65 1e be f8 a9 65 be
       0.3608002 -0.030070255 -0.1546829 -0.22428119
000050 3c cd a0 be 59 27 6a be 45 95 78 bd 40 fa b1 bd
       -0.3140658 -0.22866572 -0.06068923 -0.086903095
000060 21 5b e3 bd c3 e5 c1 be 92 44 48 3c 7a bf 55 be
       -0.11101366 -0.37870607 0.01222338 -0.20873824
000070 df 52 a8 be 29 c9 eb 3d d5 d6 11 be 93 b9 3a 3e
       -0.32875726 0.11512978 -0.14242108 0.18234853
000080 56 2a c0 bd 69 de 20 3e 36 22 2b 3e b9 f3 2a bd
       -0.09383075 0.15709843 0.16712269 -0.04173634
000090 9a db d9 be 1c b6 56 3e 04 c7 95 3e 9c c5 8c 3e
       -0.42550355 0.20967907 0.292534 0.27494514
0000a0 82 92 9b 3d c0 1f 5d be 26 4b 86 be 0e b9 f3 3d
       0.075963035 -0.21594143 -0.2622921 0.11900531
0000b0 fc ec c7 be d4 d9 ab 3e 07 a6 9b 3e 2d 5f 85 3e
       -0.39047992 0.33564627 0.30400106 0.26049176
0000c0 49 dd a2 3d 23 1d 63 3e f8 69 0b 3e 70 29 0a 3e
       0.07952363 0.22179084 0.13614643 0.1349237
0000d0 7a 73 b7 be f8 26 31 3e d1 74 e6 3d 6a 82 8b 3e
       -0.3583029 0.17300022 0.1125275 0.27247936
0000e0 17 fc 06 3c 4d 59 27 3e cc d5 df bd 6e e8 b1 be
       0.008238814 0.1634266 -0.109294504 -0.34747642
0000f0 2c 8c aa 3d 54 0b 93 3e b5 9b d3 bd d2 65 b7 bd
       0.08327517 0.2871958 -0.10332433 -0.089549676
000100 b0 84 06 be a7 80 80 3d 89 94 02 bf 00 68 83 bd
       -0.13136554 0.062745385 -0.51007897 -0.06416321
000110 01 9b 3c be 49 ad 5e 3e d2 40 da be 1e 1c 96 bc
       -0.18418504 0.2174579 -0.4262758 -0.018323954
000120 d9 b6 17 be ef 78 67 be a1 c9 6f 3c 9c c8 08 3e
       -0.14815845 -0.22604726 0.014635474 0.13357776
000130 11 69 67 be b3 41 96 bc 7d 99 87 be 46 62 56 3e
       -0.22598673 -0.018341875 -0.2648429 0.20935926
000140 7e 2a 6b be ab 22 9e 3e c4 b2 a0 3d cc d8 37 bd
       -0.22965428 0.30885825 0.07846597 -0.044884488
000150 81 e4 7f be 4e 75 92 be e8 94 d0 3e b3 b1 cc 3e
       -0.24989511 -0.2860512 0.40738606 0.39979324
000160 25 c8 38 3e c7 c9 a6 be bd 5f c3 bc 82 2d 27 bc
       0.18045099 -0.3257582 -0.023849363 -0.010203721
000170 05 83 4e be c6 09 1f be f9 61 85 3e f9 06 8a 3e
       -0.20167167 -0.15531072 0.2605131 0.26958445
000180 c8 d9 b6 3e 3b bc de 3e 13 1a 6e bd bd ae be 3e
       0.3571303 0.43502983 -0.058130335 0.3724269
000190 6a f4 a2 3e c1 d6 c9 be 3b da a9 3e e4 6b 35 3c
       0.31827098 -0.39421657 0.3317431 0.011073086
0001a0 8a fe 8b 3c 36 9e 3c 3e c9 4d 99 3e ca 2c 5a bd
       0.017089147 0.18419728 0.29942158 -0.05326537
0001b0 f1 20 42 3e dc 99 c3 be 71 65 d4 3d ac 14 97 3e
       0.18957879 -0.38203323 0.10370911 0.2950796
0001c0 28 54 be be 38 1f 97 be 6c a1 4f bc 8d bd a0 bc
       -0.3717358 -0.29516006 -0.012672763 -0.019621635
0001d0 8b 6f d8 3e 75 71 af 3e 55 3c 6e 3e 77 67 c3 be
       0.422726 0.34266248 0.23265202 -0.38164875
0001e0 95 c7 95 bd 03 a4 94 3e 7d 25 7f be ea 7d 3d 3e
       -0.07313458 0.2903138 -0.24916644 0.18505064
0001f0 78 a2 89 be f2 98 13 3e cb db b6 be 5f d1 07 3e
       -0.26881766 0.14413813 -0.35714564 0.13263462
000200 09 ee a0 3e a2 e8 18 3e b6 d6 cd 3d 90 63 43 bd
       0.31431606 0.14932492 0.100507185 -0.047702372
000210 a2 50 88 3e 42 aa d8 be 31 2a ef 3d 19 3e 51 be
       0.26624018 -0.42317396 0.11677969 -0.20433845
000220 60 ee d3 3c 4f 21 db be c4 49 c6 be 04 53 b1 3e
       0.025870502 -0.4279885 -0.38728154 0.34633648
000230 1c a9 8f bd cc a4 90 3e f9 e0 72 3c 41 39 08 3d
       -0.07014677 0.2825073 0.0148241455 0.033257727
000240 9d a8 97 be 0b 18 cf 3d d4 d6 bf 3e 31 65 83 3e
       -0.2962083 0.10112008 0.37468588 0.2566314
000250 c8 dd 4f 3e f9 fe 2d 3e 19 70 a2 be f1 7e 93 be
       0.20299447 0.16991796 -0.3172615 -0.28807786
000260 a8 29 87 be fe 4d 9f be c7 57 fc 3d 0b ce c8 bc
       -0.2639897 -0.3111419 0.1232143 -0.024512311
000270 69 6a 28 be 8c 50 8a 3e 1e b0 7f 3e bd 16 af be
       -0.16446842 0.27014577 0.24969527 -0.34197035
000280 73 8a be 3e e6 b8 e1 be 91 d1 88 3e 30 30 47 3e
       0.37215003 -0.4408638 0.26722386 0.19451976
000290 54 de 8e 3d 94 c1 d5 3e bd 07 09 be 81 0e 62 bd
       0.069759995 0.4174925 -0.13381858 -0.055189613
0002a0 cc 46 84 be a0 95 82 be a4 af 2c bc 41 cb 9b be
       -0.25835264 -0.2550478 -0.010539923 -0.30428508
0002b0 92 6b 10 bd 96 18 96 be ff 5b a2 3e 99 2b 92 3e
       -0.035258837 -0.29315633 0.31710812 0.28548887
0002c0 cf bb b6 3d 03 52 0b be 0f 1e 83 3e ed d7 58 be
       0.089225404 -0.13605504 0.2560887 -0.21176119
0002d0 98 ca ff bd e5 79 18 3e e4 03 69 bb a1 85 7d bd
       -0.124898136 0.14890249 -0.0035555298 -0.061895017
0002e0 2e 3f a6 be 58 ac 8f 3e 13 5d 1f be e2 a9 b1 3e
       -0.32470077 0.28061175 -0.15562849 0.34699923
0002f0 89 51 af 3d 78 90 87 3e 77 59 35 3d 14 06 b6 3e
       0.085604735 0.26477408 0.044274773 0.35551512
000300 ad 5c a9 3c 42 9e 99 3e 1f 95 f3 3e 6f f7 bc 3e
       0.020674074 0.30003554 0.47574708 0.36907527
000310 c9 c1 5a be aa 05 a2 3e e2 b2 4d 3d 35 1b 26 3d
       -0.21362986 0.31644946 0.050219424 0.04055329
000320 a3 3c 85 be 72 ed 75 3e 4b 59 7c be 92 cf 48 be
       -0.26022825 0.2401636 -0.24643438 -0.19610432
000330 70 3e 66 be 75 67 80 3e a0 80 78 be 66 83 c5 be
       -0.22484756 0.2507893 -0.24267817 -0.38576812
000340 57 75 d5 3c c0 f1 cb be 7e 75 14 3e 1b 2d 7c 3e
       0.026056929 -0.39832878 0.14497945 0.24626581
000350 62 e3 89 3d 7c 4d 44 be ae ff 57 3e 80 b5 93 3c
       0.06732823 -0.19170183 0.21093628 0.018030882
000360 c7 0c 4a 3e 69 47 1a 3e ac bc 84 3e ed 00 8c bd
       0.19731437 0.15066303 0.25925195 -0.06836114
000370 8a d4 f7 3e 0b ff 43 be 9c ac a3 3e 7f 74 79 3e
       0.48404342 -0.1914026 0.31967628 0.24360846
000380 5c df ad be e3 80 16 bd 36 a1 c5 be 6b 6d c2 be
       -0.33959472 -0.03674401 -0.38599557 -0.37974104
000390 67 1f 1c 3e de 8f c6 bd 33 78 82 be 2b b2 18 3e
       0.15246354 -0.09695409 -0.2548233 0.14911716
0003a0 98 81 1c 3e 7c 44 2c 3e a8 36 55 be 57 09 54 3e
       0.15283811 0.16823 -0.20821631 0.20706688
0003b0 e1 79 6a 3e 4d be af 3e 23 15 73 3e a9 22 f4 be
       0.22898056 0.34324875 0.23738532 -0.47682694
0003c0 79 31 bf 3e 46 99 d3 3e 45 b4 56 be d8 3f 35 be
       0.37342432 0.41327876 -0.20967205 -0.17700136
0003d0 12 50 db 3c 5e 85 06 bd cd 4e 2c be 3b 63 77 3d
       0.026771579 -0.032842033 -0.16826935 0.060397368
0003e0 c6 48 cd bd 46 48 60 be 55 05 2d be 98 b1 3f be
       -0.10023646 -0.2190257 -0.16896565 -0.1872009
0003f0 fe fe d8 3e 57 ae 13 3d 1f 52 0e 3d 60 de b0 3e
       0.42382044 0.036054935 0.034746286 0.3454466

actor.4.bias f4 [4]
000000 22 12 44 bd 3e 4f 81 3d f3 3c 98 bd 17 68 31 3e
       -0.047868855 0.063139424 -0.074335 0.17324863

critic.0.weight f4 [128, 8]
000000 ca 00 84 3d 10 c1 50 3d fc 10 89 3d 1f 28 b3 3d
       0.06445463 0.05096537 0.06692693 0.08747887
000010 fd e9 f4 be 52 fc 02 bf 88 b2 52 be 28 bd 08 3e
       -0.4783477 -0.5116626 -0.20575917 0.13353407
000020 19 18 07 bf 4f 44 2e be f0 4c a6 be 5a e6 78 be
       -0.52771145 -0.17018245 -0.32480574 -0.24306622
000030 45 28 00 3f dc 0a ca 3e 99 54 1f 3e 3d ed a5 bd
       0.50061446 0.3946141 0.15559615 -0.0810189
000040 87 4c 0e bf 44 eb ed bd 4f 9a c1 3d 85 8d d4 bd
       -0.5558552 -0.11617139 0.0945326 -0.10378555
000050 55 c6 83 be 7f e0 4e be a1 67 34 3e dc 70 4d 3d
       -0.25737253 -0.20202826 0.17617656 0.05015646
000060 27 51 1e bd 13 97 45 bc 18 4d e6 bd 29 44 8e bc
       -0.03865161 -0.012059945 -0.11245173 -0.017366486
000070 fe 4b 59 be 9f ff e0 be 31 7e d9 3d c1 be 80 3e
       -0.21220395 -0.43945023 0.10619772 0.25145534
000080 0c 98 49 be f6 ac 13 bf d6 9a 8a be 19 34 e6 3b
       -0.19686908 -0.5768579 -0.27071255 0.0070252535
000090 03 c9 2d 3f 53 ff 8f 3e 73 d5 47 3e a2 b2 99 3e
       0.67884845 0.28124484 0.19515018 0.300191
0000a0 57 28 f2 3e 03 11 b3 bd 29 5c af 3d bf 09 a4 3d
       0.47296402 -0.08743479 0.085625 0.080096714
0000b0 30 10 b1 be b5 8f 5e 3e 6f cc ae bd 7e c9 c8 be
       -0.34582663 0.21734507 -0.08535086 -0.39216226
0000c0 08 6d c8 be 61 89 06 3d 14 14 50 3e 52 70 2f 3d
       -0.39145684 0.03284586 0.20320159 0.042831726
0000d0 4b f5 53 3e e3 c9 09 3f 3f 3c af 3c 6f 81 4f be
       0.2069904 0.5382368 0.021391032 -0.20264219
0000e0 e2 a2 18 bf e1 c2 49 bd f1 29 14 bd 8f 3c 8e bd
       -0.5962354 -0.049258117 -0.03617281 -0.069451444
0000f0 ce 68 d2 3e e7 ce c7 bd 66 78 97 3d c9 80 4c bd
       0.41095585 -0.0975626 0.07396011 -0.049927507
000100 17 94 4c 3e ad 13 bf 3c 1d b4 8b be 06 1c 5e bd
       0.19978367 0.023324812 -0.27285853 -0.054225944
000110 70 d7 cb 3d af 48 b1 be 1a 04 8d 3e 2a cf 99 3e
       0.09953201 -0.34625766 0.27542192 0.30040866
000120 9a 23 1f be f5 cb 34 3e 68 48 aa bb a7 f0 47 bd
       -0.15540925 0.17655928 -0.00519662 -0.04881349
000130 84 bf 02 3f 48 30 0c 3f 7e dd bc 3d 18 d7 7f 3e
       0.5107348 0.5476117 0.09221934 0.24984396
000140 80 0e a6 be f7 1c 22 be 39 15 a4 be a2 9b 21 be
       -0.32432938 -0.15831362 -0.32047442 -0.15782025
000150 f2 5d 2c 3e 4c 6e d5 3d 49 93 a0 bd 04 ff b0 bc
       0.16832712 0.10421428 -0.078405924 -0.021605976
000160 18 c5 53 3c 22 5f 12 be a4 7b 07 3e 70 51 47 3e
       0.012925409 -0.14294103 0.13230759 0.1946466
000170 10 25 46 be 14 52 e5 3d c0 c7 a6 bb 1d a8 87 be
       -0.19350076 0.11197296 -0.00508973 -0.26495448
000180 cc 1b cd be 5b d0 74 bc 85 a4 fb 3d 1f 8a a9 3e
       -0.4006027 -0.014942254 0.12287239 0.3311319
000190 fc 0a a4 3e 79 c9 55 be c8 c6 32 be 16 f4 5e be
       0.3203963 -0.20877637 -0.17458642 -0.21772799
0001a0 0a 5b 56 be fc 7e e5 bd 0b 8c 23 be 63 c4 a3 bd
       -0.20933166 -0.11205861 -0.15971391 -0.07996442
0001b0 0f 63 b9 3e 57 3a d1 3e 5a eb a6 3d 2e ef 70 3b
       0.36208388 0.40864822 0.081503585 0.0036763656
0001c0 f0 37 45 3e 23 10 09 3f 74 ee 18 3e a2 be ac be
       0.1925962 0.5354025 0.14934713 -0.3373919
0001d0 89 9a 62 be 3c b1 a4 3e 78 e9 a8 be ed f5 c8 3d
       -0.22129263 0.3216647 -0.32990623 0.098125316
0001e0 0b 20 60 be d5 c4 ff 3e 17 a2 76 be b2 49 bd bb
       -0.21887223 0.49954858 -0.2408527 -0.0057766074
0001f0 f0 ba 81 bc 13 1b 8b 3e 3a 6e a9 3e fe 6a 16 3d
       -0.015836209 0.27169093 0.3309191 0.03672313
000200 6c 0f 9d bd 52 60 c2 3d 88 7b 4c be ac a5 08 be
       -0.07668957 0.09491028 -0.19968998 -0.13344449
000210 45 b0 a8 3d f2 63 1c be 6b 17 88 3d 31 4e 8a be
       0.08236746 -0.15272501 0.066450916 -0.2701278
000220 7c 5e b7 be 90 58 21 be a5 36 ba be 6f 46 51 be
       -0.35814273 -0.1575644 -0.36369815 -0.20437025
000230 74 84 ce 3e 2d 8f 25 3e dc 40 6a 3e e5 f7 63 3d
       0.4033543 0.16167898 0.22876304 0.055656333
000240 e0 2a 19 3f b4 1b a6 bd 9f 03 e3 3d 38 31 31 bd
       0.5983105 -0.08110753 0.11084675 -0.04325983
000250 ea 6b f9 be dd d2 be bd d9 25 1c bd 1b 37 d6 bd
       -0.48715144 -0.09317563 -0.03812203 -0.10459729
000260 03 a5 77 3e 79 ea e4 3e 88 1e 27 be 46 65 e8 be
       0.2418404 0.44710138 -0.1632024 -0.45389766
000270 95 58 e1 bd aa ec 9c 3d b5 d5 88 be 47 3a b1 bc
       -0.11003224 0.076623276 -0.26725546 -0.021634234
000280 a0 b6 58 be 99 f9 09 3e c5 d8 b5 be 99 5d cf 3d
       -0.21163416 0.1347412 -0.35516945 0.10125274
000290 dd 9f 26 3e f6 d0 74 3e 07 e9 46 be 91 ea 31 bd
       0.1627192 0.23907837 -0.1942483 -0.04343659
0002a0 9a 0c f0 be bb bd a8 3e 5f fd 06 bf 3c 66 25 be
       -0.46884614 0.32957253 -0.52730364 -0.1615228
0002b0 8b 35 3d bc 7f d0 33 be 77 8e f9 bd 93 c8 86 3d
       -0.01154841 -0.17560004 -0.12185376 0.06581225
0002c0 b7 7f 34 be 49 35 0a bf b8 e2 06 be 86 57 93 3e
       -0.17626844 -0.53987557 -0.13172424 0.28777713
0002d0 dd ce dd 3e 81 67 30 3e 63 dd f6 bd 16 d2 d1 3e
       0.43321887 0.17226984 -0.12053945 0.40980595
0002e0 f4 25 d7 be 5c ab 17 be 39 d5 b9 be 3e 71 cc bd
       -0.42021143 -0.14811462 -0.36295488 -0.09982537
0002f0 6f e1 bb 3e 25 11 55 3e 77 f8 9a 3d 54 79 73 3e
       0.3669543 0.20807321 0.07566922 0.23776752
000300 47 70 f1 3e ce 3c 15 be 90 54 b7 3d 1c c5 c3 3d
       0.47155973 -0.14573976 0.08951676 0.0955908
000310 65 96 0b be df 7d bf 3e c9 cc cf 3e 60 0b 6c 3e
       -0.1363159 0.3740072 0.40585926 0.23051214
000320 d8 c1 57 3d 19 11 27 bf ce 92 79 3e 54 92 44 3e
       0.0526751 -0.65260464 0.24372408 0.19196445
000330 f2 c9 a2 be 35 92 99 be b2 d0 2c 3e 0b 5c 73 3d
       -0.31794697 -0.2999436 0.16876486 0.05941395
000340 b2 b0 17 bf 3d 4b 84 bd ee 88 d0 bd 8a 46 70 3d
       -0.5925399 -0.06459663 -0.10182367 0.05866102
000350 04 b2 de 3e c1 4e 27 bc 3b 18 73 bd d2 23 9d 3c
       0.4349519 -0.0102116475 -0.05934928 0.01918212
000360 68 45 a2 be f1 68 c0 3e 79 b5 68 be 36 9a 9b 3e
       -0.31693578 0.37580064 -0.22725476 0.3039109
000370 35 97 fc 3d 24 f4 13 be de 96 c3 be e4 10 d1 3d
       0.12333528 -0.14448601 -0.3820104 0.102083
000380 b9 c0 70 3e 5f d4 a3 bd 26 d8 d0 3e 6b 3b 88 be
       0.23511018 -0.07999491 0.40789908 -0.26607832
000390 ec 2d 8a be a2 14 0d bd 98 59 69 3e a0 b5 03 be
       -0.2698816 -0.034443505 0.22788084 -0.12862253
0003a0 c1 c8 8b be c8 b5 bd 3e 62 09 6a 3e 1b 6f ba be
       -0.273016 0.3705275 0.22855142 -0.36412892
0003b0 7e c9 8d be de e1 ad bd 7c fd dc 3e 0c 5f 11 be
       -0.2769279 -0.08490346 0.43162143 -0.14196414
0003c0 cf ff f1 be 89 22 17 be a9 79 9e be ee f5 d8 be
       -0.4726548 -0.14759268 -0.30952194 -0.4237513
0003d0 b4 37 de 3e e6 fa 83 3e 10 f2 91 3e 99 ab 36 3e
       0.43401873 0.25777358 0.28504992 0.17838897
0003e0 ba 94 d9 3d 87 b5 c2 bc b6 30 08 3f 3b df 87 be
       0.106240705 -0.0237682 0.53199327 -0.265375
0003f0 de 60 d1 be f7 18 de 3c 94 bd 40 3c 36 fd 44 3e
       -0.40894216 0.027111514 0.011763949 0.19237217

critic.0.bias f4 [128]
000000 73 ba d4 3d 96 3a 5c bc 89 56 63 3d 35 35 ad bc
       0.10387125 -0.013441702 0.05550245 -0.021143535
000010 0c 2f 42 bd 02 db d7 3d 54 c2 90 3e 4d ba 80 bc
       -0.04740815 0.10539819 0.2827326 -0.015713835
000020 5b 34 56 3e 7a cc 5b be 54 cc dd bb 72 b7 b3 be
       0.2091841 -0.2146472 -0.0067687426 -0.35100895
000030 92 22 bd 3e e6 1d 92 bd c0 58 8f 3e 01 be ac 3e
       0.36940438 -0.07134609 0.27997398 0.3373871
000040 ad 3a f4 3e 34 d9 72 bd c2 78 68 3d d0 1c a2 3e
       0.47701016 -0.059289172 0.05675579 0.31662607
000050 63 0d c7 3e 9d ee ab bd 03 97 fc 3d f0 c6 6b bd
       0.388774 -0.08395121 0.12333491 -0.05756277
000060 3c 08 3f 3e 2a 2b 05 3e 59 82 dd 3c 9d 1a 45 bd
       0.18655485 0.13004747 0.027039694 -0.048121084
000070 3a 07 6c bd 81 05 2d 3e 23 f3 18 be 35 10 96 be
       -0.05762408 0.16896631 -0.149365 -0.2930924
000080 65 6d 5e bd 35 bd 85 3e c5 07 a7 3e 1e 1f e3 3e
       -0.054303546 0.26120916 0.32623115 0.44359678
000090 d6 69 5f be 00 5f cd 3e 9d 31 57 3d 57 31 27 3e
       -0.21817717 0.40111542 0.05253755 0.16327415
0000a0 88 26 7c 3d 05 ee 02 3f 23 92 0a 3f 29 1b 83 3e
       0.061560184 0.5114444 0.54129237 0.2560666
0000b0 7b c0 e0 3e 7f 5b 70 be ae 5e 5b bd a2 b5 52 be
       0.4389685 -0.23472403 -0.05355709 -0.205771
0000c0 b9 29 81 3e 1e 4f a0 be 15 12 eb 3d 3b 1b b2 bd
       0.25227144 -0.31310362 0.11478058 -0.086966
0000d0 df 45 1d 38 ec 51 bd 3d 1f 58 2d bd ca 9b 8a 3e
       3.749679e-05 0.09244141 -0.042320367 0.27071983
0000e0 fd 45 31 be a5 47 79 bd ee c4 0f be e2 b7 29 bc
       -0.17311855 -0.06085934 -0.14039966 -0.0103587825
0000f0 9e a2 80 3e 5a fa c9 bb d7 bb c2 3e ee 26 4a bd
       0.25124067 -0.0061638774 0.38033935 -0.049353532
000100 48 df d0 bd 9e 2f e5 bc cb 8c 33 be ec a0 5c 3e
       -0.101988375 -0.027976807 -0.17534177 0.21545762
000110 24 23 7b bd 88 2e e0 3e 1a f7 d7 bd 25 4a d4 3c
       -0.06131281 0.437855 -0.10545178 0.025914261
000120 35 9c 07 be fa 09 93 3e 14 0d 9d be 64 76 ff 3d
       -0.13243182 0.2871855 -0.3067404 0.12473753
000130 44 bb ab 3e a2 1c f2 bd 9c bb 8b be dd c4 24 3e
       0.3354131 -0.118218675 -0.27291572 0.16090722
000140 8f f6 a5 bd c8 17 da bd a1 67 32 be ff bf c5 3e
       -0.08103668 -0.10649067 -0.17422344 0.38623044
000150 ee 52 a0 3e 0c 13 7b 3e 89 1f b7 3e e7 e0 63 3e
       0.3131327 0.24518985 0.35766247 0.22253762
000160 7c 8d 82 3d e2 d4 78 3e 6b eb fa 3e 1d f6 c6 be
       0.06374642 0.24299958 0.49007735 -0.38859645
000170 86 b4 97 3d 5c 32 f6 bd 74 fe 93 be 19 65 d6 3e
       0.07407479 -0.12021324 -0.2890507 0.41874006
000180 e8 be 69 3e 88 ba 76 be 7a ed fe 3e 2a 37 92 bd
       0.22826731 -0.24094594 0.49790555 -0.07139428
000190 42 10 cc 3e 3d 06 3c be a6 a7 e6 3d 40 7c ed 3e
       0.39856154 -0.18361755 0.11262445 0.46383858
0001a0 62 2b 61 bd 5a 53 c3 3e 45 e2 8b 3e 8a 5c 64 3e
       -0.054973014 0.3814953 0.27321067 0.22300926
0001b0 3b 40 18 be 84 29 5b be de 54 3c be dd 08 bc bd
       -0.14868252 -0.21402556 -0.1839175 -0.09181378
0001c0 b9 a5 30 3e b7 e9 39 3e 4f 6f 46 3e 67 18 05 be
       0.17250718 0.18155561 0.19378398 -0.1299759
0001d0 25 b7 3b be b6 10 c7 3d f2 cf de 3e d4 6f d4 3e
       -0.18331583 0.09719984 0.43518025 0.41491568
0001e0 73 89 6a 3d d7 cd a5 be fc 64 82 bd 65 9d dd 3e
       0.057259988 -0.32383606 -0.063669175 0.43284145
0001f0 85 9a db bd c5 aa 32 3e dc 11 9c 3c 84 c9 b2 bd
       -0.10722832 0.17447956 0.019051485 -0.08729842

critic.2.weight f4 [64, 128]
000000 a2 b5 13 bd 3f 02 89 3e 51 1f 9f 3d cf 71 35 bd
       -0.03606189 0.26759526 0.07769645 -0.04429799
000010 31 92 f3 3d ef 67 83 3e 8f d1 3c 3e 01 53 03 3e
       0.11893118 0.25665233 0.18439315 0.12824632
000020 49 27 be 3d f2 83 a3 3e 91 58 d9 3d db b6 51 bd
       0.09284837 0.31936604 0.10612596 -0.051199775
000030 ca 91 ff 3d 48 d0 4b 3e 22 f9 29 3e a2 20 2c 3e
       0.12478979 0.19903672 0.16598943 0.16809323
000040 b3 ca 0f 3e 93 22 ff 3d 2b 86 73 3e 6c 34 f0 3d
       0.14042167 0.124577664 0.2378165 0.11728749
000050 84 29 6f 3d 38 04 7b 3d 38 38 27 bd 64 18 b8 3d
       0.0583892 0.06128332 -0.0408251 0.08989027
000060 fd 78 8b 3d 6e 9a 45 be 8d 8b 3f 3e fb eb 1d 3b
       0.06810186 -0.19297192 0.18705578 0.0024096954
000070 56 89 9c 3d 9d 34 3a 3e 4f 3e 8a 3e bd 5e ad 3d
       0.07643382 0.18184133 0.27000663 0.084653355
000080 1e 8b c2 3c 7e 6b 61 3e ae a6 21 3e e7 87 c8 3d
       0.023747977 0.22013661 0.1578624 0.09791546
000090 30 03 01 3e 79 e7 8d 3d 94 5b 65 3d 8e de 0d 3e
       0.12598872 0.069289155 0.05599554 0.13854429
0000a0 10 9b 8c be b6 cc 69 3d e8 c5 ef 3d c0 dc 98 3d
       -0.27462053 0.057079993 0.117076695 0.0746398
0000b0 58 cd 89 3d 3b d6 8b 3e 73 53 d0 3d 6d 22 b3 bd
       0.06728619 0.27311882 0.10172167 -0.087468006
0000c0 65 cf 00 3e 66 6f e2 3d fc 44 27 3e 13 da 56 3e
       0.12579115 0.11056404 0.16334909 0.20981626
0000d0 76 3b 41 3d 59 0d da 3d db 57 81 3e 31 3b 4d 3d
       0.047175847 0.10647077 0.2526234 0.050105277
0000e0 85 63 6b bc 86 62 33 be a6 14 83 3d 89 a0 85 be
       -0.014366989 -0.17518052 0.06400423 -0.2609904
0000f0 5f 0b b6 3d 32 30 4c 3e a0 07 2f 3e f3 e0 17 3e
       0.088888876 0.1994026 0.17092752 0.14831905
000100 82 f8 19 bd 52 e6 ea 3d ef 64 a5 3e 07 df 46 3d
       -0.03759051 0.11469711 0.3230357 0.04855254
000110 60 6f 8a bd a9 06 ee 3d 2b 7e 06 3d 38 4e 9b 3c
       -0.06759524 0.11622364 0.032835167 0.018958196
000120 5b 7e e5 3d 78 8f 94 3c 8f 64 63 3e b4 fb 57 3d
       0.11205741 0.018134817 0.22206329 0.052730277
000130 ef d4 91 3d 1b 74 3f bd 53 2c 14 3e 8d 76 af 3d
       0.07120692 -0.046741586 0.14470033 0.08567534
000140 6e b9 05 3e 45 bd 15 bd 49 0f 8c 3e e9 ba 4f 3e
       0.13059017 -0.036557455 0.27355412 0.20286144
000150 89 38 e1 bd a5 8d af bc f2 84 52 3d 83 9c 03 3e
       -0.10997111 -0.021429846 0.051396318 0.12852673
000160 ec 81 1a 3e f9 f3 f1 3d 20 86 eb 3d 88 be 69 be
       0.15088624 0.11814112 0.11500192 -0.22826588
000170 15 33 04 3d 83 35 bc 3d 86 6c f9 3d 57 31 95 bc
       0.032275278 0.09189894 0.12178902 -0.018212004
000180 6f eb b5 3d 3c c6 00 3d 62 97 bf 3d 04 c9 8f 3b
       0.08882796 0.03143905 0.09355046 0.0043879766
000190 38 10 cd bd 1b 41 7e 3e 4e 15 cd bb 96 de ec 3c
       -0.10012859 0.24829523 -0.006258643 0.028914731
0001a0 62 43 71 be 20 ce a8 3c bc 19 dd 3d bb 0c 20 bd
       -0.23560861 0.0206061 0.10795924 -0.03907464
0001b0 63 e7 b1 bd d1 86 d8 3d 7e 38 47 3e b4 66 22 3e
       -0.08686712 0.10572589 0.19455144 0.1585949
0001c0 8e cb 04 3d 78 55 76 bd 40 2a 96 bd 82 7a 66 bd
       0.032420687 -0.060140103 -0.07332277 -0.056269176
0001d0 c4 7d 48 bd b4 01 00 bf d2 3a 1a 3d 2a ce 9c 3d
       -0.048948064 -0.500026 0.03765375 0.0765651
0001e0 54 70 75 bc 83 e6 42 3d d0 87 6b be dd a3 0e 3e
       -0.014980394 0.047583114 -0.23001027 0.13929696
0001f0 84 34 e5 3c 33 7e 02 3e 52 7d c1 3d 96 c1 08 be
       0.027979143 0.12743454 0.09447731 -0.13355097
000200 b7 62 91 bd 5e 23 1c 3e e1 73 e3 bd 63 88 44 be
       -0.070989065 0.15247867 -0.111060865 -0.19192652
000210 e6 a0 26 3c 7b d2 06 3e d1 ed b6 3d e6 ec d3 bc
       0.010170197 0.1316623 0.08932079 -0.025869798
000220 2e c1 20 3c dc 48 2a 3e ab 0a 8a 3c 2e e4 8e bd
       0.009811683 0.16629356 0.01685079 -0.069771156
000230 2a 54 5d 3c cb 22 f3 3d fb 36 06 3e 7a e5 73 3e
       0.013508836 0.118718706 0.13106911 0.23818007
000240 62 36 f6 3b 51 f6 44 3d ae 18 e2 3d 3f 76 e6 3d
       0.007513807 0.048086468 0.110398635 0.112530224
000250 fd 10 3d 3e 58 31 2c 3e 61 e4 1a be 15 5b aa 3d
       0.18463512 0.16815698 -0.15126182 0.08318154
000260 95 54 05 3d 84 eb 89 be 39 1f d6 3d f7 91 8d 3d
       0.032551367 -0.26937497 0.10455174 0.06912606
000270 eb e3 44 3d 0f 86 12 3e 18 88 d3 3d 9f c9 da 3d
       0.048068922 0.14308952 0.10328692 0.106829874
000280 ed f2 56 bc d3 bf 39 3e 6e b5 b0 3d 01 67 1f 3e
       -0.013119441 0.18139581 0.08628355 0.15566637
000290 b7 bd 8a bc 74 34 3d 3e 9f a2 b8 bd 79 e7 d5 3d
       -0.016936166 0.1847704 -0.090153925 0.104445405
0002a0 b0 08 c7 bd 6f a2 1d 3e a4 ba 22 3e 61 a4 3e 3e
       -0.09718454 0.15393995 0.1589151 0.18617393
0002b0 cd 9c 89 3e 49 d0 b5 3d cd b2 09 3e 94 e7 bb bc
       0.26877442 0.08877618 0.13447113 -0.022937573
0002c0 8e f4 01 3e 7c f4 66 bd bf b9 e2 3c ff 5f f4 3d
       0.12690946 -0.056385502 0.027676461 0.11932372
0002d0 4e 00 91 3d 07 5c 77 3d fa 10 5d 3e aa 74 3a 3d
       0.07080136 0.0603905 0.21588507 0.045521416
0002e0 78 85 2d 3e 7a 1c cf bc 26 82 2a 3e 2d 7d 20 be
       0.16945446 -0.025282133 0.1665121 -0.15672751
0002f0 76 0b 31 be ab 7a 46 3e 27 e4 3b 3e 76 66 0a 3e
       -0.17289528 0.19382732 0.18348752 0.13515648
000300 f8 67 41 3d ca 59 fc 3d 97 4b 39 3e 97 d8 a2 bc
       0.047218293 0.123218134 0.18095241 -0.019878669
000310 1b c7 dd bd 46 52 fe 3d 27 7b ed 3d 3b 62 0a be
       -0.10828992 0.12418036 0.11595755 -0.13514034
000320 3f c5 c4 3d 8e e0 23 3e 97 de 0c 3d 6d f9 86 3c
       0.09607934 0.1600363 0.034391966 0.016476357
000330 96 b0 b5 3d 69 7f 02 3e eb 49 b5 3d 4b ea 19 3e
       0.08871572 0.12743916 0.08851989 0.15030782
000340 6e 42 44 3c 2c 70 0f be 7a 07 7b 3e ca 3c 27 3e
       0.011978729 -0.14007634 0.24514571 0.16331783
000350 8f 5b 00 3d 39 77 11 be fb 59 75 3e 2a f2 2d bc
       0.031337317 -0.14205636 0.23960106 -0.010616818
000360 5e a9 88 3d f0 81 57 3e a9 61 14 3e 73 3a fd bd
       0.06672929 0.21045661 0.1449038 -0.12364664
000370 be 26 f8 3d e6 7d c0 bb 03 b9 9f 3d b3 47 18 3e
       0.121167645 -0.0058743833 0.0779896 0.14871101
000380 e4 15 94 bd bd 01 76 bd 21 d5 29 3e 52 44 f9 3c
       -0.07230738 -0.06006025 0.16585208 0.030428085
000390 37 dd 07 3c a4 29 71 3d 92 7a c0 3d ba 0d 21 3d
       0.008292488 0.058877602 0.093983784 0.03931973
0003a0 68 65 4b be 7e c7 21 3e b8 04 10 3e f4 f0 af bd
       -0.19862902 0.15798756 0.140643 -0.0859088
0003b0 cd 7a d0 bd 61 93 30 3e f9 4e 0d 3d 6a 88 2a 3d
       -0.101796724 0.1724372 0.034499142 0.041634
0003c0 26 ee f2 bd 93 69 40 3d dc 81 69 3d 09 62 43 be
       -0.118618295 0.046975683 0.05700861 -0.19080366
0003d0 ab d0 ac bd 2a de df be 5a 96 32 3e 0f 57 22 3e
       -0.08438238 -0.43724185 0.17440167 0.15853523
0003e0 48 22 9e bd 36 66 e4 3d 4b c4 6e be e3 cf 01 3e
       -0.077213824 0.11152308 -0.23317067 0.12676959
0003f0 10 a8 89 bc 2f 09 80 3d 9e 19 1a 3d c5 49 00 be
       -0.016803771 0.06251752 0.037622087 -0.12528141

critic.2.bias f4 [64]
000000 cb 5b bd 3d 5f 0c 00 3e 1c 24 1a bd ad 38 ff 3c
       0.09246024 0.12504719 -0.037632093 0.031154955
000010 8a 5e ab 3d 45 c0 3e bc 09 a7 a3 3d b8 00 8a bb
       0.08367641 -0.01164252 0.07990844 -0.0042115115
000020 52 ed 05 3d cc 53 72 bc 55 c8 91 bc d5 cf 42 3e
       0.03269703 -0.014790487 -0.017795721 0.19024594
000030 66 fb 64 bb f2 2b 1d 3d e2 f0 a9 3d 1e ba 89 3e
       -0.0034939884 0.038371988 0.08297898 0.2689981
000040 42 84 77 3c 6f db 97 3d 41 04 08 3c c3 37 ff 3c
       0.015107216 0.074149005 0.008301795 0.031154519
000050 aa a0 43 3d c0 f1 e1 ba 40 e6 db bc ec b9 7e bc
       0.047760643 -0.0017238185 -0.02684319 -0.015547257
000060 28 38 6c 3d 64 a5 91 bd d8 32 0c 3e aa b1 07 3d
       0.057670742 -0.07111624 0.1369127 0.033128418
000070 4d 62 87 3d 13 74 8c 3d e9 15 36 3d d4 a6 9f 3d
       0.06610546 0.06858077 0.04445449 0.07795492
000080 c9 59 19 3e b7 52 f7 3d 3e 50 11 3d ee 60 5c 3e
       0.14975657 0.120763235 0.035476916 0.2152135
000090 9c 79 8a bd b0 86 d0 3d 99 85 ae 3c 3d 3e 85 bb
       -0.067614764 0.101819396 0.021303939 -0.0040662573
0000a0 ab e5 79 3c 18 7a 11 bd 3c 63 54 3d 27 2b 53 3e
       0.015252511 -0.03551683 0.05185245 0.2062193
0000b0 96 7a cb 3d 91 2c 7b bd 7f 04 83 3d 29 a9 81 3d
       0.09935491 -0.0613218 0.06397342 0.06331093
0000c0 2c 60 b4 bc 4b 07 38 3b ed c7 9e bd 02 2b 84 bd
       -0.022018515 0.0028080519 -0.077529766 -0.064535156
0000d0 ac f1 25 3e 24 43 a9 3d 9b c5 9f bd 1d bd 3e bd
       0.16205472 0.08264759 -0.07801362 -0.04656707
0000e0 61 0c 2c bd 27 99 a0 bd 84 aa 8e 3d 0f 9b 11 3d
       -0.042003993 -0.078417115 0.06966117 0.035548266
0000f0 68 a8 a8 3d 54 d1 14 3e 06 57 64 3c 1b 1e ae 3d
       0.08235246 0.14532977 0.013936764 0.08501836
