experiments/LunarLander-v2_PPO/dqn.pth (torch, 96827 bytes, 13 tensors)

actor.0.weight f4 [128, 8]
000000 57 9a 58 3f af 0c 1f 3f 3a 0d 47 3f 74 08 da be
       0.84610504 0.6212873 0.7775456 -0.42584574
000010 af db 63 3e 7d 17 03 bf 3a ce fd be da 45 c0 3e
       0.22251771 -0.51207715 -0.495714 0.37553293
000020 f0 6b 4e be 1e ec e9 3e 50 f8 c6 3d 6a ea 42 bf
       -0.20158362 0.45687956 0.097153306 -0.7613894
000030 cf e3 a1 3f ae 2b 9c 3f 2f 33 3c be e8 1c 80 3e
       1.2647647 1.220083 -0.183789 0.25022054
000040 5f eb 0b 3e 43 b4 4e bf bb e2 3d bf 6d fc f3 3e
       0.13664006 -0.8074381 -0.7417409 0.47653523
000050 03 6b 14 3f b2 c1 ce be 9f 02 e2 bd a0 da e7 3e
       0.57975787 -0.40382153 -0.11035656 0.45283985
000060 63 1a 18 be af 2e e4 3e 2b 61 29 3f 6f 23 8c bf
       -0.14853816 0.44566867 0.6616389 -1.0948313
000070 03 23 73 3c 48 ec bd 3e 13 5e 8b bd 85 35 eb be
       0.01483989 0.3709433 -0.068050526 -0.4593927
000080 72 d8 0e bf 45 82 61 be ba 34 fd be d6 62 4f bd
       -0.5579902 -0.2202235 -0.4945429 -0.050631367
000090 17 93 1f 3f 51 f7 7d 3f ee f9 db 3e fc a5 db be
       0.62333816 0.992055 0.4296412 -0.42900074
0000a0 ee 5a 2d 3f 45 5f 13 3f a8 bc 27 3f 10 0b 73 3f
       0.6771687 0.57567245 0.6552224 0.94938755
0000b0 54 14 8e bf a1 9a 89 bf 65 a0 3b bf ff 7c 35 bf
       -1.1099954 -1.0750314 -0.7329162 -0.70893854
0000c0 aa 3a 1e 3e df a8 5d 3e 36 1b ea 3e d6 b8 81 3f
       0.15452066 0.2164645 0.45723885 1.0134532
0000d0 ef 00 0e bf b1 ca 05 3e cc 21 0e bf e9 85 33 3d
       -0.55470175 0.13065602 -0.5552032 0.04382888
0000e0 96 da 53 bf 9e 69 af bd 65 4d 27 bf 32 44 97 be
       -0.8275541 -0.08565067 -0.6535247 -0.29544216
0000f0 13 33 3f bf f1 7d 87 bb 2a 75 03 bf e3 f7 2b 3d
       -0.7468731 -0.0041348864 -0.51350653 0.04198445
000100 24 07 69 be 32 fd 65 3f 6e 97 99 be c6 68 17 3f
       -0.2275663 0.8983947 -0.29998344 0.59144247
000110 e0 ae b0 3e 47 f2 c3 3c be 22 45 bf ac fc 1c 3f
       0.3450842 0.023919238 -0.7700614 0.61323047
000120 0f 07 ec be 2f a5 eb be d2 38 43 bf d9 7d 0f 3f
       -0.46099135 -0.46024463 -0.76258576 0.56051403
000130 df 09 65 3f 0f 95 d1 3e d5 e4 90 be 38 77 db be
       0.8946819 0.40934035 -0.28299585 -0.42864394
000140 71 1b 29 3e a1 34 c2 be 4f 39 48 3f 36 1d 2f be
       0.16514374 -0.37930778 0.78212446 -0.17100987
000150 1f 7a dc 3e e7 74 7b 3f 9d 7a 6a 3f c2 39 58 3f
       0.4306192 0.98225254 0.91593343 0.8446313
000160 7e 59 35 bf 5f 56 3b bf 51 50 54 bf 2d 09 01 bf
       -0.7083968 -0.73178667 -0.82935053 -0.50404626
000170 a9 a0 ef bd 21 c6 2b 3f ad 69 43 3e 38 db e9 bd
       -0.11700565 0.67099196 0.19083281 -0.11418766
000180 6e d6 42 3f 25 89 ed 3e b7 eb e8 bd 72 3b 0c 3f
       0.76108444 0.46393695 -0.11373084 0.54778206
000190 eb 29 9f 3d 00 37 24 bd 7f 9c b5 3e a7 4c 5a bd
       0.07771667 -0.040091515 0.3547096 -0.053295758
0001a0 d7 5d 13 3f 0d b5 6e 3e 67 c4 a5 3e 75 d1 94 be
       0.57565063 0.23311253 0.32376406 -0.29066053
0001b0 c3 3a a5 bf 38 54 09 bf 33 08 64 bf 0d 5a 3b bf
       -1.2908558 -0.5364413 -0.8907501 -0.7318428
0001c0 a8 2f 2a bf 13 a8 28 3f cd eb 42 3e 67 d2 20 3f
       -0.6647897 0.6588146 0.19035263 0.6282105
0001d0 89 53 cb be eb 27 29 3f f1 b0 e5 3d 1e c0 01 3e
       -0.3971217 0.66076535 0.112153895 0.12670943
0001e0 57 48 fe be d0 18 da 3e 89 2d a4 be 5f 63 43 bf
       -0.49664566 0.42597055 -0.3206599 -0.76323503
0001f0 4f 26 2e bf 13 27 82 bf 25 f4 30 bf c7 34 02 bf
       -0.68027204 -1.0168175 -0.69122535 -0.5086178
000200 7d 34 3b 3f 79 90 5f bf ec a8 d9 3d 1a d0 aa 3e
       0.73126966 -0.8732982 0.106279224 0.33361894
000210 18 bf b9 be e1 45 6d 3f 8f 3d 36 bf 80 ee a0 be
       -0.36278605 0.9268475 -0.7118768 -0.3143196
000220 82 e9 48 be d7 12 d0 be 3f 31 3e bf 61 f5 63 3f
       -0.19620326 -0.40639374 -0.74293894 0.89046293
000230 fd 15 0e bf 2f 31 2c 3f 3f d4 33 3f 11 a3 9c 3e
       -0.555023 0.6726255 0.70245737 0.3059316
000240 0c 9b f1 3e 00 57 a7 3e 31 d2 ef 3d d9 5e 53 3f
       0.47188604 0.32683563 0.11710013 0.825666
000250 8a b9 b9 bf 14 2f 79 bf 6d d4 f5 3e 4e 00 0e bf
       -1.4509747 -0.9733746 0.4801363 -0.55469215
000260 e9 7f 49 bf 69 1c 32 bf ab 6e 6e bf 5d 11 d3 3e
       -0.787108 -0.695746 -0.93137616 0.41224185
000270 3e e0 d0 3e 53 8e b9 3e 55 03 84 be 1b a3 16 3f
       0.40796083 0.36241397 -0.25783792 0.5884263
000280 1d 43 d4 be bb 76 74 3e 2b 62 fa be 54 f5 ee 3d
       -0.41457453 0.23873417 -0.4890302 0.116678864
000290 8d b5 a1 bf 9d 1d fb 3d ad f9 45 3e 91 b2 3a 3f
       -1.263353 0.12261508 0.19333525 0.7292872
0002a0 db fa 03 3f 24 45 91 bd 3f e0 1d be 3a 83 cf 3e
       0.5155465 -0.07093266 -0.15417574 0.40529805
0002b0 95 f9 6b bf db a8 17 bd 3f e5 e4 3d 1b 34 24 3f
       -0.92177707 -0.037026267 0.11176538 0.64142007
0002c0 94 5f 1a bf c1 c3 95 be d3 f6 88 be 5d 78 60 be
       -0.6030209 -0.2925091 -0.26750812 -0.21920915
0002d0 63 5b e7 3e 84 d3 29 bf 18 0b 48 3f f7 cb a9 be
       0.4518691 -0.6633837 0.7814193 -0.33163425
0002e0 f8 d0 34 3f bb 97 cc be 6b 79 c7 be e8 df 11 3f
       0.7063136 -0.3995951 -0.38959822 0.5698228
0002f0 84 e5 b8 be 25 d9 02 be 03 18 18 bf 15 ff 42 3f
       -0.36112607 -0.12778147 -0.5941164 0.76170474
000300 f6 a8 36 bf d8 fa 57 bf 3f 46 12 bf 82 e3 34 3d
       -0.71351564 -0.8436713 -0.5713844 0.04416228
000310 f2 92 83 be 3f 33 37 3f 05 9e 32 3f 75 a5 3d 3f
       -0.25698048 0.7156257 0.6977237 0.7408059
000320 09 bf 1d 3e 97 bc 04 3f fa b8 d9 3e f1 c4 26 bd
       0.15404905 0.51850265 0.42523938 -0.04071516
000330 47 7f 92 3f f8 7e 99 3f 93 ed c9 bc e2 83 68 be
       1.1445092 1.1991873 -0.024649417 -0.2270656
000340 da 6e ea 3d 1e d2 b9 3e a8 d1 19 3f cd 46 12 be
       0.114469245 0.3629312 0.60085535 -0.14284821
000350 7d 44 89 3f a5 ba d3 be 28 ca e1 3e 0c c5 56 bd
       1.0724026 -0.41353336 0.44099545 -0.052434012
000360 b7 88 20 bf 28 e4 43 3e 22 52 b7 be e6 7f e0 be
       -0.6270861 0.19130003 -0.3580485 -0.4384758
000370 ba 31 e1 3d bc cd 73 3f 41 27 bf 3e 87 36 5e 3f
       0.10995813 0.952358 0.37334636 0.8680195
000380 a6 de 03 3f 1d ea 11 3f 98 dc 4e be 96 9c 9f 3e
       0.5151161 0.56997854 -0.20201337 0.31174153
000390 ef 36 8b 3f b4 68 83 3f e3 ab 56 3f 4f 31 81 be
       1.0876139 1.0266328 0.8385603 -0.25232932
0003a0 0a a0 f4 3e 94 f9 62 3e 00 20 ee 3e a8 a8 80 bf
       0.4777835 0.22165519 0.4650879 -1.005147
0003b0 bb 25 bc 3e 34 d4 1b 3f bf 81 60 be 83 6e 4b 3f
       0.36747536 0.6087067 -0.21924494 0.794655
0003c0 cb 29 f3 bd 3d 58 1d be 8b 87 f9 3e 63 cc 5b 3d
       -0.11873206 -0.15365691 0.48736224 0.053661715
0003d0 7c 64 32 bf b4 5a f0 3e 9e eb 08 3f b8 4c 33 3f
       -0.69684577 0.469442 0.53484523 0.7003894
0003e0 65 8a 9f be 7a ee 95 be fc 24 b5 3d 0c 41 dd 3e
       -0.31160274 -0.29283506 0.08844945 0.4321369
0003f0 84 dc ac bf 13 74 30 bf 43 98 2d bf 2b 7a 53 3f
       -1.3504796 -0.68927115 -0.6781046 0.8260829

actor.0.bias f4 [128]
000000 99 e3 51 bd f9 4a 5c 3d 44 df bc bc e8 c4 d5 3d
       -0.051242445 0.053782437 -0.02305568 0.104379475
000010 6b dc 8d 3e 2c b1 55 3e 83 1d 0c 3e ae 58 2a be
       0.27707228 0.20868367 0.13683133 -0.16635391
000020 91 ab 20 3c 6b e2 44 3e ac 1f 51 bc 50 f8 2a be
       0.00980653 0.19226997 -0.012763899 -0.16696286
000030 bc a4 40 3d 39 8f f4 3d 99 19 26 be bb 4d ab bd
       0.047032103 0.1194138 -0.16220702 -0.08364435
000040 5b e9 2b 3e 55 56 85 3d c6 b8 a4 3e 37 f4 3d be
       0.16788237 0.06510607 0.3217222 -0.18550192
000050 79 43 d6 3d e2 98 a9 3e e8 d8 52 be f2 a3 ba 3c
       0.10462088 0.33124453 -0.20590556 0.022783253
000060 56 5c 57 3e 26 da 4b 3d 33 b6 5a 3e 60 34 9b 3c
       0.21031317 0.04976859 0.21358566 0.018945873
000070 4a 8e 90 be 26 50 87 be f7 a7 5a 3e cb b0 d6 3e
       -0.28233558 -0.26428336 0.21353136 0.41931757
000080 3b a0 4f 3e a1 d2 ed 3c f3 7c 52 3e 28 f0 73 3e
       0.20275967 0.0290311 0.20555477 0.23822081
000090 97 ab bc 3d 01 d9 08 be 48 15 95 be fe 82 19 3e
       0.09212416 -0.1336403 -0.291178 0.14991376
0000a0 64 d8 94 3e 48 6e cf bb 5c fd 49 3e de 60 09 be
       0.29071343 -0.006330285 0.19725555 -0.13415858
0000b0 cc 98 bb 3e 6c e2 c3 bd cc b9 24 3d 8d 14 00 be
       0.36640012 -0.09564671 0.040216252 -0.1250784
0000c0 43 4b 14 be 8d 36 c7 3d c5 4b 9b 3d 87 39 73 be
       -0.14481835 0.097272016 0.07582811 -0.23752414
0000d0 31 3c 8e 3c 1a 1a 9f 3e 9c cc 9d bd fe 89 64 3c
       0.017362686 0.310746 -0.07705042 0.0139489155
0000e0 f6 13 6b bd 5c a5 0e be 50 40 7b 3e 9e d9 ad 3c
       -0.057392083 -0.13930267 0.24536252 0.021221932
0000f0 96 3d 15 bd 02 5d f4 bd 4c 9b 7b be 2c f9 24 3d
       -0.036435686 -0.11931802 -0.2457096 0.04027669
000100 99 0d 63 3e be 68 8c 3d d4 eb ac bd cc 9b 80 be
       0.22173156 0.068559155 -0.08443418 -0.25118864
000110 c0 fd 33 bd b7 5a ce 3d 2d 4f d4 3e 05 62 48 be
       -0.043943167 0.10075896 0.41466656 -0.19568641
000120 eb 58 4a 3d 4e 7c c1 3e 03 32 62 3e cd 36 99 3d
       0.049401205 0.3779015 0.2208939 0.074811555
000130 c8 b5 2f 3d 43 b6 02 bd 43 16 02 3e 63 e8 60 3e
       0.04289797 -0.0319121 0.12703805 0.21963648
000140 14 8e d6 bb 00 64 8d 3e 33 59 b5 3d d8 9e 07 be
       -0.0065476988 0.27615356 0.08854904 -0.13244188
000150 6d b3 6e be 4f e2 53 be 36 81 49 bd 11 fd 9a 3e
       -0.23310633 -0.20691799 -0.04919549 0.302712
000160 5b a4 8e 3e c2 c2 a4 bc d9 3b f4 3d 3a c2 14 be
       0.27859768 -0.020112399 0.119254775 -0.14527217
000170 85 1b 0b be 8e 40 6d 3e a7 d6 6f be 76 56 17 be
       -0.13584717 0.23169157 -0.23421727 -0.14779076
000180 20 2f 7a 3e c9 f1 49 3e 41 fc 90 3e 9c 96 7f 3e
       0.2443204 0.1972114 0.28317454 0.24959797
000190 40 eb 5c 3e a1 65 c9 3e a1 0a 0b bd fa 17 1e 3e
       0.21574116 0.3933535 -0.033945683 0.15438834
0001a0 a5 90 1b 3e 0f c4 be bd c9 02 79 be 6b 9d a7 be
       0.15191896 -0.09314739 -0.24317469 -0.32737288
0001b0 a2 11 b3 3e ae da 72 3c 91 61 c4 bc b8 0f 28 be
       0.3497439 0.014822645 -0.023972305 -0.16412246
0001c0 41 64 51 3e 9c 62 d4 3d 0f 0e 5f be 75 12 82 3e
       0.204484 0.10370371 -0.21782707 0.25404707
0001d0 ad cf 1c 3d 6d 8e 60 3d 0e f8 79 be 97 83 a5 bb
       0.038283993 0.054823328 -0.24411032 -0.005051087
0001e0 ee 1c a6 3d 2d ac 51 be bf c1 96 3e b3 b0 96 be
       0.08110987 -0.20475836 0.29444692 -0.29431686
0001f0 c9 97 2b be 68 aa bc 3d 63 b9 4b 3e e5 72 0c be
       -0.1675712 0.0921219 0.19894938 -0.13715704

actor.2.weight f4 [64, 128]
000000 99 83 42 bd 2d fb 17 3d f8 2b 38 3e 42 25 68 3e
       -0.047488783 0.037104774 0.17985523 0.22670463
000010 f3 7a bd bd d3 d5 f6 3d 21 7b a5 bd cb f8 69 bd
       -0.09251966 0.120525025 -0.080801256 -0.057122033
000020 83 ba 6a bd 56 06 17 3e a2 29 fd 3c 33 80 83 3e
       -0.057306778 0.1474851 0.030903641 0.25683746
000030 dc ad 5c 3d e5 b9 91 3d e1 a8 6a 3d fb 48 e9 3d
       0.053876743 0.07115535 0.05728996 0.11390873
000040 ec 30 0d be 49 7d f9 3d 51 47 38 3d e9 39 6a 3d
       -0.13788193 0.12182099 0.044989888 0.057184134
000050 97 4d 80 be 3f e5 44 bc 07 ed 06 3e 39 e8 90 bd
       -0.25059196 -0.012017547 0.13176356 -0.07075543
000060 e3 d8 0a be 61 db bb bc 04 65 cb 3d 07 8e f5 bd
       -0.13559298 -0.022931756 0.099313766 -0.1198998
000070 9c 1a 90 3d ff f9 0e 3e 3d 21 77 bd 84 61 47 be
       0.07036325 0.13962553 -0.060334433 -0.19470793
000080 f5 87 5a 3e f3 3d 64 bd 68 d6 72 3e 89 ef 27 be
       0.21340926 -0.055723142 0.23714602 -0.16399969
000090 62 d2 be bd 88 2d 9a 3e d9 46 15 be 7a e0 5d bc
       -0.09317471 0.30112863 -0.14577807 -0.013542289
0000a0 cc d2 ba 3c c8 dc 2a 3e f8 f2 52 3e f9 1b 01 3e
       0.022805594 0.16685784 0.20600498 0.12608327
0000b0 a0 2e 29 3e 24 21 5d be 58 42 48 3e b8 49 fa bc
       0.16521692 -0.21594673 0.19556558 -0.03055273
0000c0 53 60 2e 3d f5 94 74 3d 23 5d 2d 3d cf 26 a7 3d
       0.04257233 0.05971237 0.04232515 0.08161699
0000d0 db 1e d5 3d 97 42 74 bd d8 2d 2e 3e 23 a9 8b bc
       0.10406276 -0.059633818 0.17009676 -0.017048424
0000e0 d9 16 07 3e cb bc 01 be 9b c0 0e be 12 c7 1f 3d
       0.1319231 -0.12669675 -0.1394066 0.039008208
0000f0 88 d2 93 3c 0d 37 cf 3d 3a f4 f5 bc 14 1c ac 3d
       0.018044725 0.10117922 -0.030023683 0.08403793
000100 8d a2 1f 3e b4 0c 33 be f8 e7 f6 bd 9a 5d 9b bb
       0.15589352 -0.17485315 -0.12055963 -0.004741383
000110 8a 7c 15 3e fe b5 22 be 06 0b 5a 3e 80 99 72 3e
       0.14598289 -0.15889737 0.21293268 0.23691368
000120 10 02 ca 3c 9f a9 fe bd f9 e0 f0 bd c4 a7 b5 bc
       0.024659187 -0.124346964 -0.1176166 -0.022174723
000130 df 0b 66 3d d9 cb 27 be ce f5 65 3e e1 5b 31 3d
       0.056163665 -0.16386355 0.22457048 0.043300513
000140 1c 8a a3 3d 9d 1b a1 3d 2c 22 cc 3d 8f 96 b0 3d
       0.07985327 0.07866595 0.09967455 0.08622467
000150 bd e0 1c be 4f 8a b3 be 17 95 86 3d e0 e5 b3 bd
       -0.15320106 -0.3506646 0.065714054 -0.087840796
000160 cd 2f 03 3e 6e 14 1a 3c fa 1a 15 bd d6 f5 64 be
       0.12811203 0.009404285 -0.03640268 -0.22359404
000170 6b 6b 45 bb 4f 3f f9 3d ec ef 4a be 06 e6 6a be
       -0.003012384 0.12170278 -0.19818085 -0.2293931
000180 46 a6 e5 3c f3 76 ac bd b8 f5 83 3e de 25 00 3e
       0.028033387 -0.08421125 0.25773406 0.12514445
000190 9f 54 e4 bd 3d d3 4b 3d d9 02 88 3e 74 bc d9 3d
       -0.11148953 0.049762 0.26564673 0.10631648
0001a0 0f 35 ad 3d 04 7f d6 bd 5a cb 0c 3e e9 d1 7b 3d
       0.08457386 -0.10473445 0.13749447 0.061479483
0001b0 51 03 04 be 38 7f b6 bc dc d8 59 3c fd 49 18 bc
       -0.1289189 -0.02227746 0.013296332 -0.009294984
0001c0 fa 78 84 3d f8 b9 ae 3b cb 51 29 bd ba d4 33 3e
       0.06468387 0.005332228 -0.04133777 0.17561617
0001d0 8f 44 24 bd 4a a8 35 3e a1 ca e5 3d 46 6a 92 3e
       -0.040104445 0.17739978 0.11220289 0.28596705
0001e0 a7 fe 13 be 1f 8f 2a 3e 93 f2 83 3d 13 1b 9a be
       -0.14452611 0.16656159 0.06442752 -0.3009878
0001f0 4a 76 aa 3c 59 cb 62 3e bc f6 06 bd 76 da 3b 3e
       0.020808358 0.22147883 -0.032950148 0.18345055
000200 07 9b 14 be e4 9f 92 3e 49 3c bb 3d 1d 92 91 3e
       -0.14512263 0.28637612 0.09142358 0.28431788
000210 a2 c6 ca bd ba 55 41 be d5 ae e1 3d 95 8a ce 3d
       -0.099011675 -0.18880358 0.11019675 0.10085026
000220 eb 2a 2b 3e 0f c3 48 3e 2c 95 10 bb b5 3b 54 bd
       0.1671559 0.19605659 -0.002206157 -0.051814754
000230 53 86 38 be 4a c0 15 3e a5 bc 3a bb 22 d6 93 bd
       -0.1801999 0.14624134 -0.0028493789 -0.07218577
000240 1c cb 80 3e f4 17 22 be 2a 7b 3e 3d 15 f1 19 be
       0.2515496 -0.1582945 0.046504177 -0.15033372
000250 4e d0 13 3e ed df bc bd e2 af 10 be 75 80 ea bd
       0.1443493 -0.09222398 -0.14129594 -0.114502825
000260 f1 ef 81 3d 12 f7 3e 3e d9 b1 3c 3d 26 59 83 bd
       0.06344593 0.18648937 0.046068046 -0.06413488
000270 a7 b8 39 3d f9 82 fb 3d 54 7c aa 3d be 31 08 bc
       0.045342114 0.122808404 0.08324495 -0.008312641
000280 66 b0 29 3e ef b0 f3 3d 70 48 01 be 96 e7 48 3c
       0.16571197 0.11898982 -0.12625289 0.012262246
000290 bf 28 a4 3c cf ce 72 3e e7 cc 07 3e b1 76 32 be
       0.02003896 0.23711704 0.13261758 -0.1742809
0002a0 d1 1f 8c 3e 7c 40 0d be 5d 28 fd 3d 22 1b bf 3d
       0.27368024 -0.1379413 0.12361214 0.09331347
0002b0 33 8c 0b 3e 7c a1 0f 3e 2f d0 7d 3d 0b 2e 3a be
       0.136277 0.14026445 0.061966117 -0.18181626
0002c0 00 51 0a 3c e4 c1 29 3c eb 8e d9 bd a0 b5 db 3d
       0.0084421635 0.0103611685 -0.106229626 0.107280016
0002d0 5b a5 d7 3c 70 11 10 3d 8b 95 55 3e 07 fe f8 3b
       0.026323965 0.03517288 0.20857827 0.007598642
0002e0 35 b0 69 3e a5 0b 4f bd 7e 59 2d be 70 6d 9f ba
       0.22821124 -0.050548214 -0.1692867 -0.0012163352
0002f0 f0 99 92 3c d6 c1 5c bd b6 5c a9 bd ba b3 20 b9
       0.017895669 -0.053895794 -0.08269636 -0.00015325742
000300 32 cb 39 ba 5a 4d 74 3d 28 4d 74 3d e8 79 72 3c
       -0.00070874684 0.05964408 0.059643894 0.0147995725
000310 8a 13 c4 bd 9b dd 2d be c6 63 12 3e 33 44 5e be
       -0.09574039 -0.16979067 0.14295873 -0.21705703
000320 8c 32 ec bc 7c bb ee 3d 66 cd de bd 6b 66 49 be
       -0.028832696 0.116568536 -0.108790204 -0.19667976
000330 a9 97 b7 3d 81 ec ae 3d 2b c7 49 3e 89 cf 6b 3e
       0.08964474 0.08541203 0.19704883 0.23028387
000340 76 4e 84 bd 81 fa 02 3e 34 64 d6 3d 07 66 2c bd
       -0.06460278 0.12790872 0.10468331 -0.04208949
000350 f7 15 47 3e 80 40 9c 3d fe 14 0f 3e b6 9f 48 3d
       0.19441973 0.0762949 0.13972852 0.048980437
000360 08 6d 6e 3e 4e 96 38 bd 11 35 a4 be 7e a5 3a bd
       0.2328378 -0.045065217 -0.32071736 -0.045567982
000370 56 6d 48 3e 73 f9 0d 3e ed 3f 44 be b4 62 2b bd
       0.19572958 0.13864689 -0.19165011 -0.041842178
000380 24 f1 83 3d ea 9b 61 3e ef 8f 19 3d 32 7e 9e 3e
       0.06442478 0.22032133 0.03749078 0.30955654
000390 38 53 11 bd ce 7d 2f 3b cf 64 8a 3d 04 90 41 3e
       -0.035479754 0.0026777866 0.06757509 0.18902594
0003a0 b8 82 b3 bd dd e4 6f be 06 89 23 3d ea 60 20 3e
       -0.08765167 -0.23427148 0.039925598 0.1566197
0003b0 99 7f 55 3e 74 e6 c7 bd 82 cb 5c 3e 76 c6 2a 3e
       0.20849456 -0.09760752 0.21562007 0.1667727
0003c0 31 3c 15 3e 8c 9d 4b 3d bd 8a 57 3e 10 1c 9a bd
       0.14573742 0.049710795 0.21049018 -0.07524884
0003d0 a8 f1 dc 3e ca f7 34 be 8c 1e 90 bd 03 9c 39 be
       0.4315312 -0.17672649 -0.07037076 -0.1812592
0003e0 46 07 1b 3d fc 1c dd 3c 0b 5a b0 3d 5e 07 37 bd
       0.037848733 0.02699136 0.08610924 -0.04468476
0003f0 06 58 0b be 20 54 2f 3e a6 cb 98 3e e0 a3 39 3e
       -0.13607797 0.17121935 0.2984287 0.1812892

actor.2.bias f4 [64]
000000 38 7b 81 3d 4d 85 c2 3d 9a b0 88 3d ab 65 1c 3e
       0.0632233 0.09498081 0.06674309 0.15273158
000010 b3 8f 04 3d 06 b4 79 3d 4e e4 a7 3d 9f 99 4d 3d
       0.032363605 0.0609627 0.081978425 0.050195333
000020 9e 42 a9 bc a3 8f 60 3d 6f 17 9d ba ac de da bc
       -0.020661648 0.054824483 -0.0011985133 -0.026717506
000030 f9 3b 8a bd 07 0e ee 3c a9 b3 e0 bd 21 ae fb bc
       -0.0674972 0.029059423 -0.109717675 -0.03072268
000040 da 1c ab 3d 8e 16 8e 3d 03 c3 e9 3d f5 6d e3 bd
       0.083551124 0.06937896 0.11414149 -0.11104957
000050 f6 32 bc 3d 33 0b f7 bd 5c 4f 69 bd 86 48 87 bc
       0.091894075 -0.12062683 -0.05696045 -0.016514074
000060 32 12 bd bd 44 e6 57 bb b8 17 e4 bc a5 de 9e bd
       -0.09231986 -0.0032943645 -0.027843341 -0.0775731
000070 66 8a 03 3e 42 61 17 3c 15 35 e4 3d 90 6b 96 bc
       0.12845764 0.009239497 0.11142937 -0.018361837
000080 50 9c ac 3d e4 8d 19 3b 75 a2 2a bd df 21 80 bd
       0.08428252 0.002343052 -0.041658837 -0.062564604
000090 41 43 0b 3d 4e f9 07 bd 9c af 80 bd 8a e1 5f 3d
       0.033999685 -0.03319674 -0.06283495 0.05465845
0000a0 e4 7d 96 3d 34 07 87 bd e5 51 11 bc be 53 ce bc
       0.073482305 -0.06593171 -0.008869623 -0.025186416
0000b0 11 95 39 3d 05 13 02 3d c1 4d c1 3c a0 19 5c 3d
       0.045308176 0.03175642 0.023596646 0.053735375
0000c0 47 f9 7a 3d aa 1c 2a ba 6d f8 e7 3c 8d 0a 53 bd
       0.061272886 -0.00064892566 0.0283167 -0.051523734
0000d0 d4 d5 64 3d 32 42 8d 3d 6d ab e8 bd b5 80 a3 bd
       0.055867985 0.068973914 -0.11360822 -0.07983533
0000e0 6d 6c 54 bd fa 4e a7 3d 62 68 a2 bd 2e 1a 1e bd
       -0.051861215 0.081693605 -0.07930066 -0.038599186
0000f0 47 75 31 3d e2 33 b3 3c 87 fe 04 3c 5a 90 b9 3d
       0.043324735 0.021875326 0.008117325 0.09060736

actor.4.weight f4 [4, 64]
000000 39 28 46 3c 80 0a 1d be 5a 6b 4f 3e c9 de e6 bc
       0.012094551 -0.15336037 0.20255795 -0.028182404
000010 d4 bc a9 3e c3 d7 68 3e 51 5f f2 3d 66 c2 a2 3e
       0.33151877 0.22738557 0.118345864 0.3178894
000020 c0 19 b1 bd 4e 69 d3 bd 55 b6 ae 3e 41 d6 59 bd
       -0.086474895 -0.1032282 0.34123483 -0.053182844
000030 5d d1 96 3d 67 64 01 be f3 b6 69 3e 91 90 a9 3e
       0.073641516 -0.12635957 0.22823696 0.33118108
000040 97 d4 bf 3e 1e c8 4b 3d 9b fc 89 bd 13 df 28 be
       0.3746688 0.049751393 -0.06737634 -0.16491346
000050 48 6c 98 be e8 24 02 be 3e 1f ca 3d 35 0c 2b bc
       -0.29770112 -0.12709391 0.0986924 -0.010439922
000060 ec 61 66 bd a4 22 b4 be 13 62 ff 3d f6 d3 42 be
       -0.05624573 -0.3518268 0.12469878 -0.19026169
000070 ce 4a 7a be 30 0f 12 3e e7 06 ac bd 7c 52 5e 3e
       -0.24442598 0.14263606 -0.08399754 0.21711153
000080 61 70 e9 3c c8 87 a5 3e 36 f9 b7 3d 98 89 b8 bc
       0.02849597 0.32330155 0.0898308 -0.022526547
000090 c6 07 ab be 9b 31 94 3e fa 7e 9f 3e 40 f2 84 3e
       -0.33404368 0.28944096 0.31151563 0.25966072
0000a0 1f d9 ad 3d 6f bf 10 be 4a 6a 44 be 64 d4 eb 3d
       0.08488678 -0.14135526 -0.19181171 0.1151512
0000b0 83 6c 81 be 9d c1 ae 3e 58 5f a7 3e 77 06 8d 3e
       -0.252781 0.3413209 0.3268993 0.27543995
0000c0 16 fd 33 3e ed e0 64 3e f4 2a 1b 3e f2 a4 db bc
       0.17577013 0.22351427 0.15153104 -0.02681205
0000d0 4a 14 69 be 63 22 48 3e c7 99 17 3e a0 0c b6 3d
       -0.22761646 0.19544367 0.14804755 0.08889127
0000e0 33 ee f2 3a e1 92 36 3e a4 00 c9 bd 33 c1 7e be
       0.0018534124 0.17829467 -0.09814575 -0.24878387
0000f0 07 2a 26 3e 2b 17 9f 3e 6c 6a 30 bc c0 7f 2c 3d
       0.1622697 0.31072363 -0.01076756 0.04211402
000100 a7 b4 11 be d6 39 38 3d f2 65 17 bf 23 b5 4f bd
       -0.1422907 0.04497703 -0.5913993 -0.050709855
000110 6c a6 5f be 61 46 68 3e 9a 5d 07 bf be 83 2d bd
       -0.21840829 0.22683097 -0.528772 -0.042361967
000120 88 97 75 bd 8a bb 52 be 21 08 58 bc 23 bc db 3d
       -0.059958965 -0.20579353 -0.013185532 0.107292436
000130 b1 2d 92 be d3 ed fa bd a4 29 82 be 2a 2a 81 3e
       -0.28550485 -0.122523926 -0.25422394 0.2522748
000140 e4 d0 88 be d1 e1 a3 3e 74 73 15 3e ac 78 c8 bd
       -0.2672187 0.32008222 0.14594823 -0.09788641
000150 72 79 80 be 33 20 a2 be ad a9 b4 3e 17 ee c7 3e
       -0.25092655 -0.3166519 0.35285702 0.39048836
000160 fa d4 2e 3e 1a 80 50 be 8d 66 56 be 84 05 a4 bc
       0.17073432 -0.20361367 -0.20937558 -0.020022161
000170 ac 00 70 be 19 7d 20 be 4a fe 67 3e f6 49 7e 3e
       -0.23437756 -0.15672721 0.22655597 0.24832901
000180 5a c8 bd 3e 4c 7a e7 3e 5e 02 91 3d 4b 01 d1 3e
       0.3706692 0.45210493 0.0708053 0.408213
000190 99 af 9d 3e c7 98 d1 be 06 ba c2 3e b8 2d 9c 3b
       0.30798033 -0.40936872 0.3803255 0.0047661923
0001a0 c8 d5 d6 3e 66 c8 35 3e 78 81 9b 3e c6 32 4b bd
       0.41959977 0.17752227 0.30372214 -0.04960897
0001b0 b5 c9 2f 3e 3a cc b7 be 2d 2b 3b 3d 0a ec 93 3e
       0.17166789 -0.35898 0.045695473 0.2889102
0001c0 45 3f e5 be 95 6e a9 be 3a 21 3a be 00 fd 88 bd
       -0.44774833 -0.3309218 -0.18176737 -0.06688881
0001d0 54 04 0a 3f 66 67 c0 3e d4 d1 80 3e e9 7b 8e be
       0.53912854 0.37578887 0.25160086 -0.2782891
0001e0 7a 97 fe 3c 74 b7 96 3e ed 0d a0 be 3c f0 4e 3e
       0.031078089 0.2943684 -0.31260625 0.2020883
0001f0 f5 48 94 be c7 d4 1b 3e 07 a5 9c be 26 9d e9 3d
       -0.28961912 0.15217887 -0.30594656 0.11406927
000200 29 03 aa 3e 22 74 23 3e 91 87 19 3e e5 2a cd bd
       0.33205536 0.1596227 0.1499312 -0.10017947
000210 c3 49 a3 3e ad 92 b1 be 5b 6f 0f 3e fb 39 4d be
       0.31892213 -0.34682217 0.14007322 -0.20041649
000220 38 21 41 3d 16 ea ec be c6 66 8d be ef 8b 66 3e
       0.04715082 -0.46272343 -0.27617472 0.22514318
000230 17 23 20 be 7d c8 ae 3e e2 97 e1 3d f2 9e b4 3d
       -0.15638386 0.34137335 0.110152975 0.08819379
000240 16 21 6e be 7d a3 f4 3d d8 07 bf 3e d2 df 88 3e
       -0.23254809 0.119452454 0.37310672 0.2673326
000250 93 a9 59 3e 38 ab 2b 3e 79 87 a3 be af 61 83 be
       0.21256094 0.16764534 -0.31939295 -0.25660464
000260 a3 3c a4 be ba f9 c2 be a8 51 d2 3d 08 97 76 bd
       -0.32077512 -0.3808115 0.10269481 -0.06020263
000270 e3 41 0f be 6b e5 85 3e cb b6 97 3e 03 da ae be
       -0.13989978 0.26151595 0.29631647 -0.34150705
000280 c7 bd bc 3e 15 d2 ec be 94 8d 8d 3e 95 4e 4c 3e
       0.3686354 -0.4625403 0.27647078 0.19951852
000290 18 09 b0 3d bf ed da 3e 05 2e 06 be 8d 5f 8c bd
       0.085954845 0.4275951 -0.13103493 -0.06854162
0002a0 af 6a cb be 9b 8c a1 be 19 2d 94 3c ec 5c 81 be
       -0.3972983 -0.31552586 0.01808791 -0.25266206
0002b0 76 5a 9f bc 52 27 a3 be f8 c7 b7 3e 2b f1 9e 3e
       -0.019452315 -0.31865937 0.35894752 0.31043372
0002c0 3f 34 0b 3e 77 b7 11 be ff 33 ac 3e 78 76 51 bd
       0.13594149 -0.14230143 0.3363342 -0.05113837
0002d0 26 ad 38 be ae ee 1b 3e c5 e9 1c be 63 c7 13 bd
       -0.18034801 0.15227768 -0.15323551 -0.036078822
0002e0 59 fc d8 be d1 b6 99 3e d7 d6 0d be c2 af 55 3e
       -0.42380026 0.3002229 -0.13851486 0.20867828
0002f0 49 51 90 3d 93 a3 83 3e 88 f3 93 3b 47 fc ae 3e
       0.07046754 0.25710735 0.004515115 0.34176847
000300 78 6b 45 3c fb 81 96 3e 82 4f fd 3e 5b c8 be 3e
       0.012049548 0.29396042 0.49474722 0.37262234
000310 98 c2 6f be ce 46 8f 3e 1b 44 06 3e 25 60 8d 3d
       -0.23414075 0.27983707 0.13111918 0.06903104
000320 95 95 c4 be 92 2b 81 3e 89 ff b1 be 32 dc e6 bd
       -0.38395372 0.25228554 -0.3476527 -0.11272468
000330 59 91 2a be f2 76 2f 3e 4f 15 b2 be d7 ee 05 bf
       -0.16657008 0.17135218 -0.34781882 -0.52317566
000340 9a ff 8f 3d 2b 74 e0 be 2e 77 e0 3d a0 73 80 3e
       0.07031174 -0.4383863 0.10960232 0.25088215
000350 a0 21 98 3d a5 c3 46 be 22 2f b0 3d a0 aa 5c bc
       0.074282885 -0.1941057 0.0860274 -0.013468415
000360 dd fb 44 3e 16 f5 2a 3e 3c 2b a2 3e 7b d4 42 bd
       0.19236703 0.16695055 0.3167361 -0.04756592
000370 e9 d1 fc 3e 7b 1c 41 be da 94 a4 3e 72 45 82 3e
       0.493789 -0.1885852 0.32144815 0.25443608
000380 49 3d c2 be 53 6e 03 be 99 7c f2 be b6 23 d0 be
       -0.37937382 -0.12835054 -0.47360685 -0.40652245
000390 e1 93 22 3e b7 f3 e1 bd da cf 98 be 1b f0 6d 3e
       0.15876724 -0.11032813 -0.29846078 0.23236124
0003a0 61 f6 1d 3d 7e 9d 31 3e 25 45 71 be 9c 67 1c 3e
       0.038565043 0.17345235 -0.23561533 0.15273899
0003b0 f5 62 68 3e d5 8a a7 3e 6e 55 55 3e 5f 8c f3 be
       0.22693999 0.32723108 0.2083337 -0.47568032
0003c0 36 f9 b8 3e 76 80 ec 3e f6 1f ff bd 98 0a d6 bd
       0.36127633 0.46191758 -0.12457268 -0.10451239
0003d0 56 cb 7a bd c7 dd 95 bd 2c 29 20 be c9 77 dc 3d
       -0.061229073 -0.07317691 -0.15640706 0.10765035
0003e0 94 d8 08 bd 4d e6 6f be 34 54 35 be 77 a3 56 be
       -0.03340967 -0.23427697 -0.17707902 -0.20960794
0003f0 4d c4 dc 3e 2e cb c0 3c 1d 43 83 bd 48 ed a3 3e
       0.43118516 0.023534384 -0.06409285 0.3201697

actor.4.bias f4 [4]
000000 2d 99 25 bd 42 fc 33 3d 71 b1 4f bd 3e 96 2f 3e
       -0.040429283 0.043941744 -0.05070633 0.17147157

critic.0.weight f4 [128, 8]
000000 9a 39 92 3d 8b d3 98 3d 8b 78 34 3d c6 cb da 3d
       0.07139893 0.074622236 0.04406027 0.10683398
000010 3e 3e ff be 65 77 0c bf b4 89 7f be a7 df 14 3e
       -0.49852175 -0.5486968 -0.24954873 0.14538442
000020 bc 0c 08 bf b5 31 05 be 42 c9 e7 be bd 03 95 be
       -0.5314443 -0.13007243 -0.45270735 -0.29104415
000030 37 79 e3 3e 74 9e a7 3e 9d a6 a0 3d e3 b0 e0 bd
       0.44428417 0.32738078 0.07844279 -0.109712385
000040 42 5e 19 bf 49 9c 23 be ef 05 d5 3c fc 17 1c bd
       -0.5990945 -0.15977587 0.026003806 -0.03810881
000050 5c cf 73 be 10 1f 5c be 35 14 f4 3d 46 66 e7 bb
       -0.2380957 -0.21496224 0.11917917 -0.0070617525
000060 c2 c5 59 be 1d 79 43 bb c2 ba 88 be 81 99 6b bd
       -0.21266845 -0.0029826828 -0.26704985 -0.05751944
000070 ed 02 1d be 56 ff d9 be 68 8a d1 3d 79 1c 81 3e
       -0.15333147 -0.42577618 0.10231477 0.25217035
000080 cd 51 ba be 13 d3 1c be 2d 63 15 bf 70 cf f8 be
       -0.36390534 -0.15314893 -0.58354455 -0.48595762
000090 31 0d bd 3e a7 5d a5 3d 58 ca 18 3e 20 f5 77 3e
       0.36924127 0.080745034 0.14920938 0.24214602
0000a0 c6 bb fc 3e 3b ab 85 bd bd 80 25 3e a2 12 0d 3e
       0.4936201 -0.065268 0.16162391 0.13776639
0000b0 87 df b9 be 9c 6f 86 3e 47 7e bd bd 01 48 79 be
       -0.3630335 0.26257026 -0.09252601 -0.24343874
0000c0 2b 80 bf be 32 88 8b bd de ef 7d 3e 64 97 b2 3d
       -0.37402472 -0.068130866 0.24798533 0.08720282
0000d0 43 3c aa 3e 26 37 16 3f 22 80 86 3c ef a6 67 be
       0.332491 0.586779 0.01641852 -0.22622274
0000e0 cd 24 23 bf 4c 45 e3 bc 99 80 d9 bd 65 71 69 3c
       -0.6372803 -0.027743004 -0.10620231 0.014248227
0000f0 77 eb 04 3f 4c e6 03 be 97 70 57 3d 67 31 b7 bc
       0.5192179 -0.1288082 0.05259761 -0.022362424
000100 99 7c 20 3e f1 bb e3 3d 11 89 b5 be e7 ce 6f bd
       0.1567253 0.11119831 -0.35456136 -0.058546927
000110 0e dd 35 3e 5c e3 81 be 72 c1 4d 3e a5 c6 a0 3e
       0.17760107 -0.25368774 0.20093325 0.31401554
000120 17 e1 ec bd 02 40 28 3e fb c6 33 be 13 fe 66 be
       -0.1156637 0.16430667 -0.17556374 -0.22557859
000130 05 02 e7 3e 0a 34 e2 3e f1 69 82 3d cc a6 6e 3e
       0.45118728 0.44180328 0.06367863 0.23305815
000140 64 ef 7b be ae 8d 14 be f4 19 b1 be 0a 55 3d be
       -0.24603039 -0.14507172 -0.34590113 -0.18489471
000150 e5 e1 b1 3d 22 68 cf 3d 8b f4 51 bd 3d c0 61 bc
       0.08685664 0.10127284 -0.051258605 -0.013778743
000160 e6 3d 94 bb 4e 9d 0f be 02 67 0c 3e 7c 04 43 3e
       -0.0045239804 -0.1402485 0.1371117 0.1904468
000170 d3 47 4a be 40 33 e0 3d a7 fd 73 3c 1d a8 87 be
       -0.19753961 0.10947275 0.014892018 -0.26495448
000180 e0 50 f2 be b2 3d 15 3d 5a 31 ee 3d 88 1b 51 3e
       -0.47327328 0.03643579 0.11630507 0.20420659
000190 cd 8d e7 3e 06 26 44 be e9 d3 69 be bb d2 64 be
       0.45225373 -0.1915513 -0.22834744 -0.22346012
0001a0 95 d7 8b be 03 84 67 3c be de 3b be 01 67 a3 bd
       -0.27312914 0.014130595 -0.18346688 -0.07978631
0001b0 64 d7 a0 3e dc 8e c2 3e 14 29 3e 3d 56 a5 28 bd
       0.3141433 0.37999618 0.046425894 -0.0411733
0001c0 33 1a 65 3d 05 83 d0 3e 58 16 9b bc f6 64 6a be
       0.05593319 0.4072496 -0.018931553 -0.22890076
0001d0 5b f6 c2 bd 61 14 68 3e 2f b3 c3 be f0 dd ac 3c
       -0.09519645 0.22664024 -0.38222644 0.021101922
0001e0 84 39 35 be b5 13 fa 3e e0 ff 94 be 22 73 31 bc
       -0.17697722 0.4884316 -0.29101467 -0.010830672
0001f0 e7 4c e7 bd cb d0 61 3e 5e 6c af 3e 34 da cf bc
       -0.11293965 0.22052304 0.34262365 -0.025372602
000200 c6 8e 45 be 0b dc ee 3d 4d 5a 97 be c7 96 18 be
       -0.19292745 0.116630636 -0.29561082 -0.14901267
000210 f5 8a 48 3e 6f 80 66 be 12 fd f6 bc 9e e7 3d be
       0.19584258 -0.22509931 -0.03014997 -0.18545386
000220 cb 30 b1 be ca 6e 9f bd e5 b2 d4 be 58 35 91 be
       -0.3460754 -0.07784803 -0.41542736 -0.2836101
000230 cc 00 cb 3e 24 56 35 3e 33 1c 25 3e 7b 3a e5 3c
       0.39649045 0.17708641 0.16124038 0.027981987
000240 74 fb 17 3f f3 f8 1a bd 22 59 35 3e d8 55 33 bd
       0.5936806 -0.037835073 0.17709783 -0.04378304
000250 0b dc db be 5e 7a b4 bd 84 c3 8a bd e7 6c 88 bd
       -0.42941317 -0.08812402 -0.06775573 -0.066613965
000260 7b 99 93 3e 72 af d2 3e 3c b2 6a be 52 cf ec be
       0.28828034 0.4114948 -0.22919554 -0.46251923
000270 5b 59 1f bc 79 7c 4b 3e d0 fc bf be 15 83 3f be
       -0.009725894 0.19871701 -0.37497568 -0.18702348
000280 09 6c 3a be e9 81 e6 3d 95 1d 9e be 27 7b c0 3d
       -0.18205275 0.11255247 -0.30881944 0.093984894
000290 48 c9 24 3e 12 f9 63 3e 5c 99 58 be bf 65 8c 3c
       0.16092408 0.22262982 -0.21152252 0.01713836
0002a0 10 d1 12 bf fe a3 be 3e 9a d2 17 bf a6 bd 57 be
       -0.57350254 0.3723449 -0.5930573 -0.21068439
0002b0 b7 bd 1a be f4 bb 9b bd a2 49 e7 bd b3 fd 82 3d
       -0.15111433 -0.076042086 -0.11293341 0.063960455
0002c0 c6 2e ff bd d0 6f ed be 04 18 6d be 17 13 34 3e
       -0.12460093 -0.4637437 -0.23153692 0.17585407
0002d0 79 1f 72 3e 12 5d 2e 3e 4a 90 15 be d3 a2 c7 3e
       0.23644818 0.17027691 -0.14605823 0.38991413
0002e0 f0 a2 44 be 1b 69 bc be 5d 15 88 bd ab 0b 06 3e
       -0.1920278 -0.3679894 -0.066447 0.13090388
0002f0 b8 9f 95 3e 29 e7 e1 3e 04 4a cd 3d 7d 38 55 3e
       0.29223418 0.44121674 0.10023883 0.2082233
000300 1e 35 04 3f 3f 77 09 be 7a 2a 38 3e ec 85 0e 3e
       0.5164355 -0.13424395 0.17984954 0.13918275
000310 d0 e7 2b be 2d 0d bd 3e a4 10 a9 3e d9 cb 1d 3e
       -0.16787648 0.36924115 0.33020508 0.15409793
000320 bd 06 f4 3d 9b 81 66 be 35 ce 6e 3e ac 36 8e bd
       0.11915348 -0.22510378 0.23320849 -0.069440216
000330 0f 0a a7 be 41 c3 d6 bc 92 2a e9 3d 3a 61 eb bc
       -0.32624862 -0.026216151 0.11385073 -0.028732885
000340 7d 53 10 bf d8 7e 23 bd a2 96 0f be e5 94 80 3d
       -0.56377393 -0.03991589 -0.14022306 0.062783994
000350 0b 90 e9 3e 36 48 20 bb d0 a9 c8 bd da b8 3a 3d
       0.4561771 -0.0024457104 -0.09798014 0.045586444
000360 77 ea e3 be ba ee a0 3e c2 f6 c0 be fd a3 7b 3e
       -0.4451482 0.31432134 -0.3768826 0.24574275
000370 fa 9d 45 3e 6e 9e 0c be 7d e4 94 be fe b4 27 3e
       0.19298545 -0.13732311 -0.29080573 0.16377637
000380 1d eb c3 3d 1f c3 99 bd e8 7f c2 3e a6 26 ae be
       0.09566329 -0.075079195 0.3798821 -0.3401386
000390 69 b8 b4 bd 2f 53 42 b9 97 8a 34 3e e6 13 1c be
       -0.08824236 -0.0001853227 0.17630993 -0.15241966
0003a0 83 28 62 be e5 bd a6 3e 41 90 2e 3e 46 ab ae be
       -0.22085766 0.32566753 0.17047216 -0.34115046
0003b0 08 0c 5d be ce 8b 84 3c 11 9b d6 3e bf 67 ee bd
       -0.21586621 0.016179945 0.4191518 -0.11640882
0003c0 b2 15 e9 be 1a 16 15 be 71 af a9 be 30 6d 08 bf
       -0.45524365 -0.14559212 -0.33141664 -0.53291607
0003d0 16 c5 ca 3e bf 1c 55 3e 59 42 52 3e 1a 00 03 3e
       0.3960349 0.20811747 0.20533122 0.12793007
0003e0 fb 5f 59 3e 2e 0c 92 bd 4d fd 05 3f 82 9e 85 be
       0.2122802 -0.07131229 0.5233963 -0.26097494
0003f0 da 90 a9 be 4d 7d 9d ba e9 82 8d 3b 39 d0 71 3e
       -0.33118325 -0.0012015492 0.004318584 0.23614587

critic.0.bias f4 [128]
000000 00 39 c2 3d fd cf 74 bd 3d 7b b4 3c 1f f8 37 bd
       0.09483528 -0.059768666 0.02203142 -0.04491436
000010 8f cc 10 be db 85 9b 3d 02 22 6b 3e e2 71 93 bb
       -0.14140533 0.0759389 0.22962192 -0.00449966
000020 dc 5a b2 3e fa 02 44 be d2 8c 97 bd 97 4f b1 be
       0.34834945 -0.1914176 -0.07399906 -0.34631035
000030 24 34 bd 3e f9 04 ae bc ec d1 7f 3e f9 14 ad 3e
       0.36953843 -0.021242606 0.24982423 0.33805063
000040 32 d1 f3 3e af af b4 bd ed b1 24 3d 18 51 93 3e
       0.4762054 -0.088225715 0.040208746 0.28772807
000050 7f e2 ba 3e 4b 6a 87 bd e8 e7 1e 3d 66 c1 08 3c
       0.36500928 -0.06612071 0.03879538 0.008346891
000060 43 08 2f 3e 4e 99 f1 bd 1e a7 01 3c 11 7d ae bd
       0.17092995 -0.11796819 0.007913379 -0.08519948
000070 d8 ef 3d be 83 3a 64 3e 1a bc 3f be f9 65 79 be
       -0.18548524 0.22287945 -0.18724099 -0.24355306
000080 06 18 c8 bb b7 b0 47 3e 1e 93 97 3e a3 2f e6 3e
       -0.0061063794 0.19501005 0.2960443 0.4495822
000090 15 80 4c be e0 00 d8 3e 90 20 73 3c 86 1c db 3c
       -0.19970734 0.42188168 0.0148393065 0.026747
0000a0 5a 81 41 bd 30 9a f0 3e 4d ef de 3e ba 22 64 3e
       -0.0472425 0.46992636 0.43541947 0.22278872
0000b0 d3 0f be 3e 52 c0 27 be 2f 00 19 bd a5 52 4f be
       0.37121448 -0.16381958 -0.03735369 -0.2024637
0000c0 db 72 4b 3e 13 e2 76 be 70 51 a7 3d 9b 62 4b bd
       0.19868033 -0.24109678 0.0816983 -0.049654584
0000d0 5b 62 43 bd e9 79 5f 3e be 7b 65 bd 0b a9 93 3e
       -0.04770122 0.21823849 -0.056026213 0.28839907
0000e0 db 37 1e be ba 2e 63 bc ea f0 8d be 52 d8 4e be
       -0.15450995 -0.013866121 -0.27722865 -0.20199707
0000f0 59 5e 03 3e 1a 15 0d be 1c 9c b5 3e c4 ed 0f 3e
       0.1282896 -0.13777581 0.35470665 0.14055544
000100 ed 08 43 bd d8 e8 27 be 9f 09 40 bd 1d 45 86 3e
       -0.047615934 -0.16397417 -0.046884175 0.26224604
000110 56 78 3b 3d 25 72 c2 3e 9e 6d 3e be 91 03 5c bd
       0.04576906 0.3797771 -0.18596503 -0.05371434
000120 f0 2c b1 bd c0 ac ab 3e b8 3c 8b be c5 26 d1 3d
       -0.08651149 0.33530235 -0.27194762 0.10212473
000130 a5 c5 c4 3e 65 17 1b bd 98 96 97 be e1 aa 11 3e
       0.3843204 -0.037864108 -0.2960708 0.14225341
000140 33 b0 a4 bd 4e 29 4f 3d 80 00 34 be b3 90 9c 3e
       -0.0804142 0.0505765 -0.17578316 0.30579147
000150 76 f2 93 3e 81 e1 af 3e ca 53 c9 3e 5b b8 58 3e
       0.2889592 0.34351733 0.39321738 0.21164076
000160 ad 58 b6 3d 38 58 3f 3e c4 cd 00 3f 5c 2a 92 be
       0.08903632 0.18685997 0.50313973 -0.28547943
000170 78 9a aa 3d 09 ea db bd 51 3e a2 be 1c ec b0 3e
       0.08330244 -0.10737998 -0.3168817 0.34555137
000180 82 62 30 3e 21 32 63 be 95 55 d5 3e 55 ea df bd
       0.17225078 -0.22187091 0.41666856 -0.10933367
000190 0c 8a bd 3e 02 14 4e be 73 f2 2b 3e f8 42 9d 3e
       0.37019384 -0.2012482 0.16791706 0.30715156
0001a0 ec 85 d3 bd 87 9f c6 3e 43 08 95 3e 1d ec 65 3e
       -0.10328278 0.38793585 0.29107866 0.22453351
0001b0 d7 89 47 be fb f2 60 be 64 ff 94 bb 10 95 1c be
       -0.19486175 -0.2196769 -0.0045470465 -0.15291238
0001c0 47 b1 0a 3e d7 d4 38 3e 79 6b 15 3e 15 4a ec bd
       0.13544188 0.18049942 0.14591779 -0.115375675
0001d0 dd c3 fe bd 67 ae c9 3d 90 5e e4 3e ad f4 c8 3e
       -0.12439702 0.09847718 0.44603395 0.39249173
0001e0 8e 7e 0e 3c 6f 4b 8e be 30 f1 64 be d2 4c bc 3e
       0.008697165 -0.27791926 -0.2235763 0.3677736
0001f0 c0 96 09 be 6a 34 1e 3e f1 03 a9 bd b5 0b 93 bd
       -0.13436413 0.15449682 -0.08252705 -0.07179967

critic.2.weight f4 [64, 128]
000000 5d b4 ac bd 64 be f6 3c 12 d6 12 3d a4 d8 0d bd
       -0.08432839 0.030120082 0.035848685 -0.034630433
000010 ad 74 49 3d 6c 37 00 3d 08 a4 60 3d 8f e4 3e bd
       0.049183536 0.031302854 0.054843932 -0.04660469
000020 ed 56 4f 3d 6d 6a 9f 3d 4d ed 11 bd 52 ef 80 bd
       0.05062001 0.07783971 -0.0356267 -0.06295647
000030 47 f0 86 3d f9 a2 17 3c 4f 6b 70 3d 64 1f c0 3c
       0.06588798 0.009255164 0.058696087 0.023452468
000040 6c 30 59 3d a4 5e 46 bd ea 48 35 3d 1f b5 b6 3c
       0.053024694 -0.0484301 0.04425899 0.022303162
000050 9e 17 95 bd 88 2f 2f bc 51 21 8f 3c 94 cb 6d bd
       -0.07279895 -0.010692485 0.017471941 -0.058055475
000060 96 e7 20 bd cf e4 a3 bb 79 e1 a1 bd 8c 5c 97 bc
       -0.039283358 -0.0050016413 -0.079043336 -0.018476747
000070 22 34 7d bc 4a ac a7 3d 5a a8 aa 3d d7 a5 9d bd
       -0.015454324 0.081871584 0.08332892 -0.07697647
000080 81 0d 94 bb 35 93 30 3d 4f 1c 92 3d 7b 4f 7f bc
       -0.0045182114 0.043109138 0.07134306 -0.015582914
000090 87 47 c1 bc 89 a1 69 bd ae d6 32 3d 6f e0 5b 3d
       -0.023593677 -0.057038818 0.043661766 0.053680833
0000a0 f0 5d a9 bd 6d fa 75 bd 71 74 0a bb 71 ef a0 bd
       -0.0826987 -0.060053278 -0.0021126533 -0.0785817
0000b0 fd 6e 98 bd b4 bb 46 3d 32 a1 2c 3d 78 ff 5b bc
       -0.07443044 0.04851885 0.042145915 -0.013427608
0000c0 da 8e 9d bb b0 0b f0 3c 46 99 8a bc 4e fb 35 3d
       -0.004808289 0.029302448 -0.01691879 0.044429116
0000d0 0d da fc bc 1f a9 b6 bd 35 ff 5a 3d 0b 81 02 bd
       -0.030865693 -0.08918976 0.05346604 -0.031861346
0000e0 d5 f2 b5 bd 0d 2e 96 bd 1b 6c 54 bd a6 86 90 bd
       -0.08884207 -0.07333002 -0.05186091 -0.07056932
0000f0 59 a0 6a 3d 95 7f c6 bc ee 3c 6f 3d d8 5a da 3c
       0.057281826 -0.024230758 0.058407716 0.026654646
000100 af 14 94 bd a0 3c d2 3b 93 8a 9f 3d e0 1f 6b bb
       -0.072305076 0.0064159185 0.07790103 -0.0035877153
000110 b1 10 ac bd 86 46 80 bc 64 ed 91 bd fc c7 2d 3b
       -0.08401621 -0.015658628 -0.07125357 0.0026516905
000120 32 62 65 3d d5 3d 9b bd 1d 81 b1 3c ec fd a6 bd
       0.05600185 -0.07580153 0.021668011 -0.081539005
000130 51 e3 ca 3b 40 0e e0 bc ad bc 45 bd f7 04 43 bd
       0.006191649 -0.027350545 -0.04827564 -0.047612157
000140 b4 c2 a6 3d 8c 48 8e bd b3 50 66 3d eb 97 34 3d
       0.081426054 -0.06947431 0.056229305 0.044090193
000150 71 6b 8f bd 7f 1f 91 bd 4e 00 a2 bd 97 2e 82 3d
       -0.07002915 -0.070860855 -0.07910214 0.063565426
000160 58 6c 35 3d c5 7d 9c bd a6 4b 12 3d 0b b4 09 bd
       0.044292778 -0.07641176 0.035716675 -0.033618968
000170 69 fd 46 bd 9b 14 b8 3c 79 d1 f6 3c 12 40 9c bd
       -0.048581515 0.022470763 0.030129181 -0.07629408
000180 81 fc a3 3d 92 e0 8e 3d 1d 04 30 bd 1d 47 b4 bd
       0.08007146 0.06976427 -0.042972673 -0.08802626
000190 fa b0 ae bd 5c ae 97 3d 6c 02 65 bd 03 7b 84 bc
       -0.08529849 0.07406303 -0.055910513 -0.016171938
0001a0 80 ea 94 ba 93 8a 94 bd 03 c1 60 3c 0c 7b 87 bd
       -0.001136139 -0.072529934 0.013717893 -0.06615266
0001b0 23 e9 28 bd 16 f4 04 bd 20 bd 88 3d de 19 01 3d
       -0.04123796 -0.03245934 0.06676698 0.03151881
0001c0 3e 26 16 bd 26 23 27 bd 87 38 54 3c 2c 72 bb bc
       -0.036657564 -0.040805005 0.01295293 -0.02288159
0001d0 54 40 75 bd 5e 48 a1 bd 99 31 8f bd 7b f4 f0 bc
       -0.0598758 -0.07875131 -0.06991882 -0.029413452
0001e0 b8 c0 8b 3b 4a 83 31 bd b5 e9 2f bd 03 f9 12 3c
       0.004264917 -0.043338098 -0.04294749 0.008970502
0001f0 5a bd 3d 3d b1 05 a5 3d c1 b7 c9 bc ad 49 5b 3c
       0.046323158 0.08057726 -0.024623754 0.013384265
000200 e3 e8 16 3e ae 27 23 3e 0f f6 bd 3d af aa 91 3c
       0.14737277 0.15933105 0.092754476 0.017781584
000210 74 1f db 3d 02 93 16 3e 43 45 91 3b 80 0e 1a 3e
       0.106993586 0.14704517 0.0044333055 0.15044594
000220 d3 6b 1b 3e 49 e3 6e 3d c1 dc 7c 3d 01 42 9a bd
       0.1517785 0.058322225 0.061733965 -0.075321205
000230 ec c3 05 3e ba 7b 09 3e 06 fa dc 3d ee 8f 4d 3e
       0.1306302 0.13426104 0.10789876 0.20074436
000240 a7 68 10 3d 8d 1f a9 3d 57 72 81 3e 1c d3 d6 3d
       0.035256054 0.08257971 0.25282547 0.10489485
000250 1e 28 1e 3e 77 af 92 3e c9 7e c4 bd a5 9a 3c 3c
       0.15444991 0.28649494 -0.09594495 0.0115114795
000260 0e f0 42 3d c3 10 d9 ba 2b fa 9d 3e 47 cc 4d 3e
       0.047592215 -0.0016560782 0.30854926 0.20097457
000270 a4 fa a9 3d 3c 69 00 3e c5 66 f9 3d 34 32 51 3e
       0.08299759 0.12540144 0.12177805 0.20429307
000280 6b b6 ab 3d cf 9a 23 3e 61 69 2e 3e 39 e7 02 3e
       0.08384403 0.15977024 0.17032386 0.12783517
000290 1a bb f4 3d 49 8e 1d 3e 40 9f 4d 3d 6e 7e d1 3c
       0.11949749 0.15386309 0.0502007 0.025572982
0002a0 d2 b6 97 be 68 71 fd 3d 9a 26 03 3e 29 52 23 3e
       -0.29631668 0.12375146 0.12807694 0.1594931
0002b0 8f e4 32 3e 8a f4 7e 3d 89 34 b5 3d bc 03 7c bd
       0.1747 0.06224493 0.08847911 -0.061527
0002c0 d3 a7 12 3e 08 f2 1c 3e 5a 36 c8 3d 1c ad 28 3e
       0.14321832 0.15326703 0.09775992 0.16472286
0002d0 99 e2 97 bd 39 72 0a 3e ee 6b 67 3e c2 99 16 3d
       -0.07416267 0.13520135 0.22599766 0.03676773
0002e0 1c f5 86 3d 83 fb 1d 3e 05 f1 68 3d 54 f0 df 3c
       0.0658972 0.15427975 0.05687048 0.027336277
0002f0 6d b0 50 3c 1c 4e 5b 3e 03 c9 06 3e e8 97 29 3e
       0.012737376 0.21416515 0.13162617 0.16561854
000300 ae 56 76 3e 1e 03 d1 3d 86 dd 87 3e 4b 28 66 3d
       0.24056503 0.10205673 0.26536196 0.05619077
000310 89 d4 38 3e 4c 2c 67 3d 83 5e fe bd e4 a7 c5 bd
       0.18049826 0.05643873 -0.124203704 -0.09651163
000320 6d 6f 0d 3e 06 92 23 3e 82 bb c1 bd d1 0f 59 bd
       0.13812037 0.15973672 -0.094595924 -0.0529936
000330 43 c8 01 3e 9e 21 e7 bd da 27 0d 3e 0a 06 77 3e
       0.1267405 -0.11285709 0.13784733 0.24123397
000340 18 c4 4c 3e 08 a8 0a be 34 b4 78 3e fa 5d c5 3d
       0.19996679 -0.13540661 0.24287492 0.09637065
000350 22 c8 a4 bc 95 ea 10 3d a8 a9 3e 3e 38 76 dd 3d
       -0.020114962 0.035379965 0.18619406 0.10813564
000360 0c e0 05 3d 13 5d 91 3e a6 de 2b 3e 35 a1 f3 3c
       0.03268437 0.28391322 0.16784152 0.029739955
000370 9b e2 c5 3d 45 e6 90 bd 50 c1 36 3e 21 d6 1e 3e
       0.09662362 -0.070751704 0.1784718 0.15511371
000380 6a 33 17 be aa a3 eb bc 56 3b 31 3e 18 a6 03 3e
       -0.14765707 -0.028764565 0.17307791 0.12856328
000390 86 97 97 3c 83 e1 21 3d 50 09 08 3e 7d 4e 6f 3d
       0.01850487 0.039521705 0.13284802 0.05842446
0003a0 8a cd 5d be 29 cc f8 3d 81 28 08 3e 81 7f e7 3d
       -0.21660438 0.121483155 0.13296701 0.11303616
0003b0 ce e7 b9 3d 4e d4 24 3e 04 19 ff 3d 9b 4e cd 3d
       0.09077416 0.16096613 0.12455943 0.100247584
0003c0 a2 93 4d bd 9c 6a 33 3a 1e f9 b9 bd 02 c1 ae 3b
       -0.05018962 0.0006844194 -0.090807185 0.005333067
0003d0 d2 87 b6 3d b2 ff a8 be 8b 28 2e 3e 76 01 e7 3d
       0.089126244 -0.3300758 0.17007653 0.112795755
0003e0 6a 0e 30 3d 82 e4 85 3e 50 10 82 be f0 34 6c 3d
       0.042982496 0.261509 -0.2540307 0.057667673
0003f0 fc 5b 5e bc 01 3b be 3d c9 dd 42 bd cc b0 ba bc
       -0.0135717355 0.09288598 -0.047574792 -0.022789381

critic.2.bias f4 [64]
000000 4c 12 21 3c c7 90 05 3e 53 93 50 bd 46 6e 79 3d
       0.0098310225 0.1304351 -0.05092175 0.06089618
000010 6f 41 b5 3d 2c 77 72 bb 72 1f a0 3d b1 35 9c bb
       0.08850371 -0.0036997302 0.07818498 -0.0047671427
000020 8b 54 de 3c 96 c1 e4 3b 6a c9 e4 3c e1 33 52 bd
       0.027139923 0.006981085 0.027928073 -0.051319007
000030 12 9c 61 bc 3e 2c 4c 3e b2 27 fe 3d 72 36 8c 3d
       -0.01377012 0.19938752 0.12409915 0.06846322
000040 fd e0 07 3d 2c 2a 76 3d 74 5e 61 bd 58 3d 88 3d
       0.03317355 0.060098812 -0.05502172 0.066523254
000050 53 2b b1 3d b7 5f e6 bb 40 e6 db bc 5f c3 e1 bc
       0.086508416 -0.007030453 -0.02684319 -0.02755898
000060 bb f8 61 3d 83 64 1a bd 04 c4 0a 3e a9 e8 94 3d
       0.05516885 -0.03769351 0.13551337 0.07270939
000070 e0 be 16 3d b1 bb 31 3e a2 62 91 bd cb 59 3e bc
       0.036803126 0.17356755 -0.07098891 -0.011618088
000080 37 1f fd 3c d7 aa b1 3d 07 a0 92 3c 2d c4 12 3e
       0.030898673 0.08675163 0.017898573 0.14332648
000090 63 6e a4 bd 46 8d 87 3d 2d 99 ae 3d ef 2c 15 bd
       -0.08028867 0.06618743 0.0852531 -0.036419805
0000a0 af ed 2e bd 1c 7b 5b bd ee 6d 83 3d 44 86 62 3e
       -0.04270714 -0.053584203 0.06417452 0.22121531
0000b0 6f 78 6c 3d 91 2c 7b bd ff 75 51 3d bb c5 69 3e
       0.057732042 -0.0613218 0.05113792 0.22829334
0000c0 f7 a4 74 bc 74 dc 1e bc 99 7f b9 bd 32 a6 1b bd
       -0.014931909 -0.009696115 -0.090575404 -0.038000293
0000d0 43 b7 42 3d 26 f6 c5 3d cd 5b 57 3d 52 dd 57 bd
       0.047538053 0.0966609 0.052577782 -0.052701302
0000e0 76 45 85 bc ff ea d1 bd ce 6c 0c 3e 11 4c 98 b9
       -0.016268473 -0.102499 0.1371338 -0.00029048373
0000f0 b2 55 c3 3d 88 d0 72 3d 04 34 9a 3c b6 34 93 3d
       0.095378295 0.059280902 0.018823631 0.07187788
