experiments/LunarLander-v2_PPO/dqn.pth (torch, 96827 bytes, 13 tensors)

actor.0.weight f4 [128, 8]
0	0x3f4f09cd	0.8087433
1	0x3f1b018a	0.60549223
2	0x3f459494	0.7717984
3	0xbeea5755	-0.45769754
4	0x3e9d6143	0.30738267
5	0xbeed4a76	-0.46345872
6	0xbec6a35a	-0.38796502
7	0x3f01f5c0	0.5076561
8	0xbe1f5947	-0.155614
9	0x3eefe91e	0.46857542
10	0x3d0163da	0.031589366
11	0xbf2cbd68	-0.6747651
12	0x3f7d95e1	0.9905682
13	0x3f84cd0b	1.0375074
14	0xbe07a762	-0.13247445
15	0x3e3707de	0.17874095
16	0x3e506834	0.2035225
17	0xbf68eb5d	-0.90984136
18	0xbf10796e	-0.56435287
19	0x3ef64333	0.48098144
20	0x3f137ade	0.57609355
21	0xbeaf1a9f	-0.34199998
22	0xbe33b004	-0.17547613
23	0x3ebbcb09	0.3667834
24	0xbe2ab961	-0.16672279
25	0x3ee1e7c0	0.44122124
26	0x3f37e8f8	0.7183986
27	0xbf8368e6	-1.0266387
28	0x3caff656	0.021479767
29	0x3eea47b0	0.45757818
30	0x3bdd586b	0.006754925
31	0xbee59dc0	-0.44846916
32	0xbf2b6d24	-0.6696341
33	0xbe4d5fac	-0.20056027
34	0xbf18cce1	-0.5968762
35	0x3cb10d5b	0.021612814
36	0x3ee41a23	0.4455119
37	0x3f5b2f93	0.8561947
38	0x3e934fa1	0.2877169
39	0xbef857de	-0.48504537
40	0x3f2afdfd	0.66793805
41	0x3f078d27	0.52949756
42	0x3f35485d	0.7081354
43	0x3f7b3785	0.9813159
44	0xbf6385d7	-0.888761
45	0xbf72963f	-0.9476051
46	0xbf340030	-0.70312786
47	0xbf29c5d4	-0.66317487
48	0x3e0e717d	0.1391048
49	0x3e21ba51	0.1579373
50	0x3ed9a5e1	0.42509368
51	0x3f8203c3	1.0157398
52	0xbeab94ae	-0.3351187
53	0x3dd3001c	0.10302755
54	0xbf0f9645	-0.5608867
55	0x3e334190	0.17505479
56	0xbf44a282	-0.7681047
57	0xbe4548e7	-0.19266091
58	0xbf064295	-0.52445346
59	0xbe8cea9d	-0.27522746
60	0xbf11914d	-0.56862336
61	0x3b4cf11d	0.0031271644
62	0xbf12857a	-0.5723492
63	0x3d8d4eb4	0.06899777
64	0xbe8acba8	-0.27108502
65	0x3f5745c0	0.84090805
66	0xbeabbf33	-0.3354431
67	0x3f269a99	0.6507965
68	0x3ceee2f1	0.029160948
69	0xbe2a8fb3	-0.1665638
70	0xbf3c2642	-0.73495877
71	0x3f1fe2a2	0.6245519
72	0xbee7f400	-0.45303345
73	0xbef035af	-0.46915957
74	0xbf4f8d88	-0.81075335
75	0x3f290626	0.66025007
76	0x3f2ea8d1	0.68226343
77	0x3e52fbf4	0.20603925
78	0xbe96f765	-0.29485622
79	0xbed3fc62	-0.4140349
80	0x3e0ff3f1	0.140579
81	0xbefdcb58	-0.495692
82	0x3f386f52	0.7204486
83	0xbe54b8aa	-0.20773569
84	0x3ec372a3	0.38173398
85	0x3f6a5e0d	0.9154976
86	0x3f40b33a	0.7527348
87	0x3f50c20a	0.8154608
88	0xbf2a63cb	-0.6655852
89	0xbf5aba96	-0.8544096
90	0xbf3bd5d3	-0.73373145
91	0xbeea4a57	-0.45759842
92	0x3ccc57e0	0.024944246
93	0x3f3e473b	0.7432744
94	0x3e6e9a67	0.23301087
95	0xba1e9b8e	-0.0006050401
96	0x3f519aa4	0.8187659
97	0x3ee130be	0.439825
98	0xbd587098	-0.052841753
99	0x3f1a6100	0.6030426
100	0x3e233826	0.15939388
101	0x3d2fae30	0.042890728
102	0x3ea5a142	0.32349592
103	0xbd62e023	-0.055389535
104	0x3f162e7b	0.58664674
105	0x3e689b5f	0.2271552
106	0x3ecabdf7	0.39598057
107	0xbe9f4d46	-0.31113642
108	0xbf6f7c90	-0.9354944
109	0xbe3f0a69	-0.18656315
110	0xbf5475d0	-0.8299227
111	0xbf17743e	-0.59161747
112	0xbf304ce9	-0.68867356
113	0x3f17b05d	0.59253484
114	0x3e772001	0.24133302
115	0x3f193f1d	0.5986193
116	0xbe889787	-0.26678106
117	0x3f44790f	0.7674722
118	0x3e1448a1	0.1448083
119	0x3d163dea	0.03668014
120	0xbeedfadf	-0.46480462
121	0x3ed20e0b	0.4102634
122	0xbe5d750a	-0.21626678
123	0xbf437e0f	-0.76364225
124	0xbebaab24	-0.36458695
125	0xbf45b870	-0.77234554
126	0xbf31d133	-0.6945984
127	0xbf078a13	-0.5294506
128	0x3f39360d	0.723481
129	0xbf61a3b7	-0.88140434
130	0x3d4d91b5	0.050187785
131	0x3eb94004	0.36181653
132	0xbefe81fa	-0.4970854
133	0x3f53695c	0.8258264
134	0xbf33e734	-0.7027466
135	0xbec33fec	-0.38134706
136	0xbe4c05d2	-0.19924095
137	0xbedb39b2	-0.42817456
138	0xbf561cfe	-0.8363799
139	0x3f54f938	0.8319278
140	0xbf0495d9	-0.5179115
141	0x3f3abc22	0.7294332
142	0x3f245416	0.64190805
143	0x3e86485f	0.2622709
144	0x3f068014	0.5253918
145	0x3e81ec45	0.25375572
146	0x3e23110f	0.15924476
147	0x3f652de4	0.8952315
148	0xbf92b6e5	-1.1462065
149	0xbf585d73	-0.8451759
150	0x3f1a572f	0.6028928
151	0xbf0c91b0	-0.549098
152	0xbf3dfcfc	-0.7421415
153	0xbf3ab9ca	-0.7293974
154	0xbf44fb9e	-0.7694644
155	0x3f19d74a	0.6009413
156	0x3e8b93f7	0.27261326
157	0x3ea093b5	0.31362692
158	0xbebce012	-0.36889702
159	0x3ef9a8af	0.48761508
160	0xbec4cc59	-0.38437155
161	0x3e894b9b	0.26815495
162	0xbedf911b	-0.43665394
163	0x3e44d58e	0.1922209
164	0xbf826de7	-1.018979
165	0x3e8c152b	0.273599
166	0x3e779e1d	0.24181409
167	0x3f37a43f	0.71734995
168	0x3f02ccb9	0.5109363
169	0xbdc876b1	-0.097882636
170	0xbdc3d0e6	-0.095613286
171	0x3eb1c814	0.3472296
172	0xbf639411	-0.88897806
173	0xbdd38dad	-0.10329757
174	0x3d73ba38	0.059503764
175	0x3f20bacf	0.6278505
176	0xbf2489b3	-0.6427261
177	0xbeaa23f5	-0.33230558
178	0xbe42c91c	-0.1902203
179	0xbe790935	-0.24319918
180	0x3ec6b0e8	0.38806844
181	0xbf1b0b30	-0.60563946
182	0x3f22c58b	0.63582677
183	0xbe8b81ba	-0.2724741
184	0x3f3d06d7	0.7383856
185	0xbe8c8412	-0.27444512
186	0xbee0436e	-0.43801445
187	0x3edfb8b2	0.436956
188	0xbeb6073c	-0.35552394
189	0xbdd04fff	-0.10171508
190	0xbf17a7a3	-0.5924017
191	0x3f314934	0.69252324
192	0xbf488439	-0.78326756
193	0xbf5e709d	-0.86890584
194	0xbf019f0b	-0.50633305
195	0xbd007f2a	-0.031371273
196	0xbe44ff42	-0.19237998
197	0x3f50a4b4	0.8150132
198	0x3f2016af	0.6253461
199	0x3f4a4972	0.7901832
200	0x3e2bd159	0.16779079
201	0x3f096f14	0.53685117
202	0x3ea7d0d0	0.327765
203	0xbba60036	-0.005065943
204	0x3f52a061	0.8227597
205	0x3f6dba8c	0.9286277
206	0xbd1ad605	-0.03780176
207	0xbe832434	-0.25613558
208	0x3e0fa032	0.14025953
209	0x3ec5e296	0.38649434
210	0x3f0a0cea	0.53925955
211	0xbd248872	-0.040169187
212	0x3f48836c	0.78325534
213	0xbf224601	-0.6338807
214	0x3eed7470	0.46377897
215	0xbe300b6c	-0.17191857
216	0xbf16fc38	-0.58978605
217	0x3e693838	0.22775352
218	0xbed1b17f	-0.4095573
219	0xbef3eb29	-0.4764035
220	0xbd253c06	-0.040340446
221	0x3f612917	0.87953323
222	0x3e80f8e1	0.2518988
223	0x3f48de07	0.78463787
224	0x3eff79dd	0.49897662
225	0x3f192fef	0.59838766
226	0xbe4bd2e3	-0.19904666
227	0x3ea9a6c7	0.33135054
228	0x3f716139	0.94288975
229	0x3f6c59fe	0.9232482
230	0x3f333b50	0.7001238
231	0xbea1f0fc	-0.3162917
232	0x3eb841dc	0.35987747
233	0x3dd8bed8	0.105832756
234	0x3f07233f	0.52788156
235	0xbf418f69	-0.7560945
236	0x3d551f56	0.052031837
237	0x3f1c928d	0.6116112
238	0xbe4e5514	-0.20149642
239	0x3f3d4adc	0.7394235
240	0xbe49f0dd	-0.19720788
241	0xbe6ab783	-0.22921567
242	0x3ed9f5af	0.42570254
243	0x3e07f173	0.132757
244	0xbf64bd05	-0.8935092
245	0x3ebaa57c	0.3645438
246	0x3ed37194	0.4129759
247	0x3f1d013d	0.61330014
248	0xbeaa9cf3	-0.33322868
249	0xbe679b1b	-0.22617762
250	0x3e452a71	0.19254471
251	0x3e9f3924	0.31098282
252	0xbfa1c47f	-1.2638091
253	0xbf1a8f27	-0.60374683
254	0xbf33d2dd	-0.70243627
255	0x3f446a66	0.7672485

actor.0.bias f4 [128]
0	0xbd34e300	-0.044161797
1	0x3d2380c3	0.03991772
2	0xbe049d69	-0.12950672
3	0x3d85704a	0.06515558
4	0x3e73c97a	0.23807326
5	0x3e1eb7fc	0.15499872
6	0x3df795ad	0.12089095
7	0xbe8ab429	-0.27090576
8	0xbd4c3b7e	-0.049861424
9	0x3db205fd	0.086925484
10	0xbe080b13	-0.13285474
11	0xbe8f40e2	-0.2797919
12	0xbd2732a7	-0.04081979
13	0x3dff658d	0.12470541
14	0xbe59dfb7	-0.21276747
15	0xbdead199	-0.11465759
16	0x3ddee6a7	0.10883837
17	0x3d5aef51	0.053450886
18	0x3e8289a6	0.25495642
19	0xbec542e0	-0.38527584
20	0x3e15b6ce	0.14620516
21	0x3ea789ad	0.32722226
22	0xbe9c0e82	-0.3047982
23	0x3dd3e725	0.10346822
24	0x3e5602a4	0.20899445
25	0x3c5fbe40	0.013656199
26	0x3e59fcdb	0.21287863
27	0x3c5ff350	0.01366885
28	0xbe9981d0	-0.29981852
29	0xbedfff38	-0.43749404
30	0x3e133d5e	0.14378878
31	0x3f01a282	0.5063859
32	0x3e81d73f	0.25359532
33	0x3dbdf7c2	0.09275772
34	0x3e1e0f3f	0.15435503
35	0x3e760319	0.24024619
36	0x3d89f43c	0.06736037
37	0xbd9fec30	-0.07808721
38	0xbe8b3f86	-0.27196902
39	0x3e617690	0.22017884
40	0x3e76a616	0.24086794
41	0xbc5d15e2	-0.013493987
42	0x3e3f2f35	0.18670352
43	0xbe01c793	-0.12673788
44	0x3ec48665	0.38383785
45	0xbe27edbb	-0.1639928
46	0xbb66c2dc	-0.003521136
47	0xbde18861	-0.1101234
48	0xbd71c050	-0.059021294
49	0x3ddca0f4	0.10772887
50	0x3d370384	0.044681087
51	0xbe858d5a	-0.26084405
52	0x3dd7c8ea	0.10536368
53	0x3e8b3ab7	0.27193233
54	0xbe008eac	-0.12554425
55	0x3d6e2b1c	0.05814658
56	0xbdb740f2	-0.08947934
57	0xbddbf8f8	-0.107408464
58	0x3ea99000	0.33117676
59	0xbbc2f38b	-0.0059494427
60	0xbdbfb2f1	-0.09360302
61	0xbe8a0089	-0.26953533
62	0xbe8a5451	-0.27017453
63	0xbadb4b59	-0.0016730829
64	0x3e2d969b	0.16951983
65	0x3e4462ab	0.19178264
66	0xbd206b39	-0.039164755
67	0xbe609847	-0.21933089
68	0xbe469990	-0.19394517
69	0x3d919119	0.07107753
70	0x3ed0c011	0.40771535
71	0xbe3f0ce2	-0.18657258
72	0xbc9fc60e	-0.01950362
73	0x3ed256a0	0.41081715
74	0x3e4f0c57	0.20219551
75	0xbc2d50ed	-0.010578376
76	0x3d89bf0a	0.06725891
77	0x3d3911fd	0.04518317
78	0xbab7b3c8	-0.0014015371
79	0x3e771b85	0.24131592
80	0xbded75cc	-0.115947336
81	0x3e4dbb1b	0.20090906
82	0x3de921d5	0.11383406
83	0xbdd9786a	-0.1061867
84	0xbe2eb497	-0.17061077
85	0xbe9865c1	-0.29765132
86	0xbc9ab329	-0.018884258
87	0x3e947107	0.28992483
88	0x3e72cd37	0.23711096
89	0xbba6a1b9	-0.005085197
90	0x3de055e8	0.10953885
91	0xbe7f1c98	-0.24913251
92	0xbe427b7b	-0.18992417
93	0x3e8047c9	0.25054768
94	0xbe3d0ff3	-0.18463115
95	0xbe555cb8	-0.2083615
96	0x3e35e482	0.1776295
97	0x3e2ac0eb	0.16675155
98	0x3e9c7919	0.3056114
99	0x3e53590e	0.2063944
100	0x3e2034c2	0.15645126
101	0x3ec28a7e	0.37996286
102	0xbe496ee6	-0.1967121
103	0x3e53d8bb	0.20688145
104	0x3e3b0300	0.18262863
105	0xbe00823b	-0.12549679
106	0xbe880f42	-0.2657414
107	0xbeb85143	-0.35999498
108	0x3e9a9f25	0.30199543
109	0x3d16d013	0.03681953
110	0xbdfc44ba	-0.12317796
111	0xbe08513f	-0.13312243
112	0x3ec8b07f	0.39197156
113	0x3db88178	0.09009069
114	0xbebea223	-0.37233075
115	0x3e56831b	0.2094845
116	0xbc2b4806	-0.010454183
117	0xbd9bb6bf	-0.076032154
118	0xbedc29c0	-0.43000603
119	0xbd0a6bff	-0.0337944
120	0xbd97a85e	-0.0740516
121	0xbe59ffe5	-0.21289022
122	0x3e366777	0.17812906
123	0xbe77a805	-0.24185188
124	0xbdae5f8e	-0.08514319
125	0x3e05c479	0.1306323
126	0x3e2754f9	0.16341008
127	0xbeaca01f	-0.33715913

actor.2.weight f4 [64, 128]
0	0xbd128bdf	-0.035777923
1	0x3c8dcac9	0.01730861
2	0x3e42b9e5	0.19016226
3	0x3e6b75e2	0.22994187
4	0xbe2c6a6b	-0.1683747
5	0x3e010aa0	0.1260171
6	0xbda32d9b	-0.07967683
7	0xbcb34465	-0.021883199
8	0xbbf04302	-0.0073322067
9	0x3d841c71	0.06450737
10	0xbdb70cc3	-0.08937981
11	0x3e0bdc3b	0.1365823
12	0x3d5adb49	0.053431783
13	0x3dd9ca58	0.10634297
14	0x3d0bc291	0.0341211
15	0x3e12e9a7	0.14346944
16	0xbe2f1e24	-0.17101341
17	0x3db04c28	0.08608276
18	0x3d51ac05	0.05118944
19	0xbc5e4f8d	-0.013568771
20	0xbe758b89	-0.2397901
21	0xbcd459ea	-0.02592178
22	0x3d907b77	0.07054799
23	0xbcee4d70	-0.02908966
24	0xbe6fcd88	-0.23418248
25	0xbd211bdc	-0.03933321
26	0x3ddaa42c	0.106758446
27	0xbe1402b3	-0.14454155
28	0x3c0e2044	0.008674685
29	0x3d9b2c86	0.075768515
30	0xbe26c993	-0.16287832
31	0xbe4d10e6	-0.20025977
32	0x3e7c4927	0.2463728
33	0xbd86f3e0	-0.06589484
34	0x3e0451e3	0.12921862
35	0xbe2cf69d	-0.1689095
36	0xbd66aff0	-0.05632013
37	0x3e8179a4	0.25288117
38	0xbdf22736	-0.11823885
39	0x3d2608fb	0.04053591
40	0x3c9a0cdf	0.018804966
41	0x3e1b9535	0.15193637
42	0x3e6afaae	0.22947189
43	0x3deca3e0	0.11554694
44	0x3e3555ba	0.17708483
45	0xbe39208d	-0.18078823
46	0x3e182039	0.14856042
47	0x3caaecd7	0.020864887
48	0xbcd5cfc8	-0.026100054
49	0x3d0f324c	0.034960076
50	0x3d068628	0.032842785
51	0x3e281f39	0.1641816
52	0x3e0abce4	0.13548619
53	0xbc8c7457	-0.017145319
54	0x3e5669c3	0.20938782
55	0xbcdafbb6	-0.026731353
56	0x3df77ef0	0.12084758
57	0xbe005e37	-0.1253594
58	0xbd87f68e	-0.066388234
59	0x3c369ea7	0.011146224
60	0x3c9ee0ee	0.019394364
61	0x3c043dcc	0.008071374
62	0xbc67cd78	-0.014148109
63	0x3d65a32f	0.056063827
64	0x3e4a19d2	0.19736412
65	0xbe0e293c	-0.13882917
66	0xbddf0baa	-0.108908966
67	0xbd983070	-0.07431114
68	0x3e1b7671	0.151819
69	0xbe3abefe	-0.1823692
70	0x3dfa6c82	0.122277275
71	0x3e2c847d	0.16847415
72	0x3d445d1e	0.047940366
73	0xbe028758	-0.12746942
74	0xbdd0ef44	-0.10201886
75	0x3d16d3d6	0.036823116
76	0x39936f32	0.00028120872
77	0xbe7e9fb6	-0.24865612
78	0x3e3fff74	0.18749791
79	0x3d8731fb	0.0660133
80	0xbce14bb0	-0.02750191
81	0x3d8e84f5	0.06958953
82	0x3ddfd754	0.109297425
83	0x3daaeee2	0.083463445
84	0xbea9cb6d	-0.33163014
85	0xbeb58288	-0.3545115
86	0x3d25bf48	0.040465623
87	0xbd7ac80a	-0.06122593
88	0x3e169b12	0.14707592
89	0xbd0d6c72	-0.03452725
90	0x3c2b745c	0.010464754
91	0xbe5081cd	-0.20362015
92	0xbdd1a78b	-0.102370344
93	0x3e28aa8a	0.16471305
94	0xbe74a4e6	-0.23891029
95	0xbe8c694b	-0.27424082
96	0x3b5ae37a	0.0033399747
97	0xbd4a7869	-0.04943124
98	0x3e8c3e11	0.27391103
99	0x3e0884e3	0.13331942
100	0xbde74d86	-0.11294083
101	0x3da5e22f	0.08099782
102	0x3e4a7fc4	0.19775301
103	0x3e160516	0.14650378
104	0x3db203b8	0.086921155
105	0xbe2b4e42	-0.16729072
106	0x3e5b70e4	0.21429783
107	0x3dab1923	0.08354404
108	0xbdffbd45	-0.12487272
109	0x3bacae1b	0.0052697784
110	0x3d28eff9	0.04124448
111	0xbd239ae4	-0.039942637
112	0x3daf57ff	0.08561706
113	0x3d7f0138	0.06225702
114	0xbc9409f1	-0.018071147
115	0x3e4c849f	0.19972466
116	0xbdef32c2	-0.11679603
117	0x3dc2ddf2	0.09514989
118	0x3d9d4c54	0.07680574
119	0x3e7fc9eb	0.2497937
120	0xbea4e4db	-0.32205853
121	0x3de99116	0.11404626
122	0xbdac99d8	-0.08427781
123	0xbe96fca7	-0.29489633
124	0xbceed64e	-0.029154923
125	0x3e805c60	0.25070477
126	0xbd81b78c	-0.06333837
127	0x3d3f197c	0.046655163
128	0xbe118e3b	-0.14214413
129	0x3e51af74	0.20477086
130	0x3e1c0c9b	0.15239184
131	0x3e6c2ff2	0.23065165
132	0xbd48607d	-0.048920143
133	0xbe18a2d2	-0.14905861
134	0x3e1ca46f	0.15297101
135	0x3e1bfe16	0.15233645
136	0x3e326e5d	0.17424913
137	0x3e4bf35e	0.19917056
138	0x3d464040	0.048401117
139	0xbc9d77e8	-0.019222215
140	0xbe044c63	-0.12919764
141	0x3e57e1f9	0.21082295
142	0x39d38926	0.0004034724
143	0xbd36637f	-0.04452848
144	0x3e8cd761	0.2750807
145	0x3ca2aa0f	0.01985648
146	0x3e1bbabd	0.15207954
147	0xbdc566ad	-0.096387245
148	0x3e6ba4ef	0.23012136
149	0x3ca10a0c	0.019658111
150	0xbe0a360c	-0.1349718
151	0x3d17c152	0.0370496
152	0x3e34cd86	0.17656526
153	0x3ddced93	0.10787501
154	0x3d30e37b	0.043185692
155	0xbca6c474	-0.020357348
156	0x3d8d05b4	0.068858534
157	0x3dd88986	0.105731055
158	0x3de6d384	0.11270812
159	0x3d74d085	0.059769172
160	0x3e8ae218	0.2712562
161	0x3e18d570	0.1492517
162	0xbd49e6a7	-0.049292233
163	0x3e076899	0.13223495
164	0x3d5f9ae9	0.054591093
165	0x3e2dc395	0.1696914
166	0x3e2f649c	0.17128223
167	0xbdd1ea40	-0.10249758
168	0x3e4e8433	0.20167617
169	0xbdf5b3f0	-0.11997211
170	0x3e4e2506	0.20131311
171	0x3d837b3b	0.06419989
172	0x3e04b96b	0.12961356
173	0x3de3b7c6	0.111190364
174	0xbda1d314	-0.07901588
175	0xbe0ce08c	-0.13757533
176	0x3dd4112f	0.1035484
177	0xbc9a1b9b	-0.018811991
178	0xbde5b695	-0.112164654
179	0x3e553f8f	0.20825027
180	0x3dd987e4	0.10621622
181	0x3df96fcf	0.12179529
182	0x3e5b4ac1	0.21415235
183	0x3ddc43ba	0.10755105
184	0x3e789715	0.24276383
185	0xbcefa6ab	-0.029254278
186	0xbd4f14c5	-0.050556917
187	0x3de064ce	0.10956727
188	0x3d94a2cd	0.07257614
189	0xbe476549	-0.19472231
190	0xbd3df067	-0.046371844
191	0x3d8c5b66	0.0685337
192	0x3ce81c20	0.028333724
193	0x3e476b14	0.19474441
194	0x3db5cbfd	0.08876798
195	0x3dbc505a	0.09195013
196	0xbe02cb93	-0.1277297
197	0xbe21cdc5	-0.15801151
198	0x3e0c7987	0.13718234
199	0xbe3ddf0c	-0.18542117
200	0xbc1a6971	-0.009424553
201	0x3e916ad2	0.2840181
202	0xbca1bd07	-0.019743456
203	0xbe2c77b3	-0.16842537
204	0x3da33c2e	0.07970463
205	0x3da027db	0.07820102
206	0x3e526d62	0.20549539
207	0x3ea148e4	0.31500924
208	0xbd263377	-0.040576424
209	0x3dd11aa4	0.102101594
210	0x3ddfe669	0.10932619
211	0x3be27b49	0.0069116694
212	0x3e21cdd8	0.1580118
213	0x3da024c9	0.07819516
214	0x3e4e4419	0.20143165
215	0x3d5e3e59	0.054258678
216	0x3e4cf747	0.20016204
217	0x3d13aba3	0.036052357
218	0xbe428e99	-0.18999709
219	0xbc81471e	-0.015780982
220	0x3e9e1a37	0.30879375
221	0x3e423b07	0.1896783
222	0xbe60674c	-0.21914405
223	0x3d79a81f	0.06095135
224	0x3e4caab9	0.19987
225	0x3e76aa86	0.24088487
226	0x3cd59390	0.02607134
227	0x3ea056d3	0.31316242
228	0x3b088b29	0.00208349
229	0x3d3ac1c1	0.045594934
230	0x3d995128	0.074861825
231	0x3e64d915	0.22348435
232	0xbd880f1f	-0.06643509
233	0xbe5d9701	-0.21639635
234	0x3e4db507	0.20088588
235	0x3e5b8595	0.21437676
236	0x3e4abdf6	0.19799027
237	0xbdbb02e9	-0.091314144
238	0x3e4db0ac	0.20086926
239	0x3e3e4570	0.18581176
240	0x3e906fb2	0.28210217
241	0x3e147968	0.14499438
242	0x3e6ef84d	0.23336907
243	0xbdaa6fd0	-0.08322108
244	0x3e885ba6	0.26632422
245	0xbe1c78bf	-0.15280436
246	0xbe15ce1b	-0.14629404
247	0xbe3e01ef	-0.18555425
248	0x3d4accf1	0.049511854
249	0x3e019bf8	0.12657154
250	0x3e0daaa0	0.1383462
251	0xbce2e913	-0.02769903
252	0xbdc7f176	-0.09762852
253	0x3e82dc83	0.25558862
254	0x3e8d2415	0.2756659
255	0x3d752756	0.059851967

actor.2.bias f4 [64]
0	0x3da85b57	0.08220547
1	0x3deff097	0.11715811
2	0x3dc6bbb8	0.09703773
3	0x3e167d82	0.14696315
4	0x3d70b4f1	0.05876631
5	0x3d93edc9	0.07223088
6	0x3de8414f	0.113405816
7	0x3db05f46	0.08611922
8	0x3c08ef4e	0.008357836
9	0x3d886d20	0.06661439
10	0xbcd0b861	-0.025478544
11	0x3d0a7396	0.033801638
12	0xbdb32509	-0.08747298
13	0xbceec7d8	-0.029148027
14	0xbd52d652	-0.051473923
15	0xbd38cbcc	-0.04511623
16	0x3cb87c3f	0.022520183
17	0x3d044571	0.032292787
18	0x3db29521	0.0871985
19	0xbe04621d	-0.12928052
20	0x3dce7578	0.10080999
21	0xbd757cb3	-0.059933376
22	0xbd4e68cb	-0.050392907
23	0xbd3493af	-0.044086155
24	0xbd879513	-0.066202305
25	0xbcb0f64e	-0.021601822
26	0xbcdafad3	-0.02673093
27	0xbdaf0bb1	-0.08547152
28	0x3e0f7e51	0.1401303
29	0x3d1fbfae	0.03900116
30	0x3dea6ac8	0.11446148
31	0xbca25f07	-0.019820703
32	0x3d7402b5	0.059572894
33	0xbc0f1427	-0.008732832
34	0xbd087314	-0.033312872
35	0xbdc63f1e	-0.096800074
36	0x3d62b945	0.055352468
37	0xbb26beb7	-0.0025443265
38	0xbda9354a	-0.08262117
39	0x3d49bf92	0.04925496
40	0x3d32914d	0.0435956
41	0x3b2225a1	0.0024741667
42	0xbd67440b	-0.056461375
43	0xbd36be97	-0.044615354
44	0x3d1da525	0.038487572
45	0x3ca211cd	0.019783879
46	0x3d6b1109	0.057389293
47	0x3d7297d6	0.059226833
48	0x3dab21df	0.0835607
49	0x3cab7b10	0.020932704
50	0x3d64bda1	0.055844907
51	0xbbb76720	-0.0055970103
52	0x3d00355e	0.031300895
53	0x3d90e009	0.07073981
54	0xbe11f4e9	-0.14253582
55	0xbd928229	-0.07153732
56	0xbdc98e72	-0.098416224
57	0x3d5f71e4	0.054551974
58	0xbd67738c	-0.05650668
59	0x3cb51e35	0.02210913
60	0x3c2c7679	0.010526293
61	0x3cf6bc39	0.030119048
62	0x3c8d2d66	0.017233562
63	0xbd31c372	-0.04339928

actor.4.weight f4 [4, 64]
0	0x3b00ba4c	0.0019642292
1	0xbe5b5939	-0.21420754
2	0x3e2ce694	0.16884834
3	0xbd31b0a4	-0.04338135
4	0x3e8875fa	0.2665251
5	0x3d9ac773	0.07557573
6	0x3d82b3cb	0.06381949
7	0x3e46deaf	0.19420885
8	0xbe045b05	-0.12925346
9	0xbdec1fb3	-0.11529484
10	0x3e258a0b	0.1616594
11	0xbda769c7	-0.08174472
12	0x3ba3ff8e	0.0050048297
13	0xbde9c37c	-0.11414239
14	0x3e434d52	0.19072464
15	0x3ea49226	0.32142752
16	0x3e637fae	0.22216675
17	0x3c391daa	0.011298576
18	0xbce7f97f	-0.028317211
19	0xbe50af05	-0.20379265
20	0xbe97336c	-0.2953142
21	0xbe462497	-0.19349895
22	0x3dd634ee	0.10459314
23	0x3b4dc3fe	0.0031397338
24	0xbe1b83b6	-0.15186962
25	0xbea7e68b	-0.32793078
26	0x3c21000f	0.009826674
27	0xbe618873	-0.22024707
28	0xbe83e38a	-0.25759536
29	0x3dbe8643	0.09302952
30	0xbdcf3b65	-0.101187505
31	0x3e06cd4b	0.1316425
32	0xbc726f14	-0.014796991
33	0x3e71c3aa	0.23609796
34	0x3d8fe537	0.07026141
35	0xbde5e90a	-0.11226089
36	0xbe9b1e4e	-0.30296558
37	0x3e613c63	0.21995692
38	0x3e7d0aac	0.24711102
39	0x3e2b21d1	0.16712119
40	0xbd7d7e48	-0.06188801
41	0xbe871c7d	-0.26388922
42	0xbe755143	-0.2395678
43	0x3c45d3bb	0.012074406
44	0xbe824f73	-0.2545124
45	0x3e5434aa	0.20723215
46	0x3e748149	0.23877443
47	0x3e686875	0.22696097
48	0x3de5a6d8	0.112134635
49	0x3e062f39	0.13103952
50	0x3de2c27e	0.11072253
51	0xbcb94ee3	-0.022620624
52	0xbe62a385	-0.2213269
53	0x3de16f89	0.11007602
54	0x3bd78fd0	0.006578423
55	0x3dece6dc	0.115674704
56	0xbe014ec0	-0.12627697
57	0x3e0a2023	0.13488822
58	0xbdc515a6	-0.0962327
59	0xbeb1e40d	-0.347443
60	0x3d923692	0.07139315
61	0x3e742f68	0.23846209
62	0xbdacc772	-0.08436479
63	0x3d266b58	0.040629715
64	0xbe1b2208	-0.151497
65	0x3dcbffd6	0.09960906
66	0xbed80360	-0.42190075
67	0x3d564b74	0.05231805
68	0xbe1e5243	-0.15461068
69	0x3edefa37	0.43550274
70	0xbed38b3d	-0.41317168
71	0xbb72d983	-0.0037055917
72	0xbe14f8e8	-0.14548075
73	0xbe9ecfba	-0.31017858
74	0x3d19bce3	0.037533652
75	0x3dd3b554	0.1033732
76	0xbe4c4c07	-0.19950877
77	0xbcd357f6	-0.025798779
78	0xbea31b6a	-0.31856853
79	0x3d757729	0.059928093
80	0xbd9bfa8b	-0.07616147
81	0x3ea03358	0.31289172
82	0x3dfd78ba	0.123765424
83	0xbce9d6d9	-0.02854483
84	0xbe7b22b2	-0.24524954
85	0xbe6332b5	-0.22187312
86	0x3e7327d3	0.2374566
87	0x3ea4f16a	0.32215434
88	0x3e67b93f	0.2262926
89	0xbe80f233	-0.25184783
90	0xbd103a2b	-0.035211723
91	0xbc7c2d6b	-0.015391688
92	0xbe666641	-0.22499944
93	0xbe25bb49	-0.16184725
94	0x3e640066	0.22265777
95	0x3e59ce5b	0.21270125
96	0x3eab90d7	0.33508942
97	0x3edf6f5d	0.4363965
98	0xbd5261a0	-0.051362634
99	0x3ec1e2f2	0.37868458
100	0x3e94858c	0.29008138
101	0xbebd3c16	-0.36959904
102	0x3ea49d73	0.32151374
103	0x3e111074	0.14166433
104	0x3ecd2c71	0.4007297
105	0x3e89f625	0.26945606
106	0x3e908f5d	0.28234378
107	0x3c99e36f	0.018785207
108	0x3e275a44	0.16343027
109	0xbe2a2791	-0.16616656
110	0x3e14e935	0.14542086
111	0x3ea75351	0.32680753
112	0xbed067fb	-0.4070433
113	0xbe483748	-0.19552338
114	0xbd93a7b5	-0.07209722
115	0x3c1a9261	0.0094343135
116	0x3f030969	0.51186234
117	0x3e9ea9c4	0.30988896
118	0x3e97a479	0.2961767
119	0xbe8b1480	-0.27164078
120	0x3dbab519	0.09116573
121	0x3e9da9c5	0.30793586
122	0xbec4b5b0	-0.38419867
123	0x3e4825d8	0.19545686
124	0xbe474ddb	-0.19463293
125	0x3e48dbc8	0.1961509
126	0xbe988a21	-0.29792884
127	0x3dd5fc26	0.10448484
128	0x3eaef42e	0.3417067
129	0x3e104445	0.14088543
130	0x3de65666	0.11246948
131	0xbe10bb9a	-0.14134064
132	0x3e7e442f	0.24830697
133	0xbead641e	-0.33865446
134	0x3dabbe0a	0.083858564
135	0xbe73186e	-0.23739788
136	0x3d1d3f0c	0.038390204
137	0xbebe3418	-0.3714912
138	0xbea3f7be	-0.3202495
139	0x3e89915f	0.26868722
140	0xbe0f1cd3	-0.1397584
141	0x3e4ba564	0.1988731
142	0x3d1daebb	0.038496714
143	0x3dd3d3ce	0.10343133
144	0xbe98506d	-0.2974886
145	0x3dff2a96	0.124592945
146	0x3eb52365	0.35378566
147	0x3e7930ef	0.24335073
148	0x3e440bd8	0.19145143
149	0x3d9bcd72	0.07607545
150	0xbe47b345	-0.1950198
151	0xbe8aa544	-0.27079213
152	0xbe94f51d	-0.29093257
153	0xbea36a61	-0.31917098
154	0x3d9a9df8	0.075496614
155	0xbd8bb57b	-0.06821724
156	0xbe09bc03	-0.13450627
157	0x3e6da6de	0.23208186
158	0x3e95b088	0.29236245
159	0xbe9101af	-0.28321597
160	0x3eac9c39	0.33712938
161	0xbee167fd	-0.4402465
162	0x3e87d256	0.2652766
163	0x3e3ab36d	0.18232508
164	0x3dc3dcc9	0.09563596
165	0x3ebf5d40	0.37375832
166	0xbe067657	-0.1313108
167	0xbd1a6004	-0.037689224
168	0xbea7c83f	-0.32769963
169	0xbe9b75bf	-0.3036327
170	0xbc561411	-0.013066308
171	0xbea805e1	-0.32816985
172	0xbc5efa19	-0.013609433
173	0xbeb870fb	-0.36023697
174	0x3eb79d5b	0.3586224
175	0x3e8c16a2	0.27361017
176	0x3ded254e	0.11579381
177	0xbe16023d	-0.14649291
178	0x3e97fb18	0.29683757
179	0xbd8c17f9	-0.0684051
180	0xbe44b654	-0.19210178
181	0x3e5469a0	0.20743418
182	0x3d0e516a	0.03474561
183	0xbd55dafe	-0.0522108
184	0xbe9bbd54	-0.30417883
185	0x3e81adda	0.2532795
186	0xbe39464b	-0.18093221
187	0x3e9e4c8c	0.30917776
188	0x3da9db2b	0.08293756
189	0x3e65c79c	0.22439426
190	0x3dd449d3	0.10365643
191	0x3e961d6d	0.29319325
192	0x3bdf0f93	0.0068072765
193	0x3e997344	0.29970753
194	0x3ee27071	0.4422641
195	0x3ea931d5	0.3304583
196	0xbe1596a4	-0.14608246
197	0x3ea42ff5	0.32067838
198	0x3e0435f8	0.12911212
199	0x3e2043e7	0.15650903
200	0xbe8ae02c	-0.27124155
201	0x3e6bdff9	0.23034658
202	0xbe942587	-0.2893488
203	0xbdb24196	-0.08703916
204	0xbe015c9a	-0.12632981
205	0x3e54f046	0.20794782
206	0xbe85ed27	-0.26157495
207	0xbe85d9c5	-0.26142707
208	0x3d273cf1	0.040829603
209	0xbebb8da2	-0.36631495
210	0x3dc36313	0.09540381
211	0x3e755e13	0.23961668
212	0x3ddbe314	0.10736671
213	0xbe1ba695	-0.15200265
214	0x3e45e55c	0.19325775
215	0x3d0b0a03	0.033945095
216	0x3e4c4329	0.19947495
217	0x3e0a1508	0.13484585
218	0x3e8b4061	0.27197555
219	0xbd191cc2	-0.03738094
220	0x3ee8d94a	0.45478278
221	0xbdef7e80	-0.1169405
222	0x3e987d36	0.29783028
223	0x3e81ed52	0.25376374
224	0xbea45172	-0.32093388
225	0xbda7e244	-0.081974536
226	0xbea1e651	-0.3162103
227	0xbea72df9	-0.32652262
228	0x3e4d6afc	0.20060343
229	0xbd5dbd4c	-0.054135606
230	0xbe4ccd5f	-0.20000218
231	0x3e119b8d	0.14219494
232	0x3da528af	0.080644004
233	0x3e39458c	0.18092936
234	0xbe19c04a	-0.15014759
235	0x3e38f3b3	0.18061714
236	0x3e4ec1a1	0.20191051
237	0x3e92d06b	0.28674635
238	0x3e632607	0.22182475
239	0xbed6385e	-0.4183988
240	0x3ea9a263	0.33131704
241	0x3ecb635e	0.3972425
242	0xbde1ecb4	-0.11031476
243	0xbe396dc1	-0.18108274
244	0xbd92ef5d	-0.07174561
245	0x3cce2d04	0.02516795
246	0xbe29d5f2	-0.1658552
247	0x3ddaa34f	0.1067568
248	0xbe0bed80	-0.13664818
249	0xbe5caf4a	-0.21551242
250	0xbd226203	-0.039644253
251	0xbe18700f	-0.14886497
252	0x3eb0e051	0.3454614
253	0x3db3fa9b	0.087880336
254	0x3a9b7e48	0.0011863196
255	0x3eb498c8	0.35272813

actor.4.bias f4 [4]
0	0xbd11fbf9	-0.03564069
1	0x3ca8df80	0.020614386
2	0xbd450184	-0.04809715
3	0x3e54551f	0.20735596

critic.0.weight f4 [128, 8]
0	0x3dc3a901	0.09553719
1	0x3d6ff1a8	0.05858007
2	0x3e250c2c	0.16117924
3	0x3e3d7046	0.1849986
4	0xbf189186	-0.5959705
5	0xbf1bc6db	-0.60850304
6	0xbebe77d7	-0.37200806
7	0x3dc384e3	0.095468305
8	0xbe5105f7	-0.20412432
9	0xbe1e79b0	-0.15476108
10	0xbe61b2c9	-0.22040857
11	0xbe3c1bd2	-0.18369988
12	0x3f1d9ae5	0.61564475
13	0x3f23c4fb	0.63972443
14	0x3e08bd67	0.13353501
15	0xbdb5a19b	-0.088687144
16	0xbea54d55	-0.32285562
17	0x3d05b8a8	0.032646805
18	0x3e110c2a	0.14164796
19	0xbee8a75b	-0.45440182
20	0xbee51ec6	-0.4475004
21	0xbdff2a2f	-0.12459218
22	0x3dc79b10	0.09746373
23	0x3de06d97	0.109584026
24	0xbd7a0d9b	-0.06104813
25	0xbd3a6197	-0.045503225
26	0xbddb8d91	-0.10720361
27	0x3da9d802	0.08293153
28	0xbe3275b7	-0.17427717
29	0xbee40d4d	-0.44541398
30	0x3e2e5598	0.17024839
31	0x3ea560bc	0.32300365
32	0xbdc75898	-0.09733695
33	0xbe6ba8d0	-0.23013616
34	0xbed12aa4	-0.40852845
35	0xbe99318b	-0.2992061
36	0x3ee8493c	0.45368373
37	0x3e4f4a4e	0.20243189
38	0x3e3265bb	0.1742162
39	0x3e91caba	0.2847498
40	0x3f0f6e13	0.56027335
41	0xbdaa46a6	-0.08314256
42	0x3db2b554	0.08725992
43	0x3e90bbac	0.28268182
44	0xbd8b7536	-0.068094656
45	0x3e64abdf	0.22331189
46	0xbe0b381b	-0.13595621
47	0xbea10b7b	-0.3145407
48	0xbe572ea1	-0.21013881
49	0x3c054927	0.008135117
50	0x3e8f54fc	0.27994525
51	0x3e8b00ae	0.27148956
52	0x3edd8391	0.4326444
53	0x3f0c5212	0.5481273
54	0x3c7144fc	0.01472592
55	0xbe31f722	-0.1737943
56	0xbebcea4a	-0.36897498
57	0xbf163085	-0.58667785
58	0x3e735a17	0.23764835
59	0x3d68d21d	0.056841005
60	0x3f202ff6	0.6257318
61	0xbe037501	-0.12837602
62	0x3d81940b	0.06327065
63	0x3cf5c323	0.030000275
64	0x3ebc2b1d	0.36751643
65	0x3d68242d	0.056675125
66	0xbebbed0f	-0.367043
67	0x3d44eea7	0.04807916
68	0x3c903f08	0.01760818
69	0xbe80373d	-0.25042143
70	0x3e955e29	0.291734
71	0x3e52b524	0.20576912
72	0x3d338f61	0.04383791
73	0x3d937819	0.07200641
74	0xbe0f19f1	-0.1397474
75	0xbe482e44	-0.19548899
76	0x3f0be1ec	0.54641604
77	0x3f0ea964	0.5572722
78	0x3d25f82b	0.040519875
79	0x3e9657b6	0.29363793
80	0x3cc0afcc	0.023521326
81	0xbdbe0b8f	-0.092795484
82	0xbe2fac1c	-0.17155498
83	0xbd7c98cc	-0.061669156
84	0x3e416a8f	0.18888305
85	0x3e9dff71	0.3085895
86	0xbec15116	-0.37757176
87	0xbe7b8085	-0.24560745
88	0x3b087800	0.0020823479
89	0xbe08c730	-0.13357234
90	0x3e121a1a	0.1426777
91	0x3e3d1146	0.1846362
92	0xbe50a5cf	-0.20375751
93	0x3dd0c3a4	0.101935655
94	0x3b509300	0.00318259
95	0xbe87a81d	-0.26495448
96	0xbe79882c	-0.24368352
97	0x3d15b90c	0.036553428
98	0x3e89164c	0.26774824
99	0x3eabb2de	0.33534902
100	0x3eba0ba4	0.36337006
101	0xbe4eaa17	-0.20182072
102	0xbe0b59bc	-0.1360845
103	0xbe2b2d08	-0.16716397
104	0xbd5160a6	-0.05111756
105	0x3c102fde	0.008800475
106	0x3d94f203	0.072727226
107	0xbcd3c2cd	-0.025849724
108	0x3eeae388	0.45876718
109	0x3f1f1893	0.6214687
110	0x3d97a4fc	0.07404515
111	0xbd7eb368	-0.062182814
112	0x3e44dbb3	0.19224434
113	0x3ea9d427	0.33169672
114	0xbda3cc15	-0.0799791
115	0xbcba05d4	-0.022707857
116	0xbe1dd570	-0.15413451
117	0x3dfb665c	0.12275383
118	0xbec67fcd	-0.3876938
119	0xbe01e88f	-0.1268637
120	0xbde0c119	-0.109743305
121	0x3eec8be7	0.46200487
122	0xbeb8db26	-0.36104697
123	0x3db126bf	0.08649968
124	0xbd4251f4	-0.047441438
125	0x3e93b295	0.28847185
126	0x3ea1955b	0.31559262
127	0xbd8d7019	-0.069061466
128	0x3cc673c5	0.024225125
129	0x3da1b83f	0.0789647
130	0xbe64d294	-0.22345954
131	0x3d8dfe34	0.06933251
132	0x3dd9c8f1	0.1063403
133	0xbe2025c5	-0.15639408
134	0x3da7fa4e	0.08202039
135	0xbea58a7b	-0.32332215
136	0xbd5ee035	-0.05441304
137	0xbe402d93	-0.18767385
138	0xbe253be5	-0.16136129
139	0xbda8312c	-0.08212504
140	0x3f09d492	0.5383998
141	0x3ed83e4c	0.4223503
142	0x3e7270e3	0.23675875
143	0x3dcc14eb	0.09964927
144	0x3edb06fa	0.4277876
145	0xbe1fd406	-0.15608224
146	0x3d541945	0.05178191
147	0xbcd774ab	-0.026300749
148	0xbeb06462	-0.34451586
149	0xbe557065	-0.20843656
150	0xbe8e1fd6	-0.27758664
151	0xbe648957	-0.22318016
152	0x3eb0df23	0.3454524
153	0x3ee4fb1a	0.44722825
154	0xbea19490	-0.31558657
155	0xbeae994f	-0.3410134
156	0xbdd26857	-0.102738075
157	0x3d8a4394	0.06751171
158	0xbed8be1b	-0.4233254
159	0xbe8e27a3	-0.27764615
160	0x3c19ab33	0.009379196
161	0x3d812151	0.06305183
162	0xbe90f205	-0.28309646
163	0x3eb54d95	0.35410753
164	0x3e83d650	0.25749445
165	0x3eb30660	0.349658
166	0xbe4de331	-0.20106198
167	0x3a8728b5	0.0010311814
168	0xbec4111d	-0.38294306
169	0x3ec0a952	0.3762918
170	0xbf0603f0	-0.5234976
171	0xbd91f24f	-0.07126295
172	0xbe04fbbc	-0.12986654
173	0xbd5c86df	-0.05383956
174	0xbdc499e0	-0.09599662
175	0x3d59f1f4	0.05320926
176	0x3d80ce6c	0.06289372
177	0xbdcca1ca	-0.09991796
178	0xbeaf7ae6	-0.34273452
179	0xbe9736d5	-0.2953402
180	0x3e8f8387	0.28030035
181	0x3d731b8c	0.059352443
182	0xbe783620	-0.24239397
183	0x3e8474d9	0.25870398
184	0xbd92bae4	-0.07164553
185	0xbe101ddb	-0.14073889
186	0xbddc3779	-0.10752768
187	0xbcf2da09	-0.029644983
188	0x3efa305f	0.4886503
189	0x3eefc1be	0.468275
190	0x3d0b4caa	0.03400866
191	0x3e601886	0.21884355
192	0x3f21607f	0.63037866
193	0xbe248b89	-0.16068853
194	0x3e59f64b	0.2128536
195	0x3eaca07c	0.3371619
196	0xbdbbee9c	-0.091763705
197	0x3e8778ad	0.26459256
198	0x3ec357c2	0.3815289
199	0x3e4c603c	0.19958586
200	0x3e8a1c69	0.269748
201	0xbe7530dc	-0.2394442
202	0x3e8da2c5	0.27663246
203	0xbd0b07bf	-0.033942934
204	0xbe940214	-0.28907835
205	0xbd0123ca	-0.03152827
206	0xbcde1fdd	-0.027114803
207	0xbd4935bc	-0.04912351
208	0xbdeb4fff	-0.114898674
209	0x3d7f550a	0.06233696
210	0x3c71359d	0.014722255
211	0x3d81c40f	0.06336223
212	0x3ea3b56b	0.31974348
213	0xbd92dc6b	-0.07170948
214	0xbe00dd14	-0.12584335
215	0x3d2e2bef	0.042522367
216	0xbe662cd3	-0.22478037
217	0x3eb9fcf3	0.36325797
218	0xbe5cf409	-0.21577467
219	0x3ebdfd6f	0.37107417
220	0x3de6e395	0.112738766
221	0x3c86806a	0.016418654
222	0xbeb297b7	-0.34881374
223	0x3de3920f	0.11111843
224	0x3df0601f	0.11737084
225	0xbdd2e799	-0.1029808
226	0x3ebd0703	0.36919412
227	0xbe8280af	-0.25488803
228	0xbc1037cf	-0.008802368
229	0xbe085d21	-0.13316776
230	0x3e38ea1a	0.18058053
231	0xbeac5188	-0.33655953
232	0xbded8c0e	-0.11598979
233	0x3ec45a72	0.38350254
234	0x3c299c9a	0.010352278
235	0xbf07d3c5	-0.5305751
236	0xbde1d2a8	-0.110265076
237	0x3d6fc05f	0.05853307
238	0x3e9f92a0	0.31166553
239	0xbe9a0efc	-0.30089557
240	0xbdd5ad3f	-0.10433435
241	0xbdf089ea	-0.11745055
242	0xbd3aa338	-0.045565814
243	0xbe106cc9	-0.14103998
244	0x3f146c82	0.5797807
245	0x3f053927	0.5204033
246	0x3e8b339f	0.2718782
247	0x3e528cb3	0.20561485
248	0x3dba415f	0.090945
249	0xbebb8dbf	-0.3663158
250	0x3e73d336	0.2381104
251	0x3dc2ef13	0.09518256
252	0xbeac3f17	-0.33641884
253	0x3e284e92	0.16436222
254	0xbb900c92	-0.0043960297
255	0x3e73d3ea	0.23811308

critic.0.bias f4 [128]
0	0x3d916465	0.07099227
1	0xbc4eadd6	-0.012614688
2	0x3e95fb76	0.29293412
3	0x3d976ae4	0.07393435
4	0xbd9b28e2	-0.07576157
5	0x3dd88099	0.10571403
6	0x3e9f8b32	0.31160885
7	0xbe0a6efb	-0.13518898
8	0x3e94a6dd	0.29033557
9	0xbe30b7ea	-0.17257658
10	0xbd5d09bf	-0.053964373
11	0xbeae53b6	-0.3404824
12	0x3ed0ae65	0.40758052
13	0xbbd7bb1a	-0.0065835835
14	0x3e2b3214	0.16718322
15	0x3eb3dc1d	0.3512887
16	0x3ee19e77	0.44066212
17	0x3b1e4a41	0.0024153145
18	0x3c67e995	0.014154811
19	0x3e9aa418	0.3020332
20	0x3ec208da	0.37897378
21	0xbd8fe9f5	-0.07027046
22	0x3dcc034f	0.099615686
23	0xbb8731f6	-0.004125829
24	0x3e703d7c	0.23460954
25	0x3d304858	0.043037742
26	0x3e149392	0.14509419
27	0xbd977d5a	-0.07396956
28	0xbe03a6c3	-0.12856583
29	0x3e7141ed	0.23560305
30	0xbd117d37	-0.035519805
31	0xbe878632	-0.2646957
32	0xbc28941c	-0.010289218
33	0x3e809821	0.25116065
34	0x3eb23e2e	0.34813064
35	0x3eef9464	0.467929
36	0xbe3ebd83	-0.1862698
37	0x3ecce038	0.40014815
38	0x3d9cdf03	0.076597236
39	0x3e3d829a	0.18506852
40	0xbda8eb7e	-0.082480416
41	0x3ee4aeb1	0.4466453
42	0x3ee4010e	0.44532055
43	0x3e836689	0.25664166
44	0x3ecd0b34	0.4004761
45	0xbda6dd52	-0.08147682
46	0xbe1e865b	-0.1548094
47	0xbe8cd8e0	-0.27509212
48	0x3e930e25	0.2872173
49	0xbe6728dc	-0.2257418
50	0x3d0056ca	0.03133277
51	0xbe8f78fe	-0.28021997
52	0xbd2434b6	-0.04008933
53	0x3e99cf1b	0.3004082
54	0xbdb6a255	-0.08917681
55	0x3e8d3cf8	0.27585578
56	0xbe7d5ea4	-0.24743134
57	0xbd7c0fe8	-0.061538607
58	0xbe80f089	-0.25183514
59	0x3c44f518	0.0120213255
60	0x3e3b1d11	0.18272807
61	0xbd7f98b5	-0.062401492
62	0x3ec2428f	0.37941405
63	0xb97203e2	-0.00023080365
64	0xbd88f870	-0.06688011
65	0xbdbd8ad8	-0.09254998
66	0xbe2d75cf	-0.16939472
67	0x3e8d3609	0.27580288
68	0xbd403ce7	-0.04693308
69	0x3ea3f47d	0.32022467
70	0xbd43e250	-0.04782325
71	0x3de71002	0.1128235
72	0xbde9c84c	-0.11415157
73	0x3ec63a37	0.3871629
74	0xbe5f4dc6	-0.21807012
75	0x3db7082f	0.08937108
76	0x3ecd6f1b	0.4012383
77	0x3d06e3ac	0.03293197
78	0xbe9c4c5b	-0.30527005
79	0x3e8b17ab	0.27166495
80	0xbdf12813	-0.11775222
81	0xbda72a84	-0.08162406
82	0xbe4d24f0	-0.20033622
83	0x3ec51c2d	0.3849806
84	0x3e9af8f4	0.3026806
85	0x3e9f5037	0.31115887
86	0x3ee3df94	0.44506514
87	0x3e5f7ab1	0.21824147
88	0x3d0e361d	0.034719575
89	0x3e17a63c	0.14809507
90	0x3ee569ee	0.4480738
91	0xbe1a5354	-0.1507085
92	0x3e253d73	0.16136722
93	0x3e42e1c6	0.19031438
94	0xbe69e9c3	-0.2284308
95	0x3ed629c1	0.4182873
96	0x3e4a64fb	0.19765083
97	0xbe2a1a22	-0.16611531
98	0x3ed4207b	0.4143103
99	0x3d61c5e0	0.05512035
100	0x3ed6249f	0.41824815
101	0xbdbc0dc7	-0.09182315
102	0x3e3ae547	0.18251525
103	0x3eb504e8	0.35355306
104	0xbd2b305c	-0.041794166
105	0x3ed81f7e	0.42211527
106	0x3e918e07	0.2842867
107	0x3e072190	0.13196397
108	0xbe042f2d	-0.12908621
109	0xbe2f518c	-0.17120951
110	0xbcd828e9	-0.026386695
111	0xbc89751a	-0.016779471
112	0x3e0072f5	0.12543853
113	0x3e665b67	0.22495805
114	0x3e117bd9	0.142074
115	0xbd8ca875	-0.06868068
116	0xbd6276e1	-0.055289153
117	0xbdfcda7f	-0.12346362
118	0x3eddb4ce	0.43302006
119	0x3ed2398a	0.41059524
120	0x3d8f744c	0.07004604
121	0xbdf1bf87	-0.11804109
122	0xbe80e451	-0.25174192
123	0x3eb7bbd0	0.35885477
124	0xbc7e77ec	-0.015531521
125	0x3e9c69f7	0.30549595
126	0x3af18b48	0.001842835
127	0xbc85e24b	-0.016343256

critic.2.weight f4 [64, 128]
0	0xbdacb45d	-0.08432839
1	0x3cd19969	0.025585847
2	0x3d285a1e	0.041101567
3	0xbcf33cd6	-0.029692095
4	0x3d3717f7	0.04470059
5	0x3ce2f7a8	0.027705982
6	0x3d4e597a	0.0503783
7	0xbd5eed8f	-0.054425772
8	0x3d430a09	0.047616992
9	0x3d96298a	0.07332142
10	0xbd240482	-0.04004336
11	0xbd80ef52	-0.06295647
12	0x3d86f047	0.06588798
13	0x3b9bda75	0.0047562667
14	0x3d5ecdca	0.054395474
15	0x3ca50ac8	0.020146742
16	0x3d538d40	0.05164838
17	0xbd583844	-0.052788034
18	0x3d3548ea	0.04425899
19	0x3c95921b	0.018258145
20	0xbd9e0f03	-0.07717707
21	0xbc2f2f88	-0.010692485
22	0x3c571f44	0.013130013
23	0xbd8021c8	-0.06256443
24	0xbd2b622c	-0.04184167
25	0x399b2900	0.0002959445
26	0xbdaa5863	-0.0831764
27	0xbcd166a3	-0.025561636
28	0xbc42bf20	-0.011886388
29	0x3db2a0d3	0.08722081
30	0x3da16c77	0.07882016
31	0xbd94da54	-0.07268205
32	0x3a53bd80	0.0008077249
33	0x3d2217bf	0.039573427
34	0x3d9d106d	0.076691486
35	0xbc9c7a8f	-0.01910141
36	0xbc9e43a0	-0.019319355
37	0xbd7986f6	-0.060919724
38	0x3d48ac6a	0.048992552
39	0x3d4d763a	0.050161578
40	0xbdb14e43	-0.08657505
41	0xbd8110d3	-0.06302037
42	0xbbbae14c	-0.005703127
43	0xbda9df78	-0.082945764
44	0xbd9fa2ef	-0.07794749
45	0x3d35223e	0.04422211
46	0x3d2ca132	0.042145915
47	0xbc5bff78	-0.013427608
48	0xbc1843a4	-0.0092934705
49	0x3cf00bb0	0.029302448
50	0xbc49ed90	-0.012324706
51	0x3d26273a	0.040564753
52	0xbcd14670	-0.025546283
53	0xbdbd155d	-0.0923259
54	0x3d48e84e	0.049049668
55	0xbd02aca1	-0.031902913
56	0xbdbea501	-0.09308816
57	0xbd8c4792	-0.068495885
58	0xbd66f0c3	-0.056381952
59	0xbd9086a6	-0.07056932
60	0x3d7b8f16	0.061415754
61	0xbcea7d5d	-0.028624231
62	0x3d644301	0.055727962
63	0x3cda5ad8	0.026654646
64	0xbd9414af	-0.072305076
65	0x3aff0b3a	0.0019458302
66	0x3d965029	0.07339508
67	0xbc39f12c	-0.011349004
68	0xbdac10b1	-0.08401621
69	0xbca14c1d	-0.019689614
70	0xbd91ed64	-0.07125357
71	0x399b9cf9	0.00029680858
72	0x3d656232	0.05600185
73	0xbd905b92	-0.07048716
74	0x3c8d29c1	0.017231824
75	0xbdac7537	-0.084207945
76	0x3bb7bf3f	0.005607515
77	0xbcfae9c1	-0.03062904
78	0xbd57af14	-0.052657202
79	0xbd556e77	-0.0521073
80	0x3daf87e7	0.08570843
81	0xbd8e488c	-0.06947431
82	0x3d53efad	0.051742245
83	0x3d22db4d	0.039759923
84	0xbd948bec	-0.072532505
85	0xbd86bf29	-0.0657943
86	0xbda9f3db	-0.08298465
87	0x3d84af4e	0.06478749
88	0x3d2e80e3	0.042603385
89	0xbda5503d	-0.08071945
90	0x3d08703a	0.033310153
91	0xbd1be271	-0.03805775
92	0xbd42f36b	-0.047595423
93	0x3ce37700	0.027766705
94	0x3d0b44f4	0.034001306
95	0xbda2d6d1	-0.07951129
96	0x3d9c2ef0	0.0762614
97	0x3d876a84	0.06612113
98	0xbd3d0db3	-0.046155643
99	0xbdbd5438	-0.09244579
100	0xbdb3c043	-0.087769054
101	0x3d90fb3b	0.070791684
102	0xbd720ee2	-0.059096225
103	0xbc9c3dd4	-0.01907245
104	0xba94ea80	-0.001136139
105	0xbd9c5080	-0.07632542
106	0x3c9c55d4	0.019083895
107	0xbd877b0c	-0.06615266
108	0xbd28e923	-0.04123796
109	0xbd234277	-0.039858308
110	0x3d7edadd	0.062220443
111	0x3cddd09d	0.027077014
112	0xbd2465c9	-0.040136132
113	0xbd399efc	-0.045317635
114	0x3c0a5ca2	0.008444937
115	0xbcbb722c	-0.02288159
116	0xbd754054	-0.0598758
117	0xbda1485e	-0.07875131
118	0xbd9841f4	-0.074344546
119	0xbd06b005	-0.03288271
120	0x3ba14c30	0.0049224123
121	0xbd31834a	-0.043338098
122	0xbd2fe9b5	-0.04294749
123	0x3ba48474	0.0050206725
124	0x3d3dbd5a	0.046323158
125	0x3daff0a9	0.08590824
126	0xbceed2e4	-0.029153295
127	0x3c11185d	0.008855906
128	0x3e8e70e7	0.27820513
129	0x3d2c7e61	0.04211271
130	0xbdb5518f	-0.08853447
131	0x3de9ca3d	0.11415527
132	0x3cef23a4	0.0291918
133	0x3e5fee5f	0.21868275
134	0x3d292d4e	0.04130297
135	0xbe8b4486	-0.27200717
136	0x3df8c7fd	0.1214752
137	0x3dfc5e35	0.12322656
138	0xbbfbd96c	-0.007685831
139	0xbda6f3ff	-0.08152007
140	0x3dca0ac7	0.09865337
141	0x3e2bbf77	0.16772257
142	0x3caadbd0	0.020856768
143	0x3e0aa24c	0.13538474
144	0xbafec2c8	-0.0019436711
145	0x3ccb1a8e	0.024792936
146	0x3e2d39fa	0.16916648
147	0x3ce369a7	0.02776034
148	0x3e17efce	0.14837572
149	0x3e1579b6	0.1459721
150	0xbe0755d5	-0.13216336
151	0x3dd0bbe2	0.10192086
152	0x3e174826	0.14773616
153	0x3c2d1c2c	0.010565799
154	0x3dbe8988	0.09303576
155	0x3e063a24	0.13108116
156	0x3d851cb0	0.06499612
157	0x3cb2f5c8	0.021845713
158	0x3cf2b06c	0.02962514
159	0xbc5bd917	-0.0134184575
160	0x3e388c7f	0.18022345
161	0x3e751975	0.23935492
162	0x3db266ea	0.087110355
163	0x3da4a512	0.08039297
164	0xbcac440a	-0.021028537
165	0x3dbf7373	0.09348192
166	0x3e23f79e	0.16012427
167	0x3e043273	0.1290987
168	0xbdd2a8aa	-0.10286076
169	0x3dff99d0	0.12480509
170	0x3dc98a27	0.098408036
171	0x3e509353	0.203687
172	0x3e3aff73	0.18261509
173	0x3c099274	0.008396734
174	0x3d04586f	0.0323109
175	0xbda8d9f7	-0.082446985
176	0x3e0f935b	0.14021055
177	0x3e258395	0.16163476
178	0x3d989e48	0.07452065
179	0xbdd7ac66	-0.10530929
180	0x3df31dbd	0.118709065
181	0x3d79dc58	0.06100115
182	0x3dba07b0	0.090834975
183	0xbca96e25	-0.020682404
184	0x3cebfbcd	0.028806591
185	0x3cc4139f	0.023935137
186	0x3df84b21	0.12123705
187	0x3e50ebe0	0.20402479
188	0x3d2696f7	0.040671315
189	0x3de7bbba	0.11315103
190	0x3dbb8bb7	0.09157508
191	0x3d295d35	0.041348655
192	0x3e973f79	0.29540613
193	0x3db822f8	0.08991045
194	0x3e2a60c9	0.16638483
195	0xbd91d59c	-0.07120821
196	0xbe0644c0	-0.13112164
197	0x3d2aecab	0.04172961
198	0x3e00f33d	0.12592788
199	0xbd403d50	-0.046933472
200	0x3d76e964	0.060281172
201	0x3dcfb816	0.101425335
202	0xbddb9ec4	-0.107236415
203	0x3d513904	0.051079765
204	0x3ce26dd1	0.027640255
205	0xbd505c04	-0.050869003
206	0xbe11a6b8	-0.14223754
207	0x3e438db8	0.1909703
208	0x3de52884	0.11189368
209	0xbe972c05	-0.29525772
210	0x3e480c4b	0.1953594
211	0x3e686e44	0.22698313
212	0x3cdb17c7	0.026744736
213	0xbcccb5c9	-0.024989026
214	0x3e0880ef	0.13330434
215	0x3e5d9870	0.21640182
216	0x3d719a12	0.058984824
217	0x3e87a50d	0.2649311
218	0x3dfe7636	0.12424891
219	0x3d3d20f9	0.046174023
220	0x3d48928c	0.048967883
221	0xbdf51e5a	-0.1196868
222	0x3e003fe5	0.12524374
223	0x3e082f6d	0.13299341
224	0xbd668714	-0.056281164
225	0x3c1a8fa9	0.009433665
226	0x3dd13f76	0.10217182
227	0xbdfae959	-0.12251539
228	0xbc4a77ff	-0.012357711
229	0xbdfd45ee	-0.12366854
230	0x3dd9d2fa	0.10635944
231	0x3e408b77	0.18803202
232	0xbe9ee98f	-0.31037566
233	0x3dc7124b	0.09720286
234	0x3d82fa8c	0.06395444
235	0x3e8dcc65	0.27695003
236	0x3d6eec65	0.058330912
237	0x3e7fc6ef	0.24978231
238	0x3dec18df	0.11528181
239	0xbdf5ea93	-0.12007632
240	0x3d89e09e	0.067322955
241	0x3e02bac3	0.12766556
242	0x3da4cfc2	0.08047439
243	0x3dbc5ede	0.09197782
244	0x3e361564	0.17781597
245	0x3d97d907	0.074144416
246	0x3db6d6ff	0.08927726
247	0x3dbadd9c	0.091243
248	0x3dc58bad	0.09645782
249	0xbd0ba344	-0.03409125
250	0xbbd4b3bd	-0.006491153
251	0x3d5c9dc5	0.0538614
252	0xbde15ab0	-0.110036254
253	0x3bd00850	0.006348647
254	0x3c2d529e	0.0105787795
255	0x3db50a6e	0.0883988

critic.2.bias f4 [64]
0	0x3c0a1e26	0.0084300395
1	0x3e015e25	0.1263357
2	0xbd509353	-0.05092175
3	0x3e2f6c61	0.17131187
4	0x3d86bc80	0.06578922
5	0x3c9fd05f	0.019508539
6	0x3dbf8cc7	0.09353023
7	0xbb43b89a	-0.002986467
8	0x3d05ed52	0.03269703
9	0xbc85c9e8	-0.016331628
10	0x3cf5c31d	0.030000264
11	0xbb9c58bf	-0.0047713215
12	0x3d809166	0.062777326
13	0x3db168d2	0.08662571
14	0x3e0297b3	0.12753181
15	0x3e3ef533	0.18648224
16	0x3d863af5	0.06554214
17	0x3dd02f75	0.10165302
18	0xbc5302d2	-0.01287909
19	0x3d97144a	0.07376917
20	0x3dd02b85	0.10164551
21	0x3cde1bbe	0.027112838
22	0xbb8dd189	-0.004327957
23	0xbd6519d8	-0.05593285
24	0x3dbb12eb	0.09134468
25	0x3db2aa67	0.08723908
26	0xbd88073a	-0.06642003
27	0x3d9a92ad	0.075475074
28	0x3ddd04f2	0.10791959
29	0x3b4ea9f8	0.0031534415
30	0xbd5a0a38	-0.0532324
31	0x3c776d5a	0.015101755
32	0x3d911e7b	0.07085892
33	0x3d2ef8c2	0.042717703
34	0x3d93ea3a	0.072224095
35	0x3d0218ec	0.03176205
36	0xbd6cb04c	-0.057785317
37	0x3e11aee6	0.14226875
38	0x3d254e3b	0.04035781
39	0x3b9b081e	0.0047311923
40	0xbd3492b9	-0.044085238
41	0xbe7a1912	-0.24423626
42	0x3d9d4fc7	0.07681232
43	0x3d9da302	0.07697107
44	0x3d9f1d0c	0.07769212
45	0xbd7b2c91	-0.0613218
46	0x3db39240	0.08768129
47	0x3e2012b7	0.15632139
48	0x3d8ea8cd	0.0696579
49	0x3d241106	0.040055297
50	0xbdbc0dec	-0.09182343
51	0xbd5fe000	-0.054656982
52	0x3dd09aaf	0.101857536
53	0x3dcb3b7a	0.09923454
54	0x3e04bd68	0.12962878
55	0xbd5e9d87	-0.05434945
56	0x3ceab8f5	0.028652648
57	0xbd544a6c	-0.051828787
58	0x3e00701c	0.12542766
59	0x3d4bd4b7	0.049763408
60	0x3dc046b3	0.09388485
61	0x3dfba04e	0.12286435
62	0x3cfcbbb6	0.030851226
63	0x3de0bcf2	0.109735385

critic.4.weight f4 [64, 64]
0	0x3a40a400	0.00073486567
1	0x3d768e00	0.060194016
2	0x3c822e38	0.01589118
3	0x3e9dc2ff	0.30812833
4	0xbe70432c	-0.23463124
5	0x3cc4a344	0.024003632
6	0x3def735d	0.11691926
7	0xbdda411b	-0.10656949
8	0xbca502c8	-0.020142928
9	0x3dd1e8ea	0.10249503
10	0x3e4d9fc5	0.20080478
11	0x3d4829f5	0.04886814
12	0x3d34147c	0.043964848
13	0x3e2cdefa	0.16881934
14	0x3dff9b0e	0.12480746
15	0x3ee47665	0.44621578
16	0x3dedec26	0.11617307
17	0x3dfc7b35	0.123281874
18	0xbe8eaf6d	-0.27868214
19	0x3c8c63cd	0.017137432
20	0x3e0f7fc2	0.1401358
21	0x3c6a451f	0.014298706
22	0xbe367dfe	-0.178215
23	0xbe8b678d	-0.2722744
24	0xbc1b12ea	-0.009464959
25	0x3e749024	0.2388311
26	0xbd555394	-0.05208166
27	0x3dc545fb	0.09632488
28	0x3e5c44fb	0.21510689
29	0xbd8a35f3	-0.06748571
30	0x3e32ab81	0.17448236
31	0xbc1619f3	-0.00916146
32	0xbd56eb22	-0.052470334
33	0xbd8fb5b2	-0.070170775
34	0x3d9755bd	0.073894
35	0x3d9ea1d9	0.07745714
36	0xbe0d549e	-0.1380181
37	0xbecacaea	-0.39607936
38	0xbc348bb3	-0.011019635
39	0xbce8ad5b	-0.028402975
40	0xbc2b8b20	-0.010470182
41	0x3e025b23	0.12730078
42	0x3d3d1898	0.046166033
43	0x3e2b472a	0.16726366
44	0x3d2adf2b	0.041716736
45	0xbdc15574	-0.09440127
46	0xbd65e53c	-0.056126818
47	0x3df4cec1	0.11953498
48	0x3dcb5e69	0.09930117
49	0x3d2d3df8	0.042295426
50	0xbd52cb0c	-0.05146317
51	0x3c716fc4	0.01473612
52	0x3e3d29b1	0.18472935
53	0xbda9bff1	-0.08288563
54	0x3f027ee4	0.5097487
55	0xbdb100d6	-0.086427376
56	0x3e24b58a	0.16084877
57	0x3ca39830	0.01997003
58	0xbc8ec3ab	-0.017427286
59	0x3dc4ec9c	0.09615442
60	0xbd1623b4	-0.036655143
61	0x3e9c64e3	0.3054572
62	0xbc629004	-0.013828281
63	0xbda795cf	-0.081828706
64	0x3d880042	0.06640674
65	0xbdf7b06a	-0.12094195
66	0x3cc52248	0.024064198
67	0xbd39e050	-0.045379937
68	0xbc65d390	-0.014027491
69	0xbd50dfc4	-0.05099465
70	0xbbc53f40	-0.006019503
71	0xbd8c1fdc	-0.06842014
72	0x3d8e0432	0.06934394
73	0xbd46f0ec	-0.048569605
74	0x3d797bdc	0.060909137
75	0x3c7a9190	0.015293494
76	0xbdb870da	-0.090059
77	0xbd753b68	-0.059871107
78	0xbc82a228	-0.015946463
79	0x3d999c10	0.0750047
80	0x3d8607c4	0.0654445
81	0xbd41e198	-0.047334284
82	0xbd4520e8	-0.048127085
83	0xbdf33cba	-0.11876817
84	0xbdcdb340	-0.10043955
85	0xbd000f1c	-0.03126441
86	0xbdf94484	-0.121712714
87	0xbdce958a	-0.10087116
88	0x3d86caaa	0.06581624
89	0xbdd7ac4c	-0.1053091
90	0x3dab52d2	0.08365406
91	0x3db343be	0.08753155
92	0x3cc49488	0.023996606
93	0x3dc79ee6	0.09747104
94	0x3d929fec	0.07159409
95	0x3d97978e	0.07401954
96	0x3dc6fb90	0.097159505
97	0xbdebfcbc	-0.11522815
98	0xbd0bc0a8	-0.03411928
99	0x3d68eb40	0.056864977
100	0x3ddee8c4	0.1088424
101	0x3db036ee	0.08604227
102	0xbd041070	-0.03224224
103	0x3c92fa70	0.017941684
104	0x3d8acd5e	0.06777452
105	0xbd7a2620	-0.061071515
106	0xbda82548	-0.08210236
107	0xbd88fa32	-0.06688346
108	0x3c96d5a0	0.018412411
109	0x3d8970ca	0.06710966
110	0x3c8d86c0	0.017276168
111	0xbdc947c2	-0.0982814
112	0xbd4ee3d4	-0.050510243
113	0x3dd82226	0.10553388
114	0x3dfcc426	0.123421
115	0xbd6921dc	-0.056917056
116	0x3de476a4	0.111554414
117	0xbcd57068	-0.026054576
118	0xbdd22dcc	-0.10262641
119	0x3de8b802	0.11363222
120	0x3ca6c348	0.02035679
121	0x3df6527c	0.120274514
122	0xbd03ec14	-0.032207564
123	0xbd8da2c2	-0.06915809
124	0xbd452b40	-0.04813695
125	0xbda397e4	-0.07987955
126	0xbd2150e8	-0.0393838
127	0xbd45b254	-0.04826577
128	0xbd4f7f1f	-0.05065834
129	0x3e378874	0.17923146
130	0x3b7d5bc0	0.0038659424
131	0x3db1c7f5	0.08680717
132	0x3ec7860a	0.3896945
133	0x3db50cad	0.08840308
134	0x3e1b0fc9	0.1514274
135	0x3df9a598	0.121897876
136	0xbb9ab280	-0.004720986
137	0xbdb119ad	-0.086474754
138	0x3e371e24	0.17882591
139	0x3dc6debf	0.09710454
140	0x3e30df61	0.17272712
141	0x3e8549c8	0.26032853
142	0x3e0d6501	0.13808061
143	0xbdf6364f	-0.12022077
144	0x3e4a8774	0.19778234
145	0x3e195da5	0.14977129
146	0x3e905408	0.2818911
147	0x3d1e0e32	0.038587756
148	0x3e211bfd	0.15733333
149	0x3df453c0	0.119300365
150	0x3e5b4e9b	0.21416704
151	0x3dec2da1	0.115321405
152	0x3e8278fb	0.25482926
153	0x3dcd0f2a	0.10012658
154	0x3b6960a4	0.003561058
155	0x3e5585be	0.208518
156	0x3e35c63d	0.17751403
157	0xbddba8da	-0.10725565
158	0x3e28b5a9	0.16475548
159	0x3df096c7	0.117475085
160	0x3e2a1751	0.16610457
161	0xbca68b87	-0.020330204
162	0x3cf23ead	0.029570902
163	0xbdd4bc41	-0.10387469
164	0x3dcd1b4a	0.100149706
165	0x3ecabbf1	0.39596513
166	0x3e90ab47	0.28255674
167	0x3e479f1c	0.19494289
168	0xbde02f61	-0.10946537
169	0xbed713de	-0.42007345
170	0x3e09b0f7	0.13446413
171	0xbed67fa5	-0.4189426
172	0x3c2457f4	0.010030735
173	0xbd56dac0	-0.05245471
174	0x3e527e0b	0.20555894
175	0xbe1cbc54	-0.15306216
176	0x3e39e968	0.18155444
177	0x3e2bd2e5	0.16779669
178	0x3e17bbca	0.1481773
179	0x3e1cdb56	0.15318045
180	0x3e44f0df	0.1923251
181	0x3e1c034b	0.15235631
182	0xbed9cd57	-0.42539474
183	0x3da8b204	0.08237079
184	0x3e7b22ba	0.24524966
185	0x3e306cc4	0.17228991
186	0x3e699bf3	0.22813396
187	0x3cd3d356	0.025857609
188	0x3ddc53ca	0.10758169
189	0x3e1b1d6e	0.15147945
190	0x3e1f1f0a	0.15539184
191	0x3e8502dd	0.25978747
192	0xbdda3c78	-0.10656065
193	0x3df990f3	0.1218585
194	0x3dbc6522	0.09198977
195	0x3e49aed6	0.19695601
196	0x3eb051cd	0.3443741
197	0x3da5aed9	0.0808999
198	0x3d0b7aa6	0.034052514
199	0xbd62e456	-0.05539354
200	0x3de509d2	0.11183514
201	0x3dd995ab	0.1062425
202	0x3daf3a4a	0.0855604
203	0x3e07fe18	0.13280523
204	0x3d45517a	0.048173405
205	0x3e3ea4e4	0.18617588
206	0x3e2cb90c	0.16867465
207	0xbe149137	-0.1450852
208	0x3e45aab3	0.19303398
209	0x3d9b9359	0.07596464
210	0x3e89b04b	0.26892313
211	0x3e5afb3d	0.21384902
212	0x3e332bea	0.1749722
213	0x3e8b12e4	0.2716285
214	0x3dee6361	0.11640049
215	0x3d74a820	0.05973065
216	0x3e17fa08	0.14841473
217	0x3dd0f309	0.10202605
218	0xbde9f41e	-0.11423515
219	0x3e72c7d9	0.23709048
220	0x3dfae93b	0.122515164
221	0x3dbaca4e	0.09120618
222	0x3e37adc3	0.17937379
223	0x3e7aedba	0.24504748
224	0x3e510cdb	0.2041506
225	0xbd0f205f	-0.03494298
226	0x3d0cc8fc	0.03437136
227	0x3cf49259	0.02985494
228	0x3e39047b	0.18068115
229	0x3eb3176f	0.34978816
230	0x3e3d9c0a	0.18516555
231	0x3e200f9a	0.15630952
232	0x3d9b6501	0.07587624
233	0xbe8b7df9	-0.27244547
234	0x3e37fc82	0.17967418
235	0xbe1f3d11	-0.15550639
236	0x3e53e263	0.20691828
237	0xbd8e4424	-0.069465905
238	0x3d75b23b	0.059984427
239	0xbd6d4c05	-0.057933826
240	0x3e47c69d	0.19509359
241	0x3e04a8f3	0.12955074
242	0x3e6b9b69	0.23008503
243	0x3d13315c	0.035935745
244	0x3e088c63	0.13334803
245	0x3e6c0cfd	0.2305183
246	0xbebfa63b	-0.3743151
247	0x3c2a3676	0.010388961
248	0x3e2cd307	0.16877376
249	0x3d8d9111	0.06912435
250	0x3ba6e97a	0.0050937505
251	0x3e322d51	0.174001
252	0x3d6dacaa	0.058025993
253	0x3dc10db8	0.09426445
254	0x3d81e922	0.06343295
255	0x3e7fb79d	0.24972387
