experiments/LunarLander-v2_PPO/dqn.pth (torch, 96827 bytes, 13 tensors)

actor.0.weight f4 [128, 8]
0.7992931 0.50460565 0.9475093 -0.52322644 0.21683395 -0.71302074 -0.4143909 0.45411345
-0.13923456 0.4707072 -0.04098582 -0.5778544 1.1818172 1.1824099 -0.23799574 0.23316477
0.14935543 -0.9285046 -0.6428273 0.49126738 0.4772805 -0.3355332 -0.16321151 0.26635247
-0.2055123 0.44733456 0.5707269 -1.1821275 0.095855825 0.4564187 -0.10494606 -0.44248036
-0.6135351 -0.17785323 -0.5761291 -0.06149556 0.8664238 1.1659999 0.23014481 -0.40525818
0.48211277 0.7320917 0.63320005 0.8145296 -1.3188101 -1.2320203 -0.8196158 -0.5486651
0.061105397 0.20120907 0.47790056 1.0140548 -0.5911919 -0.024802558 -0.5546349 0.16853683
-0.925031 -0.018727094 -0.6751878 -0.4251734 -0.8518209 -0.2705743 -0.53310317 0.15142393
-0.25283596 0.7953704 -0.19961672 0.8246437 -0.2902015 -0.6301169 -0.52897835 0.7215801
-0.39856005 -0.1481247 -0.8672057 0.3980994 1.0278267 0.55794936 -0.45557114 -0.5259852
0.09133024 -0.7587662 0.8992441 -0.020775022 0.31870633 0.9658738 0.8757971 0.74419016
-0.86768794 -0.77008843 -0.8845634 -0.6256202 -0.35768977 0.72763133 0.010198441 -0.0713761
0.7800482 0.35208082 -0.030164273 0.73164284 0.15508293 0.116686516 0.3816982 -0.15482712
0.35097006 0.25203156 0.3246281 -0.3340717 -1.3159792 -0.67561436 -0.8864956 -0.51959735
-0.6986032 0.6620111 0.18893597 0.6187745 -0.3783401 0.68802875 0.03284821 -0.03523025
-0.5908135 0.35438383 -0.3279657 -0.5706507 -0.6895901 -1.1552887 -0.7674881 -0.45514697
0.6129619 -0.8802077 0.18493511 0.46491057 -0.5411339 0.894579 -0.65279484 -0.4353541
-0.22167252 -0.29380953 -0.90847594 0.6849663 -0.7455149 0.6985333 0.7399191 0.1870604
0.37154523 0.35958895 0.13061337 0.7779983 -1.4760276 -0.94149244 0.68870807 -0.6644225
-0.8109464 -0.81893563 -0.8301399 0.71517944 0.27052686 0.3673704 -0.2570225 0.4415478
-0.3369755 0.25631234 -0.49961457 0.2033603 -1.5256779 -0.04934066 0.21487448 0.6423956
0.5086351 -0.036820076 -0.16118155 0.44476622 -0.9237838 -0.0072458927 0.22591977 0.5367341
-0.6366126 -0.120623246 -0.33059785 -0.35585704 0.36469072 -0.4236183 0.7247337 -0.44653437
0.75485 -0.12402326 -0.31605253 0.529567 -0.61555135 -0.19880767 -0.6674477 0.66675967
-0.72080815 -1.0011461 -0.56329787 0.035692018 -0.3201509 0.8109903 0.6073897 0.5553433
0.053452957 0.50185823 0.3071486 -0.07440063 1.1100948 0.9997518 -0.291371 -0.14543745
0.043927327 0.28022382 0.58350635 0.331677 0.7426381 -0.6625326 0.6432915 -0.06317463
-0.5152714 0.23053916 -0.327866 -0.25006065 0.19156162 1.2945852 0.19110143 0.77125275
0.5308763 0.5778098 -0.2741023 0.2338502 1.1026174 1.0335056 0.7422835 -0.032950833
0.56759524 0.07210153 0.43917158 -0.80348307 0.24205641 0.67031014 -0.05801082 0.6839255
-0.20146999 -0.2833222 0.44253254 0.2424614 -0.525374 0.5415189 0.53499997 0.59639394
-0.4101213 -0.45732343 -0.19476183 0.39170054 -1.1199822 -0.48767993 -0.9064142 0.783146
00000000: 799e 4c3f d62d 013f f88f 723f 2bf2 05bf
00000010: b809 5e3e 8788 36bf 0b2b d4be 8f81 e83e
00000020: 8193 0ebe 8900 f13e bfe0 27bd 44ee 13bf
00000030: c945 973f 3559 973f 28b5 73be bfc2 6e3e
00000040: a1f0 183e 7ab2 6dbf 5490 24bf 6687 fb3e
00000050: 1c5e f43e 02cb abbe eb20 27be 5a5f 883e
00000060: d171 52be 0909 e53e 281b 123f f44f 97bf
00000070: 0f50 c43d b6af e93e f6ed d6bd c98c e2be
00000080: a310 1dbf 281f 36be 327d 13bf c5e2 7bbd
00000090: f3cd 5d3f 7c3f 953f 15ab 6b3e 007e cfbe
000000a0: 7cd7 f63e 5d6a 3b3f 6619 223f 0385 503f
000000b0: c5ce a8bf d7b2 9dbf 57d2 51bf 5175 0cbf
000000c0: a749 7a3d c009 4e3e 62af f43e 8ccc 813f
000000d0: 5a58 17bf bc2e cbbc 8efc 0dbf eb94 2c3e
000000e0: d5ce 6cbf 9069 99bc 1cd9 2cbf 54b0 d9be
000000f0: ef10 5abf b788 8abe 7379 08bf e00e 1b3e
00000100: b773 81be 659d 4b3f 5368 4cbe d91b 533f
00000110: 4a95 94be 574f 21bf 206b 07bf 79b9 383f
00000120: 1010 ccbe 00ae 17be 3101 5ebf afd3 cb3e
00000130: d38f 833f c5d5 0e3f 9f40 e9be f7a6 06bf
00000140: 590b bb3d 803e 42bf dd34 663f 6130 aabc
00000150: 7a2d a33e 8143 773f 3d34 603f 3f83 3e3f
00000160: cc20 5ebf 8424 45bf bf72 62bf a528 20bf
00000170: 1d23 b7be 0c46 3a3f 5d17 273c a22d 92bd
00000180: 3db1 473f f043 b43e 111b f7bc f24c 3b3f
00000190: 0fce 1e3e 57f9 ee3d f26d c33e 008b 1ebe
000001a0: 59b2 b33e 480a 813e a835 a63e 720b abbe
000001b0: 0272 a8bf 10f5 2cbf 60f1 62bf 5504 05bf
000001c0: a9d7 32bf 8f79 293f 6e78 413e 0168 1e3f
000001d0: cbb5 c1be a722 303f d88b 063d 984d 10bd
000001e0: 8e3f 17bf cc71 b53e 1feb a7be 2a16 12bf
000001f0: fa88 30bf 80e0 93bf 1a7a 44bf 0609 e9be
00000200: 12eb 1c3f 4b55 61bf a15f 3d3e c208 ee3e
00000210: c087 0abf 2103 653f 901d 27bf bce6 debe
00000220: 1ffe 62be 346e 96be e191 68bf f459 2f3f
00000230: 11da 3ebf 14d3 323f 576b 3d3f c38c 3f3e
00000240: 2d3b be3e 0b1c b83e 83bf 053e e62a 473f
00000250: 79ee bcbf a605 71bf 2c4f 303f 9817 2abf
00000260: 2f9a 4fbf c4a5 51bf 0c84 54bf 0016 373f
00000270: 7f82 8a3e f917 bc3e 7498 83be 8e12 e23e
00000280: 0e88 acbe 5f3b 833e 7bcd ffbe af3d 503e
00000290: 6a49 c3bf 6f19 4abd 0e08 5c3e 0a74 243f
000002a0: e935 023f a6d0 16bd c70c 25be 66b8 e33e
000002b0: 187d 6cbf f46e edbb 8357 673e 6867 093f
000002c0: 0bf9 22bf 5209 f7bd 1f44 a9be e532 b6be
000002d0: beb8 ba3e 7fe4 d8be 2688 393f 27a0 e4be
000002e0: d93d 413f e8ff fdbd a3d1 a1be b491 073f
000002f0: c694 1dbf 3d94 4bbe dadd 2abf c3b0 2a3f
00000300: e286 38bf 8e25 80bf 4a34 10bf cb31 123d
00000310: d2ea a3be 0f9d 4f3f e47d 1b3f fa2a 0e3f
00000320: 7df1 5a3d c879 003f 9542 9d3e 5c5f 98bd
00000330: 9617 8e3f bcef 7f3f 942e 95be 8eed 14be
00000340: 24ed 333d 7f79 8f3e ac60 153f 91d1 a93e
00000350: 881d 3e3f bd9b 29bf c0ae 243f b361 81bd
00000360: d4e8 03bf 7512 6c3e 0dde a7be f307 80be
00000370: bb28 443e f8b4 a53f 18b0 433e d270 453f
00000380: 82e7 073f 58eb 133f 2357 8cbe 6d76 6f3e
00000390: 9122 8d3f e949 843f 4b06 3e3f 74f7 06bd
000003a0: ec4d 113f f8a9 933d 19db e03e 11b1 4dbf
000003b0: a3dd 773e 7299 2b3f c19c 6dbd be15 2f3f
000003c0: 264e 4ebe 9b0f 91be a093 e23e cd47 783e
000003d0: e97e 06bf fca0 0a3f c2f5 083f 46ad 183f
000003e0: 6bfb d1be 4c26 eabe a56f 47be f98c c83e
000003f0: 945b 8fbf 2fb1 f9be c30a 68bf 427c 483f

actor.0.bias f4 [128]
-0.077476166 0.017792266 -0.16076249 0.09651493 0.23759705 0.3300851 0.18502071 -0.035255305
-0.15092766 0.34146073 -0.1674902 -0.08520659 -0.14993773 0.1641309 -0.17817013 -0.09430257
0.23633116 0.12837866 0.29643717 -0.3140724 0.1126188 0.33339128 -0.120020464 0.21883352
0.18128249 0.054945968 0.13115625 -0.03256062 -0.26380354 -0.4670883 0.18033217 0.3054292
0.22539075 0.013933356 0.2250403 0.27754205 0.013742243 -0.14004205 -0.26890606 0.13500535
0.2924043 -0.093496814 0.113207996 -0.044602524 0.2989892 -0.07388739 0.076884314 -0.21085194
-0.0003206117 0.022574892 0.19956692 -0.16691075 0.19464622 0.19539398 -0.019473232 0.0035480293
-0.06333004 -0.055835973 0.30993938 0.078488976 -0.09321853 -0.030657232 -0.30896485 0.17105465
0.1525553 0.14581035 -0.11780114 -0.16924918 -0.040994786 0.017141595 0.42687932 -0.22426967
-0.02061033 0.34300303 0.15977658 0.16102962 0.12705906 -0.034958296 0.17630008 0.1252919
0.023233958 0.15915497 0.13306405 -0.3018204 -0.19462156 -0.13981724 0.017748713 0.29176852
0.26109836 0.15444279 0.17521238 -0.103409305 -0.08714497 0.21670969 -0.17018843 -0.098986864
0.19168037 0.11996403 0.29353523 0.1929044 0.2301558 0.3533422 -0.19713736 0.12623541
0.12529588 -0.07857716 -0.14697535 -0.45826653 0.21398203 0.027696349 -0.08566383 -0.17765398
0.28365916 0.07913531 -0.3220012 0.17607695 0.026921878 -0.04954552 -0.37289333 -0.025749119
0.011936473 -0.15704738 0.35398594 -0.28618193 -0.1127049 0.09860638 0.12614527 -0.29997
00000000: d3ab 9ebd 16c1 913c ec9e 24be 9fa9 c53d
00000010: a44c 733e ea00 a93e 1276 3d3e de67 10bd
00000020: c88c 1abe f1d3 ae3e 8d82 2bbe cb80 aebd
00000030: 4789 19be ee11 283e 3b72 36be b521 c1bd
00000040: cc00 723e b275 033e 9dc6 973e 19ce a0be
00000050: afa4 e63d 43b2 aa3e 4acd f5bd e515 603e
00000060: 1ea2 393e 060f 613d d34d 063e 495e 05bd
00000070: 4211 87be 3326 efbe ffa8 383e 3761 9c3e
00000080: d5cc 663e bb48 643c f770 663e fe19 8e3e
00000090: 2527 613c 2f67 0fbe 0eae 89be d83e 0a3e
000000a0: 04b6 953e 427b bfbd 98d9 e73d 23b1 36bd
000000b0: 1d15 993e 4652 97bd 8675 9d3d 92e9 57be
000000c0: c617 a8b9 fbee b83c 455b 4c3e a7ea 2abe
000000d0: 5751 473e 5c15 483e 5486 9fbc 0e86 683b
000000e0: 2eb3 81bd 43b4 64bd 60b0 9e3e d4be a03d
000000f0: 5be9 bebd e024 fbbc a430 9ebe f328 2f3e
00000100: 7537 1c3e 4f4f 153e b941 f1bd a84f 2dbe
00000110: 26ea 27bd 886c 8c3c ed8f da3e f3a6 65be
00000120: ffd6 a8bc 189e af3e 799c 233e f3e4 243e
00000130: c51b 023e 6e30 0fbd 0288 343e 854c 003e
00000140: 2455 be3c 85f9 223e f141 083e 3488 9abe
00000150: e04a 47be 402c 0fbe c065 913c af62 953e
00000160: afae 853e 4026 1e3e e06a 333e 42c8 d3bd
00000170: 1079 b2bd 25e9 5d3e e045 2ebe a0b9 cabd
00000180: dc47 443e b4af f53d 404a 963e bb88 453e
00000190: f6ad 6b3e 45e9 b43e 60de 49be db43 013e
000001a0: 904d 003e 10ed a0bd b580 16be e9a1 eabe
000001b0: 1b1e 5b3e 74e3 e23c 8570 afbd edea 35be
000001c0: c63b 913e b211 a23d 57dd a4be 844d 343e
000001d0: 458b dc3c 3ef0 4abd e0eb bebe d1ef d2bc
000001e0: 3291 433c 07d1 20be a53d b53e 7086 92be
000001f0: d4d1 e6bd 24f2 c93d 3a2c 013e ab95 99be

actor.2.weight f4 [64, 128]
-0.060734197 -0.05567385 0.11186026 0.1507252 -0.10592201 0.06409517 -0.24323386 0.087112665
-0.088054985 0.089012064 0.12767667 0.3781691 0.105977096 0.0078085912 0.078473486 0.11733117
-0.13148403 0.2828435 -0.03975686 -0.06316946 -0.11143941 0.057409603 0.22823268 -0.062764466
0.020769563 -0.10413177 0.09198142 -0.10632249 0.09970551 0.14215852 0.043226514 -0.062217094
0.27690315 -0.18157607 0.30527556 -0.1259577 -0.15306804 0.2567628 -0.07494813 -0.04074056
0.111148514 0.17161262 0.23946649 0.0172565 0.1378435 -0.29436594 0.14474908 0.016238974
-0.019018201 0.1366067 0.052137174 0.020018758 0.33617786 -0.051894262 0.08007405 0.0067011258
0.15060188 -0.112920366 -0.057128012 0.1754643 -0.03774221 -0.016262911 -0.07835674 0.16194624
0.10441961 -0.25224397 -0.09013809 -0.0017369821 0.051046625 -0.2684132 0.2733839 0.13819496
-0.03371597 0.031863626 0.00046064993 -0.009884865 -0.007028505 -0.24424621 0.38523775 0.109615915
0.1865995 0.029074537 0.08624761 -0.001043522 -0.31400865 -0.51757896 0.1623063 -0.13031787
0.06796071 0.021249283 -0.029612929 -0.48235786 -0.109396376 0.09600496 -0.23466997 -0.27695772
0.25289595 -0.043934565 0.3623102 0.107049584 -0.115684286 0.08283591 0.2709962 0.082348324
0.20454782 -0.1280134 0.008566061 0.166127 0.027564786 -0.06564187 -0.12346026 0.016334852
0.028632553 0.18919855 -0.16079743 0.13177733 -0.15479654 0.09335475 0.08882738 0.2939857
-0.2938892 0.23802145 0.10525757 -0.29808655 0.10396054 0.21083432 -0.09026453 0.16981724
-0.11910471 0.25289083 0.19029948 0.29381546 -0.10493817 -0.2519897 -0.21058272 0.3159712
0.13416864 0.21172066 -0.1812609 0.11122854 -0.2277957 0.21951374 -0.065490365 0.06955365
0.10426397 -0.23827547 -0.11189981 -0.04045882 0.2500488 -0.14195274 -0.10743541 -0.09704644
0.123540476 0.04454318 -0.09878184 -0.041030258 -0.13829732 0.057748854 -0.011879513 0.104654066
0.39509332 0.078612484 -0.20900163 0.022578336 0.0012872738 0.20286971 0.15048806 -0.04018826
0.06807136 -0.21368322 0.3046557 0.13367566 0.09376256 0.027086822 -0.0837076 -0.035361588
-0.081383586 0.1645864 -0.0871511 0.16692816 -0.105311714 0.09210089 0.24687421 0.2716854
0.3222866 -0.17267598 -0.116032295 0.1067494 0.078999534 -0.1532207 -0.06371315 -0.03381727
-0.048719358 -0.10872437 0.16055554 -0.16460977 -0.16041943 -0.0006656583 0.01827415 -0.20721571
-0.20104335 0.17172158 -0.057989035 -0.25001404 0.13640738 0.14185609 0.021326311 0.2838967
0.15629973 0.10911587 0.047110695 -0.12999988 0.057139236 -0.050852414 0.09932523 0.11774099
0.22302763 -0.14301908 -0.29375818 -0.07126485 0.111561194 -0.0627087 -0.3099534 0.04242908
0.21504116 0.53754723 -0.07379418 0.22588763 -0.037366536 -0.042448223 0.25000575 0.31436768
-0.041836258 -0.15012652 0.2399668 0.16836923 0.1164924 -0.089104526 0.13606422 0.10884844
-0.16141637 0.026394734 0.135959 -0.16117403 0.33101285 -0.16614842 -0.21817027 -0.048528954
-0.093956806 -0.032043178 -0.12885101 -0.07880456 -0.1771887 0.43260443 0.23753333 -0.027911423
00000000: 6cc4 78bd 430a 64bd fe16 e53d b557 1a3e
00000010: a4ed d8bd 5444 833d 4c12 79be 2068 b23d
00000020: 2c56 b4bd f54b b63d acbd 023e 619f c13e
00000030: 850a d93d 36df ff3b b5b6 a03d 534b f03d
00000040: c0a3 06be ddd0 903e 17d8 22bd fd5e 81bd
00000050: 583a e4bd 5526 6b3d d4b5 693e a88a 80bd
00000060: ee24 aa3c 0a43 d5bd c160 bc3d 9bbf d9bd
00000070: 6732 cc3d 0192 113e 490e 313d 5ad7 7ebd
00000080: 40c6 8d3e 14ef 39be 144d 9c3e 0efb 00be
00000090: debd 1cbe 6a76 833e 687e 99bd 93df 26bd
000000a0: d5a1 e33d 38bb 2f3e b436 753e 815d 8d3c
000000b0: d926 0d3e 22b7 96be 1a39 143e 9907 853c
000000c0: 0fcc 9bbc a0e2 0b3e ca8d 553d 61fe a33c
000000d0: 811f ac3e 148f 54bd ddfd a33d 1e95 db3b
000000e0: 6137 1a3e cb42 e7bd 10ff 69bd eaac 333e
000000f0: 9397 1abd cc39 85bc 8079 a0bd 3cd5 253e
00000100: f3d9 d53d 1f26 81be 529a b8bd 73ab e3ba
00000110: 4416 513d 746d 89be f9f8 8b3e fb82 0d3e
00000120: c219 0abd 6f83 023d 6383 f139 21f4 21bc
00000130: 604f e6bb ae1b 7abe e23d c53e 4f7e e03d
00000140: f013 3f3e b92d ee3c 96a2 b03d cac6 88ba
00000150: bec5 a0be 0e80 04bf 9f33 263e 0c72 05be
00000160: fc2e 8b3d fa12 ae3c d096 f2bc 9cf7 f6be
00000170: 350b e0bd 409e c43d 534d 70be 67cd 8dbe
00000180: 947b 813e bbf4 33bd b980 b93e d03c db3d
00000190: e2eb ecbd e0a5 a93d 04c0 8a3e 3da6 a83d
000001a0: fc74 513e f215 03be aa58 0c3c 321d 2a3e
000001b0: 8ccf e13c 3f6f 86bd bcd8 fcbd abd0 853c
000001c0: d18e ea3c 44bd 413e 15a8 24be a3f0 063e
000001d0: fc82 1ebe c630 bf3d 21eb b53d 4b85 963e
000001e0: a578 96be e5bb 733e 4891 d73d cd9e 98be
000001f0: 43e9 d43d f4e4 573e 9cdc b8bd 92e4 2d3e
00000200: 2ced f3bd e87a 813e dedd 423e fb6e 963e
00000210: d3e9 d6bd cb04 81be ffa2 57be fac6 a13e
00000220: 8163 093e 4dcd 583e 759c 39be cacb e33d
00000230: 4743 69be 36c8 603e d01f 86bd 2572 8e3d
00000240: 5988 d53d 7cfe 73be ba2b e5bd 26b8 25bd
00000250: 6506 803e 0f5c 11be 1907 dcbd 49c0 c6bd
00000260: ca02 fd3d e972 363d 224e cabd 580f 28bd
00000270: d09d 0dbe 108a 6c3d 4aa2 42bc df54 d63d
00000280: ac49 ca3e 95ff a03d 8604 56be 34f6 b83c
00000290: beb9 a83a 14bd 4f3e 8b19 1a3e 729c 24bd
000002a0: ff68 8b3d c6cf 5abe d5fb 9b3e 46e2 083e
000002b0: 9606 c03d 2fe5 dd3c e46e abbd 50d7 10bd
000002c0: 70ac a6bd 5689 283e 477c b2bd 37ef 2a3e
000002d0: abad d7bd 649f bc3d 98cc 7c3e 591a 8b3e
000002e0: c002 a53e f9d1 30be 57a2 edbd 6e9f da3d
000002f0: 82ca a13d e3e5 1cbe 0a7c 82bd fa83 0abd
00000300: f38d 47bd e2aa debd ac68 243e 778f 28be
00000310: fe44 24be 937f 2eba acb3 953c 5b30 54be
00000320: 4fde 4dbe c8d7 2f3e e985 6dbd d701 80be
00000330: 60ae 0b3e b942 113e 84b4 ae3c e95a 913e
00000340: 090d 203e 2478 df3d 25f7 403d b01e 05be
00000350: d50a 6a3d 9f4a 50bd 076b cb3d 3022 f13d
00000360: 5b61 643e 9873 12be 7967 96be 4ef3 91bd
00000370: 327a e43d 6b6d 80bd 36b2 9ebe 1dca 2d3d
00000380: c033 5c3e b29c 093f 6721 97bd 164f 673e
00000390: a70d 19bd 30de 2dbd c100 803e cdf4 a03e
000003a0: 7f5c 2bbd c4ba 19be dbb9 753e fc68 2c3e
000003b0: 9193 ee3d 6f7c b6bd 6b54 0b3e eeeb de3d
000003c0: 554a 25be c539 d83c d638 0b3e ce0a 25be
000003d0: 847a a93e d022 2abe 0768 5fbe 4cc6 46bd
000003e0: 6d6c c0bd b53f 03bd 85f1 03be 4964 a1bd
000003f0: f470 35be 547e dd3e f03b 733e 7fa6 e4bc

actor.2.bias f4 [64]
0.075357325 0.058266263 0.08035096 0.14881954 0.08345122 0.04415117 0.08761577 0.085485086
-0.026271567 0.040516984 0.053488463 0.062049586 -0.02584011 0.11757506 -0.018511647 0.025770696
0.001413682 0.06259905 0.12472291 0.013166925 0.09009455 -0.09189851 -0.05384328 0.034388278
-0.03534252 0.021577686 -0.0058390102 0.010146355 0.17019112 0.026896885 0.12287154 -0.02045099
0.08277767 -0.019502353 -0.00682665 -0.09837032 0.0115040615 -0.0014355842 -0.06841078 0.0917921
0.06521427 -0.049002588 0.0064575877 -0.04829569 0.05268097 0.017408537 0.04959902 0.07455632
0.07828667 0.03224278 0.07132544 0.10772842 0.07404178 0.081901036 -0.10661014 0.03086431
-4.855634e-05 0.08037782 -0.004647235 0.035605125 0.07468558 0.07323381 0.073289044 -0.04614095
00000000: f154 9a3d 9ba8 6e3d 0b8f a43d 2664 183e
00000010: 79e8 aa3d dbd7 343d e66f b33d ce12 af3d
00000020: 7837 d7bc 23f5 253d b816 5b3d b527 7e3d
00000030: a3ae d3bc 31cb f03d bda5 97bc 111d d33c
00000040: 4c4b b93a ee33 803d ba6e ff3d 16ba 573c
00000050: 7e83 b83d 4935 bcbd c58a 5cbd b9da 0c3d
00000060: 51c3 10bd b0c3 b03c 2b55 bfbb e63c 263c
00000070: 9546 2e3e db56 dc3c 13a4 fb3d d688 a7bc
00000080: 5787 a93d 66c3 9fbc 17b2 dfbb 6176 c9bd
00000090: 887b 3c3c 362a bcba f31a 8cbd 7ffd bb3d
000000a0: 0f8f 853d f0b6 48bd 2c9a d33b b4d1 45bd
000000b0: 00c8 573d 599c 8e3c 5828 4b3d fcb0 983d
000000c0: c354 a03d 0111 043d 1313 923d b8a0 dc3d
000000d0: 37a3 973d bbbb a73d 6b56 dabd 26d7 fc3c
000000e0: f9a8 4bb8 209d a43d d547 98bb aed6 113d
000000f0: c1f4 983d 9cfb 953d 9118 963d 4bfe 3cbd

actor.4.weight f4 [4, 64]
0.080397666 -0.24050131 0.10577526 0.0052637393 0.3916206 0.31446126 0.03908345 0.6489523
-0.020254746 0.26479825 0.18987526 -0.030033255 -0.040775232 -0.25473553 0.31707862 0.48526612
0.25025085 -0.012161998 -0.22610039 -0.27375746 -0.30333963 -0.12242104 0.27773625 0.045657285
-0.20257232 -0.22500129 0.015172524 -0.18511535 -0.3414955 0.15193564 -0.25526917 0.28255698
0.015321792 0.49505162 0.13362238 -0.1526197 -0.3901895 0.26349604 0.3786856 0.25726664
0.2851582 -0.3250146 -0.35861507 0.08572831 -0.34224898 0.53222513 0.46210507 0.32556683
0.18158399 0.29107764 0.044733867 0.17575094 -0.3242105 0.24471909 0.075510904 0.31736392
-0.0935837 0.15249972 0.04599161 -0.469771 0.05292489 0.3255975 -0.3209883 0.040239464
-0.11933949 0.18528126 -0.6915071 0.08028811 -0.07966535 0.28219974 -0.7358326 -0.16066104
-0.20136036 -0.1816275 -0.15471074 0.12095812 -0.5507794 0.043345656 -0.4328797 -0.21080177
-0.18060724 0.36232707 0.14061357 -0.1807489 -0.27723244 -0.34970063 0.43194595 0.11694585
0.18676351 -0.3284825 -0.0829052 0.066759236 -0.34181154 -0.112461515 0.2578544 0.22697632
0.37440455 0.47815758 0.0037646112 0.47111467 0.35930422 -0.3136895 0.27328187 -0.27905753
0.4539597 0.48343596 0.27625155 0.097752325 0.19382429 -0.30556902 0.14878291 0.3960624
-0.5460661 -0.49386892 0.07112916 -0.4289286 0.66179484 0.41844928 0.2654801 -0.34356478
-0.1196135 0.37417263 -0.59826005 0.23944157 -0.40269053 0.19386305 -0.19872022 0.14684066
0.34627968 0.25519088 0.09837045 -0.16098374 0.21997583 -0.49758622 0.16164133 -0.4387624
0.017077096 -0.6170481 -0.49647897 0.2896809 -0.27718362 0.4922835 -0.13009582 0.11736759
-0.19825917 0.17797166 0.39028817 0.42693537 0.24951138 0.21282366 -0.33351418 -0.35846373
-0.38063133 -0.5166348 0.34948957 -0.13085987 -0.15589592 0.2621115 0.39351997 -0.42912322
0.40938222 -0.637344 0.35043147 0.34290737 0.21760292 0.4306491 -0.1326654 -0.11226179
-0.59126544 -0.1970989 0.08025097 -0.5503092 0.07739604 -0.3909828 0.33548376 0.27578026
0.057793375 -0.11786756 0.3560131 -0.030937895 -0.2444164 0.1772264 -0.013962235 -0.12593077
-0.44964373 0.32251993 -0.20671488 0.40303192 0.13073242 0.28499058 0.10130563 0.26427627
-0.007733189 0.2600529 0.57302576 0.33062908 -0.22748584 0.17797488 0.21922019 -0.07540206
-0.28025347 -0.063948184 0.045223087 -0.17502008 0.20617293 0.24823774 -0.17414868 -0.17089756
0.064712524 -0.33744526 0.17210314 0.33699596 0.12552159 -0.21518432 0.09492321 0.3751458
0.36482248 0.26864243 0.25743768 0.00401552 0.5136584 -0.15554395 0.355773 0.21204597
-0.32703707 -0.1312488 -0.34676158 -0.5421835 0.1907144 -0.08684903 -0.1799518 0.3386904
-0.053150877 0.10143485 -0.15166488 0.22242713 0.23218308 0.1629347 -0.010575807 -0.4205876
0.38611144 0.334293 -0.21789177 -0.08558118 0.018728592 -0.09949822 -0.25376275 0.09584245
0.10241255 -0.3195762 -0.058428563 -0.20435715 0.45048866 0.023765644 0.12038278 0.2590866
00000000: 88a7 a43d fa45 76be b3a0 d83d 727b ac3b
00000010: 7f82 c83e 1101 a13e f815 203d bd21 263f
00000020: 48ed a5bc a393 873e a96e 423e 4d08 f6bc
00000030: ee03 27bd b26c 82be 2158 a23e cd74 f83e
00000040: e120 803e 1e43 47bc dc86 67be f029 8cbe
00000050: 554f 9bbe e2b7 fabd 7233 8e3e 2203 3b3d
00000060: 1e6f 4fbe bd66 66be 2e96 783c e18e 3dbe
00000070: 80d8 aebe 0495 1b3e a4b2 82be 4fab 903e
00000080: 4108 7b3c 6877 fd3e 4ed4 083e 5748 1cbe
00000090: ebc6 c7be f4e8 863e 14e3 c13e 74b8 833e
000000a0: 4100 923e 5068 a6be 659c b7be 5392 af3d
000000b0: 423b afbe e83f 083f 0999 ec3e b2b0 a63e
000000c0: 27f1 393e 2108 953e dc3a 373d 0ef8 333e
000000d0: ebfe a5be a497 7a3e 76a5 9a3d 867d a23e
000000e0: d0a8 bfbd e328 1c3e b361 3c3d d385 f0be
000000f0: c5c7 583d b7b4 a63e 9458 a4be 23d2 243d
00000100: 4368 f4bd 5fba 3d3e 9c06 31bf 186e a43d
00000110: 9627 a3bd 7c7c 903e 865f 3cbf 5484 24be
00000120: 6931 4ebe 8ffc 39be 7e6c 1ebe e4b8 f73d
00000130: e1ff 0cbf 378b 313d 68a2 ddbe 6bdc 57be
00000140: 1bf1 38be ef82 b93e 01fd 0f3e 3d16 39be
00000150: 69f1 8dbe f60b b3be 0528 dd3e 4e81 ef3d
00000160: ef3e 3f3e dc2e a8be 34ca a9bd 11b9 883d
00000170: ec01 afbe 3952 e6bd 7e05 843e 7b6c 683e
00000180: f4b1 bf3e 12d1 f43e b2b7 763b f135 f13e
00000190: b9f6 b73e e99b a0be 9aeb 8b3e a1e0 8ebe
000001a0: 686d e83e eb84 f73e d870 8d3e 5f32 c83d
000001b0: e079 463e 8b73 9cbe 8c5a 183e b1c8 ca3e
000001c0: fdca 0bbf 63dc fcbe 2aac 913d 889c dbbe
000001d0: 636b 293f fc3e d63e 02ed 873e b9e7 afbe
000001e0: ecf7 f4bd 8e93 bf3e 9227 19bf 2c30 753e
000001f0: 742d cebe 0984 463e 507d 4bbe 665d 163e
00000200: 924b b13e 61a8 823e 7276 c93d ecd8 24be
00000210: 5841 613e 9fc3 febe 4e85 253e 77a5 e0be
00000220: 44e5 8b3c ddf6 1dbf 7e32 febe 0e51 943e
00000230: 03eb 8dbe 950c fc3e d737 05be 6b5e f03d
00000240: 7404 4bbe 343e 363e dad3 c73e 4697 da3e
00000250: e97f 7f3e 72ee 593e 5fc2 aabe 8f88 b7be
00000260: 1ce2 c2be 2e42 04bf 4cf0 b23e 2100 06be
00000270: 2ea3 1fbe 7b33 863e 737b c93e 0ab6 dbbe
00000280: 8c9a d13e fa28 23bf c16b b33e 8e91 af3e
00000290: 4dd3 5e3e 0a7e dc3e 70d9 07be 82e9 e5bd
000002a0: 2c5d 17bf 4bd4 49be 9f5a a43d 10e1 0cbf
000002b0: d181 9e3d e62e c8be 87c4 ab3e 1233 8d3e
000002c0: bfb8 6c3d 8c64 f1bd 5947 b63e 7871 fdbc
000002d0: 4b48 7abe d67a 353e dcc1 64bc fff3 00be
000002e0: b437 e6be 5521 a53e 11ad 53be 335a ce3e
000002f0: b8de 053e 49ea 913e 5379 cf3d 384f 873e
00000300: b166 fdbb a725 853e d1b1 123f 3748 a93e
00000310: 0cf2 68be 0c3f 363e 427b 603e 656c 9abd
00000320: 627d 8fbe 44f7 82bd d83b 393d 7738 33be
00000330: ff1e 533e 0932 7e3e 0854 32be c5ff 2ebe
00000340: 0088 843d a0c5 acbe ce3b 303e bc8a ac3e
00000350: bb88 003e 4759 5cbe 1a67 c23d 1c13 c03e
00000360: 03ca ba3e 808b 893e dfce 833e a094 833b
00000370: 1e7f 033f ea46 1fbe e127 b63e 9422 593e
00000380: 6771 a7be 1666 06be bc8a b1be 8acc 0abf
00000390: a34a 433e e7dd b1bd 4945 38be d468 ad3e
000003a0: bcb4 59bd 13bd cf3d 0a4e 1bbe f0c3 633e
000003b0: 67c1 6d3e 5bd8 263e 2646 2dbc 4257 d7be
000003c0: 66b0 c53e 7428 ab3e 051f 5fbe 3045 afbd
000003d0: b46c 993c b9c5 cbbd 31ed 81be 0c49 c43d
000003e0: acbd d13d 7e9f a3be ca52 6fbd 0043 51be
000003f0: 73a6 e63e 2bb0 c23c 3f8b f63d 00a7 843e

actor.4.bias f4 [4]
0.013252578 0.013513347 -0.027801566 0.2112534
00000000: 5721 593c 1667 5d3c 1cc0 e3bc d052 583e

critic.0.weight f4 [128, 8]
0.11852923 0.08581976 0.010086436 -0.054153264 -0.45540676 -0.7406001 -0.17496315 0.308256
-0.20534116 -0.37081254 -0.22653455 -0.31918174 0.7398527 0.5478278 0.14397037 -0.16449173
-0.30129448 -0.26625052 0.16835105 -0.1834779 -0.18895294 -0.34807616 0.18364914 0.19839846
0.14286055 -0.19684081 -0.12332428 -0.21336736 -0.15296623 -0.47121996 0.097569376 0.28295487
-0.011117414 -0.032054935 -0.5269661 -0.72052366 0.39328533 0.24676898 0.18471521 0.13122705
0.82206726 -0.09341156 0.24076676 -0.018919308 -0.29409683 -0.08198963 -0.029277531 -0.0875277
-0.38843012 -0.04657758 0.2981077 0.04379289 0.5246515 0.49896616 -0.02686834 -0.18682282
-0.31968006 -0.20076884 0.49092442 -0.08255669 0.7546439 0.09075611 0.17671914 0.09332154
0.630926 0.05643115 -0.2981101 -0.2135632 0.17722467 -0.018961938 0.23702584 0.1891707
-0.29590157 -0.045820415 0.078716755 -0.21536288 0.56236017 0.6504665 0.13130184 0.25833666
0.004031094 -0.23000039 -0.20756955 -0.13714406 0.37082517 0.28863475 -0.22516511 -0.37157518
0.0020823479 -0.13357234 0.1426777 0.1846362 -0.20375751 0.101935655 0.00318259 -0.26495448
-0.4982474 0.021741964 0.026805924 0.02485949 0.8102593 -0.20554022 -0.17486624 -0.1357466
-0.18774775 -0.14731558 0.0008310254 -0.22859398 0.31644022 0.6937197 0.12695079 -0.20995988
0.0604166 0.17324728 -0.13250534 0.38723692 0.06810735 -0.23582661 -0.36290225 -0.12214039
-0.18741979 0.23114322 -0.546862 0.01929523 -0.19523594 0.10531864 0.2891453 -0.21486951
0.10255221 0.08426532 -0.31434307 -0.22950043 0.20339237 -0.14157255 0.035493493 -0.31486344
-0.17583258 -0.3318762 -0.17931442 -0.17630193 0.64575046 0.38039926 0.19538364 -0.03812022
0.8670404 -0.037575033 0.23541781 -0.018041886 -0.33107415 -0.067834966 -0.045445047 -0.049765784
0.2565025 0.42680275 -0.26916718 -0.4661934 -0.60059506 0.15918687 -0.25243643 -0.49646
0.08266014 0.053525552 -0.32685927 -0.09285166 0.17667858 0.06965203 -0.17086707 -0.03332104
-0.4571538 0.10871538 -0.66972184 0.10775168 -0.59451526 0.11163759 -0.2332864 -0.11086324
0.009601847 -0.014667311 -0.26873732 -0.49572247 0.17860062 0.11541103 -0.1635161 0.29314086
-0.38854474 -0.08844453 -0.21508226 -0.25848815 0.62009805 0.21679129 -0.0018629136 0.1157853
0.504489 -0.0965631 0.21068537 -0.06358264 -0.14398557 0.12373902 0.36010933 0.22402291
0.033479583 -0.028532008 0.1377187 -0.29733846 -0.38436553 -0.35490656 0.14498964 0.14094521
-0.5362978 -0.07251326 -0.09611417 -0.048154242 0.7383756 0.07992963 -0.044686675 0.052969586
0.24372922 0.24499176 -0.14435565 0.8117843 0.52954763 0.30240053 -0.346432 -0.06729991
-0.0055839606 0.010677126 0.4128503 -0.69498676 0.10385008 -0.14466335 0.15649135 -0.56623304
0.0763888 0.33894727 0.14896949 -0.21878809 -0.45730203 -0.336981 0.413487 -0.35061815
-0.19065282 -0.26047018 -0.062421866 -0.25513178 0.5550597 0.5831231 0.29972848 0.05905448
0.1048403 -0.28073537 0.22454168 0.04042969 -0.3094004 0.15616582 -0.11450707 0.19179627
00000000: 74bf f23d 45c2 af3d 9441 253c d0cf 5dbd
00000010: 132b e9be f897 3dbf 8a29 33be bbd3 9d3e
00000020: f444 52be 24db bdbe acf8 67be ca6b a3be
00000030: fd66 3d3f 713e 0c3f f86c 133e 8570 28be
00000040: 4543 9abe fd51 88be 3864 2c3e a1e1 3bbe
00000050: e17c 41be 0a37 b2be 850e 3c3e f728 4b3e
00000060: 094a 123e a390 49be 7191 fcbd f97c 5abe
00000070: 2ea3 1cbe be43 f1be 74d2 c73d 76df 903e
00000080: d025 36bc 094c 03bd 40e7 06bf 3d74 38bf
00000090: b25c c93e 02b1 7c3e fc25 3d3e 6260 063e
000000a0: 0073 523f 8f4e bfbd 908b 763e aafc 9abc
000000b0: dc93 96be 2eea a7bd 6fd7 efbc b941 b3bd
000000c0: 50e0 c6be 22c8 3ebd 93a1 983e 2c60 333d
000000d0: 904f 063f 7e78 ff3e fe1a dcbc 7b4e 3fbe
000000e0: 1bad a3be 5996 4dbe 725a fb3e 7b13 a9bd
000000f0: 5830 413f 57de b93d ddf5 343e 5d1f bf3d
00000100: 5e84 213f 5924 673d e3a1 98be 50b0 5abe
00000110: 627a 353e 1156 9bbc e7b6 723e f7b5 413e
00000120: 6980 97be 30ae 3bbd 4036 a13d 1688 5cbe
00000130: d6f6 0f3f f984 263f fd73 063e b444 843e
00000140: 4417 843b 3985 6bbe 1d8d 54be 7e6f 0cbe
00000150: ccdc bd3e efc7 933e af91 66be 1a3f bebe
00000160: 0078 083b 30c7 08be 1a1a 123e 4611 3d3e
00000170: cfa5 50be a4c3 d03d 0093 503b 1da8 87be
00000180: 491a ffbe 341c b23c 1998 db3c 21a6 cb3c
00000190: 276d 4f3f 2379 52be 2310 33be 2801 0bbe
000001a0: f240 40be e5d9 16be 2cd9 593a 8a14 6abe
000001b0: 7404 a23e 9d97 313f 63ff 013e b9ff 56be
000001c0: 6677 773d bc67 313e 7baf 07be eb43 c63e
000001d0: de7b 8b3d 887c 71be 53ce b9be be24 fabd
000001e0: f9ea 3fbe cfb0 6c3e 26ff 0bbf 0811 9e3c
000001f0: eeeb 47be 4db1 d73d da0a 943e c106 5cbe
00000200: e506 d23d 4c93 ac3d 93f1 a0be 2902 6bbe
00000210: 1746 503e 65f8 10be a061 113d c835 a1be
00000220: 750d 34be adeb a9be 339e 37be 7e88 34be
00000230: e74f 253f b1c3 c23e a612 483e f323 1cbd
00000240: 5cf6 5d3f 47e8 19bd 5e11 713e 94cc 93bc
00000250: 8d82 a9be 0fed 8abd 9624 3abd 35d7 4bbd
00000260: 4c54 833e e485 da3e 48d0 89be e7b0 eebe
00000270: 99c0 19bf e201 233e 593f 81be 0130 febe
00000280: b849 a93d 9c3d 5b3d 195a a7be 0329 bebd
00000290: 3beb 343e b9a5 8e3d c7f7 2ebe a57b 08bd
000002a0: 1010 eabe 2ba6 de3d e472 2bbf eaac dc3d
000002b0: 2732 18bf 40a2 e43d a1e2 6ebe 440c e3bd
000002c0: 1151 1d3c 294f 70bc f097 89be 56cf fdbe
000002d0: 15e3 363e 9e5c ec3d c470 27be 8f16 963e
000002e0: 56ef c6be 6822 b5bd 863e 5cbe 8f58 84be
000002f0: bfbe 1e3f 89fe 5d3e 022d f4ba d820 ed3d
00000300: 3126 013f e0c2 c5bd e8bd 573e 9d37 82bd
00000310: f470 13be e26a fd3d 4060 b83e 4366 653e
00000320: e321 093d f5bb e9bc 2206 0d3e bf3c 98be
00000330: 8fcb c4be 50b6 b5be 2a78 143e f153 103e
00000340: d04a 09bf d581 94bd 82d7 c4bd 623d 45bd
00000350: 2f06 3d3f 25b2 a33d 6009 37bd a3f6 583d
00000360: 2794 793e 1fdf 7a3e f8d1 13be 19d1 4f3f
00000370: 6f90 073f 3ed4 9a3e 895f b1be 89d4 89bd
00000380: a8f9 b6bb 1def 2e3c 1d61 d33e a7ea 31bf
00000390: 5aaf d43d a122 14be 453f 203e a6f4 10bf
000003a0: bb71 9c3d 7f8a ad3e 758b 183e fc09 60be
000003b0: 7e23 eabe c688 acbe 91b4 d33e 3984 b3be
000003c0: 7e3a 43be 595c 85be 12ae 7fbd a2a0 82be
000003d0: 6418 0e3f 8e47 153f 0376 993e 1ce3 713d
000003e0: 83b6 d63d 8cbc 8fbe 41ee 653e 9a99 253d
000003f0: bb69 9ebe efe9 1f3e af82 eabd 3e66 443e

critic.0.bias f4 [128]
0.08934373 -0.12279022 -0.036169626 -0.1713645 -0.027060494 0.0838703 0.2733679 0.16152476
0.22829038 -0.23729514 -0.02414634 -0.3404824 0.40514335 -0.20904395 0.086705595 0.07132162
0.39721006 -0.04360066 0.066199206 0.30409285 0.35253912 -0.28147104 -0.0039662994 -0.026395554
0.36057714 0.1631529 -0.009854293 -0.305286 -0.002940743 0.21452957 -0.13954802 -0.33568913
0.014055203 0.33097038 0.3794012 0.40687174 -0.35542214 0.21565464 0.14734651 0.15302645
-0.19335623 0.35280916 0.36322242 0.13577037 0.2944652 -0.21286441 0.0048366333 -0.3896871
0.39185932 -0.31020626 0.10839329 0.022318438 0.026449963 0.14559679 -0.13400131 0.2602945
-0.13448143 0.00940629 -0.23425902 -0.069601275 0.26994637 -0.027278578 0.2957658 -0.11869988
-0.13770981 -0.1571264 0.009107035 0.26892218 -0.12434735 0.2656711 -0.25721118 0.13440925
-0.2852199 0.2192552 -0.43250334 0.15563226 0.35857 0.119429976 -0.13488771 0.22242492
-0.089082055 0.07641257 -0.071730606 0.34910184 0.44161215 0.29694694 0.246305 0.067062825
-0.0129045155 0.12666768 0.39284843 -0.38809475 0.15012519 -0.00088679 0.114024885 0.38660777
0.24269995 -0.19699557 0.40130156 0.13403699 0.44120637 0.103158206 0.118506275 0.45678255
0.11802357 0.36017096 0.08355837 0.13116868 0.07626118 -0.23388378 -0.0028653068 0.0809665
0.06657908 0.19355704 0.12456824 -0.03511857 -0.09988375 0.17735213 0.2944929 0.36981222
0.28025937 -0.16178429 -0.35985863 0.2563304 -0.204926 0.33695278 0.19489762 0.00488848
00000000: d8f9 b63d 7079 fbbd 9a26 14bd 2d7a 2fbe
00000010: f8ad ddbc 31c4 ab3d e1f6 8b3e bf66 253e
00000020: f4c4 693e 7ffd 72be 8cce c5bc b653 aebe
00000030: f36e cf3e 9e0f 56be b492 b13d 1211 923d
00000040: 1e5f cb3e 9b96 32bd 7393 873d 0fb2 9b3e
00000050: 0280 b43e f91c 90be bbf7 81bb 7d3b d8bc
00000060: 919d b83e 8e11 273e e773 21bc 724e 9cbe
00000070: 7bb9 40bb a4ad 5b3e ade5 0ebe 72df abbe
00000080: cb47 663c f374 a93e e040 c23e 7e51 d03e
00000090: e4f9 b5be 92d4 5c3e 01e2 163e f7b2 1c3e
000000a0: 2dff 45be 67a3 b43e 4af8 b93e 6307 0b3e
000000b0: 25c4 963e 21f9 59be 9f7c 9e3b 1185 c7be
000000c0: c9a1 c83e 5bd3 9ebe 4dfd dd3d 28d5 b63c
000000d0: 98ad d83c 5317 153e a437 09be 5245 853e
000000e0: 80b5 09be d71c 1a3c 99e1 6fbe 1d8b 8ebd
000000f0: 6936 8a3e 5377 dfbc 9d6e 973e ec18 f3bd
00000100: cd03 0dbe bee5 20be ac35 153c 2bb0 893e
00000110: d3a9 febd 0b06 883e 2fb1 83be 94a2 093e
00000120: 5808 92be 6f84 603e 1471 ddbe 105e 1f3e
00000130: 7d96 b73e b497 f43d 0120 0abe 5cc3 633e
00000140: a770 b6bd 327e 9c3d 7fe7 92bd 7abd b23e
00000150: fd1a e23e 6e09 983e 6137 7c3e 3c58 893d
00000160: 766d 53bc 2cb5 013e 6e23 c93e 5bb4 c6be
00000170: 6bba 193e 7877 68ba e185 e93d 74f1 c53e
00000180: 5686 783e 35b9 49be 6677 cd3e fe40 093e
00000190: cde5 e13e 9c44 d33d 6bb3 f23d 67df e93e
000001a0: 57b6 f13d 5468 b83e a720 ab3d 1551 063e
000001b0: d22e 9c3d 3b7f 6fbe dfc7 3bbb c4d1 a53d
000001c0: 9d5a 883d d133 463e a21d ff3d 7dd8 0fbd
000001d0: da8f ccbd cc9b 353e c6c7 963e 0758 bd3e
000001e0: 287e 8f3e c8aa 25be 643f b8be bd3d 833e
000001f0: 1fd8 51be 1385 ac3e 3e93 473e 8b2f a03b

critic.2.weight f4 [64, 128]
-0.07076676 0.027334373 0.02878368 -0.042135987 0.045321498 0.029181086 0.051466405 -0.033300508
0.043384988 0.075053014 -0.038417112 -0.06295647 0.07230227 0.006468324 0.055859998 0.009414066
0.04586781 -0.05112169 0.04425899 0.019776806 -0.07545759 -0.010692485 0.014676496 -0.06084316
-0.047859397 -0.011986811 -0.081751436 -0.018476747 0.0017742622 0.06778152 0.07955391 -0.07986592
-0.0118688075 0.039072093 0.06396284 -0.021744374 -0.019319355 -0.06931416 0.048992552 0.051832113
-0.089267194 -0.0645455 -0.0042434 -0.081208766 -0.086748905 0.045711953 0.042145915 -9.065202e-05
-0.007560347 0.04280457 -0.012324706 0.041628506 -0.012030114 -0.096885435 0.050676413 -0.042824358
-0.091646016 -0.068495885 -0.054647293 -0.07056932 0.054241564 -0.027024413 0.049033523 0.026654646
-0.072305076 0.003568529 0.0751116 -0.016044365 -0.08401621 -0.029633947 -0.0841278 -0.0102487
0.05600185 -0.08282618 0.018881733 -0.08253959 0.007567402 -0.041940432 -0.056917828 -0.05039995
0.08570843 -0.06947431 0.053439338 0.04145908 -0.079074904 -0.07800761 -0.09149372 0.060252625
0.044119973 -0.07920998 0.03576239 -0.036415186 -0.039301597 0.022010252 0.034001306 -0.07818955
0.07584881 0.060561877 -0.05736862 -0.09114871 -0.09911149 0.06348178 -0.06269841 -0.018030308
-0.001136139 -0.08329108 0.0067824884 -0.078857 -0.04123796 -0.03962862 0.06398078 0.028673353
-0.03910466 -0.04356173 0.010165891 -0.009448813 -0.046104804 -0.08823549 -0.083134465 -0.031223597
0.007989551 -0.05524973 -0.04294749 -0.0034922082 0.046323158 0.07325826 -0.027410092 0.010596279
0.31768867 0.07083443 0.13788988 0.12359808 -0.1305647 0.31726232 -0.0024688928 -0.37653372
0.050962847 0.2418657 0.09267726 -0.08152007 0.076542035 0.2554943 0.033906903 0.03121538
-0.052043304 0.036006268 0.41031927 -0.059269294 0.047831662 -0.19345321 -0.15517797 0.22429341
0.13875999 0.11603822 0.4181796 -0.21467765 -0.30043027 -0.101144806 0.01873826 -0.019866131
0.07719685 0.20405819 0.09323308 0.021429446 0.3340548 -0.014859042 0.03841071 -0.19739032
-0.357865 0.06661488 0.017802922 0.057834674 0.03881721 -0.25510982 0.09883754 -0.35373566
0.12850827 0.29152134 0.31431744 -0.25266546 0.18230718 0.21673954 -0.30355155 -0.07816226
0.121379435 0.1683217 0.23448345 -0.41257134 0.0025681132 0.0970964 0.025089065 0.08161088
0.30313355 0.1498304 0.16248634 -0.17896017 0.28566945 -0.034036543 0.16527809 -0.15846048
-0.6336442 0.057105843 -0.077781394 0.012152865 -0.09445514 -0.026011407 -0.24944215 0.18959609
-0.44297513 0.058614507 0.010604827 0.21767452 0.10424199 0.014975758 0.08146418 -0.16947044
-0.18537983 0.28064945 0.0780961 0.25649524 -0.0025002658 0.13749866 0.084852725 0.055489674
-0.07341415 -0.25248834 0.11051559 -0.26913774 -0.016640818 -0.26445073 0.00079867983 0.33240485
-0.50008833 0.04977789 -0.028539216 -0.17334965 0.18577905 -0.69475454 0.07673244 0.012755092
0.001470864 -0.020587675 0.09877438 0.14869377 0.3540251 -0.3178767 -0.004722979 0.030787667
0.14738591 -0.27371624 -0.08992881 -0.05506324 -0.2066896 -0.13679853 -0.10871872 -0.11557085
00000000: 2aee 90bd 56ec df3c c1cb eb3c c996 2cbd
00000010: 09a3 393d 2c0d ef3c 70ce 523d 1d66 08bd
00000020: 75b4 313d 65b5 993d 435b 1dbd 52ef 80bd
00000030: 3613 943d 3cf4 d33b 74cd 643d 743d 1a3c
00000040: e2df 3b3d fa64 51bd ea48 353d f802 a23c
00000050: 8289 9abd 882f 2fbc b075 703c ad36 79bd
00000060: 3708 44bd 5464 44bc 4c6d a7bd 8c5c 97bc
00000070: 5c8e e83a 0ad1 8a3d 29ed a23d be90 a3bd
00000080: 6375 42bc 0f0a 203d f3fe 823d 4221 b2bc
00000090: a043 9ebc 95f4 8dbd 6aac 483d e94d 543d
000000a0: b8d1 b6bd 6e30 84bd 380c 8bbb c850 a6bd
000000b0: 69a9 b1bd 753c 3b3d 32a1 2c3d 6f1c beb8
000000c0: cabc f7bb d853 2f3d 90ed 49bc a782 2a3d
000000d0: f519 45bc df6b c6bd 1292 4f3d 9868 2fbd
000000e0: e8b0 bbbd 9247 8cbd d7d5 5fbd a686 90bd
000000f0: 672c 5e3d 4d62 ddbc 60d7 483d d85a da3c
00000100: af14 94bd fbdd 693b 1cd4 993d 796f 83bc
00000110: b110 acbd e4c2 f2bc 324b acbd 2aea 27bc
00000120: 3262 653d c6a0 a9bd ddad 9a3c 840a a9bd
00000130: f8f7 f73b bbc9 2bbd ab22 69bd 2e70 4ebd
00000140: e787 af3d 8c48 8ebd 35e3 5a3d ffd0 293d
00000150: 06f2 a1bd 74c2 9fbd 0f61 bbbd 75cb 763d
00000160: 25b7 343d d838 a2bd 957b 123d 1728 15bd
00000170: b6fa 20bd d84e b43c f444 0b3d d821 a0bd
00000180: 9f56 9b3d bb0f 783d 5cfb 6abd 2dac babd
00000190: f7fa cabd bc02 823d 0668 80bd 4cb4 93bc
000001a0: 80ea 94ba 8494 aabd a33f de3b c77f a1bd
000001b0: 23e9 28bd 9f51 22bd 5b08 833d 61e4 ea3c
000001c0: 352c 20bd c96d 32bd d68e 263c 32cf 1abc
000001d0: 64d8 3cbd cfb4 b4bd 6742 aabd a1c8 ffbc
000001e0: 9be6 023c 8a4d 62bd b5e9 2fbd 88dd 64bb
000001f0: 5abd 3d3d 6d08 963d 218b e0bc 049c 2d3c
00000200: 17a8 a23e a411 913d 0133 0d3e fd20 fd3d
00000210: c1b2 05be 3570 a23e 26cd 21bb 07c9 c0be
00000220: 6bbe 503d a4ab 773e 93cd bd3d fff3 a6bd
00000230: 12c2 9c3d 26d0 823e f7e1 0a3d 66b7 ff3c
00000240: 5c2b 55bd 4f7b 133d 5e15 d23e 5cc4 72bd
00000250: 22eb 433d 9918 46be f9e6 1ebe 2cad 653e
00000260: 1917 0e3e 72a5 ed3d a31b d63e 75d4 5bbe
00000270: ffd1 99be 0225 cfbd fb80 993c 4cbe a2bc
00000280: 6219 9e3d a1f4 503e fcf0 be3d ce8c af3c
00000290: 3b09 ab3e 5773 73bc 8c54 1d3d b020 4abe
000002a0: 153a b7be 626d 883d 6fd7 913c 0de4 6c3d
000002b0: cbfe 1e3d c19d 82be 566b ca3d d71c b5be
000002c0: ac97 033e 4942 953e 37ee a03e 5e5d 81be
000002d0: bcae 3a3e f8f0 5d3e 1c6b 9bbe 8913 a0bd
000002e0: c895 f83d 865c 2c3e 6e1c 703e 8d3c d3be
000002f0: ca4d 283b 7ada c63d 9587 cd3c 9b23 a73d
00000300: 5234 9b3e 246d 193e d262 263e 5641 37be
00000310: 4443 923e e769 0bbd a93e 293e 7743 22be
00000320: 8236 22bf d1e7 693d da4b 9fbd cf1c 473c
00000330: b271 c1bd e015 d5bc c36d 7fbe 7a25 423e
00000340: a3cd e2be c415 703d debf 2d3c 12e6 5e3e
00000350: d37c d53d e25c 753c b1d6 a63d a989 2dbe
00000360: 36d4 3dbe 49b1 8f3e d9f0 9f3d 5853 833e
00000370: 80db 23bb 73cc 0c3e 44c7 ad3d 2449 633d
00000380: 285a 96bd 2746 81be ff55 e23d 6ccc 89be
00000390: 5352 88bc 1666 87be 7f5e 513a f830 aa3e
000003a0: ca05 00bf e7e3 4b3d 13cb e9bc 9282 31be
000003b0: dd3c 3e3e 6fdb 31bf e625 9d3d bcfa 503c
000003c0: 02ca c03a 7ca7 a8bc 394a ca3d 2e43 183e
000003d0: c742 b53e bcc0 a2be 38c3 9abb 6b36 fc3c
000003e0: 55ec 163e 8924 8cbe 992c b8bd fe89 61bd
000003f0: 70a6 53be ea14 0cbe eca7 debd 69b0 ecbd

critic.2.bias f4 [64]
-0.0023015752 0.056750074 0.23335834 0.122490756 0.12325393 0.0017201285 0.12918794 -0.0058958894
0.025111202 0.27573308 0.014575306 0.14756311 -0.025659911 -0.052597277 0.06135013 0.06781076
-0.03447354 0.07008335 -0.03739851 0.033314306 0.091441646 0.086878166 -0.038484175 -0.08163653
0.06549509 -0.07608017 0.12157093 0.03762467 0.040484887 -0.0046543553 -0.03486488 -0.02774623
0.061126813 0.13872243 0.027487632 0.2637115 -0.0016099765 0.06238458 -0.022343244 -0.030681284
-0.030131279 -0.042762883 0.13232484 0.13836153 0.060676225 -0.064971484 -0.0026528582 0.30509853
0.0053676693 -0.047307976 -0.08859207 -0.091313496 0.063813664 0.012952466 -0.08535996 0.20371762
-0.010547661 0.037929747 0.08374652 0.11101208 0.054083172 -0.032741353 0.03754714 0.016656537
00000000: 06d6 16bb c472 683d 7df5 6e3e 6fdc fa3d
00000010: 8e6c fc3d ef75 e13a d849 043e 4e32 c1bb
00000020: 02b6 cd3c e32c 8d3e 44cd 6e3c c91a 173e
00000030: bc34 d2bc 3e70 57bd 464a 7b3d 5ee0 8a3d
00000040: 2034 0dbd dc87 8f3d 2e2f 19bd 9574 083d
00000050: c245 bb3d 2eed b13d 95a1 1dbd 0e31 a7bd
00000060: 4a22 863d eccf 9bbd 2efa f83d 531c 1a3d
00000070: 7bd3 253d 9083 98bb 7ace 0ebd 104c e3bc
00000080: 1c60 7a3d 410d 0e3e be2d e13c 3205 873e
00000090: d905 d3ba f986 7f3d 2e09 b7bc 5157 fbbc
000000a0: dfd5 f6bc 2228 2fbd 2a80 073e a5ae 0d3e
000000b0: a287 783d c50f 85bd 93db 2dbb e035 9c3e
000000c0: 46e3 af3b 02c6 41bd c26f b5bd 9202 bbbd
000000d0: bdb0 823d 9436 543c 34d1 aebd 5a9b 503e
000000e0: 19d0 2cbc 395c 1b3d 4c83 ab3d 4d5a e33d
000000f0: 5186 5d3d cc1b 06bd 08cb 193d 4a73 883c

critic.4.weight f4 [64, 64]
0.00073486567 -0.08375853 0.34494415 0.28976342 -0.20954537 0.14110814 0.3249571 -0.10538283
-0.020142928 0.4963799 -0.0032457476 0.3131684 -0.15820445 -0.017489485 0.10325058 0.031862516
-0.016190697 0.10972775 0.06527628 0.031812213 0.20698775 -0.25500593 0.011252105 -0.23662594
0.07507244 0.049468897 0.32584557 0.12754631 0.28412324 -0.06184086 0.2925074 -0.023706203
0.14151238 -0.37705126 -0.09662419 0.47068888 -0.19175579 -0.028251082 -0.08319525 -0.03237025
-0.03067187 0.29029953 0.28210694 -0.1576425 -0.054246303 -0.09999415 -0.15580182 0.3105701
0.08009622 -0.22743247 -0.042661738 0.02226766 -0.03962504 -0.29068187 0.09039754 0.36336657
0.20687397 0.20795053 0.006106434 -0.26067865 0.012110503 0.11298541 0.13400747 -0.40385845
0.06640674 -0.14140342 0.02778554 -0.06878725 0.016187567 -0.115484394 -0.05236513 -0.07184809
0.06934394 -0.060479622 0.037021466 0.012750913 -0.11410032 -0.10431291 -0.08149855 0.083294794
0.056095455 -0.090585925 -0.09352774 -0.16880444 -0.13541298 0.012396147 -0.121712714 -0.12718993
0.0130469985 -0.1053091 0.06473164 0.003666527 -0.014783823 0.09747104 0.027540736 -0.022399683
0.029238785 -0.09797279 -0.055464678 0.033388052 0.14031027 0.08604227 -0.031865176 -0.046202455
0.020559616 -0.09056884 -0.12338836 -0.05470906 -0.008269009 0.06710966 -0.075680256 -0.102492884
-0.105368525 0.061257504 0.028762499 -0.111500144 0.059879486 -0.053426333 -0.10262641 0.11176415
-0.04446976 0.120357886 -0.041955356 -0.048222363 -0.09941364 -0.12898704 -0.07505434 -0.11365352
-0.055271924 0.28359187 0.051905848 -0.16130756 0.4302436 0.16106278 0.1959745 0.1190608
0.0002118559 -0.020760639 0.2742597 -0.13781285 0.30731264 0.41532168 0.21670525 0.33618703
0.3693608 0.20765243 0.21205562 0.10137591 0.21787177 0.23420253 0.04286962 0.3071046
0.3066282 -0.0077185044 -0.20021111 0.25384182 0.2194948 -0.10172505 0.22014855 0.17835177
0.22529559 0.28399324 0.11746144 -0.38978463 0.21060807 0.11707534 0.3423628 0.25922912
0.097307436 -0.56920165 0.18985175 0.3184089 0.12526245 -0.047071144 0.3621207 -0.3362563
0.21348462 0.36524996 0.16816418 0.17456728 0.30059013 0.39179903 -0.042612698 0.21146312
0.29630163 -0.17168888 0.28248146 0.22166125 0.15161824 0.28091824 0.18856734 0.56567144
-0.1110782 0.23898688 0.09416666 -0.041967496 0.44039303 0.11014291 0.041048776 -0.0551818
0.116885014 0.12726007 0.20729788 -0.10803162 0.23470598 0.37948748 0.22653626 0.32789084
0.35336718 0.11437897 0.17201214 0.2629298 0.22609837 0.42396793 -0.05339001 0.24921004
0.17331578 0.035020087 -0.34114715 0.2589814 0.16394313 0.09414676 0.22329304 0.28910074
0.2200054 0.290907 0.12165646 -0.2488808 0.3472885 0.08660836 0.25812203 0.20991501
0.25523466 -0.501564 0.1933823 0.57456416 0.32669014 -0.064080074 0.19689032 -0.20804888
0.21927772 0.3479795 0.25475705 0.048340533 0.27943778 0.49378982 0.07165575 0.08386179
0.19346671 -0.2792532 0.069405414 0.42202958 0.083606474 0.25224593 0.06572879 0.57520986
00000000: 00a4 403a 9889 abbd 859c b03e df5b 943e
00000010: 1093 56be a77e 103e c760 a63e f4d2 d7bd
00000020: c802 a5bc 8225 fe3e 9cb6 54bb 9c57 a03e
00000030: 5900 22be 1c46 8fbc 0a75 d33d 4582 023d
00000040: 5aa2 84bc f1b8 e03d 92af 853d 864d 023d
00000050: 99f4 533e 2390 82be c05a 383c 124e 72be
00000060: 94bf 993d e69f 4a3d 3bd5 a63e 809b 023e
00000070: 9a78 913e d74c 7dbd 88c3 953e 8333 c2bc
00000080: 9fe8 103e dd0c c1be e7e2 c5bd 22fe f03e
00000090: a15b 44be d06e e7bc 4562 aabd ab96 04bd
000000a0: 9343 fbbc 24a2 943e 5270 903e 096d 21be
000000b0: 5f31 5ebd bcc9 ccbd 838a 1fbe 0b03 9f3e
000000c0: 7d09 a43d 0fe4 68be 13be 2ebd ab6a b63c
000000d0: de4d 22bd 41d4 94be 5822 b93d 2f0b ba3e
000000e0: c5d6 533e fcf0 543e 7b18 c83b ac77 85be
000000f0: 226b 463c e564 e73d 4139 093e 89c6 cebe
00000100: 4200 883d 0fcc 10be 809e e33c 54e0 8cbd
00000110: ca9b 843c 1583 ecbd d27c 56bd 1725 93bd
00000120: 3204 8e3d 7bb9 77bd d2a3 173d 35e9 503c
00000130: 6ead e9bd 02a2 d5bd b6e8 a6bd 7696 aa3d
00000140: 59c4 653d 1d85 b9bd 798b bfbd 12db 2cbe
00000150: b3a9 0abe 3519 4b3c 8444 f9bd 143e 02be
00000160: 14c3 553c 4cac d7bd 0692 843d 1e4a 703b
00000170: d937 72bc e69e c73d 1c9d e13c 8a7f b7bc
00000180: 2d86 ef3c f5a5 c8bd ee2e 63bd e9c1 083d
00000190: 7fad 0f3e ee36 b03d 0f85 02bd c93e 3dbd
000001a0: a46c a83c 287c b9bd 09b3 fcbd 9b16 60bd
000001b0: bd7a 07bc ca70 893d 40fe 9abd cae7 d1bd
000001c0: 74cb d7bd 26e9 7a3d 559f eb3c 305a e4bd
000001d0: 3144 753d 92d5 5abd cc2d d2bd 9ae4 e43d
000001e0: ec25 36bd 327e f63d 61d9 2bbd d084 45bd
000001f0: 6199 cbbd 2e15 04be 17b6 99bd 2dc3 e8bd
00000200: d064 62bd f432 913e 3a9b 543d cf2d 25be
00000210: e448 dc3e a4ed 243e 8aad 483e 26d6 f33d
00000220: a325 5e39 3712 aabc c46b 8c3e d01e 0dbe
00000230: 1558 9d3e 0ba5 d43e fbe7 5d3e b520 ac3e
00000240: dc1c bd3e d7a2 543e 1c25 593e 2c9e cf3d
00000250: c719 5f3e cad2 6f3e 0e98 2f3d d03c 9d3e
00000260: 5ffe 9c3e 82eb fcbb 2404 4dbe 8ef7 813e
00000270: 3fc3 603e 3955 d0bd 9f6e 613e d9a1 363e
00000280: e3b3 663e 9067 913e a08f f03d da91 c7be
00000290: a4a9 573e 32c5 ef3d 2d4a af3e aeb9 843e
000002a0: 1f49 c73d 33b7 11bf 7f68 423e 7e06 a33e
000002b0: cd44 003e accd 40bd e267 b93e c929 acbe
000002c0: b69b 5a3e 0b02 bb3e 3b33 2c3e c4c1 323e
000002d0: f3e6 993e e299 c83e a78a 2ebd ca89 583e
000002e0: d9b4 973e 36cf 2fbe 69a1 903e 2bfb 623e
000002f0: d041 1b3e 84d4 8f3e cc17 413e d8cf 103f
00000300: f87c e3bd fab8 743e 73da c03d 1ce6 2bbd
00000310: 327b e13e 9b92 e13d c322 283d 5006 62bd
00000320: 6961 ef3d 7750 023e e545 543e af3f ddbd
00000330: c456 703e 2f4c c23e 1ff9 673e 4fe1 a73e
00000340: 8bec b43e 853f ea3d f323 303e bc9e 863e
00000350: 5586 673e 5312 d93e 7caf 5abd eb30 7f3e
00000360: b179 313e 3971 0f3d d7aa aebe 3699 843e
00000370: b5e0 273e 04d0 c03d eea6 643e 0305 943e
00000380: 1849 613e c3f1 943e 0627 f93d 9cda 7ebe
00000390: cccf b13e b95f b13d 9228 843e f6f3 563e
000003a0: 1eae 823e 8066 00bf 0206 463e a316 133f
000003b0: ee43 a73e 6a3c 83bd 9e9d 493e c40a 55be
000003c0: 578a 603e 5e2a b23e 846f 823e b900 463d
000003d0: 7812 8f3e 05d2 fc3e 40c0 923d bbbf ab3d
000003e0: 231c 463e 47fa 8ebe 6d24 8e3d 4314 d83e
000003f0: df39 ab3d 6126 813e d19c 863d f440 133f

critic.4.bias f4 [64]
0.22264686 -0.10841566 -0.11105158 -0.022034457 -0.020061478 0.15689188 -0.06748484 0.21990867
0.04314335 -0.09885704 0.37930793 0.017541988 -0.034864306 -0.07054358 -0.054236908 -0.048036512
0.29718992 -0.06931479 0.07474131 -0.12197688 0.44078752 -0.10935682 0.063662075 0.10582434
-0.04500212 -0.051260334 -0.02217143 0.22978681 -0.103004865 -0.05522821 -0.03438975 0.024265157
0.021050429 0.07192198 -0.010115968 0.026259508 0.09580873 -0.11978317 0.33086255 0.0949036
0.045104604 -0.11262998 -0.036221173 -0.13358296 0.063339084 -0.022011267 0.32182077 0.03644171
0.079347625 -0.025754124 -0.0064271144 0.093419105 -0.036766052 0.32948738 -0.055591132 -0.033569135
0.09296843 -0.09466414 -0.15172526 0.0693172 0.022216342 -0.019569382 0.3599754 0.27853054
00000000: 8afd 633e 0809 debd 036f e3bd 9b81 b4bc
00000010: f857 a4bc 44a8 203e 7e35 8abd bd2f 613e
00000020: 15b7 303d 8f75 cabd a634 c23e 37b4 8f3c
00000030: e0cd 0ebd 2779 90bd 8527 5ebd efc1 44bd
00000040: 4729 983e eaf4 8dbd f911 993d 04cf f9bd
00000050: e7ae e13e 78f6 dfbd 4361 823d 6eba d83d
00000060: 2554 38bd 5bf6 51bd dca0 b5bc 3c4d 6b3e
00000070: 37f4 d2bd fa36 62bd 44dc 0cbd b9c7 c63c
00000080: f371 ac3c d54b 933d 72bd 25bc 2e1e d73c
00000090: 5e37 c43d e150 f5bd d166 a93e d25c c23d
000000a0: 9bbf 383d 8caa e6bd a75c 14bd f9c9 08be
000000b0: ecb7 813d f950 b4bc b1c5 a43e e743 153d
000000c0: 0281 a23d 50fa d2bc 8b9a d2bb 8452 bf3d
000000d0: 0098 16bd 92b2 a83e 87b3 63bd ca7f 09bd
000000e0: 3b66 be3d 46df c1bd de5d 1bbe 2df6 8d3d
000000f0: 0cff b53c f84f a0bc b24e b83e 8e9b 8e3e

critic.6.weight f4 [1, 64]
0.4204029 -0.041508276 -0.28194416 -0.28127244 -0.36759904 0.3706062 -0.3500223 0.49215114
-0.28027034 -0.25167048 0.36218277 -0.35993308 -0.32716995 -0.3552759 0.020486364 0.034217957
0.38290897 0.038313188 -0.30674168 0.11887361 0.34297928 -0.29594114 -0.38007605 -0.25699466
0.04747155 -0.13327585 -0.3486336 0.358169 -0.28004846 -0.39267078 -0.14883296 0.038585186
0.0952602 -0.31226346 0.034702726 0.043284148 -0.33154055 -0.03909783 0.41039056 -0.3578033
-0.29143456 -0.01042352 0.053611007 -0.41337448 -0.27625224 -0.3047642 0.42117605 -0.09038528
-0.33547208 -0.2783813 0.10817524 -0.3830918 0.022421718 0.32312685 -0.28325498 0.046970908
-0.33776268 -0.3444558 -0.30167505 0.0011021617 -0.164864 -0.12686424 0.36698195 0.48505932
00000000: 0d3f d73e 9504 2abd fc5a 90be f102 90be
00000010: f135 bcbe 19c0 bd3e 1f36 b3be 3cfb fb3e
00000020: 987f 8fbe f4da 80be 0570 b93e 2649 b8be
00000030: d282 a7be b9e6 b5be 05d3 a73c 2128 0c3d
00000040: a50c c43e 4aee 1c3d 3f0d 9dbe 0274 f33d
00000050: fb9a af3e 9985 97be 5499 c2be ce94 83be
00000060: 8771 423d 7779 08be 1a80 b2be ed61 b73e
00000070: 8362 8fbe 250c c9be ab67 18be 800b 1e3d
00000080: c817 c33d ffe0 9fbe 7224 0e3d b84a 313d
00000090: afbf a9be 0c25 20bd b61e d23e fe31 b7be
000000a0: e936 95be 69c7 2abc 3797 5b3d d2a5 d3be
000000b0: ef70 8dbe 0e0a 9cbe 63a4 d73e eb1b b9bd
000000c0: ffc2 abbe fe87 8ebe fb8a dd3d 9c24 c4be
000000d0: c0ad b73c e270 a53e cc06 91be 9164 403d
000000e0: 3bef acbe 835c b0be 2775 9abe 6976 903a
000000f0: 1cd2 28be b3e8 01be 0fe5 bb3e b259 f83e
