experiments/LunarLander-v2_AC/dqn.pth (torch, 96827 bytes, 13 tensors)

actor.0.weight f4 [128, 8]
00000000: c007 5a3f 67cd 033f 833d 663f 1819 dcbe
00000010: 093b c2bd 8380 33bf 0226 92be 7b0e d03e
00000020: d9f4 04be 385a d13e 622d 4a3d 019d 65bf
00000030: 22c8 dc3f 73cf bd3f fb6f 2abe 1539 b53e
00000040: 6437 953e b6bd 2fbf f726 49bf a37f 283f
00000050: 4345 283f a590 cebe 5a5f 42be 5d36 c33e
00000060: d6d7 a6bd d03d a93e 9c64 263f f75a a2bf
00000070: 4da6 a1bd 7022 ba3e 3173 c9bd cd15 fdbe
00000080: 8d37 0ebf 793e 59be 372c e1be 4bba 983d
00000090: f963 9e3f 2451 ad3f f6db fa3e d607 9bbe
000000a0: 795a 1d3f 7af1 113f 019f 433f b428 843f
000000b0: 73e4 bebf 3a11 99bf b9cc 0bbf de45 3fbf
000000c0: c99e 26bc 0aa3 813e 2091 533f cb50 973f
000000d0: 97c6 16bf 0f0a a8bc 6846 0cbf 27c4 093d
000000e0: d9d0 47bf 6821 23be d9ff 1abf 5c4e 8cbe
000000f0: 7f6b 74bf 87b7 6cbd 41b4 13bf 21a1 773d
00000100: 1951 65be 733a 683f b408 87be fbbc 5b3f
00000110: 6243 593e b079 cfbd fa2d 2abf 5e13 f83e
00000120: 55c9 84be 313f 92be 7d78 59bf 3490 f93e
00000130: 097a b63f 316c 2d3f de31 88be 87bb babe
00000140: 3376 7d3e 8776 acbe 16df 763f a3c5 b9bd
00000150: 4ad4 043f 7bc4 593f 78a7 5e3f 2ebf 5f3f
00000160: 8f6b 3cbf c453 65bf c967 50bf a362 22bf
00000170: 1c10 48be d7bf 223f 4795 3d3e 9bd2 d4bd
00000180: a985 193f 0d1e fb3e 9688 fb3c 6ec9 873f
00000190: 5f23 833e 0501 4d3c 5226 023f c2c2 f43d
000001a0: b21e fe3e 309e 423e a194 da3e cdc7 8bbe
000001b0: 8156 f2bf 53dc 53bf be2e 29bf f98e 33bf
000001c0: 229b 14bf 2f94 333f c94b a63e d17a 253f
000001d0: 96be 46be 5050 213f 9182 f5bd 8778 e7bb
000001e0: cd5e 1cbf 4ab8 a03e 1866 03bf f192 5bbf
000001f0: 337c a9bf 5b29 96bf 1fe0 3bbf b14c 14bf
00000200: 091c 493f 773e 5bbf 2727 513e 3dff 5f3c
00000210: efb5 19be 899f 4e3f cccd 18bf 41ab bfbe
00000220: 0a4e 80bd 6d4a 93bd 4b4d 89bf 691a 823f
00000230: 37fa 11bf f7dd 273f c2b8 593f b866 9b3e
00000240: 8404 bb3e 22ac a73e 710c b63d 44dc 5f3f
00000250: 0442 f9bf 51a0 a0bf 2c89 013f 30c3 22bf
00000260: b309 4bbf cd6e 4bbf 052d 6cbf d1ba d83e
00000270: 983c a03e cce9 c83e 9a33 97bd 7d06 103f
00000280: bf0b a9be 2fb9 703e c473 2abf 72f4 333e
00000290: 64b9 0bc0 d77f adbe 69b9 373e b1d8 1e3f
000002a0: df12 f13e e6a9 07ba e84c 19be 0619 fa3e
000002b0: 34bd 9dbf 7f76 b7be 3307 e63c 4f37 103f
000002c0: 5813 3cbf ae0b c6be b962 94be d18c 39be
000002d0: 0a01 c53e f89c 16bf 6eb4 5d3f 379d a6be
000002e0: 29c0 283f 914b c9be 0e6c 1fbf df55 773f
000002f0: 27b6 97be 8ca9 11be 377e 3cbf e36b 323f
00000300: dc2e 43bf 8992 86bf 660b 04bf a912 583e
00000310: ad1c 41be a995 433f ade1 3b3f 670b 2d3f
00000320: b90b 6a3d 8bc8 083f 3758 823e 040d fbbc
00000330: ffc4 cc3f 68bd b03f 23d6 8abd 0d2f 2abe
00000340: ba64 283c 800d c23e 27c8 033f fef4 97bc
00000350: 8ee4 d43f f2c6 16bd 9367 f23e c59e e33c
00000360: 4b70 27bf 4c16 133e 3b4d 97be ce6b 10bf
00000370: 6749 28bd d3bc 763f f56e ab3e 6da7 423f
00000380: 503e d73e 9f36 233f c163 90be 15a5 c53e
00000390: c1a5 c23f 67a4 993f 5079 483f 31cb 0cbe
000003a0: 8d3c 073f 5fa5 7e3e 2ef0 c63e e57f 8dbf
000003b0: 8fd8 3e3f 823b 633f eccf 45be 8e4f 603f
000003c0: 482c 31be 8ae4 80ba 9a09 203f 0395 7c3e
000003d0: f164 73bf 720d 143e 75ee d43e 6464 173f
000003e0: 1c1a b9be 1c21 1bbe b0bc 223c 8092 e63e
000003f0: dd76 f4bf 0f04 59bf 8c71 2cbf b6ce 373f
0.85168076 0.51485294 0.8993761 -0.42987895 -0.09483916 -0.7011797 -0.28544623 0.40636048
-0.12984027 0.40889144 0.049359687 -0.89692694 1.7248576 1.4828933 -0.1664428 0.35395113
0.29143822 -0.6864885 -0.7857508 0.6581976 0.65730685 -0.4034473 -0.18981686 0.38127413
-0.08146636 0.33054972 0.6499727 -1.268401 -0.078930475 0.363544 -0.09836424 -0.49430695
-0.55553514 -0.21215238 -0.43979046 0.074574076 1.2374259 1.3540387 0.48995942 -0.30279416
0.61466175 0.5700909 0.76414496 1.0324922 -1.4913467 -1.1958382 -0.54609257 -0.74715984
-0.010169693 0.253197 0.8264332 1.1821531 -0.58896774 -0.020512609 -0.5479493 0.03363433
-0.7805305 -0.15930712 -0.6054664 -0.27403533 -0.95476526 -0.057792213 -0.5769692 0.0604564
-0.22394218 0.90714186 -0.26373827 0.85835236 0.21217111 -0.10130632 -0.66476405 0.48452276
-0.25934854 -0.28563836 -0.84949476 0.4874283 1.4255992 0.6774321 -0.26600546 -0.36471197
0.2475212 -0.3368418 0.9643415 -0.09070899 0.5188643 0.8506543 0.8697429 0.8740109
-0.7360162 -0.8958094 -0.81408364 -0.6343176 -0.19537395 0.63573974 0.18513976 -0.10391732
0.59969574 0.49046364 0.030704778 1.0608346 0.25612924 0.01251245 0.5083972 0.119512096
0.49632794 0.19005656 0.4269152 -0.27300873 -1.8932649 -0.82758063 -0.6608695 -0.70140034
-0.58049214 0.70147985 0.32479694 0.6464053 -0.1940864 0.6301317 -0.11987794 -0.0070639285
-0.61082155 0.313906 -0.5132766 -0.8577109 -1.3241028 -1.1731371 -0.73388857 -0.5792952
0.78558403 -0.8564219 0.20425092 0.013671693 -0.15010808 0.8071218 -0.5968902 -0.37435344
-0.06264885 -0.0719193 -1.0726713 1.016431 -0.5702242 0.65573066 0.85047543 0.30351806
0.36526883 0.32748514 0.08889092 0.87445474 -1.9473271 -1.2548925 0.5059993 -0.6357908
-0.79311675 -0.79465944 -0.92256194 0.4233003 0.3129623 0.39240873 -0.07382889 0.562599
-0.33016774 0.23508142 -0.66582894 0.17573717 -2.1831903 -0.33886597 0.17941822 0.62049395
0.4708471 -0.0005175158 -0.14970744 0.48847216 -1.2323365 -0.35832593 0.028079605 0.56334394
-0.73467016 -0.38680786 -0.2898157 -0.18120123 0.38477355 -0.58833265 0.8660344 -0.3254182
0.65918213 -0.39315465 -0.62274253 0.96615404 -0.2963116 -0.14224833 -0.7363009 0.6969587
-0.76243377 -1.0513469 -0.5157989 0.21100868 -0.18858595 0.7640024 0.7339123 0.67595524
0.057140086 0.53431004 0.25457928 -0.030645855 1.5997618 1.3807802 -0.067791246 -0.16619511
0.010277921 0.37900925 0.51477283 -0.018549439 1.6632249 -0.036810823 0.47344646 0.027785668
-0.6540572 0.14363974 -0.2955111 -0.56414497 -0.041085627 0.9638187 0.3348309 0.7603672
0.42039728 0.6375522 -0.28201106 0.3860251 1.5206834 1.2003297 0.7831011 -0.13749386
0.5282677 0.24867772 0.38855118 -1.1054655 0.7454919 0.88762677 -0.19317597 0.8762139
-0.17302048 -0.0009833735 0.6251465 0.24666218 -0.950759 0.14458254 0.41588178 0.5913756
-0.36152732 -0.15149349 0.009932682 0.45033646 -1.9098774 -0.8477182 -0.6736076 0.7179979

actor.0.bias f4 [128]
00000000: 6556 67be 4f7c 173d 16fa f63c 27da 923d
00000010: 4ddb 883e 7a06 873e fe1f c63d 57c8 4ebe
00000020: a863 053d 5eb3 a43e 7278 543d 3532 f5bd
00000030: 7bab a43c 361d 8b3d 37e8 0ebc 6e39 29be
00000040: 2b30 623e c5c1 203e d633 bd3e 6025 55be
00000050: 63a0 153e c167 c53e 3999 4dbe 94d4 0e3d
00000060: f322 2a3e c759 a13d 1207 6c3e f28e 20be
00000070: 1e97 4cbe a85e 66be 90bd 8c3e f3ae e53e
00000080: caa1 453e 10a8 1d3e 2e6e 553e 1b9e 803e
00000090: 684f 903d a2b5 01be b5ca 89be e888 fc3d
000000a0: 0f3b ba3e 5593 06bd 61e6 ab3d d72c 21be
000000b0: 76bf c43e 4b2a adbd c326 8c3d f920 2bbe
000000c0: 2048 7bbe ef95 4a3d ae93 333e b7b6 94bd
000000d0: 0251 203d d326 643e db84 cebc 19d2 b63a
000000e0: 2acb 11be d042 32be b070 903e 0b88 be3b
000000f0: 7b6b 91bd 5c3d ccbd 57f0 97be 6fe7 3c3e
00000100: e761 883e 29f8 d33c 05db 24be c240 bfbd
00000110: 6fea f7bc 32f2 233e fb1d c43e 26a5 8fbe
00000120: 082a c53d d6a3 cd3e 7739 d73d 178e 033e
00000130: 6ea1 a73d 3a76 2d3b 7123 103e c637 fb3c
00000140: d363 a4bc 1f71 813e 61e7 0a3e 9881 ecbd
00000150: 9b52 7fbe c603 43be 56b4 aabc 8b04 8a3e
00000160: 09d9 413e ee9c 5b3d 10f4 2b3e 11b8 b03d
00000170: 7cb7 16be 3a95 903e 85f0 acbe 36d7 3dbe
00000180: 4a9e db3d f7d2 353e 1f43 813e dcbd 713e
00000190: e99f 7e3e e02f eb3e 69d5 f5bd f43b 303d
000001a0: 624e 063e 57d2 57bd c511 abbe dc76 cebe
000001b0: 0084 c63e 9713 71bc d903 2f3d cf30 26be
000001c0: 6e2c 2d3e 17fc 513e 437e 17be e891 d73d
000001d0: 3e3a 973c 97fe a93d aa16 b3bd 2f99 4eba
000001e0: 79aa 833e c88d a83b 8d50 983e a8dc 78be
000001f0: 0f80 01be 441a 773d 7e61 493e 481b e0bd
-0.2259155 0.036983784 0.030148547 0.071705155 0.26729813 0.2637213 0.09674071 -0.20193611
0.032565743 0.32168096 0.051872678 -0.11972467 0.0201013 0.06792681 -0.0087223565 -0.16525814
0.22088687 0.15698917 0.3695361 -0.20815039 0.14611964 0.3855572 -0.20077981 0.0348707
0.16614895 0.07878452 0.23049572 -0.1567953 -0.19979522 -0.22497046 0.27488375 0.44860038
0.19299999 0.15396142 0.20842811 0.25120625 0.070463955 -0.12666944 -0.26912466 0.123308
0.36373183 -0.03285535 0.08393551 -0.15739761 0.38427323 -0.08455332 0.06843331 -0.16711797
-0.24539232 0.049459394 0.17536804 -0.072614126 0.039139755 0.22280435 -0.025209835 0.0013948112
-0.14237657 -0.174083 0.28210974 0.0058145574 -0.071005784 -0.09972641 -0.29675552 0.1844766
0.26637194 0.025875168 -0.16099174 -0.093385234 -0.030263154 0.16010359 0.38304123 -0.28055686
0.096271574 0.4016406 0.105090074 0.12847172 0.08185087 0.0026468174 0.1407602 0.030666243
-0.020067131 0.25281617 0.13564827 -0.115481555 -0.24933855 -0.19044408 -0.020837944 0.2695659
0.18930449 0.053616457 0.16792321 0.08628858 -0.14718431 0.2823885 -0.33777252 -0.18539128
0.107235506 0.17756258 0.25246522 0.23607582 0.24865688 0.45934963 -0.120035954 0.043025926
0.13115838 -0.05269083 -0.33411995 -0.40325058 0.38772583 -0.014714143 0.04272828 -0.16229557
0.1691148 0.20506321 -0.14794259 0.10525876 0.01846039 0.08300512 -0.08744557 -0.00078811025
0.25715998 0.0051438548 0.29748955 -0.24302924 -0.12646507 0.060327783 0.19666097 -0.109427035

actor.2.weight f4 [64, 128]
00000000: 19a0 a3bc 1102 853d 5a6f d23c abb5 4d3e
00000010: 0268 6bbd 3d35 743d fd6d 0bbf c717 0c3c
00000020: 2941 0ebe 812e c63d 77db 183d a8d0 c03e
00000030: c0d0 403d 1d6f 7fbb e060 c43c f2da ed3d
00000040: bd25 76bc 9356 06be d832 8fbd c05b 4d3e
00000050: 57a8 b6be e6d4 8dbd 105d 8d3e 3f10 dabc
00000060: bede 043d f7c6 c5bc f949 a33d 5344 4ebd
00000070: 8202 1d3e bfa6 5a3e e7cc 35be bc4d aabe
00000080: 74a4 443e f3ff 9f3d 3101 c13e 422d 9dbe
00000090: 1fe3 c6bd fdaa b43e 94c9 31be e01f f3bc
000000a0: a0ad 5bbd ee31 303e a6b0 333e 445b de3d
000000b0: ec3c fb3d 775e 71be f969 6f3e b625 353d
000000c0: 988a 9f3d 8c14 d93d 2e03 bdba 4ee0 943d
000000d0: 1b78 043e 94c1 babd 9580 c53d 3ca5 913b
000000e0: c46a 253e 6e27 69be 3a83 5bbe 78c3 a73d
000000f0: e6d3 92bd 1d0b 0c3e 0b46 b63c 75b4 823e
00000100: 3074 da3d 8a31 45be d831 cebd f09f 4fba
00000110: 7556 053e ef13 82be c264 b13e ba1c bb3e
00000120: 99f8 c73b d4e6 c9bc 9b4d 93bd 8836 e2bd
00000130: 65cf 073e 9fab a5bc df46 4a3e fe04 983d
00000140: e9c7 723e 5212 af3d d24c 173e a2a7 c43d
00000150: 643f ebbd 4fcd 09bf 6ac5 203e 85bd 21be
00000160: 6dfb 9f3d ccca a53d baa6 e4bd 73ac cabe
00000170: c251 3dbe 7836 5c3d b9b9 54be b3c2 7cbe
00000180: 677e 1c3e d356 fcbd fdd1 8c3e d96d e33d
00000190: 9fc4 45be 87c2 43bc f142 ac3e 22fb 933d
000001a0: 3193 aa3d d3ee 84be 4177 e83d 405c 183e
000001b0: ac34 16be a23b b2bc ddf3 26be b5fc 513d
000001c0: 8d9a 3b3d d8d8 f4bc d94a 9cbd ef46 0e3e
000001d0: e11e 5b3d 2270 ca3e a8fe 8f3d aeba c23e
000001e0: 683a 92bc ed33 813e 3e3d 2a3e dd53 f8be
000001f0: f560 c83d bd8c 2e3e d241 a0bd 17b3 963e
00000200: 87c0 62be d3e5 b23e 921f 5b3d 43c7 9c3e
00000210: afc5 74bd 445a 8abe 009d 46be 2600 273e
00000220: cbda b43d f8ff 893e a753 11be 3f6b 04bd
00000230: 8944 8bbe abb6 463d 487f 01bc 4bb7 f6bd
00000240: 1880 693e 3762 9abe ce09 92bd 5db0 34be
00000250: 8a24 60bd 8ac9 63be fcd4 4dbe 6397 fbbd
00000260: 8581 803c 8e29 443e c8fd 81bb 5aa4 16be
00000270: db95 bb3c 7bdd d93d c0c1 aebd f1d9 97bd
00000280: 7990 343e 195c 853d 2132 2abe e46b 0ebe
00000290: 8ce8 04bd 6f4d 943e 0cf1 59bb 36c9 22be
000002a0: 7ed7 463e 0e52 38be 62d3 fa3d 3198 2a3d
000002b0: 9f6b 1c3e 77b0 123e a0ae a83d 4867 96bd
000002c0: ef8a a63d 9bfc 94bc b6eb 64bd 50ad 7c3c
000002d0: 36b2 92bd 33b4 62bd 1ce9 413e a888 0c3b
000002e0: fdc3 403e 09c2 24be 03a6 8ebe 6a88 69bd
000002f0: 4931 10be a2a4 9cbc f93f 60be 2767 8dbc
00000300: 466d 4dbd 4a58 e6bc 0435 7b3d e9e1 22bd
00000310: 140d a4bd bb32 88be e466 b73d e721 76be
00000320: aba6 f8bc b6c4 5a3d 4986 00be 3f08 d3be
00000330: 8f31 733e 6008 223e ce83 a43c c938 503e
00000340: e87e 5ebd c744 443e 0570 cc3d 3385 02bd
00000350: 312e 313e b3ef 7d3d 9da9 403e 6ea2 893d
00000360: 7e2d 6c3e 87d6 86bd d972 f3be cf5d 42be
00000370: 5a66 413e f4d9 5d3c 38ea 3bbe 6c44 e3bd
00000380: b410 593d e9ef 7a3e 55b8 1fbd 0754 aa3e
00000390: 1056 52bd ea9d 0bbd 3a28 ca3c 863e 603e
000003a0: fce5 a0bd cb00 85be 7ee8 713d 3cf0 f43c
000003b0: 0c5d 223e a927 93bc 3d7f b43d 3344 ce3d
000003c0: 15d0 0d3a 131a 23bd 7875 053e ea88 b8bd
000003d0: 95ff 123f 4874 64be 478d 2abc 3d65 54be
000003e0: 016e c0bd 9d5d 13bd fccd f1bb 9f28 4ebe
000003f0: 76ce ecbd a2ec b93d 6435 8d3e 9bb4 7b3e
-0.019973801 0.06494535 0.025687862 0.20088832 -0.057472236 0.059621084 -0.54464704 0.008550591
-0.13892044 0.09676839 0.037318673 0.37659192 0.04707408 -0.003897614 0.023971975 0.11614026
-0.015023646 -0.13118963 -0.069921196 0.20054531 -0.35675308 -0.06925373 0.27610064 -0.026619075
0.032438986 -0.024142725 0.079730935 -0.050358128 0.15332988 0.21352671 -0.17753945 -0.33262432
0.19203359 0.0781249 0.3769622 -0.3069859 -0.09711289 0.35286704 -0.17362052 -0.029678285
-0.05363238 0.17206547 0.17547855 0.10857251 0.12267479 -0.23571192 0.23380269 0.044225417
0.077901065 0.10599622 -0.0014420503 0.07269345 0.12936442 -0.09118953 0.09643666 0.0044447463
0.16154009 -0.22768947 -0.21436778 0.081915796 -0.07169323 0.13676114 0.022250196 0.25528303
0.10666692 -0.19257179 -0.10068101 -0.0007920256 0.13021262 -0.25405833 0.34647185 0.36545354
0.006102633 -0.0246462 -0.071925364 -0.11045557 0.13262708 -0.020223437 0.19753598 0.07422827
0.23709072 0.08548416 0.14775398 0.09602286 -0.114867 -0.538289 0.15700307 -0.15794952
0.078116275 0.08095321 -0.11164613 -0.39584693 -0.1848822 0.053762883 -0.20773973 -0.24683647
0.15282594 -0.12321248 0.27503958 0.11104936 -0.19313286 -0.011948234 0.33644822 0.07225634
0.08328856 -0.25963458 0.11350871 0.1487894 -0.1466853 -0.02175695 -0.16303964 0.05126639
0.045801688 -0.029888555 -0.076314636 0.13894247 0.053496245 0.39538676 0.07030994 0.3803305
-0.017850116 0.2523493 0.16624925 -0.48501483 0.09784118 0.17045875 -0.07825054 0.2943351
-0.22143756 0.34940967 0.053496905 0.30620775 -0.05975884 -0.27021992 -0.19395828 0.1630865
0.08830794 0.269531 -0.14192067 -0.03232884 -0.27200726 0.04851405 -0.007903881 -0.12046679
0.2280277 -0.30153057 -0.07130776 -0.17645402 -0.054722346 -0.2224485 -0.20100778 -0.12284734
0.01568676 0.19156477 -0.0039670207 -0.14711133 0.022898605 0.10637947 -0.08533049 -0.07414616
0.17633237 0.06511707 -0.16620685 -0.13908345 -0.032448336 0.28965327 -0.0033255247 -0.15897068
0.19418141 -0.18000051 0.12247349 0.041649047 0.15275429 0.14325128 0.08236432 -0.07343918
0.08131968 -0.018186858 -0.055888854 0.01542218 -0.07162897 -0.055347633 0.1893658 0.0021443758
0.18824764 -0.16089644 -0.27861032 -0.05701486 -0.14081301 -0.019121472 -0.21899404 -0.017261101
-0.05015304 -0.028118271 0.061329857 -0.039766226 -0.08010307 -0.26601204 0.08955172 -0.2403637
-0.030352911 0.053410254 -0.12551226 -0.4121723 0.23749374 0.15823507 0.02008238 0.20334162
-0.054320246 0.19166861 0.099823035 -0.03186531 0.17302777 0.061996173 0.18814702 0.06720434
0.23064229 -0.065838866 -0.4754856 -0.18981098 0.188867 0.013540734 -0.18351066 -0.11097035
0.052994445 0.24505581 -0.038994152 0.33267233 -0.051351607 -0.034086145 0.024677385 0.21898851
-0.07856366 -0.25977167 0.059059612 0.029899709 0.15855807 -0.017963247 0.08813331 0.10071602
0.000540973 -0.03981979 0.13033092 -0.09010489 0.5742124 -0.22309983 -0.01040966 -0.20741744
-0.093959816 -0.03597795 -0.0073792916 -0.20132683 -0.11562817 0.09078337 0.27579796 0.24580614

actor.2.bias f4 [64]
00000000: 2c6c 513c c02a 0b3d 5fb7 7e3d 4f91 2e3e
00000010: 55e7 673d 401f a03d 9d56 7c3d 2ed9 023e
00000020: d8de aa3c 6b4c d53d 25f8 4ebd 192f 2f3c
00000030: c2d8 bebc b181 b83c fbba b3bd 7920 6a3c
00000040: 1220 7a3d 6be8 933d eccd 8a3d bc26 24bc
00000050: 6e2b 1e3d 5186 dfbd 7878 8d3c e22e 903c
00000060: 5f41 39bd ee60 b23c d65d ca3c 8574 90bd
00000070: 278b e93d 3243 d7bc 0f6a b63d ffc7 223d
00000080: a8a8 6b3d 6544 a63c 24e4 39bd 8ec7 cdbd
00000090: 401e e5bc 1623 64bd bd65 17bc 16fd ef3d
000000a0: f791 eb3d 6747 93bd 21fc f3bc d235 2e3d
000000b0: da81 c53c 815a ab3d 299e ac3c 8977 963d
000000c0: ee5f f13c 1ef3 293d fefa 943c c12d 8d3d
000000d0: 82f4 553d 2318 ca3d 5dba 1dbe c4b7 423d
000000e0: b7bc e4bd 20f8 8e3d 388c f33b 9ac1 feba
000000f0: d78d 4c3d a22b be3c add0 76bd be5c 633d
0.012782138 0.033976316 0.062186595 0.17047618 0.0566171 0.078184605 0.06160604 0.1277816
0.020858213 0.10414966 -0.050529618 0.010692381 -0.023296718 0.02252278 -0.08775898 0.014289969
0.06106574 0.072220646 0.06777558 -0.010019001 0.038615637 -0.10914291 0.017269358 0.01760048
-0.04522836 0.021774735 0.024702948 -0.07053474 0.11403494 -0.026277158 0.08906948 0.039741512
0.05753389 0.020296285 -0.045383587 -0.10047828 -0.027968526 -0.055697523 -0.009240565 0.11718194
0.1150245 -0.07191353 -0.02978331 0.042531796 0.02410977 0.083668716 0.02107151 0.07347018
0.029464688 0.04149162 0.018186089 0.068934925 0.052235134 0.09867885 -0.15403123 0.047538534
-0.11168807 0.0698092 0.007432487 -0.001943636 0.049939957 0.023214165 -0.060257602 0.055508368

actor.4.weight f4 [4, 64]
00000000: 35e5 83bc 1d77 42be e1ff 043e 3425 ea3d
00000010: ea8c ae3e 0519 d53e db96 243e bfb1 d73e
00000020: 83b1 3cbe d647 063d dd19 f83d 256e 88be
00000030: 3227 663a 8419 80be 165e 6d3e 80ba ca3e
00000040: 5bd8 883e 7300 84bb 5382 36be b03b 94be
00000050: a0af c4be 6c84 91be b7bb 393e c656 e13d
00000060: 9046 59bd 6c69 8ebe 3f11 223e a852 43be
00000070: 23f5 7ebe a830 67be c552 d9bd 6637 c93e
00000080: bb82 e3bd 1669 f03e 7aee aabc a3ea f7bd
00000090: 44f6 a5be b0c6 02bb 8478 b53e d9a5 c03e
000000a0: 5f64 b63e 0b48 37be 6727 87be d120 d03d
000000b0: fe03 65be 9bcc e63e d0c8 9a3e 9754 963e
000000c0: 0912 143e c7d5 c43e 660f 093e 76ae f33d
000000d0: c2cf 85be 58ed 763e 9d50 8b3d 77de a63e
000000e0: 9833 b53d 860f 1a3e 3086 983d a217 f9be
000000f0: 6c58 7c3d 73e9 a33e a591 0dbe 4cc5 a3bd
00000100: bd23 54be b9a0 9b3d f1d1 3bbf ab5f e6bd
00000110: 4d69 3dbe 70d3 7f3e b186 37bf 33ea 2a3e
00000120: c9b1 6e3e 7532 1abe 6dc3 9b3d 4d4d e33d
00000130: dbff bfbe 78b2 0ebe 8545 8abe cc1f be3e
00000140: caa1 e1bd d384 073f 7c5f 333e 3bbe 09be
00000150: 382d b7be 554d cdbe c00a e03e f49e f53e
00000160: e2be b03e a9b4 b7be 3f85 bdbe ba9a 85bb
00000170: 4393 a1be c9ea 0dbe d2cd 9e3e 511f 983e
00000180: a061 ff3e bcd8 043f 3624 9c3d 0875 1f3f
00000190: 4696 cf3e 0c30 03bf 9de4 063f 6c3d 01be
000001a0: 1bad cb3e 96a9 253e 2b42 093f 7d91 913e
000001b0: 8e8a 5f3e 8090 01bf bc9e c83d 1a6e fc3e
000001c0: 9bf7 28bf 26f6 10bf 4a3a 45be ad33 33be
000001d0: 4b8b 3c3f 742a 033f 009a 4c3e 97de c5be
000001e0: f01a e4bd f6bb c73e 5328 b3be 12d8 823e
000001f0: 2a0b c9be d740 5f3e 4611 51be d575 af3d
00000200: ee51 c83e 015f 1e3e 8b9e 3c3e 9caf 76be
00000210: fdf3 ce3e 7614 03bf 8a09 853e ce94 ddbe
00000220: 669e 0c3d a812 44bf 1189 a2be cb21 0a3f
00000230: 8c5f 3d3d 99de 013f c559 923c c250 07bd
00000240: 4b7f 86be e1bd cc3d f522 d13e de22 9f3e
00000250: f211 b73e 4d33 a03e b29f 0dbf 41ad e2be
00000260: ac86 dbbe 2cf7 e6be c57f 583e cbac 37bd
00000270: 349b 5cbe 6368 143f 9a2a 763e d66b e7be
00000280: a154 d73e 7389 12bf 6e24 c73e 9557 673e
00000290: a29a 0a3d 2463 463f 2278 62be 727a 0abe
000002a0: 19cf 16bf f8f3 55be fdc7 4f3b 8307 17bf
000002b0: a537 82bd 73e6 d4be ca9c d73e c13b 983e
000002c0: 95c2 2c3e 4134 55be 263f cc3e 1e1f d0bd
000002d0: 1ad1 a0be 36d3 ab3d a038 7c3d b0bf 5abe
000002e0: 4c80 95be 51c9 ad3e 682d 913c 34ed fa3e
000002f0: e3ca 993d b3ed 993e 27bb 9fbc a2c4 c73e
00000300: 95fd 9a3d 425e a93e 46ad 1a3f 75f4 003f
00000310: 88d6 37be 9276 3f3e f1d6 ce3d abcf 963d
00000320: 5e34 21bf 70b8 d43e c677 53be a8ff 8fbe
00000330: 7ce4 23be 4729 563e c271 67be 61ac 16bf
00000340: 9149 c03d e9f3 28bf 78f1 f23d 8af8 dd3e
00000350: 9b60 d83d 98b3 cfbd aad6 aa3e de68 8d3d
00000360: 0e5f 6a3e d338 aa3e 52b1 dc3e 0cb5 81bd
00000370: 1be0 213f 5c31 81be 1218 9a3e bbc9 823e
00000380: 9212 02bf 8a44 58be e73b 04bf 4b52 28bf
00000390: e8f9 033e 55e6 4dbe 2fea edbe cbec b03e
000003a0: e9f1 0a3e b009 383e 2c9d ddbe 5f75 223e
000003b0: 60f4 6c3e d958 ee3e 76a1 4d3e 5859 3cbf
000003c0: e299 013f 4dae 0f3f 4b9e a6bd c8ed b4bd
000003d0: 9225 20be b3fa 42be d7c1 0dbe fb68 173e
000003e0: 3f47 fabd f4c8 aabe 38d9 9dbe 1316 a9be
000003f0: 9bf0 143f 3266 c7bc 8569 48bd 1d7a c83e
-0.016100505 -0.1899075 0.12988235 0.11432877 0.34091884 0.4162065 0.16073172 0.42127797
-0.1842709 0.03278335 0.12114308 -0.26646534 0.0008779644 -0.25019467 0.23180422 0.39595413
0.26727566 -0.004028374 -0.17823152 -0.28951788 -0.3841524 -0.28421342 0.18138014 0.11002879
-0.05304581 -0.27814806 0.15826891 -0.190745 -0.248982 -0.22577155 -0.1061149 0.39300078
-0.11108919 0.46955174 -0.020865668 -0.121053 -0.32414448 -0.0019954853 0.3544351 0.37626532
0.35623452 -0.17898576 -0.2639725 0.10162509 -0.22364804 0.45077977 0.30231333 0.29361412
0.14460005 0.3844435 0.1338478 0.1189851 -0.2613507 0.24113977 0.06802485 0.32591602
0.08847731 0.15044984 0.07447469 -0.48650843 0.061607763 0.32014045 -0.1382509 -0.07996616
-0.20716758 0.07599015 -0.7336722 -0.11248716 -0.184972 0.24983001 -0.716899 0.16690902
0.23310007 -0.1505831 0.07605634 0.11098728 -0.3749989 -0.13935268 -0.27006164 0.37133634
-0.11017187 0.5293705 0.17516893 -0.13451473 -0.35776687 -0.40098062 0.43758202 0.47972834
0.34520632 -0.3588002 -0.3701572 -0.0040772827 -0.31557664 -0.13859095 0.31016403 0.29711393
0.4987917 0.5189321 0.07624094 0.6228795 0.40544337 -0.5124519 0.52692586 -0.12621087
0.39780506 0.16177973 0.5361659 0.2843131 0.21830198 -0.50611115 0.09795901 0.4930275
-0.66002816 -0.5662559 -0.19260517 -0.17500181 0.73650044 0.51236653 0.19980621 -0.38646385
-0.111379504 0.3901059 -0.34991702 0.25555474 -0.3926633 0.21802078 -0.20416746 0.085673966
0.39125007 0.15465929 0.18419854 -0.24090427 0.40420523 -0.51203096 0.2598384 -0.4327759
0.034330748 -0.7659097 -0.31745198 0.53957814 0.0462337 0.5073028 0.017865071 -0.033036
-0.26268992 0.09997154 0.40846983 0.3108129 0.3575588 0.3128914 -0.553218 -0.44272807
-0.42876184 -0.45110452 0.2114249 -0.044842523 -0.2154358 0.5797178 0.24039689 -0.4519946
0.42056754 -0.5724098 0.3889498 0.22592004 0.033838876 0.77495027 -0.2211614 -0.13523272
-0.58909756 -0.20893848 0.0031704896 -0.58995837 -0.063582696 -0.4158207 0.42111808 0.2973309
0.16871102 -0.20820715 0.39891928 -0.10162185 -0.31409532 0.08389895 0.06157744 -0.21362185
-0.29199445 0.33942655 0.017721847 0.49009097 0.07509401 0.30064163 -0.01949842 0.39017206
0.07567898 0.33079726 0.60420644 0.5037301 -0.17952931 0.18697575 0.100995906 0.07363828
-0.6297053 0.41546965 -0.20651159 -0.28124738 -0.16005129 0.20914184 -0.22601989 -0.5885678
0.09389032 -0.6599718 0.11862463 0.43353683 0.10565301 -0.10141677 0.333669 0.069047675
0.22887823 0.33246478 0.43104035 -0.0633336 0.6323258 -0.2523297 0.3009649 0.25544533
-0.50809586 -0.21119896 -0.51653904 -0.6575057 0.128883 -0.20107396 -0.4646773 0.3455566
0.13568844 0.17972445 -0.43283975 0.15865086 0.23140097 0.4655216 0.20081124 -0.7357383
0.5062543 0.56125337 -0.08135661 -0.08834416 -0.15639332 -0.19040947 -0.13843475 0.1478614
-0.1222062 -0.3335644 -0.30829787 -0.33024654 0.58179635 -0.024340723 -0.048928756 0.39155665

actor.4.bias f4 [4]
00000000: 55a4 8c3d f10a 933d 6494 b6bd 4cb5 443e
0.06867281 0.07179821 -0.08915022 0.19209784

critic.0.weight f4 [128, 8]
00000000: ea58 1fbc 94db 5d3d bca2 8b3d 5927 f33d
00000010: 962d d3be c3ce 1bbf dac6 69be 022e 213e
00000020: 1d1c f8be 0b54 f8bd d5a4 c7be 7de6 38be
00000030: 5dd7 053f 7758 713e 91df 783d 97a6 aebd
00000040: f0e0 edbe b9df 01be 93ad 0bbe bac6 2c3d
00000050: 2417 4fbe 2ec7 9cbe 1782 1e3e dba3 d83d
00000060: 7d9f 8bbd 8de9 09bd 7f0c 53be 76ed 40bd
00000070: a5b7 0fbe 5e4c 02bf e560 833d 07a3 a93e
00000080: 88b8 6ebe 8bd3 5dbf 1abd 4e3d 9644 8e3e
00000090: 667e e83e 9b8e c53e 967f 233e e17f a63e
000000a0: 443e bd3e 60b6 b4bd 396d 543e ddc5 3a3e
000000b0: d08b 76be d840 8f3e 22e4 e0bd 7749 c9be
000000c0: 4f73 77be 597b 13bb 6d73 793e 8b06 4b3e
000000d0: 10af b33e 3457 1d3f 2ba7 a53c 645d 87be
000000e0: f8d3 fdbe 7a9e 15bf d013 1e3f 5f5c 5e3e
000000f0: 19fa b23e 9b59 c1be 32f9 533e b30e 343d
00000100: 90f4 273e 96b2 9f3d 4285 a2be c6be 15be
00000110: d7e2 d03b d09e 04bf ea1c 5f3e d0cb c03e
00000120: 0557 65bd 6b0a 2bbc eca8 aebd e15d 16be
00000130: 954c dd3e 4aba 1d3f 4b8f 1c3e 3ccb 4f3e
00000140: b406 afbe 5065 b3bd bcb7 c1be cbb4 1bbe
00000150: c742 983e c967 dd3c b6be 4dbd af46 4a3c
00000160: 6644 ca3a ab0e 15be d202 103e 0dd5 3d3e
00000170: 61b4 4fbe 825e d23d 0093 503b 1da8 87be
00000180: cca3 aabe 716b 4c3d 7fa3 903e 7ff0 b53e
00000190: 8b69 d43e a706 83be cdb5 c2be f052 5cbe
000001a0: c1ff 5dbe 99d0 b7bc 7d52 6dbe 0140 07bd
000001b0: 04f6 bc3e 5982 883e e54f 853d 5e21 f7bc
000001c0: 5345 f53d 893e 9e3e 8a74 4d3e b9e3 093e
000001d0: 4891 a0be b921 89bd ed08 94be c73e 33bd
000001e0: 6de5 4ebe 2af8 f83e a545 8cbe dbf3 5bbc
000001f0: bd49 67be a991 8c3e f732 aa3e 2937 963d
00000200: 10d0 3abe 843e 023d 3002 31be 718c 7a3c
00000210: 2ec2 bb3d de2d afbe e143 903c 815a 54be
00000220: b85f a5be 49ac 04be 1b06 b5be e3b3 53be
00000230: 2265 b13e 76e9 093e 7778 593e 4c46 6d3d
00000240: 0fc9 033f 3f2e 67bd 16a6 633e 2549 77bd
00000250: dfd2 f7be c31c 95bd 7cec de3a a992 1cbd
00000260: 2ac5 983e 1cc9 ee3e 74b5 5ebe 24b0 ebbe
00000270: b2dd d9be 3348 a43e 3d82 1bbf 0dfb 81be
00000280: 68ea 2dbe ffc1 f63d cf5a 0bbe 3293 463e
00000290: ff7b ef3c 2c16 c63e e648 0cbe 4d9e 2bbc
000002a0: 7451 eabe 23c0 333e 383d febe 9edd 963d
000002b0: 014a ccbc c0dc 70be 1eb3 9dbd 6985 f03d
000002c0: 1c12 6dbd 5c49 2bbf 05d7 97be efc3 463e
000002d0: 95ed 223e 5223 da3e 08a5 48be 64f3 a93e
000002e0: b9e1 d2be e6da 8cbd 2705 c2be 426d 14be
000002f0: ca9b b33e bc79 2a3e c51f a23c 48a1 203e
00000300: 3fb8 c93e 0e21 d5bd 56fe ec3d c703 053e
00000310: c0db fbbd 2d2c a53e 149a ee3e 5a43 743e
00000320: 10a1 d9bd b3e2 2cbf f65d e33d 1f2b 3b3e
00000330: d8bc cabe 2842 acbe 20a1 083e 428a 013d
00000340: 5867 9ebd 6343 06bd 6416 f83e 4c6f 223e
00000350: 1c59 263f b89f 46be 6b92 f33d 9f8c 643e
00000360: c5c8 91be 3a58 923e 0203 a9be 184f ca3e
00000370: a459 e33e a130 87be 7930 e0be b908 853e
00000380: b6a2 ab3d d613 3cbd 5b28 bc3e 40e3 b3be
00000390: 4705 c0be 910e 8cbd 046d 8f3e 0a43 16be
000003a0: beda 5cbe 8eb1 ac3e f546 b43e d16a 89be
000003b0: 41e8 7ebe b740 5fbe 133b a33e d809 03be
000003c0: 05ea c2be a13b 42be 206d 69be 4d6d cdbe
000003d0: 1ce8 be3e 3c20 883e 79ac 933e 8d68 413e
000003e0: bb8b a83e cca8 2dbe b0a2 d63e 1bfc 65be
000003f0: 0b27 e4be 17cf 93bd 44c0 6e3c 475b 883e
-0.009725789 0.054164484 0.068181485 0.11872739 -0.41245717 -0.6086237 -0.22829762 0.15740207
-0.4845895 -0.12125405 -0.38992944 -0.18056674 0.52281743 0.23568903 0.060760085 -0.08527868
-0.46460676 -0.12683 -0.13640432 0.042181708 -0.20223671 -0.30620712 0.15479313 0.10578128
-0.06817529 -0.033669997 -0.20610236 -0.04710146 -0.14034899 -0.5089778 0.064149655 0.33132192
-0.2331258 -0.86650914 0.05047331 0.27786702 0.45408934 0.38585362 0.15966639 0.3251944
0.36961567 -0.08823848 0.2074479 0.18239541 -0.24076772 0.2797916 -0.10981013 -0.39313862
-0.2416508 -0.002250394 0.24360438 0.19826715 0.350945 0.61461186 0.020221313 -0.2643844
-0.49575782 -0.5844494 0.6174898 0.21714924 0.34956434 -0.37763676 0.20700529 0.04395933
0.16401887 0.077977344 -0.31742293 -0.14623556 0.0063746977 -0.5180483 0.21788374 0.37655497
-0.05599119 -0.010439496 -0.08528313 -0.1468425 0.4322249 0.6161238 0.15289037 0.20292372
-0.34184802 -0.08759558 -0.3783549 -0.15205686 0.29738447 0.027027028 -0.050230704 0.012345954
0.0015431761 -0.14556377 0.14063576 0.18538304 -0.20283653 0.10271932 0.00318259 -0.26495448
-0.33328092 0.04990715 0.28249738 0.35535046 0.41486773 -0.25591013 -0.38029328 -0.21516013
-0.21679594 -0.022438334 -0.23175998 -0.033020023 0.36906445 0.26661947 0.06509379 -0.030167278
0.11976113 0.30907086 0.20063987 0.13465776 -0.3136084 -0.06695885 -0.2891306 -0.04376104
-0.20204706 0.48626834 -0.27396885 -0.013424839 -0.22586723 0.2745488 0.33242008 0.0733474
-0.18243432 0.0317979 -0.1728599 0.015292273 0.09167896 -0.3421468 0.017610492 -0.2073765
-0.3229959 -0.12956347 -0.3535622 -0.2067409 0.3464747 0.13467965 0.2123736 0.05792837
0.51478666 -0.056440588 0.22231326 -0.06037249 -0.4840307 -0.072808765 0.0017007734 -0.038225804
0.29837924 0.4663781 -0.21748906 -0.46032822 -0.42551953 0.32086334 -0.607456 -0.2538685
-0.1698395 0.120487206 -0.1360886 0.19392088 0.02923393 0.3868879 -0.13699684 -0.010474754
-0.4576527 0.17553763 -0.4965608 0.07366489 -0.024937632 -0.2352171 -0.077001795 0.11744196
-0.0578786 -0.6690881 -0.29656234 0.1941068 0.15910943 0.42605072 -0.19594204 0.33193505
-0.41187838 -0.06877689 -0.37894556 -0.14494804 0.35079795 0.16648 0.01979054 0.15686524
0.3939838 -0.10406695 0.11571948 0.12989722 -0.12297773 0.32260266 0.46601927 0.23853818
-0.10626423 -0.67533416 0.11101906 0.18278168 -0.395972 -0.33644223 0.13342714 0.031625994
-0.07734555 -0.03277911 0.48454583 0.15862769 0.6497972 -0.19396865 0.118931614 0.22319268
-0.28473487 0.28582937 -0.33010107 0.3951347 0.44404328 -0.26404288 -0.43786982 0.25983217
0.08380644 -0.045917355 0.3674954 -0.35134315 -0.37504026 -0.06838716 0.2801286 -0.14674011
-0.21567819 0.33729213 0.35210386 -0.26839307 -0.24893285 -0.2180203 0.31881008 -0.12796724
-0.38069168 -0.18968059 -0.22795534 -0.40122452 0.3728646 0.26587093 0.28842524 0.18887539
0.32919106 -0.16958922 0.41920996 -0.22459452 -0.44561037 -0.07217234 0.014572207 0.2663214

critic.0.bias f4 [128]
00000000: 6aee ac3d 8a43 4dbd 9862 973d 7262 25bd
00000010: 9c1f a9bd b9a1 b93d 0fab 853e 84a1 cb3d
00000020: a817 523e faaa 3bbe 388b a6bc 85f2 aebe
00000030: 2edd b13e 9cc7 08bd 8e4f f93d 66a8 823e
00000040: 8a41 b43e 5000 62bd 823e 053d 1f74 743e
00000050: 1b50 a63e 19ec 32be cf3f f63d 32cd 8bbd
00000060: d6b8 803e 6def 383e 7bd1 933c 31cb 78bd
00000070: 5083 11be 8f2a 173e 637c 09be 854c 8fbe
00000080: 8926 e1bd d3ae 633e 7423 933e d860 ce3e
00000090: 459b 7ebe 5424 783e 49da d83d 8b4c f93d
000000a0: 064c dcbd 40fe e43e 845b ca3e fc02 703e
000000b0: d6fd 833e aced 84be 7f4a 47bc 6429 a6be
000000c0: baba 7e3e b00a 7cbe f637 033e 4e8f 61be
000000d0: 5629 7abd 3b02 cb3d 5755 23be fb07 8d3e
000000e0: f27f e6bd cdd2 dcbc f387 50be 763b ae3c
000000f0: 9328 443e c737 11be 24b8 b23e 9774 90bd
00000100: e879 26be 12b2 8cbd 2344 1dbe 9457 0a3e
00000110: dee3 00be d187 a53e c944 1dbd d837 b03d
00000120: 84d5 06be 7df1 763e 3c7c 94be 718d 153c
00000130: e7f4 913e 86f8 e9bb 751a 9ebe 3b77 763e
00000140: e9b2 b9bd 3ef0 a63d c8b3 b1be a2f2 a33e
00000150: 2607 b63e c226 973e 26fe b83e 51cd 5b3e
00000160: 8538 59bd 7b23 3b3e ce6d e33e 694a d0be
00000170: 0946 263d 97d4 0c3d ac2f 92be 3ae4 bf3e
00000180: 26b5 d63d 49ff 0ebe 9fe2 a53e 55bc e9bd
00000190: f494 833e 4269 943d f896 343e a261 4a3e
000001a0: 4c41 97bd c0f1 c93e ae4c 0b3e 2ba5 f73d
000001b0: dd7f 363d 4783 acbe 4bd8 1cbe 3360 a9bd
000001c0: 3405 d43d 0f40 643e 8edd 4f3e 7ea1 a2bd
000001d0: c0ab f1bd cbef 1a3c 1d8d 9e3e 5568 ae3e
000001e0: eaf2 383d 2c1c 99be 308f 71be 16e8 8d3e
000001f0: d17d dbbd d8ff 033e e474 d6bb 9b9f d5bb
0.084439114 -0.05011324 0.07391852 -0.040377088 -0.08257982 0.09064049 0.2610707 0.09942916
0.20516837 -0.18326941 -0.020330057 -0.34169403 0.3473906 -0.033393487 0.12173377 0.25519103
0.35206252 -0.05517608 0.032530315 0.23872422 0.3248299 -0.17472877 0.12023889 -0.06826247
0.2514102 0.18060084 0.018044224 -0.060740653 -0.14210248 0.14762329 -0.13426356 -0.27988067
-0.10993678 0.22234659 0.28737986 0.4030826 -0.24863918 0.24232608 0.105885096 0.121728025
-0.10756688 0.44725227 0.39522946 0.23438638 0.257796 -0.2596258 -0.012163757 -0.32453454
0.24875918 -0.24613452 0.12814316 -0.22027323 -0.061074577 0.09912535 -0.15950523 0.2754515
-0.112548724 -0.026955986 -0.2036436 0.021268588 0.19156103 -0.14181434 0.34906113 -0.07053488
-0.16257441 -0.06869902 -0.15358023 0.13509971 -0.12586924 0.32330182 -0.038395677 0.08604401
-0.13167387 0.24115558 -0.29001033 0.009127961 0.28507158 -0.007140222 -0.3087956 0.2406892
-0.090673275 0.08151291 -0.34707475 0.32021052 0.3555233 0.29521757 0.361314 0.2146504
-0.053032417 0.18275253 0.44419712 -0.4068177 0.040594134 0.03438243 -0.28551996 0.3747881
0.1048377 -0.13964571 0.3239946 -0.114128746 0.2569958 0.07246639 0.17635715 0.19763806
-0.07385501 0.39442253 0.1360347 0.1209205 0.044555534 -0.33693907 -0.15316884 -0.08270302
0.10352555 0.22290061 0.2029936 -0.079409584 -0.11800337 0.009456585 0.30967036 0.34063974
0.045153536 -0.29904306 -0.23589778 0.2771613 -0.10717357 0.12890565 -0.006544696 -0.0065192706

critic.2.weight f4 [64, 128]
00000000: 69d4 233e c223 8e3e eed3 233e 269d 1f3e
00000010: ea09 5e3b 6a4d 903e f77a 133e 2936 a6be
00000020: 1966 cc3d fe68 893e a4aa 173e 3e20 5ebd
00000030: 84b1 023e 5b0c 683e 5ceb c23d 2f42 dc3d
00000040: a4bf a43d fe99 b93d 3e4c 9b3e b3fa 973a
00000050: a7d3 a5bc 6d3d 123e 6802 eebd 8f7f b03d
00000060: adf0 853d b883 4cbe 0522 aabe d6fb 993d
00000070: b54a a03d 425f 053e a4a6 8a3e 9065 643e
00000080: 714e da3d 20b8 423e 59fa 323e 28ea 503c
00000090: 106f 23be 1bc3 99bb 12cd 8d3d f6d1 ef3d
000000a0: dbbc c0be 72df fbbb 31e7 273d 569a 293d
000000b0: 5572 c8bc b87e e73d 434e 063e 0605 03be
000000c0: 42ff 303e b0fe 173e 5f59 2a3e 73e0 cf3d
000000d0: 3d4d fd3d e2ad bfbd 7fb9 5f3e 6325 09bb
000000e0: 0cbf 3cbe bf28 093e 1bf5 cf3d 2e5a 2c3e
000000f0: 9424 20bc 4b4a 003e c8c2 a33d 840d 1f3e
00000100: 3178 363e e888 1a3e 8b1b 653e 8876 583d
00000110: b4cc 11bd f2dc 2b3d 24ce 4cbd 9734 afbd
00000120: ad5f b43d 49e9 84bc 6e59 9b3e 4731 22be
00000130: e0a3 633d 2548 a6be 6319 193e bbc4 883d
00000140: 47cc 883e 9b9f b6be 4b80 543e b3e9 4d3e
00000150: 5570 b9bd 536f 493d e72e 1cbd f34b 393e
00000160: 56c7 b5bc 0218 153e b9fa b93d 9c02 0fbf
00000170: db94 47bd 5e10 5f3d e108 8b3e 7154 44bd
00000180: f965 01be ed3b 68bd 08f4 1e3d b1b0 423d
00000190: 654a 03be 3b69 5e3d 5da2 86bb 76f4 9b3b
000001a0: 7cf4 b1be 18d9 ecbc 0e74 523d 5454 2c3d
000001b0: dfe3 bebe 6d00 21bc b159 773e 5714 243e
000001c0: 157c 5d3b 6414 c9bd 54b2 763d 709e ba3d
000001d0: 34c1 ce3d 7411 2d3e 2534 dabc c620 bdbc
000001e0: 29ad 1ebe 1766 673e 73bd 363e b659 863d
000001f0: dade 313e c5b0 0d3e 8990 263e f3b2 c63d
00000200: ef7d 363e 0c24 0e3e d70b d33d 3d50 e53d
00000210: 77e2 a8bd c7cd da3d 7445 143d 0ff6 91be
00000220: 45c3 563e 62eb cf3d 1395 993d f959 95bd
00000230: 97ea 013e 9e33 ef3d 93cd ee3d 91ae 933e
00000240: 4f92 4f3d 47c9 413d 3e37 6b3e fd65 023e
00000250: e91c 2d3e e60f 7a3e 5c1a 44be a4d3 183e
00000260: 4a4f 903d 297b 62be 8c25 2abe d466 1f3e
00000270: d27d a83d a86e 723e 4643 e43d d831 a83e
00000280: ef4c f13d f3d9 093e 5091 0a3e acc3 3e3e
00000290: 93bc 923d e0dc 653e 5997 af3c 4581 ad3d
000002a0: b9f1 37be 64cc 563e a2c1 533e 3f0e 2f3e
000002b0: 4ee7 773e 9854 5e3d aa4c 203e 8b8f af3c
000002c0: 0afe 143e e31d fa3d ab7e 893d c98f 4d3c
000002d0: 86b2 263e f96d cf3d 61d6 243e acff 153e
000002e0: 6065 ab3d a650 2e3e b12f 913d 1329 4b3e
000002f0: a185 d6bd fc4b 3a3d 1251 513e 588c 463e
00000300: e0f3 863e 3432 dd3d ab60 993d ea1d f43d
00000310: b01b 4abd f8ec f63d 0dcf 853e f465 2bbe
00000320: 091c 153e 8270 893e 8a9f 273e 2bde 20be
00000330: b4ae 6f3e 219f e53b 5176 f13d 62ed 223e
00000340: 4d07 513e 6ded 8cbe 7a9c 083e 911f 0d3e
00000350: c44a 373e 299c c03d 14e3 8a3e 8d68 283e
00000360: d0fd edbd c1b7 563e 4970 8a3e e5ec 0bbf
00000370: 2153 083e 5895 0c3e 17f7 883e 5d13 6e3e
00000380: 9342 98be 5458 2cbd 5b5a d93d e3b3 603d
00000390: 7eca ec3d 4dc9 adbd 5e50 7e3e 08ab 013c
000003a0: 93d0 d2be daba 633e bd7e 653e 8d3c 8d3d
000003b0: c7f7 96be daa4 5d3d 304f 7d3d 252b 703d
000003c0: ade4 a6bc 57d9 a3bc 7974 4c3e d5e3 633c
000003d0: a273 0c3e 63ff 573e 4d44 743e dee0 383e
000003e0: a55c 18be 96bb 9f3e 49ff 193e 1722 e43d
000003f0: dda7 e2b8 108f 443e fc6b 843d 3515 283d
0.15998997 0.27761656 0.15998814 0.15587291 0.003388042 0.28184062 0.14402376 -0.32463196
0.09980411 0.26837915 0.14811188 -0.054229967 0.1276303 0.22660963 0.095175475 0.10754811
0.08044365 0.09062575 0.30331606 0.00115951 -0.020242525 0.14281245 -0.11621553 0.0861808
0.06540046 -0.19972122 -0.3322908 0.07518737 0.07826749 0.13024619 0.27080262 0.22304368
0.10659493 0.1901555 0.17478313 0.01275114 -0.15960336 -0.004692448 0.0692388 0.11709969
-0.37644085 -0.007686549 0.040991966 0.04140695 -0.02446858 0.113034666 0.13115792 -0.12794885
0.17284873 0.1484325 0.16635655 0.10150232 0.12368248 -0.093593374 0.21848105 -0.0020926825
-0.18432254 0.1339445 0.10154172 0.16831276 -0.009774346 0.1252834 0.07996136 0.155325
0.17819287 0.15091288 0.22373788 0.052847415 -0.03559561 0.041958757 -0.05000128 -0.085549526
0.08807311 -0.01622452 0.30341667 -0.1583911 0.055576205 -0.32476917 0.1495109 0.06678148
0.2671835 -0.35668644 0.20752065 0.2010868 -0.09054629 0.049178433 -0.038130667 0.18095379
-0.022189777 0.1455994 0.09081025 -0.55863357 -0.048725944 0.05445897 0.27155212 -0.047932092
-0.12636556 -0.056697775 0.038806945 0.047531787 -0.12821348 0.054299574 -0.0041087107 0.0047593666
-0.3475684 -0.028912112 0.05138021 0.04207261 -0.37283227 -0.009826762 0.24155308 0.16023384
0.0033795882 -0.09818342 0.06022866 0.09112251 0.10095444 0.16901189 -0.026636193 -0.023086917
-0.15495743 0.22597538 0.17845707 0.0656008 0.17370167 0.13836963 0.16266073 0.097021006
0.17821477 0.13880938 0.10304993 0.11196945 -0.0824632 0.1068378 0.03619905 -0.2850804
0.20972927 0.101523176 0.07499137 -0.072925515 0.12687145 0.11679767 0.11660304 0.2884412
0.05067664 0.047311094 0.22970292 0.12734218 0.1690556 0.24420127 -0.1915068 0.14924484
0.07046373 -0.22117294 -0.16615885 0.1556657 0.08227123 0.23675025 0.11145644 0.32850528
0.11782252 0.13462047 0.13531995 0.1862933 0.07164874 0.22447538 0.021434473 0.08471922
-0.17963304 0.20976406 0.20679334 0.17095278 0.2420933 0.054279894 0.15654245 0.021430751
0.14550033 0.12212732 0.06713613 0.012546488 0.16279039 0.101283975 0.16097404 0.14648312
0.08368945 0.17022952 0.070891745 0.19839887 -0.104747064 0.04548262 0.20441082 0.19389474
0.26357937 0.10800591 0.07489141 0.11919768 -0.04934281 0.12056917 0.2613453 -0.16738111
0.14561476 0.2684365 0.16369453 -0.1570975 0.23406488 0.007007495 0.11790145 0.15910867
0.20412941 -0.27524891 0.13340941 0.13781573 0.17899615 0.09404785 0.27126372 0.16446133
-0.116206765 0.20968534 0.27038792 -0.5465835 0.13312961 0.13728845 0.26751015 0.23249574
-0.29738292 -0.042076424 0.10612937 0.054859053 0.1156206 -0.08485661 0.24835345 0.007914312
-0.41174755 0.22239247 0.22411628 0.06896315 -0.29485914 0.054112293 0.061843097 0.058634896
-0.020372713 -0.020001097 0.19966306 0.0139093 0.13715985 0.21093516 0.2385418 0.1805453
-0.14879091 0.31197804 0.1503879 0.111393146 -0.00010807787 0.19195199 0.06465909 0.04103585

critic.2.bias f4 [64]
00000000: 81fe 3f3d c670 503e 5393 50bd 225d 1b3d
00000010: 6edc 983d 79ea 31bb 35eb 993d 688b 7bbb
00000020: 52ed 053d a0c0 bdbd 7f3b b4bc b6a4 41bd
00000030: ea11 673c 7ba5 503d 4d06 1f3e 14c5 993d
00000040: 0b19 b03d 3c77 a53d 5b0b f9bc 56ab 8c3d
00000050: d782 1d3e c320 6c3c 40e6 dbbc 601b 933b
00000060: 6e14 103e a3db 7fbd ab75 cb3d 8270 643d
00000070: 129c e13d 22b7 9d3b 826e 0bbd ce51 e43c
00000080: b481 063d 4b74 c13d 3129 2c3d f013 323e
00000090: a512 8ebd 2499 903d 0a9f 1c3e c570 6dbc
000000a0: 15d6 80bc 6149 973d 1f71 cd3d cd01 493e
000000b0: 2b75 f53d 912c 7bbd abd3 953d dfa8 663e
000000c0: 8654 b1bc bc85 9b3b f132 81bd d23e 8cbd
000000d0: 12d6 7e3d 291f c73d 655e a2bd d94c 37bc
000000e0: e696 143b 1ca9 7e3d 0c4c 2b3e 9522 2a3e
000000f0: d3fb c43d e59e 2b3d 6bc1 6f3d c52e c83d
0.046873573 0.2035552 -0.05092175 0.037930615 0.074639186 -0.0027147813 0.07515565 -0.0038382653
0.03269703 -0.09265256 -0.022001026 -0.04727622 0.014103392 0.050939064 0.15529747 0.07508293
0.085985266 0.08079383 -0.030400923 0.06868617 0.15381943 0.014412108 -0.02684319 0.0044893473
0.14070293 -0.06246532 0.09934553 0.05577136 0.11016096 0.004813091 -0.034040935 0.027871039
0.03283854 0.09446009 0.04203147 0.17390418 -0.0693715 0.07060459 0.15295044 -0.014492218
-0.015727082 0.07387043 0.10031342 0.19629593 0.11985239 -0.0613218 0.07315763 0.22525357
-0.02164675 0.004746167 -0.063085444 -0.068479195 0.062215872 0.0972274 -0.079281606 -0.0111877555
0.002267295 0.062172994 0.16728228 0.16614754 0.09618344 0.04189958 0.058534067 0.097745456

critic.4.weight f4 [64, 64]
00000000: c139 f8bc 6f88 9bbd 382e 823c 4a87 b93d
00000010: 1d3a f83c e7b8 d4bb 34f4 9a3d 3464 dbbd
00000020: c802 a5bc b217 c83d 6e36 9a3d 6c11 39bc
00000030: ed41 b7bd 2998 c13c 9f7c 833c 4e5f c03d
00000040: 9c6c a43d 2ee4 ac3d fa15 8c3d c3f8 40bd
00000050: 1536 213d efaa 9dbc c05a 383c 149f debd
00000060: 6d2e 06bc 393e 013d e594 52bd f3d1 aeba
00000070: 2454 073d d8f6 81bd 4179 d03d 9923 6fbd
00000080: 1a24 b3bd e703 abbd a564 95bc 849f 8c3d
00000090: 176e e13b d06e e7bc 26f1 94bd e544 91bd
000000a0: b2c1 16bd 4082 203c 5ea4 e53c 76ce 50bd
000000b0: 29a9 913c 7455 c1bd b8e6 a5bd af7c b9bd
000000c0: 2a8e a7bd c31b 5bbd b1b9 56bd f5b3 223c
000000d0: e58b c83d 3afb a5bd abb4 b13d 8efd d7bd
000000e0: 5294 8b3c 6c68 1dbd d60b 06be 859e 693d
000000f0: d3e7 53bd e383 db3d 444e 34bd e5d5 cbbd
00000100: 50f5 6f3d 1f46 01be 4822 c53c 6a76 55bd
00000110: 90d3 65bc 1bde 67bd 3add 62bc 4d92 90bd
00000120: 3204 8e3d 4a27 53bd aa0a 643d 7bee 533c
00000130: 7d19 bdbd a531 8dbd 1e1a b7bc d9bd 903d
00000140: 873b 6e3d e9bb 55bd 0f9b 55bd 996a 03be
00000150: e8be d5bd 6977 1ebd 8444 f9bd 8a95 cebd
00000160: 29b3 773d 97e1 e2bd d252 ab3d 93f2 a93d
00000170: 0a9c 953c e69e c73d bf7b 8a3d 1b69 8b3d
00000180: 923f c03d bcfc ebbd 3945 21bd 299a 5f3d
00000190: b5c4 d53d ee36 b03d 1fd5 20bd 894b 483c
000001a0: 982c 7f3d 9034 7abd a1c6 b3bd bb5d 90bd
000001b0: 3240 603c ca70 893d fed6 3b3c d01b d3bd
000001c0: d4e3 4ebd a0d7 ca3d 6ce7 ef3d 13c9 7bbd
000001d0: 279e db3d a76e ebbc cc2d d2bd 9a80 dd3d
000001e0: 21c5 653c 7c52 f63d d36c 1fbd ccbd 91bd
000001f0: 2a25 61bd c4a0 b3bd 0aa6 37bd af8c 5abd
00000200: 3cf1 203e 54ff 503e c05b 7d3b c3eb 2f3e
00000210: f9c8 ff3e 7bf6 033e 6d3e 473e 041a f13d
00000220: 80b2 9abb 6a79 efbe 99b1 f03e fed5 13bd
00000230: 33e7 b43e 1e8d 9d3e 28b4 2c3e e29d 873e
00000240: 5a05 543e e2bd 2a3e c3fc 5e3e 196f 6d3d
00000250: b029 363e aea3 433e 18f7 593d 3f0a 083e
00000260: cf24 853e f5ba c13e 3c3f 14be 7970 7f3e
00000270: 13b2 433e 5805 d1bd 2c36 483e 5881 013e
00000280: 52ef 8a3e 0904 bb3e 89fc 6e3d 24a0 8cbe
00000290: 4980 883e 3402 de3d 5838 6f3e 1042 503e
000002a0: ec0d fc3d c45d 5cbe ed94 173e a0f9 9bbe
000002b0: e1eb 8f3c c0da 56bd f86f 8e3e cd1c 86be
000002c0: 1405 ae3e d644 5a3e 46eb 243e f9d1 443e
000002d0: 6f50 763e b7b0 823e 22a9 20bd 30f7 923e
000002e0: a48f 8e3e d189 1fbe c311 763e a55c 91be
000002f0: aa13 063e c061 553e 0947 213e fd42 913e
00000300: c173 a23d 5e51 2b3e 2265 bc3d 8ae0 af3e
00000310: 4642 ef3e 5b7a f43d 3b8f 973d 9076 69bd
00000320: d209 e53d 18ae 8bbe 26d0 cd3e effc 203d
00000330: ebdc 8b3e 97ce 813e 1117 493e 8bf8 853e
00000340: ec5f 373e df94 cc3d f3b8 523e ee6a 713e
00000350: c5c1 553e 39b4 b33e 7842 30bd 6c36 9a3d
00000360: f0c0 153e 4311 d93e 513c acbe 15ff 943e
00000370: 65fc 293e 9a2a b83d d7fd 683e 00b2 7d3e
00000380: 746d 9b3e 8b26 ae3e a8fa a93d a827 47be
00000390: 861b b73e 49f2 9f3d e817 0d3e 4b78 3a3e
000003a0: 0ab5 953e ed43 11be 8bd8 413e a196 fcbd
000003b0: a9a8 603e 2444 8ebd 459d 013e e680 33be
000003c0: d512 c73e 2a50 463e 27c5 843e 3f55 a73d
000003d0: 5f63 533e ed62 b03e 3f67 8e3d 3a51 433e
000003e0: 30c0 5b3e f4b3 93be af52 1d3d c2ec 32be
000003f0: 6a47 953d 551b 373e bfd1 823d 688f 8e3e
-0.030300977 -0.07594382 0.01589118 0.090590075 0.030301148 -0.0064917686 0.07566109 -0.107124716
-0.020142928 0.097701445 0.07529913 -0.011295658 -0.08948121 0.023632126 0.016050635 0.09393178
0.08028528 0.08441959 0.06840129 -0.047112238 0.039358217 -0.019246547 0.011252105 -0.108701855
-0.00818978 0.03155348 -0.05141153 -0.0013337716 0.033039227 -0.0634591 0.10179377 -0.058383558
-0.0874712 -0.08350354 -0.018236468 0.06866363 0.006879579 -0.028251082 -0.07272558 -0.07093219
-0.036805816 0.009796679 0.028032478 -0.050978146 0.017780857 -0.09440127 -0.08100647 -0.09056985
-0.081814125 -0.053493273 -0.052423183 0.0099306 0.09792308 -0.08104558 0.08677038 -0.105464086
0.017038498 -0.038429663 -0.13090453 0.05703594 -0.051734757 0.10718515 -0.044019952 -0.099529065
0.058583558 -0.12624405 0.024064198 -0.05211488 -0.014027491 -0.0566083 -0.01384669 -0.07059155
0.06934394 -0.05155114 0.055674233 0.012935276 -0.09233377 -0.068942346 -0.02235132 0.070674606
0.05816224 -0.05218116 -0.05214983 -0.12833633 -0.10436803 -0.038688097 -0.121712714 -0.10087116
0.060473595 -0.11078184 0.08365406 0.082982205 0.018262882 0.09747104 0.06761884 0.06807157
0.09387125 -0.11522815 -0.039372656 0.054590378 0.104379095 0.08604227 -0.039265748 0.01222504
0.062298387 -0.061085284 -0.0877812 -0.07049128 0.01368718 0.06710966 0.011464832 -0.10308039
-0.050510243 0.099044085 0.11714062 -0.061471056 0.107235245 -0.028739287 -0.10262641 0.108155444
0.01402405 0.120274514 -0.038922142 -0.07116279 -0.054967083 -0.08770898 -0.04483608 -0.053356823
0.15717024 0.204099 0.0038659424 0.1717978 0.49958017 0.12886994 0.19457407 0.1177254
-0.004720986 -0.4677232 0.47010496 -0.03609275 0.3533264 0.30771726 0.16865599 0.26487643
0.20705166 0.16673997 0.21776108 0.05796728 0.1778934 0.19105408 0.053214163 0.13285159
0.26004645 0.3783795 -0.14477247 0.24945249 0.19110899 -0.10206097 0.19551915 0.12646997
0.27135712 0.36526516 0.058346305 -0.27465928 0.26660374 0.10840264 0.23361337 0.20337701
0.12307343 -0.21520144 0.14802904 -0.30463886 0.01756853 -0.05245471 0.278198 -0.26193848
0.3398825 0.21315321 0.16105375 0.19220723 0.2405412 0.25525448 -0.039223798 0.28704214
0.27843964 -0.15579917 0.24030213 -0.28390995 0.13093439 0.2083807 0.15749754 0.2837142
0.079322346 0.16730258 0.09198977 0.34350997 0.4673025 0.119374 0.07400366 -0.056997836
0.11183514 -0.2728126 0.40197867 0.039303716 0.27316985 0.25352928 0.19637705 0.26166186
0.17907685 0.099893324 0.20578365 0.23575947 0.20874698 0.35098436 -0.04303214 0.075299114
0.14624381 0.42395982 -0.33639768 0.29100862 0.16600187 0.089925006 0.22753082 0.24774933
0.30356944 0.3401378 0.08299762 -0.19448721 0.35763186 0.07809884 0.13778651 0.1820995
0.29239684 -0.14186068 0.18930261 -0.12333418 0.21939339 -0.069465905 0.1265765 -0.1752964
0.38881555 0.19366518 0.25931665 0.08170556 0.20643376 0.34450474 0.069532864 0.19073954
0.21460032 -0.2884823 0.03840893 -0.17473128 0.07289012 0.1788152 0.06387662 0.27843785

critic.4.bias f4 [64]
00000000: 0cf8 e2bd cd89 b4bd 4e5f 7fbd 3b19 c3bb
00000010: d222 333b da28 b63d 01a2 30bd 0c06 edbd
00000020: b6c4 a23d c1a3 03be bdd9 b83d 99de 913d
00000030: ed8b 3d3a fb9b 73bd 87b7 333e 6596 42bd
00000040: 3b33 6a3e 0cd1 41bd 0ce4 b2bd 04cf f9bd
00000050: 74d2 ab3e 9b5d 90bd c75f d33d fb06 e13d
00000060: 5f63 393e 7588 43bd 39e4 9bbb 576c 183e
00000070: 12cc 8cbd e338 403c cbbc 28bd b8bc 8c3e
00000080: a2ec 223d d9fb cf3d 38cc 06bc ba93 fb3c
00000090: 3474 0b3e c73c f0bd eeac 543e 69b5 b53d
000000a0: dd15 7f3d 3800 cdbd 35f9 0f3e 2ff0 9abd
000000b0: e79a 933d f09a 97bc 4fd5 933e ad8a 8c3e
000000c0: 033f ce3d d5e0 053c 9fc0 6cbb e189 093e
000000d0: 0d3e 01bd aa83 793d 0d7f a0bc 406e 643e
000000e0: 3617 e93d 6d0f 96bd 0d62 05be a9e5 823e
000000f0: 7410 53bc 303a 4dbd 29dc 9c3e 9140 06bd
-0.110824674 -0.08815346 -0.06234675 -0.0059539354 0.0027333987 0.088945106 -0.04312325 -0.11573419
0.07947676 -0.12855436 0.09025905 0.07122535 0.00072306284 -0.059474926 0.17550479 -0.04750671
0.22871105 -0.047318503 -0.08734903 -0.12197688 0.33559 -0.07049104 0.103210025 0.109876595
0.18104313 -0.047737557 -0.004757431 0.14885078 -0.06874861 0.011732313 -0.041195672 0.2748773
0.039776452 0.10155458 -0.0082274005 0.03071009 0.13618547 -0.11730342 0.20769092 0.08872492
0.06227671 -0.10009807 0.14059909 -0.07565343 0.0720728 -0.018506497 0.2887368 0.2744955
0.10070612 0.00817128 -0.0036125553 0.13431503 -0.031553317 0.06091658 -0.019591833 0.22307682
0.1138138 -0.07327161 -0.13025685 0.25565842 -0.012882341 -0.05010432 0.3063672 -0.03277642

critic.6.weight f4 [1, 64]
00000000: a5d4 c33b 107d ee3b f801 80be a1c1 76be
00000010: 7e6c b3be b521 c53e 67ca a3be 4d27 cd3d
00000020: 1d59 76be 857c cbbd dbc1 0c3d fbe8 aebe
00000030: a357 97be b162 a8be f2ea c63e 7449 0e3d
00000040: c5b0 d73e f851 7d3d f02a e7bc 0274 f33d
00000050: d990 d43e 8570 82be 99bd b2be 4922 5bbe
00000060: aa1b d13e f8cf 7dbd 41ff 9abe ef26 943e
00000070: c14b 83be ef6d b9be 46d6 5abd da69 ef3e
00000080: 77a3 e33d 4936 8cbe 5eec 123d c0f6 3a3d
00000090: 6251 9dbe 1829 c2bd 2e47 bf3e 1d8f 9ebe
000000a0: 757b 87be a061 afbc 8ff2 b23e 3321 c0be
000000b0: f4fc 72be 8a75 82be 067c 093f 87e4 ae3e
000000c0: 6370 98be 2cd7 6ebe 6593 e23d 7a98 b8be
000000d0: 7eed 003d d06a 193d 507b 83be fc50 e93e
000000e0: 95f4 96be 833c 97be bfaa 86be e547 e03e
000000f0: a19f c0bc d8ec 60bd bb0a b73e cc9b 513d
0.005976277 0.007278092 -0.25001502 -0.24097301 -0.3504371 0.3850228 -0.31990358 0.10017262
-0.24057432 -0.099358596 0.034364562 -0.34162125 -0.2955905 -0.32887796 0.38851124 0.03473802
0.42127052 0.06184575 -0.028218716 0.11887361 0.4151676 -0.2547647 -0.34910277 -0.21399797
0.40841419 -0.061965913 -0.30272868 0.28935954 -0.25643733 -0.36216685 -0.053427003 0.46760446
0.11115163 -0.27385166 0.03586995 0.045645475 -0.30726153 -0.09480494 0.37358993 -0.30968562
-0.26461378 -0.021408856 0.34950683 -0.3752533 -0.23729306 -0.254803 0.5370487 0.34158728
-0.29773244 -0.23324269 0.110632695 -0.3605383 0.03147649 0.03745538 -0.25680017 0.455696
-0.29483476 -0.29538354 -0.26302144 0.4380485 -0.023513617 -0.05491337 0.35750374 0.05117397
