experiments/LunarLander-v2_AC/dqn.pth (torch, 96827 bytes, 13 tensors)

actor.0.weight f4 [128, 8]
0.7887899 0.60718954 0.8524395 -0.5008975 -0.19436124 -0.6438574 -0.3105373 0.49380735
-0.1871848 0.43255672 0.027833166 -0.7308041 1.372809 1.0480984 -0.09056441 0.24311493
0.045967065 -0.8573298 -0.8741883 0.46852288 0.661229 -0.48314118 -0.15903994 0.33982685
-0.13897887 0.36855695 0.66528815 -1.0831181 -0.07346321 0.48598784 0.036043566 -0.45155883
-0.6844328 -0.32336742 -0.6071909 0.028848752 0.7109714 0.8456899 0.33876005 -0.37635356
0.62513065 0.5853478 0.6761649 0.94266444 -1.0521914 -0.956089 -0.7615834 -0.660134
0.057557333 0.21437052 0.4975612 0.9334336 -0.5560964 0.0070426664 -0.59317327 0.094368406
-0.70352614 -0.1390796 -0.59358996 -0.25923234 -0.7153608 0.054852664 -0.5479265 -0.034229245
-0.21030095 0.92549586 -0.24308504 0.64743996 0.26163584 -0.114912696 -0.67661154 0.58052135
-0.4898239 -0.4635855 -0.7564123 0.5388912 0.9493247 0.36519444 -0.20006195 -0.449302
0.17159583 -0.2396509 0.68724006 -0.32774705 0.6150104 0.855508 0.6400091 0.7789561
-0.7160551 -0.79605067 -0.88462585 -0.5286292 -0.06987007 0.72059506 0.12644343 -0.16425821
0.6782514 0.50029397 -0.17177717 0.6492949 0.4111743 0.012113999 0.3369701 -0.0095263
0.4605601 0.20270541 0.3130038 -0.32393306 -1.4208893 -0.3968396 -0.8065437 -0.6252121
-0.64813507 0.58983004 0.23375578 0.6428825 -0.34962067 0.81438863 0.1584911 0.062678315
-0.5702486 0.3580589 -0.39827034 -0.70168126 -0.6739124 -0.8898373 -0.7363124 -0.6244286
0.7309482 -0.95276725 0.14465757 0.17151777 -0.48809248 0.9014878 -0.5968055 -0.3143193
-0.13565733 -0.45782444 -0.64838743 0.849163 -0.70398706 0.72610515 0.5340791 0.22625148
0.41979 0.31769854 0.21940304 0.81519383 -1.5135133 -0.87679446 0.5520205 -0.59939086
-0.8081015 -0.7079589 -0.967432 0.5657733 0.49344647 0.29128835 -0.1894299 0.56432027
-0.28856188 0.32377875 -0.36647642 0.15846944 -1.5479416 0.19317386 0.119420335 0.5790213
0.46317476 -0.033443887 -0.19560868 0.34568927 -0.897473 -0.023756694 0.016206311 0.6282503
-0.73570424 -0.32813466 -0.3993426 -0.19946054 0.50556767 -0.66580844 0.6300951 -0.29307583
0.67176616 -0.36671472 -0.47622955 0.53324246 -0.32838267 -0.24463895 -0.598971 0.7612546
-0.7644787 -0.8525866 -0.49358252 0.05272309 -0.2878921 0.66685563 0.42257875 0.60845006
0.16341631 0.5344507 0.32650563 -0.023054507 1.2750529 0.9950779 -0.051539447 -0.14312263
0.049850095 0.41547182 0.4203347 0.09239135 1.3598751 -0.45910865 0.4751228 0.02265056
-0.61618996 0.19272567 -0.39037234 -0.29144996 0.30209163 0.9472619 0.2646024 0.70241964
0.5095437 0.6306887 -0.29414296 0.2688998 1.2985079 0.88616234 0.7654594 -0.23780435
0.5102428 0.20099315 0.3849856 -0.9308155 0.55147 0.6708916 -0.17335965 0.7810639
-0.26108307 -0.3619819 0.49966213 0.17426807 -0.6922299 0.28353286 0.34929395 0.5488943
-0.25459814 -0.25753152 0.13007207 0.47303 -1.3968878 -0.4398195 -0.76394755 0.7498508
00000000: 23ee 493f c670 1b3f 7a39 5a3f d23a 00bf
00000010: a206 47be d7d3 24bf bffe 9ebe 51d4 fc3e
00000020: 5fad 3fbe 1378 dd3e 6102 e43c fa15 3bbf
00000030: 35b8 af3f 1728 863f d579 b9bd 1ff3 783e
00000040: f647 3c3d f779 5bbf ceca 5fbf 3be2 ef3e
00000050: 4e46 293f 485e f7be 5edb 22be c9fd ad3e
00000060: 7a50 0ebe 7fb3 bc3e 5350 2a3f 9da3 8abf
00000070: e173 96bd 66d3 f83e 6ba2 133d b832 e7be
00000080: fd36 2fbf 6a90 a5be dd70 1bbf 3854 ec3c
00000090: 3902 363f 227f 583f f571 ad3e 6ab1 c0be
000000a0: 9008 203f 5ad9 153f 2519 2d3f 7552 713f
000000b0: 35ae 86bf 40c2 74bf 21f7 42bf 8bfe 28bf
000000c0: 3dc1 6b3d f283 5b3e 57c0 fe3e 81f5 6e3f
000000d0: 555c 0ebf 2bc6 e63b 34da 17bf 3944 c13d
000000e0: 4a1a 34bf e26a 0ebe 83f5 17bf 1aba 84be
000000f0: e321 37bf 30ad 603d e944 0cbf f733 0cbd
00000100: 2259 57be 4ced 6c3f 49eb 78be a0be 253f
00000110: 22f5 853e 5957 ebbd 6a36 2dbf 0c9d 143f
00000120: 33ca fabe 145b edbe 3da4 41bf c6f4 093f
00000130: f206 733f c4fa ba3e 0add 4cbe e90a e6be
00000140: d1b6 2f3e 0c67 75be f7ee 2f3f 76ce a7be
00000150: 5271 1d3f 9302 5b3f a3d7 233f ab69 473f
00000160: 634f 37bf fac9 4bbf d776 62bf 3e54 07bf
00000170: 0a18 8fbd eb78 383f 637a 013e 4e33 28be
00000180: e2a1 2d3f 4413 003f 5be6 2fbe 3138 263f
00000190: 7085 d23e cb79 463c 5887 ac3e 3314 1cbc
000001a0: 89ce eb3e 0292 4f3e 0942 a03e 8eda a5be
000001b0: b3df b5bf 8f2e cbbe a679 4ebf e60d 20bf
000001c0: 2eec 25bf 1aff 163f ad5d 6f3e f393 243f
000001d0: 7b01 b3be c67b 503f 7e4b 223e 7d5d 803d
000001e0: d0fb 11bf 7f53 b73e 17ea cbbe 62a1 33bf
000001f0: 8685 2cbf 61cc 63bf f87e 3cbf 8dda 1fbf
00000200: 6c1f 3b3f 8ee8 73bf 1d21 143e 5ba2 2f3e
00000210: 42e7 f9be e8c7 663f 3fc8 18bf 76ee a0be
00000220: c1e9 0abe f767 eabe b8fc 25bf bf62 593f
00000230: 7f38 34bf 07e2 393f 68b9 083f 78ae 673e
00000240: b7ee d63e 62a9 a23e 31ab 603e 8bb0 503f
00000250: ceba c1bf 9a75 60bf 3751 0d3f ae71 19bf
00000260: bddf 4ebf cb3c 35bf a0a9 77bf 85d6 103f
00000270: 04a5 fc3e bf23 953e e9f9 41be 4b77 103f
00000280: 62be 93be 54c6 a53e cca2 bbbe d045 223e
00000290: f322 c6bf 5ecf 453e a692 f43d bd3a 143f
000002a0: 3e25 ed3e 75fc 08bd a44d 48be 2ffe b03e
000002b0: cac0 65bf 669d c2bc 19c3 843c 03d5 203f
000002c0: 1d57 3cbf 4401 a8be a276 ccbe 623f 4cbe
000002d0: e26c 013f 6c72 2abf ea4d 213f 090e 96be
000002e0: def8 2b3f 08c2 bbbe 5cd4 f3be 9482 083f
000002f0: c621 a8be a282 7abe 2a56 19bf 95e1 423f
00000300: e0b4 43bf 1e43 5abf d9b6 fcbe 2bf4 573d
00000310: 9866 93be 0db7 2a3f 3e5c d83e 62c3 1b3f
00000320: 9b56 273e c3d1 083f bf2b a73e cedc bcbc
00000330: ef34 a33f 6dbd 7e3f 071b 53bd bd8e 12be
00000340: 9d2f 4c3d b9b8 d43e 1c36 d73e ad37 bd3d
00000350: 6310 ae3f 4a10 ebbe 4c43 f33e ab8d b93c
00000360: a0be 1dbf e159 453e e2de c7be ee38 95be
00000370: c1ab 9a3e c27f 723f f779 873e c6d1 333f
00000380: 7571 023f d174 213f e899 96be 3cad 893e
00000390: 8235 a63f 89db 623f 26f5 433f fc82 73be
000003a0: 469f 023f 26d1 4d3e d51c c53e ed49 6ebf
000003b0: 232d 0d3f 8dbf 2b3f 3185 31be cef3 473f
000003c0: aeac 85be b155 b9be b7d3 ff3e 5473 323e
000003d0: fb35 31bf 382b 913e a8d6 b23e 5684 0c3f
000003e0: b05a 82be 2cdb 83be 9d31 053e fd30 f23e
000003f0: 38cd b2bf 0630 e1be 1192 43bf 39f6 3f3f

actor.0.bias f4 [128]
-0.08176198 0.071263984 -0.060366932 0.08483473 0.16773747 0.1694467 0.13286811 -0.2709656
-0.031328667 0.14601934 -0.029453555 -0.18646982 -0.032954447 0.09782595 -0.20147887 -0.1423615
0.17811264 -0.010951774 0.27619383 -0.26063234 0.12561262 0.31573755 -0.23956431 0.02026918
0.1554364 0.049659204 0.22755127 -0.030649578 -0.23196566 -0.26177976 0.08447072 0.3961169
0.2517318 -0.068950765 0.10515939 0.23966902 0.039903365 -0.0590066 -0.2653275 0.13577902
0.22202416 -0.0049962886 0.20865224 -0.14202331 0.32767737 -0.07094648 0.07304671 -0.09060652
-0.02855327 0.10046771 0.15225458 -0.33655125 0.031605273 0.26118723 -0.09011808 -0.033635
-0.09114533 -0.11699582 0.27691096 0.045519046 -0.0690345 -0.0715191 -0.2865401 -0.010832258
0.172856 0.19600785 -0.040387485 -0.22431995 -0.09425415 0.11299951 0.31726947 -0.17897092
-0.010297965 0.2915251 0.118463546 -0.07982846 0.07596472 -0.16779312 -0.11763372 0.16316035
-0.0225417 0.27822572 0.11093114 -0.12791882 -0.18961222 -0.1633325 0.020441554 0.32665002
0.22976701 -0.0021076028 0.10047501 -0.12918413 -0.2617984 0.19425614 -0.20439468 -0.19931053
0.13638926 0.17552954 0.18784073 0.23385805 0.2229753 0.35707194 -0.15498255 0.040708236
0.17516597 -0.15990777 -0.3092816 -0.4073323 0.28261042 0.024721388 -0.06396627 -0.2778662
0.15137488 0.05991955 -0.33112392 0.17179668 0.051833585 -0.00023845244 -0.25562757 -0.10464282
0.0760312 -0.32043913 0.28664517 -0.17915489 -0.13754648 0.079083264 0.13899057 -0.1107162
00000000: d372 a7bd daf2 913d 5143 77bd d5bd ad3d
00000010: 5fc3 2b3e 7083 2d3e 940e 083e 01bc 8abe
00000020: 7d52 00bd 1886 153e 9548 f1bc f2f1 3ebe
00000030: 3efb 06bd f958 c83d 7a50 4ebe 37c7 11be
00000040: 2963 363e 126f 33bc 4769 8d3e 9a71 85be
00000050: 98a0 003e 5aa8 a13e 5950 75be 8d0b a63c
00000060: b82a 1f3e 7367 4b3d 3303 693e d314 fbbc
00000070: 6888 6dbe ff07 86be fcfe ac3d d6cf ca3e
00000080: fee2 803e 0f36 8dbd ce5d d73d cc6b 753e
00000090: b671 233d e8b0 71bd 02d9 87be a809 0b3e
000000a0: 4d5a 633e e8b7 a3bb efa8 553e 8f6e 11be
000000b0: 54c5 a73e 634c 91bd 8399 953d e98f b9bd
000000c0: 8ce8 e9bc 04c2 cd3d a0e8 1b3e 7250 acbe
000000d0: 8874 013d 55ba 853e d48f b8bd dbc4 09bd
000000e0: 67aa babd 819b efbd 46c7 8d3e 2e72 3a3d
000000f0: f661 8dbd 9b78 92bd 62b5 92be c879 31bc
00000100: 2a01 313e 48b6 483e 596d 25bd 21b4 65be
00000110: 5208 c1bd 496c e73d 2571 a23e 2744 37be
00000120: ccb8 28bc c742 953e 049d f23d 1b7d a3bd
00000130: 6493 9b3d f6d1 2bbe f3e9 f0bd 8213 273e
00000140: 5fa9 b8bc 9a73 8e3e de2f e33d 27fd 02be
00000150: b529 42be a340 27be 0c75 a73c ac3e a73e
00000160: 0b48 6b3e b51f 0abb d8c5 cd3d d848 04be
00000170: 710a 86be 15eb 463e d74c 51be 0f18 4cbe
00000180: a0a9 0b3e 04be 333e 5259 403e 7c78 6f3e
00000190: a353 643e 22d2 b63e bfb3 1ebe aebd 263d
000001a0: b55e 333e ddbe 23be 285a 9ebe dc8d d0be
000001b0: 50b2 903e 8284 ca3c bf00 83bd 7b44 8ebe
000001c0: 0402 1b3e 346e 753d 1389 a9be 78eb 2f3e
000001d0: 744f 543d 1709 7ab9 9ee1 82be fa4e d6bd
000001e0: 3fb6 9b3d 9910 a4be 28c3 923e 6174 37be
000001f0: fcd8 0cbe 68f6 a13d 8b53 0e3e 2dbf e2bd

actor.2.weight f4 [64, 128]
-0.083194695 0.03322617 0.29048946 0.22343652 -0.047373112 0.09863487 -0.14406161 -0.067220345
-0.10508413 0.16666102 0.056107268 0.28544387 -0.024248883 0.06030879 0.02444756 0.12288564
-0.058314856 0.12166855 0.015082001 0.09273322 -0.29213646 -0.0066573853 0.14737764 -0.022503443
-0.116421916 -0.05105233 0.055039633 -0.104747236 -0.01861506 0.110873096 -0.06551459 -0.19218026
0.22490534 0.026640572 0.20568918 -0.21184587 -0.1435453 0.26995966 -0.1758802 -0.008080102
0.10969381 0.12551118 0.22440982 0.095521316 0.1637609 -0.26589042 0.1682043 0.12094298
0.075536214 0.10066977 0.06437712 0.15307817 0.11511246 -0.07272058 0.13700391 0.029192902
0.13483866 -0.20955688 -0.17353922 0.105289444 -0.017964527 0.023440043 -0.07777891 0.14588799
0.14719452 -0.18963389 -0.13567907 0.025653372 0.15465389 -0.15622118 0.13899502 0.19639894
0.0038055805 -0.14502792 -0.07936598 0.096780576 0.10162697 -0.15744464 0.18490437 0.03154207
0.097433634 0.07896008 0.11343277 0.07169665 -0.19505757 -0.39869633 0.10307372 -0.10104132
0.10121766 0.0041354806 -0.07435251 -0.30799758 0.05875777 0.07898752 -0.18114966 -0.2723103
0.05649911 -0.06798212 0.29708588 0.12802988 -0.11352522 0.011499926 0.31959528 0.09940968
0.110293284 -0.08847651 0.21831779 0.05258683 -0.14296809 -0.033184845 -0.050530516 -0.0845857
0.05303526 0.008748701 -0.09954482 0.1391802 -0.026268555 0.30445805 0.015730154 0.31061497
-0.09787013 0.25695512 0.008448118 -0.37902063 0.046544768 0.22259617 0.015464015 0.15430084
-0.14481586 0.25487408 0.28676838 0.2712325 -0.055121623 -0.21334219 0.06985093 0.12489798
0.084466875 0.196134 0.11053669 0.034772072 -0.1845097 0.12146654 -0.036487054 -0.16600907
0.21822208 0.00033819105 -0.032222297 0.016351575 0.11887652 -0.08569214 -0.0074090203 -0.17156288
0.1897912 0.17765673 0.07244856 -0.05131112 0.110973366 0.14971104 0.16429392 -0.00088245946
0.11439975 0.09894843 -0.16863856 -0.048804846 0.029708017 0.28294048 0.106381096 -0.2481209
0.25517285 -0.18298917 0.1850256 0.05690394 0.06073607 0.076589406 0.09914609 -0.05730841
0.05144055 -0.022293082 -0.12528482 0.24614002 -0.0047419476 0.031082131 0.1557052 0.054362286
0.23534325 -0.04377882 -0.22097178 -0.0069115614 -0.00031355376 0.009267259 -0.1371756 0.061961263
0.0043753306 0.020339586 0.10724161 0.15706472 -0.16631399 -0.11144016 0.09502826 -0.12136884
-0.07984608 0.29140303 -0.08589374 -0.14070106 0.13113624 0.12479457 0.18784417 0.12068503
0.024734545 0.075348124 0.102958694 0.017300917 0.29754296 0.07205934 0.17899877 -0.028453134
0.16419919 0.048680943 -0.2668936 -0.08320647 0.19086725 0.15247773 -0.11998106 -0.013743353
0.22073299 0.17825557 -0.04647248 0.23325896 -0.07766974 -0.07055023 0.15804152 0.046474226
-0.031568777 -0.14024101 0.14495341 0.20674601 0.16820683 -0.16568272 0.1730003 0.24964835
0.050921682 -0.009206155 0.12556736 -0.107222654 0.375748 -0.18038413 0.0079672495 -0.12778324
0.09854282 0.16157986 0.03898794 -0.04932088 -0.12147403 0.17208129 0.3067668 0.25289887
00000000: fb61 aabd 2a18 083d 09bb 943e 8bcc 643e
00000010: 4f0a 42bd 1401 ca3d e384 13be d2aa 89bd
00000020: 5936 d7bd 30a9 2a3e bcd0 653d b325 923e
00000030: 98a5 c6bc 5a06 773d 4046 c83c 77ab fb3d
00000040: 8fdb 6ebd 5c2d f93d 7f1a 773c eaea bd3d
00000050: e992 95be 3226 dabb 2aea 163e 2459 b8bc
00000060: 9d6e eebd 3f1c 51bd 3d71 613d b885 d6bd
00000070: 9c7e 98bc 6f11 e33d 832c 86bd e7ca 44be
00000080: 964d 663e 543d da3c 2fa0 523e 20ee 58be
00000090: 8afd 12be 2738 8a3e f019 34be 6762 04bc
000000a0: 26a7 e03d 0186 003e b0cb 653e aea0 c33d
000000b0: f0b0 273e ca22 88be bf3d 2c3e f4b0 f73d
000000c0: bbb2 9a3d f42b ce3d 27d8 833d 86c0 1c3e
000000d0: 15c0 eb3d 87ee 94bd c14a 0c3e f425 ef3c
000000e0: 2513 0a3e 1496 56be 44b4 31be fea1 d73d
000000f0: 582a 93bc 5505 c03c 8d4a 9fbd a963 153e
00000100: 29ba 163e 632f 42be 74ef 0abe 0527 d23c
00000110: 975d 1e3e 72f8 1fbe b654 0e3e ce1c 493e
00000120: 0c67 793b 3382 14be a28a a2bd e534 c63d
00000130: cd21 d03d 2b39 21be 9257 3d3e 4232 013d
00000140: 498b c73d d3b5 a13d 714f e83d b1d5 923d
00000150: 2cbd 47be ed21 ccbe 5118 d33d c0ee cebd
00000160: 344b cf3d ed82 873b 2146 98bd dcb1 9dbe
00000170: fdab 703d 35c4 a13d 4c7f 39be 416c 8bbe
00000180: 9c6b 673d 363a 8bbd a41b 983e 441a 033e
00000190: e97f e8bd 306a 3c3c fea1 a33e 4d97 cb3d
000001a0: 72e1 e13d 2c33 b5bd b38e 5f3e 4a65 573d
000001b0: 3a66 12be d5ec 07bd 16f9 4ebd 443b adbd
000001c0: 803b 593d b656 0f3c 28de cbbd 4185 0e3e
000001d0: 2731 d7bc ede1 9b3e 86dc 803c ed08 9f3e
000001e0: 2270 c8bd 9f8f 833e fa69 0a3c fe0e c2be
000001f0: baa5 3e3d 40f0 633e c85c 7d3c 0a01 1e3e
00000200: 9c4a 14be db7e 823e 4ed3 923e fcde 8a3e
00000210: 36c7 61bd 6076 5abe 010e 8f3d 83ca ff3d
00000220: f8fc ac3d 5ad7 483e 0f61 e23d 296d 0e3d
00000230: 1cf0 3cbe 73c3 f83d 7373 15bd 48fe 29be
00000240: 9c75 5f3e 3c4f b139 87fb 03bd bdf3 853c
00000250: 8875 f33d 5c7f afbd 5ec7 f2bb 2eae 2fbe
00000260: a058 423e a5eb 353e e95f 943d 9c2b 52bd
00000270: 0146 e33d da4d 193e aa3c 283e da54 67ba
00000280: 6b4a ea3d 79a5 ca3d 96af 2cbe 97e7 47bd
00000290: 3a5e f33c 93dd 903e 55de d93d 6813 7ebe
000002a0: 04a6 823e 8361 3bbe 5a77 3d3e 1b14 693d
000002b0: 63c6 783d e8da 9c3d 1b0d cb3d 39bc 6abd
000002c0: 53b3 523d fb9f b6bc aa4a 00be 210c 7c3e
000002d0: 5762 9bbb f49f fe3c 2f71 1f3e fdaa 5e3d
000002e0: d2fd 703e 6c51 33bd 6d46 62be 617a e2bb
000002f0: 7964 a4b9 b4d5 173c c377 0cbe 18cb 7d3d
00000300: ef5e 8f3b 349f a63c 7da1 db3d 93d5 203e
00000310: 374e 2abe bd3a e4bd 2d9e c23d 3a90 f8bd
00000320: 5786 a3bd c732 953e 0fe9 afbd f013 10be
00000330: 9448 063e 4c94 ff3d 395a 403e b729 f73d
00000340: 1aa0 ca3c 1e50 9a3d 02dc d23d a7ba 8d3c
00000350: 8d57 983e d993 933d 744b 373e 8c16 e9bc
00000360: d523 283e ab65 473d 47a6 88be 2768 aabd
00000370: b472 433e 1f23 1c3e a1b8 f5bd cd2b 61bc
00000380: d407 623e a188 363e ed59 3ebd 70db 6e3e
00000390: 5011 9fbd a47c 90bd a3d5 213e c25b 3e3d
000003a0: 434e 01bd 579b 0fbe ab6e 143e 3ab5 533e
000003b0: 693e 2c3e bba8 29be fe26 313e d1a3 7f3e
000003c0: 4193 503d 6ad5 16bc bb94 003e 8d97 dbbd
000003d0: 0b62 c03e 9eb6 38be 1189 023c 9cd9 02be
000003e0: d1d0 c93d 3175 253e d1b1 1f3d b104 4abd
000003f0: 60c7 f8bd 1436 303e 8a10 9d3e f67b 813e

actor.2.bias f4 [64]
0.06352718 0.047857653 0.06143715 0.11580482 0.042374052 0.028083017 0.08788464 0.062483463
-0.011471411 0.039371338 0.014590524 -0.0002640685 -0.0804333 -0.040867746 -0.06516685 -0.01574192
0.026595049 0.0642109 0.11141579 -0.0066630864 0.060994755 -0.06318769 -0.048876684 -0.07130148
-0.14061207 -0.10830383 -0.035971675 -0.07313052 0.085792094 0.013537195 0.06867306 -0.005382729
0.09135729 -0.0011650892 -0.041086044 -0.06538488 0.031080257 -0.015363494 -0.055017635 0.05380254
0.06562686 -0.03194399 -0.0016930739 -0.030973487 0.0072734207 0.04647142 0.03189526 0.007453724
0.06432591 -0.004537606 0.043183148 -0.013575 0.04919772 0.05124753 -0.14580017 -0.066430084
-0.0727862 0.08759351 -0.111506954 0.037454627 0.039520994 0.030972887 -0.037042867 0.06682797
00000000: 8a1a 823d 6306 443d 85a5 7b3d 142b ed3d
00000010: 6a90 2d3d 5b0e e63c ddfc b33d a9ee 7f3d
00000020: 96f2 3bbc d743 213d 180d 6f3c ad72 8ab9
00000030: 37ba a4bd f064 27bd 3376 85bd 33f5 80bc
00000040: dcdd d93c 0181 833d f62d e43d 0556 dabb
00000050: a3d5 793d 8c68 81bd eb32 48bd 8306 92bd
00000060: 9cfc 0fbe 66ce ddbd 0957 13bd 74c5 95bd
00000070: c4b3 af3d 1ccb 5d3c 76a4 8c3d 9b61 b0bb
00000080: 8819 bb3d e8b5 98ba d749 28bd 82e8 85bd
00000090: 069c fe3c 2ab7 7bbc 2c5a 61bd 0d60 5c3d
000000a0: 6067 863d b4d7 02bd 22ea ddba 1cbc fdbc
000000b0: e055 ee3b d158 3e3d 9ba4 023d 5e3e f43b
000000c0: 4dbd 833d 33b0 94bb d0e0 303d ad69 5ebc
000000d0: 8c83 493d eee8 513d a44c 15be 7f0c 88bd
000000e0: ee10 95bd 3a64 b33d c25d e4bd 066a 193d
000000f0: c4e0 213d daba fd3c 43ba 17bd 1add 883d

actor.4.weight f4 [4, 64]
0.0014513774 -0.2604114 0.13155949 -0.10996947 0.27640453 0.07477685 -0.0685265 0.23446374
-0.07201424 -0.09959859 0.15594949 -0.05235758 -0.01887781 -0.123741634 0.24365628 0.24582604
0.2549729 -0.108355224 -0.14514908 -0.26526347 -0.28335738 -0.16435051 0.0827537 0.00931223
-0.14256613 -0.3096925 -0.03801807 -0.15907095 -0.28478467 0.093812674 -0.2120235 0.12658449
-0.070131205 0.18004258 0.08481636 -0.11995952 -0.41000834 0.22093955 0.16296107 0.100394025
-0.08251079 -0.23571266 -0.29260954 0.0078833075 -0.3355983 0.205691 0.1756972 0.2420653
0.1161885 0.123535454 0.092636794 0.019923998 -0.3170919 0.09760052 0.028004982 0.102793746
-0.13545556 0.09627579 -0.075639784 -0.44329727 0.05451868 0.16637845 -0.08480631 -0.043617327
-0.15915254 0.06682809 -0.56332654 0.0020064837 -0.09756402 0.30916184 -0.40753937 0.057607394
-0.13263461 -0.17179441 0.043904558 0.03259422 -0.20328441 -0.0141664995 -0.2437799 0.27059734
-0.16824521 0.41371036 0.13781843 -0.16058247 -0.29872525 -0.3542012 0.33224422 0.19944607
0.17907763 -0.2561907 -0.099543445 0.020978706 -0.24661954 -0.09123785 0.17758356 0.27402684
0.34853816 0.41986364 0.013042437 0.4085485 0.29181266 -0.4169532 0.3816175 -0.036367904
0.41139382 0.20820688 0.32011363 -0.0021253047 0.18181899 -0.2578286 0.15215208 0.22294934
-0.45317563 -0.26228675 -0.06453332 -0.03880807 0.40946677 0.4603992 0.21804973 -0.29399136
-0.015140285 0.2810665 -0.21647283 0.137681 -0.36310506 0.20672202 -0.2211595 0.12657487
0.33154678 0.18128745 0.11144854 -0.102984875 0.20596032 -0.3383302 0.20311335 -0.27020353
0.021004729 -0.50869197 -0.3050632 0.2881822 -0.1462996 0.18903969 0.012543744 0.008377339
-0.21438326 0.12921868 0.38789576 0.22532356 0.2675616 0.10230243 -0.23451358 -0.19733676
-0.22865455 -0.26471555 0.1288136 -0.061054338 -0.16879669 0.21774028 0.3642914 -0.3467822
0.40075764 -0.43650767 0.21438083 0.19744319 0.10341577 0.4190213 -0.15153833 -0.057878215
-0.38856587 -0.3928065 -0.008255871 -0.30898988 0.0011179794 -0.4353303 0.3232951 0.16195804
0.05325252 -0.19137694 0.27800232 -0.109034345 -0.09508132 0.11871303 0.05923792 -0.0076119695
-0.36064696 0.2825585 -0.18445948 0.41300774 0.107773155 0.25455874 -0.01406044 0.37838858
0.00773653 0.2780449 0.54874444 0.3373556 -0.15123756 0.3777052 0.077548616 0.07348879
-0.2793263 0.22263163 -0.20259205 -0.11408326 -0.17861588 0.18550482 -0.179112 -0.4226792
0.056203466 -0.5152573 0.09593613 0.4656079 0.057535395 -0.06735392 0.1365779 0.08515724
0.089505024 0.005896057 0.37529597 -0.10114314 0.4755798 -0.1942293 0.28805557 0.2729716
-0.33662826 -0.010070684 -0.38966644 -0.35463506 0.15817976 -0.08608782 -0.15607907 0.3911885
0.08807548 0.2779156 -0.21104942 0.2065686 0.16376415 0.49083325 0.23222513 -0.24851167
0.4621703 0.5386222 -0.096230604 -0.17311957 0.004407357 -0.14641109 -0.082157426 0.0962476
0.022843912 -0.17871733 -0.16526158 -0.21286257 0.50462687 0.083546326 -0.096276484 0.29583552
00000000: 253c be3a a554 85be 88b7 063e ac37 e1bd
00000010: e584 8d3e 9b24 993d 9f57 8cbd 4317 703e
00000020: 347c 93bd 58fa cbbd 39b1 1f3e e774 56bd
00000030: a3a5 9abc 416c fdbd 0881 793e d2b9 7b3e
00000040: cf8b 823e 58e9 ddbd f6a1 14be 9dd0 87be
00000050: 3814 91be 804b 28be c67a a93d 5392 183c
00000060: dbfc 11be 0490 9ebe d6b8 1bbd 7fe3 22be
00000070: 4ccf 91be dc20 c03d b01c 59be 5d9f 013e
00000080: f3a0 8fbd 155d 383e 33b4 ad3d 56ad f5bd
00000090: 9dec d1be fa3d 623e 44df 263e 629b cd3d
000000a0: 6bfb a8bd a95e 71be ebd0 95be fd28 013c
000000b0: 8ad3 abbe a9a0 523e f7e9 333e f7df 773e
000000c0: 3cf4 ed3d 2800 fd3d 5cb8 bd3d a737 a33c
000000d0: df59 a2be c8e2 c73d b46a e53c 8785 d23d
000000e0: ddb4 0abe 3e2c c53d 08e9 9abd dcf7 e2be
000000f0: fb4e 5f3d 1d5f 2a3e eeae adbd 15a8 32bd
00000100: e2f8 22be 2add 883d 2b36 10bf 367f 033b
00000110: a5cf c7bd 764a 9e3e 00a9 d0be bbf5 6b3d
00000120: 5ed1 07be e0ea 2fbe 44d5 333d 8481 053d
00000130: ca29 50be 9b1a 68bc 70a1 79be bc8b 8a3e
00000140: 7948 2cbe d8d1 d33e 4620 0d3e bb6f 24be
00000150: 84f2 98be dc59 b5be ea1b aa3e 973b 4c3e
00000160: 2060 373e 6d2b 83be 6fdd cbbd 89db ab3c
00000170: d589 7cbe e9da babd 77d8 353e 3f4d 8c3e
00000180: 9873 b23e 5ef8 d63e f2af 553c 452d d13e
00000190: 7868 953e e47a d5be 5e63 c33e 83f6 14bd
000001a0: 36a2 d23e 2f34 553e efe5 a33e b248 0bbb
000001b0: c22e 3a3e 1c02 84be c1cd 1b3e d54c 643e
000001c0: a306 e8be 734a 86be 0c2a 84bd 36f5 1ebd
000001d0: a1a5 d13e 72b9 eb3e 6e48 5f3e 0986 96be
000001e0: f50e 78bc f3e7 8f3e 0eab 5dbe 40fc 0c3e
000001f0: e8e8 b9be f0ae 533e a377 62be d89c 013e
00000200: 80c0 a93e 6ba3 393e 223f e43d bce9 d2bd
00000210: 43e7 523e 9e39 adbe f2fc 4f3e 1e58 8abe
00000220: 1c12 ac3c a339 02bf 3e31 9cbe 9e8c 933e
00000230: 90cf 15be 9f93 413e 4784 4d3c 1b41 093c
00000240: 4987 5bbe e751 043e 469a c63e 38bb 663e
00000250: d6fd 883e f083 d13d 5424 70be a612 4abe
00000260: 6b24 6abe cc88 87be b6e7 033e 1d14 7abd
00000270: 0ad9 2cbe 4ff7 5e3e 6784 ba3e 708d b1be
00000280: 1b30 cd3e ef7d dfbe a686 5b3e 8c2e 4a3e
00000290: a6cb d33d f689 d63e dd2c 1bbe b511 6dbd
000002a0: 1bf2 c6be ef1d c9be a243 07bc ec33 9ebe
000002b0: 2a89 923a 9de3 debe ef86 a53e 54d8 253e
000002c0: 501f 5a3d 51f8 43be 5256 8e3e 664d dfbd
000002d0: ffb9 c2bd d11f f33d 76a3 723d d46d f9bb
000002e0: b8a6 b8be 82ab 903e f2e2 3cbe c075 d33e
000002f0: 2cb8 dc3d 8655 823e c25d 66bc 26bc c13e
00000300: b882 fd3b e75b 8e3e 847a 0c3f e0b9 ac3e
00000310: 05de 1abe 9362 c13e cfd1 9e3d 4a81 963d
00000320: db03 8fbe 8cf9 633e 4a74 4fbe 7ca4 e9bd
00000330: 15e7 36be faf4 3d3e 2369 37be 6869 d8be
00000340: 9b35 663d e7e7 03bf 297a c43d 2964 ee3e
00000350: 3caa 6b3d daf0 89bd 14db 0b3e eb66 ae3d
00000360: 694e b73d b633 c13b cb26 c03e 2224 cfbd
00000370: 327f f33e 0ce4 46be 057c 933e efc2 8b3e
00000380: 8a5a acbe 83ff 24bc 5c82 c7be ba92 b5be
00000390: e0f9 213e d04e b0bd 31d3 1fbe dc49 c83e
000003a0: eb60 b43d f44a 8e3e 571d 58be b886 533e
000003b0: cab1 273e 7f4e fb3e 6dcc 6d3e d879 7ebe
000003c0: 96a1 ec3e 25e3 093f 8d14 c5bd 4246 31be
000003d0: 976b 903b caec 15be 2742 a8bd 761d c53d
000003e0: 2823 bb3c ad01 37be 553a 29be a5f8 59be
000003f0: 3a2f 013f 561a ab3d 9b2c c5bd c177 973e

actor.4.bias f4 [4]
-0.07802089 0.055387087 -0.052959282 0.16988681
00000000: 6bc9 9fbd 92dd 623d d5eb 58bd cff6 2d3e

critic.0.weight f4 [128, 8]
0.09580372 0.10035326 0.2809874 0.1732602 -0.48245162 -0.40692505 -0.36987892 -0.0055628377
-0.45799002 -0.16419676 -0.3970654 -0.25734887 0.6534233 0.4583636 0.030437673 -0.23760454
-0.5313555 -0.109421186 -0.0019590622 -0.08068718 -0.10275167 -0.19816871 0.14887993 0.083650015
-0.22247691 0.091671646 -0.26590863 -0.11814559 -0.15974286 -0.3880943 0.12113311 0.28630105
-0.3179975 -0.27516478 -0.4605632 -0.33503646 0.49145117 0.16002499 0.16267319 0.32490787
0.36344066 0.0170549 0.08381163 0.20644067 -0.053406972 0.29952133 -0.18622623 -0.43561372
-0.3329152 0.157566 0.22200942 -0.02670538 0.44094738 0.33536053 -0.054864552 -0.17837183
-0.43682092 -0.3353461 0.39688748 0.16625781 0.14258057 -0.33716035 0.12860154 0.00079817284
0.15057512 0.014007889 -0.4348487 -0.038197182 0.17137901 -0.26042134 0.29640248 0.25014186
-0.22090195 0.15689068 -0.101529166 -0.13657327 0.50132596 0.39752954 0.043160465 0.27914968
-0.1760859 -0.11691318 -0.30560988 -0.13534282 0.3411424 0.05197326 -0.23614334 -0.21741702
0.09722153 -0.04136607 0.21404567 0.20587105 -0.24767281 0.14441536 0.009144557 -0.24315055
-0.43514085 0.18649662 0.16681755 0.066755906 0.5743078 -0.33934328 -0.17075807 -0.21544755
-0.26777443 0.029840136 -0.18966912 -0.06393389 0.4547294 0.4684479 0.018508585 -0.17157766
0.14992228 0.30422488 -0.017446984 0.076527365 -0.14928712 -0.15088156 -0.3807797 -0.01746177
-0.13417068 0.49330863 -0.27499104 -0.07516289 -0.09193809 0.17428707 0.24591093 -0.056612834
-0.17412527 0.23866151 -0.30667084 -0.22249307 0.32138374 -0.27321243 -0.0072339727 -0.39845666
-0.34312966 -0.08615813 -0.35454482 -0.122987516 0.5391042 0.1889977 0.21623386 0.092052214
0.50508296 -0.07609143 0.15794715 -0.04984372 -0.3261132 -0.28236353 -0.24142787 -0.16069908
0.28994474 0.46390584 -0.17125641 -0.47806305 -0.12214991 0.16531372 -0.4847194 -0.1664497
-0.20636086 0.21943091 -0.36566225 0.07104223 0.39094275 0.19157086 -0.29125744 -0.06890907
-0.054797363 0.5331086 -0.27194357 -0.27710566 -0.32147434 0.18252127 -0.23409301 -0.09190439
0.08252206 -0.15642174 -0.22087482 -0.34046552 0.40718064 0.112566896 -0.15617457 0.37399623
-0.032332856 -0.35152563 -0.1283852 -0.0810736 0.24896973 0.3966808 0.030247752 0.22343163
0.5851783 -0.16961536 0.2230174 0.18532431 -0.12475268 0.26286247 0.361297 0.18538184
0.20419808 -0.13538446 0.2986496 -0.16662927 -0.24480309 -0.036465745 0.12197517 0.04066895
-0.5417523 -0.073196486 -0.14300095 0.07304943 0.5464732 -0.05998932 -0.06165952 0.10479604
0.020513859 0.44647002 -0.16010015 0.36615542 0.05364438 0.28572187 -0.37657785 0.15561941
0.052946687 -0.24237779 0.23006983 -0.19836609 -0.0008655091 -0.3408591 0.23373319 -0.093930855
-0.13443235 0.332175 0.22341788 -0.49544588 -0.19834712 -0.0012995006 0.36677936 -0.19625725
-0.20163375 -0.08687635 -0.04054018 -0.6702977 0.4986733 0.18278986 0.16091742 0.08859273
0.22540043 -0.19189413 0.4798499 -0.20494337 -0.20412219 -0.034560155 -0.062296752 0.25714988
00000000: be34 c43d 0386 cd3d 95dd 8f3e 1f6b 313e
00000010: e603 f7be 7b58 d0be c560 bdbe 7748 b6bb
00000020: ab7d eabe 3223 28be 284c cbbe 3bc3 83be
00000030: c046 273f a2ae ea3e 6d58 f93c 9b4e 73be
00000040: ea06 08bf 3718 e0bd 9c63 00bb 523f a5bd
00000050: 786f d2bd bdec 4abe fb73 183e b350 ab3d
00000060: fdd0 63be 58be bb3d 2d25 88be 51f6 f1bd
00000070: a293 23be 4cb4 c6be a314 f83d 0d96 923e
00000080: 91d0 a2be 66e2 8cbe f1ce ebbe e689 abbe
00000090: 7d9f fb3e 97dd 233e cd93 263e 535a a63e
000000a0: e514 ba3e b8b6 8b3c 6fa5 ab3d 2f65 533e
000000b0: 45c1 5abd dc5a 993e 17b2 3ebe c308 dfbe
000000c0: dc73 aabe fb58 213e 7056 633e 3ec5 dabc
000000d0: dbc3 e13e 60b4 ab3e a7b9 60bd 1ba7 36be
000000e0: fea6 dfbe 7cb2 abbe d634 cb3e 7d3f 2a3e
000000f0: a400 123e 48a0 acbe 1fb0 033e 793c 513a
00000100: 5d30 1a3e 5881 653c 7da4 debe a674 1cbd
00000110: fb7d 2f3e f255 85be 11c2 973e 9812 803e
00000120: 1f34 62be f3a7 203e 86ee cfbd ddd9 0bbe
00000130: e656 003f fe88 cb3e 07c9 303d b5ec 8e3e
00000140: dd4f 34be 2d70 efbd e678 9cbe 4f97 0abe
00000150: 37aa ae3e eae1 543d 8fcf 71be 91a2 5ebe
00000160: 151c c73d 786f 29bd ca2e 5b3e dccf 523e
00000170: f19d 7dbe 9fe1 133e 0dd3 153c 75fc 78be
00000180: c8ca debe f8f8 3e3e 38d2 2a3e 52b7 883d
00000190: d605 133f 67be adbe 34db 2ebe 489e 5cbe
000001a0: bb19 89be 4d73 f43c 9f38 42be c5ef 82bd
000001b0: 4bd2 e83e 67d8 ef3e 519f 973c 0eb2 2fbe
000001c0: 3a85 193e 5dc3 9b3e faec 8ebc 61ba 9c3d
000001d0: b9de 18be b280 1abe 8ff5 c2be fc0b 8fbc
000001e0: 0a64 09be f392 fc3e a0cb 8cbe 00ef 99bd
000001f0: 0a4a bcbd 4f78 323e 13d0 7b3e dce2 67bd
00000200: e54d 32be af63 743e f603 9dbe 39d5 63be
00000210: 698c a43e 80e2 8bbe f60a edbb 8302 ccbe
00000220: b1ae afbe ac73 b0bd e686 b5be e1e0 fbbd
00000230: bc02 0a3f 9d88 413e 696c 5d3e df85 bc3d
00000240: 1e4d 013f d3d5 9bbd e6bc 213e ee28 4cbd
00000250: 4ff8 a6be f491 90be de38 77be 4d8e 24be
00000260: a373 943e 1185 ed3e d75d 2fbe aec4 f4be
00000270: bb29 fabd 0048 293e 242d f8be ca71 2abe
00000280: 4350 53be 7fb2 603e 1538 bbbe 977e 913d
00000290: a629 c83e 272b 443e b21f 95be 3320 8dbd
000002a0: 3373 60bd ce79 083f 303c 8bbe cbe0 8dbe
000002b0: 4998 a4be dbe6 3a3e 14b6 6fbe 5e38 bcbd
000002c0: 5301 a93d 052d 20be 022d 62be 7f51 aebe
000002d0: fb79 d03e 7989 e63d 3aec 1fbe 6f7c bf3e
000002e0: 756f 04bd 2bfb b3be 6977 03be ea09 a6bd
000002f0: ecf1 7e3e bf19 cb3e 22ca f73c 43cb 643e
00000300: 3fce 153f a6af 2dbe ac5e 643e a8c5 3d3e
00000310: 557e ffbd e995 863e ecfb b83e bdd4 3d3e
00000320: 4d19 513e 39a2 0abe 9ae8 983e dda0 2abe
00000330: a9ad 7abe 1b5d 15bd 1ece f93d 7c94 263d
00000340: 47b0 0abf 0ae8 95bd d76e 12be f19a 953d
00000350: abe5 0b3f 5cb7 75bd b18e 7cbd 4e9f d63d
00000360: ae0c a83c b897 e43e 4bf1 23be b978 bb3e
00000370: 36ba 5b3d 234a 923e d0ce c0be b25a 1f3e
00000380: a0de 583d e231 78be 6d97 6b3e 7b20 4bbe
00000390: 55e3 62ba 1585 aebe c157 6f3e d25e c0bd
000003a0: a2a8 09be d712 aa3e a8c7 643e 15ab fdbe
000003b0: 821b 4bbe 0154 aaba 81ca bb3e a9f7 48be
000003c0: 1479 4ebe 3aec b1bd 760d 26bd a198 2bbf
000003d0: 1b52 ff3e 442d 3b3e 89c7 243e 1b70 b53d
000003e0: 5fcf 663e e57f 44be e3ae f53e addc 51be
000003f0: 6805 51be f38e 0dbd e12a 7fbd 26a9 833e

critic.0.bias f4 [128]
0.0932163 -0.062303364 0.015489402 -0.08241953 -0.015497011 0.15638085 0.38056338 -0.090704754
0.15582389 -0.16535795 -0.03619786 -0.27018967 0.43991613 -0.023761973 0.18462262 0.3424268
0.45195624 -0.0016620407 0.0069810296 0.28034154 0.40638474 -0.18084669 0.083902195 0.093278036
0.17695281 -0.02264281 0.05784816 -0.039422873 -0.14174007 0.21202807 -0.011965122 -0.21536869
0.039642785 0.17864487 0.39710343 0.45963702 -0.1471498 0.43937716 0.18196478 0.16893488
-0.027949264 0.4634224 0.45631814 0.21445051 0.39351198 -0.10687268 -0.106121615 -0.27802905
0.18850304 -0.2570463 0.103176795 -0.1243121 -0.11198344 0.16880022 -0.082415074 0.26220533
-0.09081292 0.11253137 -0.25672603 -0.19359197 0.2373485 -0.07767637 0.42132953 0.017973725
-0.07174506 0.015534233 0.0020602052 0.28413236 0.021847665 0.35807702 -0.062290866 0.036417738
-0.13813823 0.32515806 -0.2985016 0.17779185 0.34025288 -0.089124165 -0.06633563 0.16434336
-0.122094 0.06449259 -0.27297053 0.3510281 0.23807281 0.26922452 0.3927525 0.22149798
0.10376078 0.18682164 0.44897088 -0.116601504 0.17311214 -0.10650136 -0.24563593 0.3923471
0.17650127 -0.10257616 0.48741826 -0.07808777 0.29736185 -0.15432796 0.1639466 0.37090164
-0.13944541 0.39942247 0.29812762 0.14841169 -0.0759977 -0.05336849 0.0075480323 0.13605802
0.14964199 0.14357845 0.117138535 -0.11237526 -0.13268249 -0.06439342 0.4190475 0.40053996
0.01998433 -0.2671745 -0.34065846 0.4786549 -0.18571691 0.22293843 -0.017753083 -0.07805568
00000000: 30e8 be3d d031 7fbd 43c7 7d3c 92cb a8bd
00000010: 2de7 7dbc 4d22 203e 34d9 c23e 6ac3 b9bd
00000020: 4c90 1f3e 9853 29be 3544 14bd 4d56 8abe
00000030: b03c e13e 78a8 c2bc b60d 3d3e 9152 af3e
00000040: cf66 e73e d5d8 d9ba 1fc1 e43b ed88 8f3e
00000050: a911 d03e e02f 39be ead4 ab3d 8e08 bf3d
00000060: 1e33 353e 6a7d b9bc 31f2 6c3d e179 21bd
00000070: 4f24 11be e31d 593e 5c09 44bc 9c89 5cbe
00000080: 7960 223d aeee 363e 2451 cb3e 8b55 eb3e
00000090: 70ae 16be 0bf6 e03e fa54 3a3e 44fd 2c3e
000000a0: dbf5 e4bc b345 ed3e 88a2 e93e ea98 5b3e
000000b0: 677a c93e 10e0 dabd 4a56 d9bd d359 8ebe
000000c0: f106 413e 939b 83be 5b4e d33d 5897 febd
000000d0: 9357 e5bd f7d9 2c3e 3cc9 a8bd c73f 863e
000000e0: 20fc b9bd d976 e63d 9871 83be f93c 46be
000000f0: 7c0b 733e ca14 9fbd 81b8 d73e a23d 933c
00000100: 13ef 92bd 4c83 7e3c 8204 073b cc79 913e
00000110: e0f9 b23c df55 b73e b524 7fbd c42a 153d
00000120: 1c74 0dbe 1e7b a63e 34d5 98be 110f 363e
00000130: a035 ae3e bb86 b6bd fada 87bd a049 283e
00000140: 6b0c fabd b114 843d cbc2 8bbe f5b9 b33e
00000150: 5cc9 733e ccd7 893e db16 c93e 5ed0 623e
00000160: 8880 d43d 2c4e 3f3e 83df e53e c5cc eebd
00000170: 4f44 313e 631d dabd fc87 7bbe b8e1 c83e
00000180: c0bc 343e 7313 d2bd e38e f93e 7bec 9fbd
00000190: d03f 983e 2608 1ebe 9ee1 273e d2e6 bd3e
000001a0: c7ca 0ebe 1a81 cc3e 2fa4 983e 3cf9 173e
000001b0: afa4 9bbd eb98 5abd 7c55 f73b cb52 0b3e
000001c0: c03b 193e 3b06 133e 54e6 ef3d 0025 e6bd
000001d0: ebdd 07be b3e0 83bd 658d d63e 9313 cd3e
000001e0: 2db6 a33c 19cb 88be c96a aebe 4112 f53e
000001f0: 932c 3ebe f949 643e ea6e 91bc a8db 9fbd

critic.2.weight f4 [64, 128]
-0.08406474 0.012051278 0.041118443 -0.008803696 0.039808724 0.0065554627 0.029222835 -0.04016815
0.058247082 0.06224409 -0.048304223 -0.06295647 0.050812896 -0.007967301 0.055066813 0.009188483
0.027607778 -0.06062902 0.04425899 -0.007308792 -0.08928697 -0.03303938 0.00888164 -0.06906757
-0.0366364 0.0028712845 -0.09346249 -0.026418678 -0.021375962 0.07042224 0.06928919 -0.037418876
-0.01979531 0.02168628 0.061316594 -0.041259643 -0.034291945 -0.07880812 0.05479957 0.05539573
-0.08080727 -0.06330907 -0.034734484 -0.08530528 -0.08401492 0.037935644 0.021981886 -0.02140994
-0.020806868 0.04087995 -0.012324706 0.027206799 -0.03211023 -0.10954394 0.03653317 -0.040105365
-0.10726455 -0.07873745 -0.067336805 -0.07056932 0.049228374 -0.04352131 0.035077646 0.01153514
-0.03927025 -0.009284647 0.05969015 -0.00476267 -0.07593661 -0.033931334 -0.08254805 0.001211161
0.059863802 -0.090585776 0.008546321 -0.09439696 0.002260609 -0.026378704 -0.06165217 -0.06134381
0.07776354 -0.084445745 0.045451626 0.040418006 -0.07901601 -0.06875179 -0.10496937 0.075239636
0.0284265 -0.07987876 0.034226798 -0.05210957 -0.075802214 0.026012309 0.038696274 -0.09350319
0.0684033 0.07238494 -0.051473863 -0.098620854 -0.09422345 0.07086785 -0.05669307 -0.007981177
-0.01609196 -0.089067094 -8.01513e-05 -0.06990091 -0.03622056 -0.03245934 0.05077192 0.0019879977
-0.04272591 -0.051993873 -0.0053815753 -0.010132405 -0.021991232 -0.081234656 -0.09472345 -0.04901048
0.024299512 -0.051150825 -0.04294749 0.0066959234 0.02476307 0.09427458 -0.03891665 0.00479603
0.19514653 -0.07719815 -0.00019978746 -0.048319995 -0.029470572 0.16725264 0.07351215 0.11323706
0.06509523 0.070683256 -0.06021767 -0.0082293935 0.19006062 -0.024130521 0.1203006 0.15461305
0.06394966 -0.07760917 -0.02974589 0.121444985 0.17589746 0.2833567 -0.11199888 0.011048221
6.808982e-05 -0.08051659 0.090264834 0.20048921 0.13227683 0.0824072 0.05717294 0.05258598
0.1672278 0.17836091 0.2310448 0.098326124 -0.03249586 0.1121121 0.003753006 0.049200997
0.12093109 0.10571495 0.17417344 0.09501125 0.17079754 0.2869507 0.10227938 0.04499902
0.12678578 0.03704233 -0.008954401 0.059617743 0.096779324 0.07124137 0.15146074 -0.009496488
0.09433552 0.16777866 0.21895608 0.0011094111 0.04438249 0.05441394 0.12726133 0.14857306
0.21243793 0.046059474 0.13127686 0.010278106 0.18858181 0.09261075 0.14763774 -0.08915748
0.29745084 0.12732486 0.051268786 -0.028425692 0.08233279 0.31588396 -0.09841149 0.113118134
0.43198967 0.13663171 0.24475811 0.31179833 0.12409474 0.026770663 0.14331798 0.111679696
0.048018157 0.26086226 0.13077246 0.14750965 0.1752092 0.0022766995 0.13727166 0.11960647
-0.1040361 0.00079019263 0.19102319 -0.09267877 0.16712388 -0.11272359 0.10731763 0.14609247
0.12793694 0.074442 0.109551504 0.13625962 0.008108865 0.22607669 -0.0227821 0.123934515
0.017467685 0.15705998 0.26985744 -0.060177922 0.03389945 0.15415967 0.14202859 0.109873116
-0.070293106 0.2560302 -0.23053302 0.058280848 0.10668919 0.10457095 0.015388611 0.25900775
00000000: 222a acbd b972 453c d06b 283d 613d 10bc
00000010: 790e 233d 35cf d63b ba64 ef3c 5c87 24bd
00000020: 7e94 6e3d a9f3 7e3d a6da 45bd 52ef 80bd
00000030: 2f21 503d 4889 02bc bd8d 613d 4a8b 163c
00000040: b529 e23c 2356 78bd ea48 353d 977e efbb
00000050: 16dc b6bd 4d54 07bd 4c84 113c 4c73 8dbd
00000060: 0d10 16bd 292c 3c3b 4369 bfbd fc6b d8bc
00000070: a41c afbc 8939 903d 7ee7 8d3d 8944 19bd
00000080: c629 a2bc 6da7 b13c 1c27 7b3d dfff 28bd
00000090: b675 0cbd 2766 a1bd 8475 603d a2e6 623d
000000a0: 487e a5bd 30a8 81bd bf45 0ebd 89b4 aebd
000000b0: 0410 acbd 6862 1b3d 5b13 b43c e663 afbc
000000c0: 2a73 aabc bc71 273d 90ed 49bc cbe0 de3c
000000d0: 0486 03bd 9358 e0bd cea3 153d 8645 24bd
000000e0: 84ad dbbd 1a41 a1bd e1e7 89bd a686 90bd
000000f0: b1a3 493d 6743 32bd 94ad 0f3d e2fd 3c3c
00000100: d7d9 20bd a21e 18bc a97d 743d 2c10 9cbb
00000110: a784 9bbd 95fb 0abd f40e a9bd d2bf 9e3a
00000120: bf33 753d 0985 b9bd de05 0c3c 3253 c1bd
00000130: ba26 143b 2718 d8bc fc86 7cbd a643 7bbd
00000140: 7e42 9f3d e4f1 acbd 7c2b 3a3d 5a8d 253d
00000150: 25d3 a1bd bdcd 8cbd 2efa d6bd 3d17 9a3d
00000160: b1de e83c 7a97 a3bd 6631 0c3d d870 55bd
00000170: 313e 9bbd c417 d53c fc7f 1e3d 9a7e bfbd
00000180: 0817 8c3d 8e3e 943d 42d6 52bd bbf9 c9bd
00000190: 39f8 c0bd 2a23 913d fe36 68bd 7cc3 02bc
000001a0: 49d3 83bc cf68 b6bd e716 a8b8 3528 8fbd
000001b0: 035c 14bd 16f4 04bd 37f6 4f3d 1149 023b
000001c0: 5d01 2fbd 87f7 54bd ed57 b0bb 6302 26bc
000001d0: f526 b4bc 5b5e a6bd 5efe c1bd 37bf 48bd
000001e0: c50f c73c 8783 51bd b5e9 2fbd 7a69 db3b
000001f0: ecdb ca3c 0813 c13d 1167 1fbd 0428 9d3b
00000200: 7ed4 473e 101a 9ebd 0a7e 51b9 30eb 45bd
00000210: 456c f1bc 4744 2b3e 8a8d 963d d5e8 e73d
00000220: a650 853d 62c2 903d cea6 76bd 94d4 06bc
00000230: 409f 423e 5fad c5bc 2960 f63d e252 1e3e
00000240: 0af8 823d 8ef1 9ebd a7ad f3bc 26b8 f83d
00000250: 771e 343e 2114 913e ab5f e5bd 9903 353c
00000260: 72cb 8e38 e2e5 a4bd c5dc b83d 0b4d 4d3e
00000270: 9473 073e 1bc5 a83d 2c2e 6a3d 6664 573d
00000280: c43d 2b3e 3ea4 363e 0297 6c3e 355f c93d
00000290: 611a 05bd 079b e53d fef4 753b fc86 493d
000002a0: b8aa f73d 1481 d83d 865a 323e 4295 c23d
000002b0: 8de5 2e3e 34eb 923e da77 d13d e450 383d
000002c0: 22d4 013e b3b9 173d 7bb5 12bc bc31 743d
000002d0: 3d34 c63d ffe6 913d 8618 1b3e 2897 1bbc
000002e0: fb32 c13d 2bce 2b3e 0636 603e a969 913a
000002f0: 6aca 353d 27e1 5e3d cb50 023e 8923 183e
00000300: 5489 593e dca8 3c3d 716d 063e 8065 283c
00000310: 971b 413e b4aa bd3d 592e 173e 3298 b6bd
00000320: 7a4b 983e 7361 023e 38ff 513d ffdc e8bc
00000330: 189e a83d 8bbb a13e f78b c9bd 7baa e73d
00000340: c02d dd3e 2fe9 0b3e dfa1 7a3e 08a4 9f3e
00000350: 6225 fe3d 264e db3c f3c1 123e 53b8 e43d
00000360: b0ae 443d bd8f 853e 37e9 053e c50c 173e
00000370: 0a6a 333e ae34 153b f190 0c3e 3df4 f43d
00000380: e110 d5bd ee24 4f3a 959b 433e 5ece bdbd
00000390: 8622 2b3e a0db e6bd 58c9 db3d 4499 153e
000003a0: e701 033e 0c75 983d 8a5c e03d a487 0b3e
000003b0: 0bdb 043c a680 673e 87a1 babc 61d1 fd3d
000003c0: 6418 8f3c 55d4 203e c12a 8a3e 207d 76bd
000003d0: 26da 0a3d 08dc 1d3e f16f 113e 2805 e13d
000003e0: d5f5 8fbd 6416 833e d910 6cbe e6b7 6e3d
000003f0: dd7f da3d 4b29 d63d 8320 7c3c aa9c 843e

critic.2.bias f4 [64]
-0.0017468478 0.12232589 0.025890244 0.03088484 0.091131635 -0.019693397 0.070508726 -0.0056636767
0.03269703 -0.01628011 0.0152171515 0.22153361 -0.0061447565 0.047197044 0.08047604 0.25806242
0.03537025 0.07544078 -0.029800521 0.22366285 0.17370503 -0.009356189 -0.031234026 -0.009138859
0.059865117 -0.07407694 -0.051827047 0.038002912 0.10012916 -0.0013535585 -0.06172051 -0.022916263
0.22363919 0.040862598 0.030779703 0.022414427 -0.1641688 0.06631566 0.008446755 -0.0026846102
-0.019028166 -0.030654838 0.053114694 0.28595752 0.07827069 -0.0613218 0.06267229 0.06383504
-0.016848803 -0.000170915 -0.07955715 -0.06943756 0.057177026 0.1158385 -0.0037814067 0.0085125845
-0.039519757 -0.023427527 0.0938076 0.05079203 0.09381415 0.080881245 0.023067396 0.07971452
00000000: 7cf6 e4ba ff85 fa3d c717 d43c 3402 fd3c
00000010: 39a3 ba3d 0c54 a1bc e166 903d 5d96 b9bb
00000020: 52ed 053d de5d 85bc 5c51 793c b5d9 623e
00000030: f459 c9bb b051 413d 9fd0 a43d c220 843e
00000040: 65e0 103d b280 9a3d 3920 f4bc e007 653e
00000050: bbdf 313e b34a 19bc 80de ffbc 27bb 15bc
00000060: 2035 753d a7b5 97bd 9948 54bd f1a8 1b3d
00000070: 8410 cd3d e369 b1ba a5ce 7cbd e3ba bbbc
00000080: ac01 653e 8a5f 273d b725 fc3c 769e b73c
00000090: de1b 28be 81d0 873d 4264 0a3c 49f0 2fbb
000000a0: f5e0 9bbc db1f fbbc cb8e 593d 0669 923e
000000b0: 624c a03d 912c 7bbd 545a 803d f2bb 823d
000000c0: 8006 8abc a537 33b9 dcee a2bd 4835 8ebd
000000d0: 7532 6a3d bc3c ed3d 7ad1 77bb 5e78 0b3c
000000e0: 78df 21bd 16eb bfbc 331e c03d 4e0b 503d
000000f0: a221 c03d 11a5 a53d d6f7 bc3c 5e41 a33d

critic.4.weight f4 [64, 64]
-0.003482019 0.19372489 -0.17878522 0.035963107 -0.17961767 -0.07901768 0.20305087 -0.10691114
-0.020142928 0.09581376 0.31127125 0.4702715 -0.28994286 0.20145851 0.04474474 0.44090027
-0.0022521247 0.043877486 0.0028845745 0.2757784 0.3184573 0.0101878345 0.011252105 -0.113616504
-0.056703594 0.041886225 -0.029436586 0.13562234 0.33842152 -0.05818147 0.27263513 0.07352481
0.2614652 -0.070170775 -0.07441246 0.09637069 -0.25236362 -0.028251082 -0.0913625 0.114118904
0.0063773785 -0.078192234 -0.03192072 0.40855363 0.23133288 -0.09440127 -0.13440192 -0.08348391
-0.12858544 -0.1530154 -0.07491742 0.07479766 0.057310518 0.11072182 0.0037320838 -0.22010975
0.12987508 0.11101694 0.09796757 -0.055692095 0.19131592 0.39353865 0.1912563 -0.1876584
0.06640674 -0.13299096 0.024064198 -0.053227905 -0.021703674 -0.06353655 -0.018608237 -0.06842014
0.06934394 -0.048569605 0.04798701 0.015293494 -0.09583341 -0.059871107 -0.027036067 0.062796354
0.05221968 -0.05892517 -0.05522061 -0.12972869 -0.11261925 -0.03126441 -0.121712714 -0.10087116
0.053858962 -0.1053091 0.08365406 0.074970126 0.012909695 0.09747104 0.059729647 0.061931502
0.08543378 -0.11522815 -0.044714708 0.051886212 0.10047877 0.08604227 -0.044663474 0.0041327165
0.06777452 -0.061199524 -0.09391768 -0.0711901 0.0064980965 0.06710966 0.0046213996 -0.106454805
-0.050510243 0.09353054 0.1117943 -0.061729226 0.09969617 -0.038347267 -0.10262641 0.11363222
0.02035679 0.120274514 -0.043478165 -0.071373574 -0.056724478 -0.09273172 -0.051527157 -0.06068678
-0.046603333 0.14580536 0.31845108 0.1153421 0.47661883 0.11521729 0.12668349 0.11546993
-0.004720986 -0.08709527 0.1687549 -0.28930193 0.277578 0.2521842 0.1667568 0.16317213
0.23372258 0.17220357 0.1368711 -0.059528362 0.07862325 -0.029808382 0.049501043 0.13382456
0.27068081 -0.023932757 0.051557533 0.18860738 0.09991155 -0.11433742 0.14633332 0.089809
0.057025496 -0.018568266 0.076710396 -0.0090919 0.22228643 0.114172235 0.25879726 0.14956865
0.07924762 0.284095 0.18754886 -0.38109866 -0.033919297 -0.05245471 0.2147037 -0.11438684
0.21155725 0.1997468 0.14313649 0.16666602 0.2253944 0.1250106 0.2146637 0.3548774
0.2769274 -0.05949228 0.20677415 0.21785009 0.025777744 0.14330934 0.07775281 0.2873122
-0.10756033 0.083319776 0.39890847 0.30217066 0.44875017 0.11147521 -0.012421849 -0.053483758
0.11183514 0.105617605 0.05506045 -0.32206708 0.1834635 0.17758666 0.19943474 0.11030149
0.22822939 0.09420572 0.12679312 0.08241509 0.085981674 0.12159224 -0.046672963 0.06686188
0.1609581 0.030279687 -0.109450504 0.21000615 0.04396698 0.09155485 0.15612167 0.19011466
0.048927754 -0.03318009 0.09518698 0.11991476 0.296982 0.083702095 0.18117334 0.08113956
0.23907833 0.40829775 0.23217873 -0.21034093 0.1400173 -0.069465905 0.06852726 0.04270571
0.25005615 0.17811716 0.22586855 0.03851487 0.17953347 0.1739951 0.32136768 0.28054255
0.1906321 -0.12069574 -0.033413425 0.34357616 -0.06153256 0.089038566 -0.038663577 0.28524852
00000000: 9632 64bb d15f 463e 7913 37be 0d4e 133d
00000010: b2ed 37be 05d4 a1bd 91ec 4f3e 3af4 dabd
00000020: c802 a5bc 013a c43d f25e 9f3e 6dc7 f03e
00000030: 6473 94be 244b 4e3e 4346 373d aebd e13e
00000040: 6298 13bb e1b8 333d 210b 3d3b d432 8d3e
00000050: d60c a33e e0ea 263c c05a 383c c5af e8bd
00000060: 0742 68bd e490 2b3d ff24 f1bc 95e0 0a3e
00000070: 9645 ad3e b14f 6ebd d596 8b3e 2d94 963d
00000080: c4de 853e b2b5 8fbd 8f65 98bd ff5d c53d
00000090: ce35 81be d06e e7bc 431c bbbd 2cb7 e93d
000000a0: 54f9 d03b 4023 a0bd 4dbf 02bd f12d d13e
000000b0: 87e2 6c3e 7455 c1bd a8a0 09be 9df9 aabd
000000c0: e7ab 03be 12b0 1cbe 4e6e 99bd 842f 993d
000000d0: 6fbe 6a3d 1fc2 e23d fa95 743b 7364 61be
000000e0: f9fd 043e d95c e33d 39a3 c83d 651d 64bd
000000f0: 52e8 433e e67d c93e b1d8 433e 8629 40be
00000100: 4200 883d c82e 08be 4822 c53c 8105 5abd
00000110: e7cb b1bc 731f 82bd 4d70 98bc dc1f 8cbd
00000120: 3204 8e3d ecf0 46bd 078e 443d 9091 7a3c
00000130: 4f44 c4bd 683b 75bd be7a ddbc 609b 803d
00000140: 4ee4 553d 855b 71bd 022f 62bd 99d7 04be
00000150: eca4 e6bd 1c0f 00bd 8444 f9bd 8a95 cebd
00000160: 379b 5c3d 4cac d7bd d252 ab3d f089 993d
00000170: 2f83 533c e69e c73d 13a7 743d e3ab 7d3d
00000180: e8f7 ae3d bcfc ebbd c526 37bd a386 543d
00000190: d0c7 cd3d ee36 b03d 0cf1 36bd bd6b 873b
000001a0: 5ecd 8a3d 5aac 7abd ea57 c0bd 1dcc 91bd
000001b0: fced d43b ca70 893d 1c6f 973b fa04 dabd
000001c0: d4e3 4ebd f18c bf3d 69f4 e43d c9d7 7cbd
000001d0: 812d cc3d 0612 1dbd cc2d d2bd 02b8 e83d
000001e0: 48c3 a63c 7c52 f63d 2916 32bd 4f2c 92bd
000001f0: ed57 68bd 21ea bdbd 240e 53bd b392 78bd
00000200: 23e3 3ebd 004e 153e 050c a33e 7b38 ec3d
00000210: 6207 f43e 0bf7 eb3d 51b9 013e 807b ec3d
00000220: 80b2 9abb 015f b2bd 16ce 2c3e 621f 94be
00000230: b41e 8e3e 4a1e 813e 4bc2 2a3e 9816 273e
00000240: f954 6f3e 2256 303e f027 0c3e 03d4 73bd
00000250: 3a05 a13d b530 f4bc 9bc1 4a3d 4e09 093e
00000260: ad96 8a3e a10e c4bc fe2d 533d 4b22 413e
00000270: 6d9e cc3d bd29 eabd 67d8 153e c8ed b73d
00000280: 9193 693d 7a1c 98bc 571a 9d3d 31f6 14bc
00000290: 0e9f 633e 22d3 e93d 1381 843e 8628 193e
000002a0: 944c a23d e674 913e cf0c 403e 5d1f c3be
000002b0: f6ee 0abd c0da 56bd 49db 5b3e a643 eabd
000002c0: 77a2 583e 6d8a 4c3e 5f92 123e 7faa 2a3e
000002d0: cacd 663e c702 003e cdd0 5b3e 7eb2 b53e
000002e0: 6ec9 8d3e 2dae 73bd 9abc 533e 1814 5f3e
000002f0: d92b d33c afbf 123e de3c 9f3d 961a 933e
00000300: 9748 dcbd 8fa3 aa3d bb3d cc3e 1db6 9a3e
00000310: 95c2 e53e 1d4d e43d 0385 4bbc c911 5bbd
00000320: d209 e53d 0b4e d83d 1187 613d fae5 a4be
00000330: dbdd 3b3e 47d9 353e 9f38 4c3e bfe5 e13d
00000340: f7b4 693e eeee c03d 0ed6 013e 3ec9 a83d
00000350: 2917 b03d 5a05 f93d 262c 3fbd e2ee 883d
00000360: 33d2 243e 1b0d f83c 9627 e0bd da0b 573e
00000370: b816 343d 1c81 bb3d 5cde 1f3e 6bad 423e
00000380: 7868 483d d9e7 07bd 64f1 c23d df95 f53d
00000390: 060e 983e 016c ab3d 8185 393e 7f2c a63d
000003a0: f3d0 743e 670c d13e 43c0 6d3e 9d63 57be
000003b0: b260 0f3e 2444 8ebd 0558 8c3d 2fec 2e3d
000003c0: 5c07 803e 5864 363e 164a 673e c5c1 1d3d
000003d0: 9fd7 373e c62b 323e 4e8a a43e 46a3 8f3e
000003e0: 1035 433e 542f f7bd 84dc 08bd 37e9 af3e
000003f0: 9109 7cbd da59 b63d b35d 1ebd 180c 923e

critic.4.bias f4 [64]
0.20916896 -0.09575729 -0.15249613 -0.11524483 -0.059795704 -0.12681533 -0.10405851 -0.115595475
0.030800931 -0.120981604 0.35116732 0.061914306 -0.07870034 -0.13639456 -0.05085533 -0.053003047
-0.0082755815 -0.054517984 -0.08734903 -0.12197688 0.35007098 -0.15867294 0.044284392 0.013215678
0.1964136 -0.037639096 -0.040244266 -0.04571158 -0.10965667 -0.03354405 -0.040808637 0.04242713
0.04127091 0.032710694 -0.010779253 0.28483498 0.1036536 -0.14623138 0.2366846 0.07799174
0.019237356 -0.10009807 -0.024876857 -0.1483744 -0.021742173 -0.09748049 0.058013078 0.268261
0.08794048 -0.045351256 -0.00622362 0.079231635 0.24136497 0.058756508 -0.12307175 0.14429139
0.043344695 -0.13393989 -0.17043121 0.08266652 0.0037382348 -0.05010432 0.3359703 -0.03609214
00000000: 6330 563e 661c c4bd f227 1cbe 7b05 ecbd
00000010: 57ec 74bd e1db 01be a11c d5bd 52bd ecbd
00000020: 3c52 fc3c 34c5 f7bd 34cc b33e db99 7d3d
00000030: a52d a1bd 04ab 0bbe ae4d 50bd b919 59bd
00000040: 4e96 07bc 404e 5fbd 0ce4 b2bd 04cf f9bd
00000050: 813c b33e 297b 22be 8d63 353d 9286 583c
00000060: a620 493e 742b 1abd 2cd7 24bd 113c 3bbd
00000070: ad93 e0bd 7c65 09bd f526 27bd 12c8 2d3d
00000080: b00b 293d a6fb 053d 779b 30bc e4d5 913e
00000090: 5748 d43d aebd 15be 735d 723e 22ba 9f3d
000000a0: a997 9d3c 3800 cdbd 8dca cbbc 75ef 17be
000000b0: a41c b2bc daa3 c7bd 1f9f 6d3d 8159 893e
000000c0: 231a b43d 3dc2 39bd 82ef cbbb 3244 a23d
000000d0: 6128 773e aaaa 703d 0b0d fcbd 1fc1 133e
000000e0: 358a 313d 8a27 09be 8585 2ebe 104d a93d
000000f0: 2cfd 743b 303a 4dbd 4d04 ac3e 5ad5 13bd

critic.6.weight f4 [1, 64]
0.3062094 0.0036037562 -0.20204194 -0.18481761 -0.28219125 0.036097698 -0.2729058 0.10859981
-0.21101254 -0.10660423 0.35125145 -0.28393233 -0.2216294 -0.26277807 0.012192306 0.030024432
0.022800466 0.054191846 -0.028218716 0.11887361 0.3482203 -0.20589098 -0.3060892 -0.16404991
0.40694618 -0.07077496 -0.24740696 0.008341559 -0.21130218 -0.2979272 -0.052097756 0.04947346
0.11304495 -0.2396727 0.035810236 0.40364525 -0.24499708 -0.30716312 0.4559194 -0.2561857
-0.21267399 -0.021408856 0.072385624 -0.3288908 -0.17258991 -0.20711386 0.10638599 0.46367317
-0.25055492 -0.2047903 0.12113227 -0.28555834 0.36930647 0.031930454 -0.19856784 0.33261898
-0.23678306 -0.25191084 -0.21900731 0.006880678 -0.048953976 -0.05491337 0.33270416 0.04763907
00000000: 7ac7 9c3e ff2c 6c3b 15e4 4ebe d440 3dbe
00000010: 5f7b 90be 2edb 133d 4fba 8bbe 9469 de3d
00000020: ac13 58be 5253 dabd 3bd7 b33e 945f 91be
00000030: d1f2 62be d98a 86be 3dc2 473c ccf5 f53c
00000040: 0bc8 ba3c 45f8 5d3d f02a e7bc 0274 f33d
00000050: ee49 b23e 16d5 52be b9b7 9cbe b3fc 27be
00000060: 405b d03e 76f2 90bd 4058 7dbe 09ab 083c
00000070: 995f 58be ea89 98be 7564 55bd afa4 4a3d
00000080: 1c84 e73d c36c 75be c1ad 123d 97aa ce3e
00000090: 84e0 7abe 7c44 9dbe 456e e93e c62a 83be
000000a0: 36c7 59be a061 afbc ea3e 943d 6064 a8be
000000b0: 69bb 30be a815 54be e6e0 d93d 9266 ed3e
000000c0: bc48 80be 8cb4 51be 3214 f83d b434 92be
000000d0: bd15 bd3e 82c9 023d 5e55 4bbe 094d aa3e
000000e0: 4277 72be 75fa 80be 7443 60be 4f77 e13b
000000f0: f783 48bd d8ec 60bd 3358 aa3e 2f21 433d
