experiments/LunarLander-v2_AC/dqn.pth (torch, 96827 bytes, 13 tensors)

actor.0.weight f4 [128, 8]
0.7989729 0.58744985 0.80770916 -0.30245748 0.27103642 -0.5219583 -0.59127337 0.37487447
-0.20209979 0.35878107 0.15958759 -0.66218305 1.1127441 1.1747533 -0.10493619 0.14821081
0.06285197 -0.9694652 -0.6495286 0.5251619 0.7061093 -0.2821329 -0.09053057 0.35565555
-0.20935509 0.36263606 0.7026285 -0.99759525 0.25751814 0.6459079 0.10437859 -0.34173557
-0.66034716 -0.18859467 -0.5517926 0.07308349 0.9401577 0.98543954 0.35321793 -0.46066257
0.6637005 0.59938526 0.7391995 0.8379286 -0.70296615 -0.82903 -0.7231185 -0.7356348
0.12382774 0.2236095 0.57567436 0.7584089 -0.39730385 0.061117228 -0.44003198 0.08033667
-0.7841439 -0.29990986 -0.41642845 -0.27397144 -0.5457549 -0.028277753 -0.5387314 0.07297302
-0.33419585 0.8583112 -0.37787887 0.66814184 -0.11154482 -0.4048712 -0.7013628 0.50460696
-0.5837839 -0.23393558 -0.97511834 0.5754171 1.0011789 0.32663858 -0.10379122 -0.3637017
0.10212535 -0.5423705 0.7952785 -0.31153768 0.4371823 0.82476455 0.61216646 0.6980789
-0.77426237 -0.74529576 -0.60627085 -0.72830987 -0.12346772 0.6987266 0.2397947 -0.07609018
0.49696773 0.58384216 -0.27429128 0.64156395 -0.16316873 -0.24922743 0.41061175 0.008091181
0.58830196 0.29412293 0.4945512 -0.08569272 -1.0100261 -0.17289564 -0.7756807 -0.6175753
-0.70813 0.7165616 0.37696773 0.4991257 -0.5198355 0.6595132 0.27196345 0.18455413
-0.6213362 0.35671714 -0.45717058 -0.5339466 -0.18791303 -0.8880231 -0.73514926 -0.6174558
0.7529827 -0.8974672 0.0782572 0.38268632 -0.47962004 0.7635975 -0.630722 -0.42398915
-0.23757333 -0.37706265 -0.8689505 0.83054924 -0.52527785 0.5854962 0.70736736 0.25375834
0.57656187 0.28848267 0.27723336 0.75980675 -1.0561218 -0.65364087 0.629621 -0.3905825
-0.8620821 -0.71667683 -0.96872765 0.57329917 0.41772756 0.22253181 -0.22179078 0.44952884
-0.23387784 0.26040515 -0.24759926 0.18456106 -1.068064 0.26568338 0.22588688 0.71282893
0.57490706 -0.10790489 -0.054934975 0.293388 -0.7713558 0.10499114 -0.03290044 0.60713845
-0.6316455 -0.3183103 -0.26672372 -0.1389392 0.74976856 -0.65077025 0.7337292 -0.21496835
0.73986095 -0.1436392 -0.15780286 0.28531864 -0.7558299 -0.34850785 -0.5330522 0.74832195
-0.9292242 -0.8662696 -0.4846485 -0.24002923 -0.208737 0.6564291 0.5717272 0.70730126
0.25198334 0.38293868 0.40968335 -0.10431877 0.99080706 1.0484804 0.0117420815 -0.2621485
0.00914325 0.4549208 0.5320931 0.17750275 0.68546224 -0.71802384 0.45486784 -0.0942906
-0.64075 0.11719532 -0.30701655 -0.39410725 -0.11544598 0.9447738 0.31385455 0.74992496
0.27572572 0.64724535 -0.35593125 0.4673585 1.061591 0.704397 0.8618128 -0.19510542
0.4952534 0.13400376 0.58405936 -0.77686423 0.03374796 0.6889624 -0.21570466 0.7982052
-0.117922686 -0.16700791 0.46555796 0.059579313 -0.814501 0.2679689 0.37959212 0.63825417
-0.18512824 -0.3773176 0.20377031 0.47951123 -1.0280644 -0.319523 -0.6252775 0.88174856
00000000: 7d89 4c3f 1d63 163f 07c6 4e3f b5db 9abe
00000010: 49c5 8a3e 0f9f 05bf b15d 17bf 8cef bf3e
00000020: 3ff3 4ebe 27b2 b73e ee6a 233e d484 29bf
00000030: 666e 8e3f 515e 963f c9e8 d6bd 93c4 173e
00000040: 89b8 803d df2e 78bf 8247 26bf 0371 063f
00000050: 94c3 343f b973 90be 1768 b9bd 7c18 b63e
00000060: 2e61 56be 6fab b93e 76df 333f 6762 7fbf
00000070: 6bd9 833e 385a 253f 71c4 d53d f7f7 aebe
00000080: 830c 29bf f61e 41be 4842 0dbf ccac 953d
00000090: 2dae 703f c445 7c3f fbd8 b43e f7db ebbe
000000a0: 47e8 293f 5071 193f 2e3c 3d3f 7d82 563f
000000b0: 97f5 33bf 4f3b 54bf 4b1e 39bf 9052 3cbf
000000c0: 6699 fd3d e4f9 643e 655f 133f 1627 423f
000000d0: 696b cbbe 0f56 7a3d df4b e1be 8d87 a43d
000000e0: a8bd 48bf c98d 99be 1c36 d5be fc45 8cbe
000000f0: 98b6 0bbf bfa6 e7bc 4dea 09bf e172 953d
00000100: b81b abbe 48ba 5b3f 5779 c1be 580b 2b3f
00000110: 9c71 e4bd 474b cfbe 838c 33bf ec2d 013f
00000120: dd72 15bf cf8c 6fbe 5ba1 79bf 894e 133f
00000130: a126 803f 2c3d a73e 7e90 d4bd 1c37 babe
00000140: 1827 d13d cbd8 0abf 5f97 4b3f de81 9fbe
00000150: 5cd6 df3e c523 533f f1b6 1c3f 4cb5 323f
00000160: 0f36 46bf b4cb 3ebf 9134 1bbf 8472 3abf
00000170: a5dc fcbd bfdf 323f be8c 753e 2bd5 9bbd
00000180: 8e72 fe3e ae76 153f e86f 8cbe 893d 243f
00000190: b415 27be 7a35 7fbe b43b d23e df90 043c
000001a0: f59a 163f 4897 963e d135 fd3e aa7f afbd
000001b0: 8948 81bf 8e0b 31be 0393 46bf 6a19 1ebf
000001c0: 0248 35bf 9570 373f ea01 c13e 678d ff3e
000001d0: f013 05bf dbd5 283f cb3e 8b3e c2fb 3c3e
000001e0: e40f 1fbf a1a3 b63e 4312 eabe b9b0 08bf
000001f0: 466c 40be 7b55 63bf be32 3cbf 9511 1ebf
00000200: 79c3 403f 69c0 65bf 5045 a03d 76ef c33e
00000210: c290 f5be 207b 433f ff76 21bf 1b15 d9be
00000220: 6c46 73be 5b0e c1be 8a73 5ebf e09e 543f
00000230: 9c78 06bf 14e3 153f 0716 353f 9dec 813e
00000240: 8f99 133f 00b4 933e 88f1 8d3e b282 423f
00000250: 002f 87bf 0255 27bf d82e 213f 6efa c7be
00000260: 6ab1 5cbf 2278 37bf 89fe 77bf bcc3 123f
00000270: 63e0 d53e 61df 633e 1f1d 63be a528 e63e
00000280: ac7d 6fbe d353 853e a98a 7dbe 93fd 3c3e
00000290: 52b6 88bf a707 883e e44e 673e f57b 363f
000002a0: 1c2d 133f 3dfd dcbd 7f03 61bd f436 963e
000002b0: 9377 45bf 9805 d73d 9dc2 06bd 6d6d 1b3f
000002c0: 85b3 21bf 91f9 a2be 0390 88be 1446 0ebe
000002d0: d5f0 3f3f e198 26bf add5 3b3f aa20 5cbe
000002e0: 8767 3d3f 2816 13be 1397 21be 4915 923e
000002f0: 117e 41bf 9f6f b2be 1c76 08bf 0792 3f3f
00000300: a3e1 6dbf d8c3 5dbf d923 f8be 39ca 75be
00000310: 27bf 55be bd0b 283f b75c 123f b211 353f
00000320: f603 813e 8a10 c43e 04c2 d13e 14a5 d5bd
00000330: 88a5 7d3f 9b34 863f dc61 403c 5438 86be
00000340: 92cd 153c 61eb e83e 4137 083f 48c3 353e
00000350: 747a 2f3f 69d0 37bf 70e4 e83e 6e1b c1bd
00000360: 3108 24bf 1a04 f03d 4631 9dbe 6dc8 c9be
00000370: f16e ecbd b2dc 713f 8bb1 a03e 15fb 3f3f
00000380: ec2b 8d3e dfb1 253f 9f3c b6be 9d49 ef3e
00000390: 37e2 873f 5d53 343f c39f 5c3f b7c9 47be
000003a0: db91 fd3e 4838 093e ea84 153f 93e0 46bf
000003b0: 4d3b 0a3d d75f 303f afe1 5cbe 2d57 4c3f
000003c0: 7381 f1bd 1f04 2bbe 9d5d ee3e 7009 743d
000003d0: 2383 50bf 3833 893e e659 c23e a064 233f
000003e0: 4292 3dbe c62f c1be 2aa9 503e 7f82 f53e
000003f0: 9d97 83bf 8598 a3be 3012 20bf 46ba 613f

actor.0.bias f4 [128]
-0.17320828 0.023187404 -0.1494607 0.14535205 0.17397472 0.20693299 0.110681556 -0.2888731
-0.13886273 0.29946807 -0.0653922 -0.017098827 0.058717925 0.09601942 -0.038176224 -0.15066701
0.083994165 0.09943143 0.26940855 -0.28984606 0.1368794 0.21776055 -0.15502803 0.15681896
0.30431446 -0.021579186 0.16622937 -0.0055463933 -0.32392168 -0.38298208 0.1377056 0.3282922
0.2778939 0.080697775 0.2759406 0.25295594 -0.12850118 0.0072917975 -0.20370482 0.13781723
0.25344014 -0.025524005 0.15150149 -0.11828521 0.19457749 -0.22185998 0.0918471 -0.1875339
-0.0370535 0.01834556 0.20509255 -0.16820747 0.07600896 0.2569857 -0.074345864 -0.15297604
-0.12423413 -0.09066793 0.319517 -0.043983355 -0.12536632 -0.14928176 -0.3394685 0.05166872
0.086736634 0.079867594 0.012953782 -0.31598455 -0.21845691 -0.08811228 0.35841754 -0.25720516
-0.21475007 0.33814248 0.10385625 0.05227921 0.1598954 -0.0067157587 0.11767599 0.17639734
-0.07917242 0.25866032 0.016302362 -0.124703236 -0.16667272 -0.27754667 0.054750856 0.28638962
0.2707087 -0.014669138 0.08426826 -0.24991082 -0.10607771 0.19779913 -0.11482634 -0.28986016
0.14562845 0.22528012 0.2670145 0.16688228 0.14429063 0.2867072 -0.015746726 0.12210182
0.22340481 0.0605663 -0.3743424 -0.30981496 0.25538883 0.0629765 -0.104788624 -0.11978331
0.39831573 0.1097671 -0.3819809 0.16355024 0.0060286666 0.040929455 -0.5195307 0.04164063
-0.10002105 -0.28887284 0.25074378 -0.29042852 -0.16930318 0.12058975 0.07909425 -0.21816604
00000000: 835d 31be 83f3 bd3c 3a0c 19be 2bd7 143e
00000010: 6e26 323e 3ee6 533e 03ad e23d 2de7 93be
00000020: 0832 0ebe e153 993e 59ec 85bd d712 8cbc
00000030: 3582 703d d4a5 c43d ac5e 1cbd 7448 1abe
00000040: 2205 ac3d b5a2 cb3d ebef 893e b466 94be
00000050: 1d2a 0c3e 9ffc 5e3e abbf 1ebe 2695 203e
00000060: 1bcf 9b3e d5c6 b0bc 0838 2a3e 85be b5bb
00000070: 10d9 a5be 3a16 c4be b202 0d3e ea15 a83e
00000080: 1c48 8e3e e044 a53d 1648 8d3e 7183 813e
00000090: d095 03be 08f0 ee3b ff97 50be f61f 0d3e
000000a0: e8c2 813e b817 d1bc 3523 1b3e 843f f2bd
000000b0: 523f 473e 432f 63be 551a bc3d e308 40be
000000c0: 69c5 17bd 6e49 963c c803 523e 943e 2cbe
000000d0: 96aa 9b3d a193 833e a542 98bd c0a5 1cbe
000000e0: 776e febd 1cb0 b9bd bb97 a33e e427 34bd
000000f0: 0760 00be 51dd 18be d1ce adbe 94a2 533d
00000100: faa2 b13d 9f91 a33d 1a3c 543c bac8 a1be
00000110: 2bb3 5fbe 3674 b4bd 8182 b73e 65b0 83be
00000120: 71e7 5bbe 0321 ad3e 96b2 d43d ba22 563d
00000130: 9fbb 233e de0f dcbb 1c00 f13d 81a1 343e
00000140: 2625 a2bd 206f 843e 888c 853c 6964 ffbd
00000150: 41ac 2abe 991a 8ebe 6f42 603d a9a1 923e
00000160: 559a 8a3e d356 70bc d694 ac3d 9fe8 7fbe
00000170: 453f d9bd db8b 4a3e 122a ebbd 8d68 94be
00000180: a01f 153e d5af 663e 20b6 883e 30e3 2a3e
00000190: ecc0 133e 49cb 923e 47ff 80bc 8510 fa3d
000001a0: 3bc4 643e 5e14 783d cfa9 bfbe 11a0 9ebe
000001b0: 53c2 823e d3f9 803d 6b9b d6bd f450 f5bd
000001c0: 0af0 cb3e 93cd e03d 0093 c3be b779 273e
000001d0: 1f8c c53b a5a5 273d f7ff 04bf 5e8f 2a3d
000001e0: d6d7 ccbd 24e7 93be 7d61 803e 0cb3 94be
000001f0: d05d 2dbe c2f7 f63d 2bfc a13d eb66 5fbe

actor.2.weight f4 [64, 128]
-0.012690522 0.09439475 0.032839563 0.29145324 -0.19647048 0.14429887 -0.036443748 0.0024828687
-0.08250783 -0.10205456 0.10269127 0.29772437 -0.036215063 0.088899374 -0.014189995 0.042814825
-0.20722526 0.06585374 0.020652762 -0.08074692 -0.25631946 0.044327207 0.06296211 -0.12630594
-0.07451608 0.03160273 0.10543572 -0.122998916 -0.19261126 0.15241677 -0.07804471 -0.23188208
0.23743725 -0.05368803 0.1818779 -0.15043975 -0.09949801 0.35239872 -0.2531744 -0.025833277
-0.05110765 0.118229344 0.24538629 0.11982909 0.13545044 -0.278761 0.25837746 -0.11250829
0.062410235 0.04408199 -0.18873918 -0.04373012 0.06228494 -0.007635625 0.20516343 -0.03385576
0.07142555 -0.18889314 -0.12131102 -0.04613193 -0.0050179763 0.2031364 -0.090821706 0.113920674
0.10945065 -0.12515222 -0.105612986 0.0022993395 0.059601944 -0.18138403 0.14649759 0.19714548
-0.13916475 -0.19718777 -0.05614627 0.07475193 0.19341259 -0.11291883 0.23005764 0.012036067
0.13005447 0.09880668 0.010579803 0.1436913 -0.30615693 -0.52650994 0.0607897 -0.07667889
0.15930259 0.029080236 -0.076303914 -0.3199262 0.12050595 0.114174634 -0.24974458 -0.30924925
0.105883814 -0.064170785 0.4651848 0.099145494 -0.070810474 0.05514109 0.3716371 0.060499907
0.17453024 -0.103610896 0.13391759 0.027436655 -0.12716424 0.007124834 0.003685545 0.0005776175
-0.016513905 -0.1811567 -0.2235567 0.20282908 -0.07137633 0.27969134 0.07713348 0.2954214
-0.10527222 0.2655993 0.03310986 -0.35507885 -0.012389914 0.23992142 -0.22308789 0.11116725
-0.20221262 0.32797033 0.21482739 0.2566719 0.0750655 -0.31065416 -0.042311825 0.2093727
-0.021125665 0.17578045 0.10449353 0.1507544 -0.30618435 0.08467516 -0.1300029 -0.17818908
0.11884802 -0.12910785 -0.09901782 -0.040220644 0.03360115 -0.17668027 0.07247117 -0.22922133
0.22163397 0.2497159 0.023210036 -0.07091984 0.10586524 0.08253957 0.06409381 -0.04328436
0.12001219 0.110752724 -0.1627847 -0.13493758 0.041993752 0.28179586 0.0081282295 -0.2899073
0.17558408 -0.29837373 0.1920874 0.027567273 0.015113907 0.028723683 0.030701892 -0.266155
0.076582715 -0.035354223 -0.3685431 0.17483558 -0.039656766 0.010520329 0.1385188 -0.008876369
0.16287078 -0.14646348 -0.36004362 -0.052145585 -0.10969903 0.01914254 -0.16000628 0.13133854
-0.10211708 -0.0015209717 0.07904976 0.04379173 -0.23308669 -0.13245851 0.08467869 -0.19466576
-0.11880729 0.21569736 0.023452103 -0.14085604 0.29339612 0.19053276 0.1783264 -0.013218554
0.059259407 0.121745795 0.09280548 0.035149336 0.19885093 -0.2329128 0.20380534 -0.05557541
0.14790443 -0.06168104 -0.43310684 -0.1702537 0.15530434 0.07093029 -0.17107566 -0.05690894
0.21948734 0.19370195 0.05334703 0.2040701 -0.13539466 -0.175736 0.18521333 0.061214123
0.03955508 -0.121075906 0.03809633 0.19198737 0.11452266 -0.1411841 0.059144605 0.2851417
-0.009369455 -0.099220894 0.08500196 -0.12238478 0.5830656 -0.122386105 -0.16768627 -0.12940641
0.0060751904 0.072163254 0.040098112 -0.109910496 -0.19995078 0.14723942 0.2747689 0.44302467
00000000: e8eb 4fbc 0952 c13d c782 063d 5c39 953e
00000010: 8f2f 49be 15c3 133e 0a46 15bd a0b7 223b
00000020: ddf9 a8bd fb01 d1bd cd4f d23d 546f 983e
00000030: 3f56 14bd e010 b63d 277d 68bc 995e 2f3d
00000040: dc32 54be 53de 863d fb2f a93c a45e a5bd
00000050: 4e3c 83be 7290 353d 47f2 803d 5856 01be
00000060: e39b 98bd dd71 013d afee d73d dbe6 fbbd
00000070: e33b 45be 2413 1c3e e8d5 9fbd 7f72 6dbe
00000080: c022 733e fbe7 5bbd 333e 3a3e e10c 1abe
00000090: 9dc5 cbbd 9b6d b43e 13a0 81be 4fa0 d3bc
000000a0: 4156 51bd 3a22 f23d 8b46 7b3e f468 f53d
000000b0: 85b3 0a3e c3b9 8ebe 0d4a 843e bf6a e6bd
000000c0: e0a1 7f3d 518f 343d d844 41be 5b1e 33bd
000000d0: 7e1e 7f3d 4434 fabb 5d16 523e 56ac 0abd
000000e0: 8f47 923d 346d 41be e971 f8bd d6f4 3cbd
000000f0: d66d a4bb fd02 503e bb00 babd 3e4f e93d
00000100: aa27 e03d e727 00be 9f4b d8bd 84b0 163b
00000110: 2b21 743d bcbc 39be 7703 163e 81e0 493e
00000120: 3481 0ebe 97eb 49be a2f9 65bd 8a17 993d
00000130: f30d 463e fd41 e7bd 3b94 6b3e ed32 453c
00000140: 002d 053e 285b ca3d e956 2d3c d023 133e
00000150: 9ac0 9cbe 5bc9 06bf 9ffe 783d d209 9dbd
00000160: 3820 233e ad39 ee3c 3a45 9cbd 5ecd a3be
00000170: d3cb f63d 64d4 e93d 0bbd 7fbe eb55 9ebe
00000180: 9dd9 d83d f96b 83bd b42c ee3e cb0c cb3d
00000190: 1505 91bd a0db 613d 3847 be3e c0ce 773d
000001a0: 0eb8 323e f331 d4bd b121 093e d6c2 e03c
000001b0: 5837 02be 7177 e93b 2f89 713b 416b 173a
000001c0: 2b48 87bc 2481 39be 0cec 64be 6db2 4f3e
000001d0: c12d 92bd b433 8f3e 28f8 9d3d 7941 973e
000001e0: f698 d7bd a2fc 873e 349e 073d e5cc b5be
000001f0: 11ff 4abc f6ad 753e 2771 64be a8ab e33d
00000200: d310 4fbe baeb a73e b6fb 5b3e 806a 833e
00000210: f1bb 993d 100e 9fbe 2a4f 2dbd cc65 563e
00000220: bb0f adbc caff 333e b400 d63d 5d5f 1a3e
00000230: 32c4 9cbe 2c6a ad3d 7b1f 05be 3377 36be
00000240: 9766 f33d d934 04be dbc9 cabd 67be 24bd
00000250: 5ca1 093d aceb 34be c46b 943d ffb8 6abe
00000260: 04f4 623e 86b5 7f3e f922 be3c 6c3e 91bd
00000270: e0cf d83d 820a a93d 9e43 833d f14a 31bd
00000280: f3c8 f53d 53d2 e23d 08b1 26be 142d 0abe
00000290: a401 2c3d 8c47 903e 442c 053c bb6e 94be
000002a0: 50cc 333e 71c4 98be 8fb2 443e c3d4 e13c
000002b0: 52a0 773c ee4d eb3c 8982 fb3c 7845 88be
000002c0: 66d7 9c3d 97cf 10bd aeb1 bcbe 1908 333e
000002d0: 226f 22bd 755d 2c3c dfd7 0d3e 316e 11bc
000002e0: 99c7 263e 86fa 15be a357 b8be 9c96 55bd
000002f0: e3a9 e0bd d1d0 9c3c b0d8 23be 9c7d 063e
00000300: c222 d1bd 575b c7ba d7e4 a13d f55e 333d
00000310: 47ae 6ebe 34a3 07be 056c ad3d 7656 47be
00000320: 3d51 f3bd c5df 5c3e a01e c03c 913c 10be
00000330: 0438 963e 051b 433e 329b 363e a292 58bc
00000340: feb9 723d dc55 f93d cd10 be3d c0f8 0f3d
00000350: 949f 4b3e b180 6ebe 59b2 503e 0ba3 63bd
00000360: 4274 173e 42a5 7cbd 2ec0 ddbe fc56 2ebe
00000370: 1a08 1f3e e643 913d 752e 2fbe 5919 69bd
00000380: 4ac1 603e ce59 463e 6a82 5a3d c1f7 503e
00000390: e6a4 0abe 23f4 33be 90a8 3d3e a9bb 7a3d
000003a0: 8204 223d a5f6 f7bd e60a 1c3d 5698 443e
000003b0: db8a ea3d 9192 10be 9d41 723d 18fe 913e
000003c0: 5882 19bc 5334 cbbd 8215 ae3d dfa4 fabd
000003d0: ca43 153f 91a5 fabd f3b5 2bbe 1d83 04be
000003e0: 6412 c73b 54ca 933d eb3d 243d c118 e1bd
000003f0: e6bf 4cbe eec5 163e 82ae 8c3e 21d4 e23e

actor.2.bias f4 [64]
0.14179313 0.047815505 0.019873247 0.07989602 0.09140701 -0.0036554858 -0.018204033 -0.013805582
-0.00990283 -0.02632773 -0.051293723 0.054990716 -0.10756564 0.10986523 -0.030429201 -0.000667876
0.099576436 0.16862917 0.12684794 -0.1122541 0.10835797 -0.009785692 -0.06440114 -0.0795481
-0.12459094 -0.10153996 -0.012323458 -0.06447055 0.0067401635 0.115592316 0.09942379 -0.07305127
0.16110067 -0.012303358 0.09259121 -0.02986244 -0.0095541105 0.07290845 -0.08043102 0.0097889695
-0.0155751975 -0.117545135 0.02865966 -0.06780992 0.029210577 -0.012506293 0.07692947 0.12647386
0.034980405 -0.07256016 0.13220671 0.053508315 0.100718476 0.026802361 -0.09986957 -0.004295477
-0.12751773 0.15614055 -0.074506894 0.06858057 0.033920515 0.07815375 0.010316786 -0.058125425
00000000: 3832 113e 31da 433d 38cd a23c 86a0 a33d
00000010: 9933 bb3d e090 6fbb a020 95bc cf30 62bc
00000020: 7b3f 22bc 40ad d7bc 5e19 52bd f23d 613d
00000030: 604b dcbd 0601 e13d a946 f9bc 6614 2fba
00000040: bbee cb3d 20ad 2c3e 6de4 013e 7ae5 e5bd
00000050: c9ea dd3d 2b54 20bc bfe4 83bd 1dea a2bd
00000060: 8929 ffbd 2ff4 cfbd 54e8 49bc 2309 84bd
00000070: 97dc dc3b aabb ec3d b39e cb3d e79b 95bd
00000080: 93f7 243e 0694 49bc 76a0 bd3d 13a2 f4bc
00000090: d888 1cbc 0751 953d 05b9 a4bd ea61 203c
000000a0: 1d2f 7fbc 81bb f0bd aac7 ea3c eddf 8abd
000000b0: 054b ef3c 32e7 4cbc 338d 9d3d 5d82 013e
000000c0: 9d47 0f3d 6c9a 94bd 3261 073e 892b 5b3d
000000d0: 7d45 ce3d a090 db3c 6b88 ccbd 13c1 8cbb
000000e0: 0294 02be 4fe3 1f3e 1297 98bd f873 8c3d
000000f0: 3df0 0a3d 130f a03d bd07 293c ed14 6ebd

actor.4.weight f4 [4, 64]
0.078247905 -0.2904504 0.04509136 -0.09295429 0.41437796 0.03149588 0.31958356 0.49781853
-0.033315517 0.23279896 0.1655103 -0.02775976 -0.031910546 -0.27960056 0.39655516 0.5395005
0.3683065 0.16298784 -0.14127792 -0.17826816 -0.29712513 -0.17996037 0.2800265 0.008710421
-0.25143608 -0.30409804 -0.06968318 -0.19185202 -0.22422296 0.22416374 -0.18226135 0.25892523
0.0479796 0.44816196 0.19440392 -0.033568583 -0.45393202 0.26562297 0.34463534 0.18997996
-0.047031693 -0.21076073 -0.27294067 0.19844669 -0.41169894 0.3734483 0.22929157 0.35515478
0.11411624 0.26846915 0.22218655 0.065953396 -0.42378289 0.17254262 0.12905914 0.19727162
-0.1504585 0.12159366 0.15774056 -0.46943203 0.023389062 0.25476593 0.096379325 0.055058733
-0.18846844 -0.024934892 -0.32667735 0.045863066 -0.18552984 0.25054514 -0.3158639 -0.14764632
-0.1412287 -0.28641266 0.0024125485 0.0430514 -0.21282634 -0.09417512 -0.27282 -0.08561807
-0.20611034 0.066180475 0.11918525 -0.08924375 -0.23013516 -0.28136024 0.2959995 0.19293022
0.16948201 -0.292989 -0.08141877 0.002313115 -0.16601887 -0.1957181 0.15232585 0.16531117
0.17356412 0.17129827 -0.15920652 0.21637659 0.1664346 -0.3005728 0.16643572 0.044918235
0.1749505 0.17301176 0.10072786 -0.058781132 0.06696184 -0.3082824 0.068229176 0.16398951
-0.26657397 -0.15947904 -0.050134607 -0.06941886 0.22017014 0.13570592 0.16401735 -0.33497024
-0.05189271 0.19564897 -0.3259459 0.115943864 -0.20360224 0.09622617 -0.25358057 0.1411532
0.35656023 0.30735737 0.10806308 -0.008880938 0.11390582 -0.25638625 -0.10553267 -0.23079072
0.008786824 -0.5437158 -0.26572695 0.31835818 -0.12464749 0.40963912 -0.18979712 -0.118263975
-0.38041046 0.09313621 0.5160436 0.2743877 0.26570907 0.14237809 -0.38638237 -0.20296292
-0.19596137 -0.470296 0.29479995 -0.034239832 -0.13257411 0.16944313 0.4562385 -0.50104976
0.37873983 -0.45565715 0.22263677 0.24096093 0.3048535 0.3073282 -0.101426855 -0.15147205
-0.09291993 -0.33873734 0.19855642 -0.35274786 0.18641177 -0.36725527 0.4037091 0.23509182
-0.068182096 -0.32288346 0.23062122 -0.020920396 0.17935205 0.19498199 0.07872963 -0.09559477
-0.092289105 0.36359224 -0.24049275 0.55532676 0.07020969 0.2659585 -0.31926522 0.2662781
-0.026906764 0.36136696 0.56349945 0.2125496 -0.20365638 0.39177397 -0.1629938 -0.23541176
-0.28508577 -0.114110835 -0.2885252 -0.43170395 -0.12472433 0.18634814 -0.05788705 -0.48309955
-0.047324907 -0.6354445 0.19046336 0.24172187 -0.11100977 -0.34905684 0.08694164 0.09975722
0.28242737 0.20355098 0.27897194 -0.0667861 0.2967502 -0.25387874 0.42933556 0.41586784
-0.32173434 -0.0016537409 -0.5910034 -0.5088688 0.15966381 -0.11600834 -0.28584957 0.43774542
0.07076876 0.16058187 -0.17927422 0.1432995 0.2075203 0.29014787 0.23750627 -0.59627926
0.4891865 0.50189954 -0.22815974 -0.23624226 0.24877854 0.027105205 -0.23287849 0.2790835
-0.2664679 -0.26632294 -0.49709946 -0.115336165 0.5396663 0.12816457 -0.0415034 0.25614646
00000000: 7040 a03d eab5 94be b8b1 383d d25e bebd
00000010: 5929 d43e d301 013d 75a0 a33e 12e2 fe3e
00000020: da75 08bd da62 6e3e 887b 293e 7068 e3bc
00000030: a2b4 02bd ce27 8fbe 4709 cb3e b41c 0a3f
00000040: ab92 bc3e 49e6 263e 29ab 10be ee8b 36be
00000050: c920 98be 8847 38be a25f 8f3e 27b6 0e3c
00000060: 3bbc 80be bdb2 9bbe 0eb6 8ebd db74 44be
00000070: b49a 65be 2e8b 653e b8a2 3abe d991 843e
00000080: 4286 443d 7c75 e53e d211 473e 367f 09bd
00000090: c769 e8be bcff 873e 0b74 b03e 1b8a 423e
000000a0: 4ea4 40bd a9d1 57be e1be 8bbe 9c35 4b3e
000000b0: 34ca d2be 9e34 bf3e 69cb 6a3e d9d6 b53e
000000c0: c6b5 e93d ca74 893e df84 633e 9312 873d
000000d0: 12fa d8be 03af 303e 1428 043e 9201 4a3e
000000e0: cb11 1abe 1906 f93d be86 213e 6559 f0be
000000f0: 6b9a bf3c ae70 823e 8662 c53d 4485 613d
00000100: dffd 40be 4244 ccbc 4142 a7be e9da 3b3d
00000110: 89fb 3dbe 7447 803e eab8 a1be 9930 17be
00000120: 429e 10be aea4 92be d91b 1e3b aa56 303d
00000130: 26ef 59be e3de c0bd 10af 8bbe 8758 afbd
00000140: 970e 53be a189 873d 6517 f43d 6dc5 b6bd
00000150: 8da8 6bbe 730e 90be 3f8d 973e 808f 453e
00000160: b18c 2d3e a702 96be e2be a6bd a197 173b
00000170: da00 2abe 536a 48be 4ffb 1b3e 5547 293e
00000180: cbba 313e d068 2f3e 0907 23be d391 5d3e
00000190: d56d 2a3e aee4 99be 206e 2a3e 2ffc 373d
000001a0: 3926 333e ff29 313e 694a ce3d 7cc4 70bd
000001b0: 4a23 893d 31d7 9dbe bdbb 8b3d deec 273e
000001c0: 627c 88be 794e 23be f259 4dbd 7a2b 8ebd
000001d0: 4874 613e 7ef6 0a3e 2af4 273e 3881 abbe
000001e0: 738d 54bd 3458 483e 62e2 a6be fa73 ed3d
000001f0: 1b7d 50be 3a12 c53d 50d5 81be 778a 103e
00000200: 108f b63e f25d 9d3e 2d50 dd3d 5b81 11bc
00000210: 7447 e93d 0f45 83be 8321 d8bd 6754 6cbe
00000220: 9cf6 0f3c f530 0bbf 5d0d 88be d8ff a23e
00000230: 2f47 ffbd 38bc d13e 2d5a 42be 6234 f2bd
00000240: 29c5 c2be 33be be3d 6f1b 043f 8b7c 8c3e
00000250: 050b 883e 90cb 113e e9d3 c5be 83d5 4fbe
00000260: 19aa 48be a3ca f0be 05f0 963e 113f 0cbd
00000270: 82c1 07be 8082 2d3e 1898 e93e cc44 00bf
00000280: 30ea c13e e54b e9be e5fa 633e 76be 763e
00000290: c215 9c3e 1f5a 9d3e e2b8 cfbd 7d1b 1bbe
000002a0: ce4c bebd fb6e adbe 6052 4b3e 5e9b b4be
000002b0: bae2 3e3e e208 bcbe f6b2 ce3e e9bb 703e
000002c0: 0ea3 8bbd fb50 a5be f827 6c3e 4061 abbc
000002d0: 10a8 373e 5ca9 473e 003d a13d 31c7 c3bd
000002e0: 1202 bdbd c328 ba3e bb43 76be e529 0e3f
000002f0: 19ca 8f3d b62b 883e bb76 a3be 9a55 883e
00000300: 936b dcbc 1705 b93e 8041 103f 9aa6 593e
00000310: 4c8b 50be 9996 c83e d9e7 26be c80f 71be
00000320: c3f6 91be f1b2 e9bd 93b9 93be 4d08 ddbe
00000330: 786f ffbd 0cd2 3e3e f91a 6dbd d358 f7be
00000340: c3d7 41bd 7eac 22bf d408 433e f085 773e
00000350: 1759 e3bd 94b7 b2be 750e b23d 834d cc3d
00000360: 529a 903e ab6f 503e 69d5 8e3e 27c7 88bd
00000370: a4ef 973e 65fc 81be dfd1 db3e a1ec d43e
00000380: 5dba a4be 56c2 d8ba 004c 17bf 3a45 02bf
00000390: e97e 233e c895 edbd e05a 92be 2b20 e03e
000003a0: 36ef 903d 936f 243e a993 37be 1bbd 123e
000003b0: 3480 543e 438e 943e d834 733e c2a5 18bf
000003c0: a776 fa3e 7d7c 003f b5a2 69be 7ee9 71be
000003d0: cdbf 7e3e bc0b de3c b377 6ebe 08e4 8e3e
000003e0: 7b6e 88be 7b5b 88be d283 febe 5e35 ecbd
000003f0: 9227 0a3f 933d 033e 78ff 29bd a125 833e

actor.4.bias f4 [4]
0.0046647014 -0.02189555 0.013507529 0.11050402
00000000: 5ada 983b 4c5e b3bc af4e 5d3c ee4f e23d

critic.0.weight f4 [128, 8]
-0.039340585 0.09826348 0.22106369 0.09558806 -0.6007682 -0.7071879 -0.3874873 0.03391943
-0.17617162 -0.41262102 -0.12976028 -0.44444886 0.43912718 0.5851692 0.18895912 -0.09678437
-0.42019323 -0.08911943 0.17268708 -0.002039221 -0.53813094 -0.29106143 0.17792241 0.07394772
-0.26883993 -0.18663077 -0.021846171 -0.08569919 -0.6479074 -0.31469378 0.12204157 0.29251808
-0.35052928 -0.29726952 -0.19525425 -0.57606494 0.088263385 0.06088446 0.15554984 0.25465456
0.1770511 0.10635292 -0.02137326 0.30458117 -0.11538539 -0.19625098 -0.22175601 -0.40239617
-0.54347926 0.013036184 0.30088654 0.09458867 0.2371818 0.5966809 0.119172476 -0.13148575
-0.45910984 -0.778448 0.0949914 -0.03564422 0.52865577 -0.36986864 0.05206094 -0.039540723
0.18326189 -0.68990725 -0.31414145 0.03598867 -0.018869597 -0.32331547 0.28838134 0.29127556
-0.19259788 0.09969467 0.08272681 -0.025457807 0.79443294 0.6346956 0.032609794 0.2670879
0.008056732 -0.049001362 -0.2573513 0.07407068 0.5139223 0.42957318 -0.22938174 -0.60793924
0.026057383 -0.43064663 0.27082983 -0.1088661 -0.5211311 -0.08313167 -0.37948462 -0.25310504
-0.4841679 0.058001354 -0.012925204 0.5692724 0.318853 -0.3093703 -0.050655775 -0.24716166
0.06864558 -0.24794935 -0.0095418 -0.38359618 0.04757941 0.435337 0.00019148756 -0.33080387
0.049692392 0.23747024 -0.048759904 0.3304882 -0.33313504 -0.22744437 -0.3323217 -0.16724332
-0.33107778 0.40168843 -0.6259144 0.048273835 -0.107689604 -0.022336688 0.50628334 -0.0043739034
-0.057663057 0.085901424 -0.23933677 -0.05987011 0.009988935 -0.23008314 0.07262877 -0.3638613
-0.18309334 -0.28492212 -0.041930877 -0.39276862 0.31004065 0.2550387 0.22650217 0.069292165
0.17667978 -0.02777883 -0.010369252 0.011597557 -0.4896425 -0.5369361 -0.24664159 -0.27354026
0.32846108 0.3846063 -0.4084199 -0.3050744 0.12168933 -0.056505438 -0.47110093 -0.21902712
-0.046240695 -0.045192335 -0.34095776 0.2175619 0.41549075 0.5730596 -0.12999342 0.08510873
-0.442898 0.23117921 -0.69411254 0.03894938 0.08705926 -0.14484118 -0.256778 -0.11416947
-0.25951263 0.13327318 -0.49642438 -0.34308612 0.36019447 -0.053209938 -0.25774962 0.30031055
-0.2683727 -0.046746165 -0.11677357 0.041572798 0.66512626 0.44239688 0.06223422 0.15378527
0.269262 -0.030737089 0.27809072 0.115447626 -0.2723039 -0.026630376 0.2917557 0.15285747
-0.11786378 -0.06835732 0.10320067 -0.03938078 -0.51928097 -0.19630894 0.13332143 0.07969351
-0.5418471 -0.13686162 -0.23504789 0.18108873 0.39087284 0.06594177 -0.065887235 0.06852734
-0.39237767 0.48571035 -0.57796186 0.10276391 0.092305936 -0.09782697 -0.41411537 0.023603456
-0.046945933 0.05078604 0.3640206 -0.11975209 -0.3702643 -0.3824008 0.1375622 -0.08539437
-0.33586922 0.40230986 -0.037972897 -0.32278538 -0.42230144 -0.2308967 0.23869391 -0.16352677
-0.16657338 -0.303439 0.091121964 -0.51260006 0.2752785 0.24524423 0.23858948 0.18580809
0.07240765 0.09555604 0.51375 -0.05876162 -0.4876956 -0.00011852158 -0.071341574 0.14666113
00000000: 9823 21bd 5d3e c93d 855e 623e acc3 c33d
00000010: f2cb 19bf 440a 35bf bc64 c6be 1aef 0a3d
00000020: 5566 34be 1043 d3be e1df 04be cd8e e3be
00000030: 47d5 e03e a6cd 153f 807e 413e e236 c6bd
00000040: 9123 d7be 3f84 b6bd e2d4 303e 74a4 05bb
00000050: f3c2 09bf 0106 95be 4b31 363e e771 973d
00000060: 63a5 89be 231c 3fbe bef6 b2bc 0f83 afbd
00000070: 42dd 25bf 8b1f a1be eef0 f93d eec4 953e
00000080: 9378 b3be b633 98be bbf0 47be fe78 13bf
00000090: 6fc3 b43d fc61 793d 7548 1f3e 1562 823e
000000a0: e24c 353e 8fcf d93d fa16 afbc 10f2 9b3e
000000b0: 2d4f ecbd 04f6 48be 0214 63be df06 cebe
000000c0: 7521 0bbf b895 553c cd0d 9a3e b4b7 c13d
000000d0: c9df 723e 14c0 183f b310 f43d 33a4 06be
000000e0: 7210 ebbe 5e48 47bf da8a c23d acff 11bd
000000f0: fc55 073f 6c5f bdbe da3d 553d 74f5 21bd
00000100: 01a9 3b3e c39d 30bf 26d7 a0be db68 133d
00000110: 6a94 9abc 9b89 a5be b8a6 933e 1222 953e
00000120: 6138 45be b82c cc3d ac6c a93d e48c d0bc
00000130: f55f 4b3f 697b 223f d991 053d bfbf 883e
00000140: 6200 043c a7b5 48bd 8dc3 83be 5eb2 973d
00000150: 6990 033f 04f1 db3e 0ce3 6abe e8a1 1bbf
00000160: 4b76 d53c b77d dcbe 35aa 8a3e 31f5 debd
00000170: d968 05bf f040 aabd cf4b c2be fc96 81be
00000180: dbe4 f7be d492 6d3d 3cc4 53bc d6bb 113f
00000190: b340 a33e c965 9ebe 6e7c 4fbd f217 7dbe
000001a0: 0e96 8c3d 6fe6 7dbe 3655 1cbc b866 c4be
000001b0: a1e2 423d 7ee4 de3e 0dca 4839 205f a9be
000001c0: 408a 4b3d 662b 733e 77b8 47bd c035 a93e
000001d0: ad90 aabe 2de7 68be 1226 aabe d541 2bbe
000001e0: 0783 a9be 1baa cd3e ed3b 20bf c9ba 453d
000001f0: 5e8c dcbd 6efb b6bc c99b 013f f652 8fbb
00000200: 1930 6cbd 16ed af3d b314 75be 5c3a 75bd
00000210: a1a8 233c ea9a 6bbe 64be 943d 074c babe
00000220: d27c 3bbe 50e1 91be b6bf 2bbd f818 c9be
00000230: a6bd 9e3e 6f94 823e 2ff0 673e 0de9 8d3d
00000240: 8beb 343e 6e90 e3bc cce3 29bc ae03 3e3c
00000250: 6cb2 fabe a574 09bf 9d8f 7cbe 780d 8cbe
00000260: 0d2c a83e 1eeb c43e 6a1c d1be b632 9cbe
00000270: 4138 f93d 3f72 67bd 2434 f1be a548 60be
00000280: e266 3dbd 991b 39bd 0492 aebe 8cc8 5e3e
00000290: 34bb d43e 09b4 123f ff1c 05be 7c4d ae3d
000002a0: 87c3 e2be 3eba 6c3e 5cb1 31bf 6389 1f3d
000002b0: 204c b23d 3f51 14be 6878 83be afd1 e9bd
000002c0: d7de 84be c478 083e 562b febe fca8 afbe
000002d0: 696b b83e aaf2 59bd c2f7 83be 4ec2 993e
000002e0: 2668 89be e878 3fbd fb26 efbd 3d48 2a3d
000002f0: b745 2a3f d881 e23e 4fe9 7e3d e379 1d3e
00000300: b5dc 893e 59cc fbbc e861 8e3e ce6f ec3d
00000310: 6b6b 8bbe f227 dabc 0161 953e ab86 1c3e
00000320: 9162 f1bd ecfe 8bbd df5a d33d be4d 21bd
00000330: 99ef 04bf 3605 49be 6a85 083e 5a36 a33d
00000340: 7eb6 0abf 7425 0cbe 65b0 70be 536f 393e
00000350: 7c20 c83e 7b0c 873d e3ef 86bd 1058 8c3d
00000360: bae5 c8be 07af f83e 4ff5 13bf e375 d23d
00000370: e50a bd3d 8259 c8bd ee06 d4be 095c c13c
00000380: 614a 40bd 0605 503d e860 ba3e 9540 f5bd
00000390: 4893 bdbe 0aca c3be 1bdd 0c3e 3ee3 aebd
000003a0: 0df7 abbe 8ffb cd3e 7889 1bbd 2044 a5be
000003b0: e537 d8be 2f70 6cbe 2d6c 743e 9073 27be
000003c0: 3692 2abe 5b5c 9bbe 279e ba3d c239 03bf
000003d0: 4ef1 8c3e 4e21 7b3e cd50 743e 7a44 3e3e
000003e0: 764a 943d e3b2 c33d 1f85 033f 06b0 70bd
000003f0: 3db3 f9be ca8e f8b8 881b 92bd 562e 163e

critic.0.bias f4 [128]
-0.04396335 -0.018679343 0.17817992 0.049511272 -0.013795735 0.18342675 0.35005224 0.10724846
0.22227426 -0.14473556 0.06320429 -0.28609473 0.3396522 -0.09414573 0.08446351 0.23802729
0.4466731 0.02054713 0.043809436 0.29953268 0.3366589 -0.21039794 0.24804546 0.0520897
0.3268423 0.1908082 0.031187924 0.05939987 -0.095082246 0.24573538 -0.11120086 -0.15242587
-0.038190033 0.3107431 0.2786417 0.45499247 -0.18472974 0.3426999 0.1847402 0.06979543
-0.13292184 0.40469244 0.40243143 0.14574225 0.4243952 -0.085821435 -0.13052891 -0.36750266
0.17505302 -0.2787485 0.07403194 -0.051505648 -0.016149309 0.18146393 -0.094175026 0.27566433
-0.3156681 -0.057375442 -0.21548483 -0.16641827 0.27664387 -0.14102744 0.43358016 -0.066526726
-0.06447623 0.022483831 -0.103249714 0.23535079 -0.034745134 0.36510214 -0.037843164 0.019461583
-0.15134953 0.38498405 -0.34962198 0.26676562 0.35556668 -0.09196537 -0.21279459 0.23837493
0.0030913947 0.119566076 -0.1520905 0.3563823 0.3662898 0.22018278 0.33280453 0.24887893
0.02990495 0.03489427 0.47608712 -0.38525006 -0.034981932 -0.027274704 -0.17164563 0.24626957
0.3394531 -0.3671721 0.35756132 0.06312811 0.5036729 -0.020997552 0.1256009 0.4039101
0.03291606 0.40218303 0.3114003 0.1505811 0.092715316 -0.18384472 -0.052545577 0.07884308
0.18100098 0.1914991 0.017088437 -0.12531273 -0.016806472 0.08729445 0.41807595 0.39414856
0.1367324 -0.22863796 -0.031937174 0.40949163 0.07833467 0.10226321 -0.03839206 0.030622605
00000000: ea12 34bd 6c05 99bc cc74 363e 55cc 4a3d
00000010: 8207 62bc 39d4 3b3e 0c3a b33e 15a5 db3d
00000020: dd9b 633e 8f35 14be 4071 813d 027b 92be
00000030: e5e6 ad3e 7acf c0bd 34fb ac3d 6dbd 733e
00000040: 56b2 e43e 7452 a83c 8671 333d 595c 993e
00000050: 8e5e ac3e 8f72 57be a1ff 7d3e 025c 553d
00000060: e057 a73e 3a63 433e d17d ff3c 474d 733d
00000070: 7bba c2bd 0ea2 7b3e 47bd e3bd 8715 1cbe
00000080: 276d 1cbd b819 9f3e 20aa 8e3e c6f4 e83e
00000090: cb29 3dbe 5c76 af3e 892c 3d3e e8f0 8e3d
000000a0: aa1c 08be d933 cf3e 7e0b ce3e 753d 153e
000000b0: 544a d93e 26c3 afbd 5fa9 05be 4f29 bcbe
000000c0: 1941 333e 20b8 8ebe 0f9e 973d 96f7 52bd
000000d0: 8e4b 84bc aed1 393e d6de c0bd e023 8d3e
000000e0: 409f a1be 8302 6bbd 0ea8 5cbe 8d69 2abe
000000f0: 44a4 8d3e 7f69 10be 38fe dd3e 2a3f 88bd
00000100: 1d0c 84bd 0330 b83c 9674 d3bd ccff 703e
00000110: ea50 0ebd abee ba3e 6f01 1bbd e66d 9f3c
00000120: 5ffb 1abe a11c c53e a701 b3be 8195 883e
00000130: d60c b63e 5758 bcbd d3e6 59be 8f18 743e
00000140: ff98 4a3b 0fdf f43d 9dbd 1bbe be77 b63e
00000150: 568a bb3e 9877 613e 5b65 aa3e 1eda 7e3e
00000160: 3afb f43c 4bed 0e3d b1c1 f33e 7f3f c5be
00000170: 3749 0fbd 336f dfbc dfc3 2fbe 172e 7c3e
00000180: cccc ad3e fbfd bbbe 4712 b73e 4f49 813d
00000190: b5f0 003f 0f03 acbc 869d 003e 4ecd ce3e
000001a0: fed2 063d efea cd3e dc6f 9f3e ef31 1a3e
000001b0: 87e1 bd3d ca41 3cbe 083a 57bd 7b78 a13d
000001c0: 5258 393e 5718 443e 0dfd 8b3c fb51 00be
000001d0: baad 89bc 6fc7 b23d 0d0e d63e d7cd c93e
000001e0: 9403 0c3e 1220 6abe 8ed0 02bd e3a8 d13e
000001f0: ed6d a03d 606f d13d fe40 1dbd 42dc fa3c

critic.2.weight f4 [64, 128]
0.15149432 0.24875431 0.1941667 -0.25188777 0.18312639 0.23976798 0.004993493 -0.29027593
-0.06324158 0.55098546 0.36022666 -0.61791044 0.26790172 0.2518725 0.16715826 0.19641164
0.21092029 0.060674142 0.19060823 0.19713867 -0.09877844 0.025980748 0.18641582 0.09560212
0.009629476 0.1123571 0.18280037 0.14916909 0.025089419 0.19743259 0.24002378 -0.008793998
-0.20834482 0.1607126 0.22901824 0.09753121 0.062192384 0.06155118 -0.2084831 0.024090124
0.013844132 -0.07562929 0.15039346 0.18198837 -0.09510082 0.19698699 0.13903886 0.060883444
0.11432772 -0.21736026 0.26767942 0.2307834 0.068247 0.1279264 0.016377563 0.09610461
0.0207044 0.051972218 0.15284745 0.10533837 0.17431152 0.06860586 0.19078285 0.08521554
0.12543839 0.22688796 0.4794137 0.14342923 0.22223788 0.14827435 0.04790014 0.06795553
0.110623635 0.0917772 -0.08296082 0.13590337 0.15263616 0.04490488 0.06686007 -0.19268356
0.19867645 -0.40394768 0.23763245 -0.20039774 0.0034433496 0.14743565 0.017073683 0.3033823
0.00090392 0.20364632 0.18551725 0.20002426 -0.014244246 0.13556822 -0.0900457 -0.005047597
0.26482812 0.022583976 0.070725314 -0.08549067 0.058838457 0.1154061 0.053284936 0.10966528
-0.4343458 -0.008850374 0.16503648 0.21954352 0.14657722 -0.5575024 0.19103931 0.4121122
0.18260907 0.1639453 0.23936209 -0.28989756 0.074911 -0.43590543 0.07783527 0.023263915
0.047073953 0.006971697 -0.4347672 0.1494854 0.16326341 0.1888057 0.12193854 -0.08057202
0.13752384 0.112297766 0.1449178 -0.2882169 0.07868307 0.149332 -0.090129435 -0.27421874
-0.028835109 0.36104646 0.29662532 -0.6376172 0.20240682 0.1479267 0.08834905 0.285646
0.20333523 -0.023505783 0.14032602 0.27891535 0.04084066 0.1955131 0.16136044 0.108615875
0.033178974 0.072735466 0.15610592 0.3022797 -0.034373634 0.21271728 0.015763244 0.030003283
-0.18085945 0.180995 0.27842847 0.22684926 0.107810944 0.22228655 -0.229402 -0.017857919
0.11382307 0.06659395 0.28226304 0.2701764 0.096006736 0.15769818 0.038380835 -0.0722557
0.114717394 -0.24573313 0.20378423 0.12564847 0.069033414 0.19457807 -0.023311485 0.1446219
0.014597301 0.024998117 0.08105367 0.21418218 0.08809656 -0.053761177 0.27441305 0.111715764
0.23220725 0.17366108 0.3731637 0.18057278 0.15252423 0.17465231 0.14818884 -0.05619677
0.085043885 0.2965021 -0.121514246 0.16492952 0.24787596 0.09723268 0.007899926 -0.09606073
0.07254996 -0.29948378 0.17549978 -0.23372252 0.18316521 0.1887089 0.24663267 0.308845
-0.1080823 0.28322366 0.3012631 0.13214742 0.182146 0.059252717 -0.10435539 0.14112045
0.16923177 -0.06857051 0.22819336 -0.031675026 0.26566115 -0.047256295 0.17096195 0.14722519
-0.41964582 0.16967782 0.25025555 0.2788724 0.22490974 -0.4612718 0.014184482 0.23759896
0.12592712 0.23517086 0.27364987 -0.35880375 0.10980621 -0.29662943 0.29605812 0.14226422
0.006236414 0.08038587 -0.42353228 0.14978787 0.17778446 0.1300908 -0.011766862 -0.14469203
00000000: 5421 1b3e 73b9 7e3e a3d3 463e 6ff7 80be
00000010: 7c85 3b3e bd85 753e 75a0 a33b 0c9f 94be
00000020: cd84 81bd 620d 0d3f a16f b83e 612f 1ebf
00000030: 6a2a 893e 6ff5 803e 892b 2b3e 2220 493e
00000040: 7dfb 573e 7385 783d ce2e 433e b8de 493e
00000050: 5a4c cabd 94d5 d43c cae3 3e3e 0bcb c33d
00000060: f3c4 1d3c 7b1b e63d 0530 3b3e c8bf 183e
00000070: 5388 cd3c c52b 4a3e cbc8 753e b314 10bc
00000080: 5858 55be d891 243e c283 6a3e 71be c73d
00000090: 71bd 7e3d 171d 7c3d 987c 55be a758 c53c
000000a0: 80d2 623c 87e3 9abd be00 1a3e 295b 3a3e
000000b0: 38c4 c2bd f5b6 493e 3460 0e3e eb60 793d
000000c0: a724 ea3d b093 5ebe 470d 893e 7c52 6c3e
000000d0: 15c5 8b3d 23ff 023e 3d2a 863c 7ed2 c43d
000000e0: 469c a93c d2e0 543d 0b84 1c3e a5bb d73d
000000f0: b87e 323e 3b81 8c3d 945c 433e 7c85 ae3d
00000100: ec72 003e 5155 683e b675 f53e 1ddf 123e
00000110: 5492 633e 3bd5 173e f032 443d 452c 8b3d
00000120: a58e e23d aff5 bb3d 5de7 a9bd 412a 0b3e
00000130: a74c 1c3e 2eee 373d efed 883d d74e 45be
00000140: d771 4b3e 3bd2 cebe ec55 733e 1135 4dbe
00000150: d2a9 613b 5ff9 163e 1cde 8b3c ed54 9b3e
00000160: 0bf5 6c3a a988 503e 3cf8 3d3e 29d3 4c3e
00000170: b360 69bc 65d2 0a3e e169 b8bd 5066 a5bb
00000180: 8d97 873e 0802 b93c 6fd8 903d bb15 afbd
00000190: 9800 713d 095a ec3d 4e41 5a3d 3198 e03d
000001a0: 9362 debe 2901 11bc 53ff 283e 04d0 603e
000001b0: 5718 163e 7ab8 0ebf cf9f 433e 5f00 d33e
000001c0: dffd 3a3e 47e1 273e 561b 753e 746d 94be
000001d0: f06a 993d ff2e dfbe 1968 9f3d f793 be3c
000001e0: 9ed0 403d d572 e43b ce99 debe b312 193e
000001f0: 862e 273e 4856 413e eaba f93d f102 a5bd
00000200: 0dd3 0c3e 5ffc e53d 5565 143e 2a91 93be
00000210: 9724 a13d 7dea 183e c895 b8bd 6666 8cbe
00000220: 9b37 ecbc 15db b83e 46df 973e e13a 23bf
00000230: bc43 4f3e 197a 173e 59f0 b43d 3140 923e
00000240: 1c37 503e 338f c0bc a0b1 0f3e fecd 8e3e
00000250: 8948 273d 9634 483e ac3b 253e 0072 de3d
00000260: ade6 073d 55f6 943d 3bda 1f3e 68c4 9a3e
00000270: 5ecb 0cbd 8fd2 593e eb21 813c 72c9 f53c
00000280: 3833 39be c156 393e 2d8e 8e3e 2c4b 683e
00000290: fccb dc3d 169f 633e 5ce8 6abe c54a 92bc
000002a0: 121c e93d 6962 883d c884 903e 9054 8a3e
000002b0: 2e9f c43d a27b 213e 3935 1d3d ccfa 93bd
000002c0: f4f0 ea3d 77a1 7bbe d0ac 503e fea9 003e
000002d0: 6461 8d3d 793f 473e baf7 bebc c317 143e
000002e0: 8529 6f3c dac8 cc3c 77ff a53d 9352 5b3e
000002f0: f86b b43d ae34 5cbd de7f 8c3e 3ccb e43d
00000300: bdc7 6d3e 36d4 313e 500f bf3e 12e8 383e
00000310: 502f 1c3e 0ed8 323e d1be 173e 962e 66bd
00000320: 7d2b ae3d 20cf 973e 76dc f8bd 49e3 283e
00000330: 32d3 7d3e ed21 c73d b16e 013c 7dbb c4bd
00000340: 1395 943d f055 99be 37b6 333e f554 6fbe
00000350: a98f 3b3e e83c 413e 468d 7c3e ef20 9e3e
00000360: 415a ddbd b102 913e 283f 9a3e a751 073e
00000370: 7b84 3a3e fab2 723d 47b8 d5bd e181 103e
00000380: 184b 2d3e b26e 8cbd 85ab 693e acbd 01bd
00000390: bd04 883e d18f 41bd a610 2f3e 33c2 163e
000003a0: d1db d6be 06c0 2d3e 7f21 803e 5dc8 8e3e
000003b0: bd4e 663e d12b ecbe 0866 683c 244d 733e
000003c0: 0af3 003e a1d0 703e d61b 8c3e 20b5 b7be
000003d0: 14e2 e03d d0df 97be ee94 973e b6ad 113e
000003e0: d55a cc3b 59a1 a43d 39d9 d8be fe61 193e
000003f0: 210d 363e 8636 053e ccc9 40bc 262a 14be

critic.2.bias f4 [64]
0.15729769 0.27089584 -0.062273286 0.050426845 0.039469156 0.017438313 0.08285023 -0.012383283
0.03269703 -0.01735975 -0.009473383 0.19918258 0.016758911 0.020967599 0.11011681 0.15489292
0.093876444 0.10232687 -0.04071876 0.05028641 0.07599106 -0.0017238185 -0.035515085 0.009189078
0.08657995 -0.0717157 0.17498823 0.061081406 0.15086585 -0.0040801354 -0.05220726 0.007311603
0.0707202 0.08916045 0.057715014 0.090642475 -0.07945055 0.103722565 0.10569922 0.0072438023
0.002783185 -0.0721049 0.08836047 0.27323928 0.10800847 -0.045705136 0.09496332 0.058526333
-0.118724585 0.021161592 0.0014176246 -0.0069207554 0.07776893 0.10815274 -0.08571415 -0.05551107
0.0825051 -0.09224327 0.23011804 0.025714628 0.20199187 0.07220547 0.026106691 0.10500405
00000000: a512 213e dcb2 8a3e 4612 7fbd 618c 4e3d
00000010: 69aa 213d cbda 8e3c 62ad a93d 41e3 4abc
00000020: 52ed 053d 0936 8ebc 4036 1bbc 85f6 4b3e
00000030: fc49 893c 3ec4 ab3c ec84 e13d 409c 1e3e
00000040: 4b42 c03d c090 d13d b7c8 26bd 1ff9 4d3d
00000050: 33a1 9b3d c0f1 e1ba 4478 11bd c98d 163c
00000060: d450 b13d aedf 92bd 1d30 333e 7f30 7a3d
00000070: 947c 1a3e a8b2 85bb 48d7 55bd 2c96 ef3b
00000080: c1d5 903d c199 b63d 9466 6c3d c3a2 b93d
00000090: f8b6 a2bd 7f6c d43d d578 d83d 6b5d ed3b
000000a0: 1966 363b bcab 93bd 56f6 b43d 05e6 8b3e
000000b0: 8b33 dd3d 4f35 3bbd 217c c23d 4fb9 6f3d
000000c0: e025 f3bd 135b ad3c 97cf b93a 81c7 e2bb
000000d0: 5145 9f3d 2f7f dd3d e68a afbd 935f 63bd
000000e0: 6ff8 a83d 0aea bcbd 10a4 6b3e 7ca7 d23c
000000f0: f5d6 4e3e 76e0 933d b3dd d53c 5d0c d73d

critic.4.weight f4 [64, 64]
-0.019292036 -0.08047547 0.022921821 0.09872383 0.02966071 -0.012722928 0.072978705 -0.10621388
-0.020142928 0.10249503 0.058359098 -0.013765197 -0.1022086 0.035826944 0.01657341 0.08803593
0.123715684 0.08042017 0.071709335 -0.05103382 0.032240257 0.0101878345 0.011252105 -0.1262559
-0.015263191 0.04836677 -0.04509837 -0.012247596 0.027083945 -0.06027326 0.09549132 -0.06408166
-0.09184394 -0.07710295 -0.025899626 0.06359511 0.0009193076 -0.028251082 -0.071186565 -0.075147204
-0.028684122 0.006859639 0.025692409 -0.05391259 0.0077181244 -0.09440127 -0.08334484 -0.09626936
-0.09529027 -0.051783193 -0.060407113 0.006936488 0.09136907 -0.08990312 0.09039754 -0.086427376
0.0099795805 -0.036210503 -0.13732369 0.044369623 -0.051065456 0.09892411 -0.050449375 -0.10555378
0.05767918 -0.1294275 0.024064198 -0.04836039 -0.019366805 -0.05584988 -0.013844575 -0.06842014
0.06934394 -0.048569605 0.05194808 0.01161235 -0.08986096 -0.063375816 -0.024801046 0.06677315
0.061789922 -0.055825453 -0.051523592 -0.1271853 -0.1050265 -0.03126441 -0.121712714 -0.10430272
0.06110606 -0.1053091 0.079969764 0.07947001 0.015336217 0.09747104 0.06441751 0.06575227
0.09210913 -0.11522815 -0.039186556 0.06033751 0.11242396 0.08239567 -0.040424757 0.010251243
0.064141184 -0.061071515 -0.09022314 -0.067075305 0.010117623 0.06710966 0.012283274 -0.09528809
-0.050510243 0.097031206 0.11501175 -0.065783694 0.1032009 -0.03435768 -0.10262641 0.11363222
0.011664047 0.120274514 -0.0408473 -0.07757825 -0.056989435 -0.08844156 -0.044176575 -0.052859258
0.13241354 0.20477332 0.0113979755 0.16279817 0.46925652 0.16791311 0.21648291 0.13269417
-0.004720986 -0.08513611 0.27031714 -0.3890224 0.28481477 0.3639073 0.2326537 0.25722367
0.20832068 0.20005484 0.2800035 0.12195155 0.23052827 -0.030230701 0.04763447 0.20996016
0.30956304 -0.0349171 -0.09482006 0.29468054 0.2136701 -0.11622093 0.21283427 0.16767488
0.2497788 0.38347834 0.14465132 0.4495776 0.27358663 0.17266838 0.28136754 0.2244625
0.095648386 0.22370993 0.19700007 -0.65505433 0.035893235 -0.0027599763 0.3668285 -0.09400319
-0.4358743 0.24574819 0.14694554 0.20186639 0.28086883 0.21079661 -0.036066707 0.081663504
0.2578636 0.0055258805 0.2505009 0.2629321 0.10051564 0.2428924 0.21678677 0.34205052
0.07694654 0.1955266 0.0995481 0.34304893 0.43137336 0.1655958 0.10435685 -0.042065535
0.11183514 0.10736804 0.21585213 -0.32427442 0.21087527 0.32061073 0.27603862 0.27368367
0.19903116 0.15253583 0.27416626 0.31818116 0.27451986 0.1211838 -0.04863289 0.1507968
0.21315962 0.029572982 -0.24883604 0.35212123 0.20774522 0.09646674 0.2594861 0.29924843
0.2927646 0.38173637 0.18874528 0.5759929 0.3662764 0.16750301 0.2075553 0.18729824
0.29250222 0.368072 0.24709366 -0.37481317 0.25171992 -0.018954536 0.21080911 0.04567457
-0.36250246 0.23006168 0.25768778 0.091548435 0.26183406 0.30395386 0.07828875 0.009637344
0.22512344 -0.06608795 0.06885324 0.42348906 0.060982574 0.23625906 0.13493368 0.3324786
00000000: 550a 9ebc 53d0 a4bd 8bc6 bb3c b82f ca3d
00000010: 04fb f23c d473 50bc dc75 953d aa86 d9bd
00000020: c802 a5bc eae8 d13d f309 6f3d 6c87 61bc
00000030: be52 d1bd 46bf 123d f6c4 873c 2f4c b43d
00000040: a65e fd3d 55b3 a43d 58dc 923d d708 51bd
00000050: 5c0e 043d e0ea 263c c05a 383c 3a49 01be
00000060: 7712 7abc 3c1c 463d 12b9 38bd 24aa 48bc
00000070: 26df dd3c 18e1 76bd f490 c33d 3f3d 83bd
00000080: ad18 bcbd 27e8 9dbd 742b d4bc 273e 823d
00000090: b0fd 703a d06e e7bc 43ca 91bd c7e6 99bd
000000a0: f7fa eabc d3c6 e03b e378 d23c 73d3 5cbd
000000b0: 52e8 fc3b 7455 c1bd b3b0 aabd df28 c5bd
000000c0: 8c27 c3bd 9d1a 54bd 736d 77bd 7b4b e33b
000000d0: b51f bb3d 211f b8bd 5822 b93d d600 b1bd
000000e0: 6581 233c 7751 14bd 959e 0cbe ecbc 353d
000000f0: 032a 51bd b998 ca3d 01a4 4ebd 952c d8bd
00000100: 0141 6c3d a488 04be 4822 c53c 8b15 46bd
00000110: 22a7 9ebc d8c2 64bd 5bd4 62bc dc1f 8cbd
00000120: 3204 8e3d ecf0 46bd 83c7 543d ba41 3e3c
00000130: 0609 b8bd 2ecb 81bd 902b cbbc 5cc0 883d
00000140: 6e17 7d3d 3ba9 64bd 670a 53bd dd3c 02be
00000150: 2218 d7bd 1c0f 00bd 8444 f9bd aa9c d5bd
00000160: 594a 7a3d 4cac d7bd 30c7 a33d 2cc1 a23d
00000170: c244 7b3c e69e c73d 54ed 833d 20a9 863d
00000180: b6a3 bc3d bcfc ebbd 1582 20bd 7724 773d
00000190: 883e e63d 10bf a83d 6e94 25bd d4f4 273c
000001a0: 745c 833d 2026 7abd e9c6 b8bd c75e 89bd
000001b0: 63c4 253c ca70 893d c93f 493c 6726 c3bd
000001c0: d4e3 4ebd 4cb8 c63d 488b eb3d 9ab9 86bd
000001d0: fe5a d33d a3ba 0cbd cc2d d2bd 02b8 e83d
000001e0: 8f1a 3f3c 7c52 f63d 804f 27bd 58e1 9ebd
000001f0: c16d 69bd d920 b5bd 7ff2 34bd f382 58bd
00000200: 6a97 073e 19b0 513e 93be 3a3c 90b4 263e
00000210: 6442 f03e 6af1 2b3e b2ad 5d3e fbe0 073e
00000220: 80b2 9abb d75b aebd 0267 8a3e f22d c7be
00000230: 3ed3 913e 0f52 ba3e c63c 6e3e d2b2 833e
00000240: 0452 553e 2ddb 4c3e 9e5c 8f3e bcc1 f93d
00000250: 9a0f 6c3e 60a6 f7bc 5d1c 433d ccff 563e
00000260: 0c7f 9e3e 3c05 0fbd 0531 c2bd 5ee0 963e
00000270: 56cc 5a3e 3d05 eebd 3af1 593e f7b2 2b3e
00000280: 04c6 7f3e 4657 c43e 7a1f 143e 092f e63e
00000290: 8c13 8c3e fbcf 303e 680f 903e 7fd9 653e
000002a0: 4de3 c33d 3714 653e 63ba 493e a4b1 27bf
000002b0: c904 133d b8e0 34bb f2d0 bb3e bf84 c0bd
000002c0: eb2a dfbe 6aa5 7b3e e478 163e 10b6 4e3e
000002d0: 0ace 8f3e 11db 573e afba 13bd 323f a73d
000002e0: b306 843e 7212 b53b a741 803e 099f 863e
000002f0: 25db cd3d c9b8 783e 5afd 5d3e 3f21 af3e
00000300: 2696 9d3d 2038 483e e0df cb3d 1ca4 af3e
00000310: f8dc dc3e f291 293e 0bb9 d53d e94c 2cbd
00000320: d209 e53d c6e3 db3d 5708 5d3e 4c07 a6be
00000330: b0ef 573e 1727 a43e ef54 8d3e 4420 8c3e
00000340: d3ce 4b3e 5a32 1c3e 855f 8c3e a4e8 a23e
00000350: de8d 8c3e 362f f83d 4833 47bd 7a6a 1a3e
00000360: 8446 5a3e 0a43 f23c e0ce 7ebe 3c49 b43e
00000370: 2abb 543e 5b90 c53d 5ddb 843e 1737 993e
00000380: 3ee5 953e f372 c33e 7146 413e 4574 133f
00000390: 9588 bb3e e985 2b3e 6089 543e 1ccb 3f3e
000003a0: dac2 953e ef73 bc3e 1f06 7d3e 83e7 bfbe
000003b0: 6fe1 803e 8b46 9bbc 58de 573e 4215 3b3d
000003c0: ec99 b9be 4a95 6b3e a7ef 833e bf7d bb3d
000003d0: 1d0f 863e d79f 9b3e da55 a03d f3e5 1d3c
000003e0: c286 663e 1e59 87bd ed02 8d3d 8fd3 d83e
000003f0: ddc8 793d e5ed 713e 0e2c 0a3e a33a aa3e

critic.4.bias f4 [64]
-0.11585524 -0.093312874 -0.095472746 -0.000817575 0.0006805413 0.17529404 -0.04174848 -0.040188245
0.08184211 -0.120981604 0.083763 0.090357944 -0.0206106 -0.09426412 0.35366523 -0.049873006
0.42790633 0.0028365634 -0.09674632 -0.12197688 0.4715595 -0.11576869 0.066671975 0.062282242
0.27561408 -0.037639096 0.005797303 -0.037152015 -0.06044644 0.013911424 -0.00989327 0.4509795
0.031160554 0.106604874 0.24699022 0.10258891 0.13266455 -0.11107387 0.37973595 0.11037434
0.08186888 -0.10009807 -0.020854527 -0.08315192 0.021056283 -0.01973878 0.056701247 0.47530916
0.12549469 0.012489521 -0.0048254104 0.13749889 0.32954726 0.4058113 -0.025321923 -0.0063158753
0.10312416 -0.06479064 -0.12996818 0.09584627 -0.02433148 -0.05702466 0.06081551 -0.031353388
00000000: 8345 edbd d21a bfbd 3787 c3bd 8852 56ba
00000010: 5b66 323a 4880 333e 7400 2bbd 6e9c 24bd
00000020: d69c a73d 34c5 f7bd f08b ab3d 960d b93d
00000030: 90d7 a8bc 8c0d c1bd 9c13 b53e a347 4cbd
00000040: 8a16 db3e a3e5 393b ef22 c6bd 04cf f9bd
00000050: 3f70 f13e 2318 edbd 518b 883d aa1b 7f3d
00000060: 4a1d 8d3e 742b 1abd 4df7 bd3b b62c 18bd
00000070: b096 77bd beec 633c 6217 22bc c9e6 e63e
00000080: 6b44 ff3c a853 da3d 01eb 7c3e 221a d23d
00000090: 37d9 073e b27a e3bd c06c c23e f10b e23d
000000a0: dfaa a73d 3800 cdbd 1dd7 aabc 8e4b aabd
000000b0: 3a7e ac3c 39b3 a1bc 913f 683d b95b f33e
000000c0: ae81 003e d9a0 4c3c 7a1e 9ebb 82cc 0c3e
000000d0: 6bba a83e 80c6 cf3e ec6f cfbc 67f5 cebb
000000e0: c232 d33d f4b0 84bd 6116 05be 0d4b c43d
000000f0: d052 c7bc b192 69bd af19 793d 696c 00bd

critic.6.weight f4 [1, 64]
0.006839873 0.003995129 -0.2699466 -0.2647267 -0.3675199 0.36150435 -0.34052524 0.1810283
-0.2834203 -0.10660423 0.030244205 -0.3525305 -0.3023961 -0.34187686 0.591915 0.035688724
0.5607621 0.13681524 -0.020631012 0.11887361 0.59171414 -0.2817942 -0.36927465 -0.23784478
0.35728553 -0.07077496 -0.33575386 -0.02511953 -0.2909308 -0.37535012 -0.13112535 0.64651626
0.103808954 -0.31341726 0.43527848 0.1131606 -0.32071745 -0.101121515 0.6417896 -0.33186257
-0.29257682 -0.021408856 0.0740277 -0.4063386 -0.2542139 -0.2937995 0.10921527 0.6125053
-0.32035878 -0.27850553 0.11002547 -0.37517235 0.5539288 0.4753177 -0.27537996 0.054749846
-0.31592458 -0.32044584 -0.29359952 0.011939648 -0.030127347 -0.049433388 0.010194656 0.05206306
00000000: 0321 e03b 92e9 823b 7136 8abe 428a 87be
00000010: 912b bcbe 1917 b93e 5359 aebe 7c5f 393e
00000020: 771c 91be 5253 dabd b2c2 f73c e17e b4be
00000030: a9d3 9abe 7c0a afbe be87 173f 572e 123d
00000040: 1b8e 0f3f 4b19 0c3e 5e02 a9bc 0274 f33d
00000050: 947a 173f 5447 90be 9111 bdbe 958d 73be
00000060: 21ee b63e 76f2 90bd eee7 abbe 79c7 cdbc
00000070: e2f4 94be e42d c0be b945 06be 1782 253f
00000080: ca99 d43d 3a78 a0be d2dc de3e bfc0 e73d
00000090: 1435 a4be cc18 cfbd 534c 243f e4e9 a9be
000000a0: a1cc 95be a061 afbc d69b 973d 9d0b d0be
000000b0: 5328 82be e36c 96be 41ac df3d 26cd 1c3f
000000c0: 1106 a4be 4798 8ebe 0955 e13d 9716 c0be
000000d0: 47ce 0d3f d75c f33e 9afe 8cbe 6041 603d
000000e0: dec0 a1be 7a11 a4be ad52 96be 839e 433c
000000f0: a0cd f6bc aa7a 4abd 7d07 273c 1340 553d
